best_pendulum_policy.pt (torch, 72970 bytes, 5 tensors)

module.0.weight f4 [128, 6]
00000000: 0677 ffbb 9373 fb3c 115b c93d edba e3bc
00000010: a232 3f3e b44f b53d b761 c8bd aa72 8abc
00000020: 7781 3ebe ec73 2d3e e57b b5bb ffaa e0bd
00000030: 053f 193c b085 203c 1321 3fbe c828 71be
00000040: ac49 1abc 3ebe 60be 3649 49be 0582 bbbd
00000050: ace6 fc3d 47a5 a83b 974b 14be d909 d8bd
00000060: 93c0 96be 3846 fbbd 1c4c b8bd 09bb 663b
00000070: 6f17 9e3d ff2c 913d aa8c d43d c6e1 05be
00000080: a88a 72bd ffb4 07bd 3564 5bbd e5cc b23d
00000090: dea6 8dbe 4fcd a3bd e246 893d 69ec 2dbd
000000a0: 90d1 2abe 82fa bc3d 41eb a53d 382f 6f3d
000000b0: 7377 a33d edd4 46be eb4d 75bc 78a5 a43d
000000c0: 23b1 5fbd 6f50 203e 85fd a5bd dfa3 fa3d
000000d0: 7178 1c3c a91f 113d 6d0a 0f3e 1844 e9bb
000000e0: 83be a13d 4c2d 4a3d 6b3c 063e e543 043d
000000f0: 6e4d febc 3d86 813e 635f e93c fbf7 db3d
00000100: 64db 3abd 37f1 38bd 061e 2a3d a26d 903d
00000110: a001 703e 2308 5d3e 9c08 123e 5c42 0c3e
00000120: b6cc 3d3e ae10 83bd e3fc 57bd 5151 913d
00000130: 486a 5bbe 4619 2d3c c93f 4e3d 9b8f 673c
00000140: aa59 33be 5cbb 1ebe 61c3 cbbd 025e 11bd
00000150: 3fe7 743d 436a 08bc a362 a7bd facc ae3c
00000160: 240a c2bc 0a21 b23c 2c79 f73d d0a7 83bd
00000170: d9b7 4f3d 574e 35be d854 753e 7420 6abd
00000180: aee2 e93d c2b2 42be a0a3 963d 653d 273d
00000190: b1c5 053e 4cd3 b4bd a6dd 953c 38eb b8bd
000001a0: b914 08bd 7adb 08be 8cac 793c 6362 c53c
000001b0: 63e5 babe 871f 68bd 7b3a e3bd 75e3 5b3e
000001c0: cd7d a93c d769 a33d 9c1e 04be 459b 62be
000001d0: 36b8 893d 100c 6fbc 34d9 833e 0441 e43d
000001e0: 086f abbb 4586 c1bd 5178 06be 3496 8f3a
000001f0: 7432 7f3d 7560 893d fc8f 813c 4f90 6bbe
00000200: f7b7 163e 9e03 11be b35a 17be 3433 2c3d
00000210: 6e40 ebbd ad6e 94bd 5295 f23d ea50 c43c
00000220: d442 1b3e c3a5 96bd 2366 753d 2c16 8fbc
00000230: 7e5f 84be 13e6 24be 42e7 c3bd b80d de3d
00000240: 374f f8bd dc70 e6bd 0ce1 213d 7a47 a53c
00000250: cf32 103d c5e8 77be ed4b 413e a056 17bd
00000260: b08c 3e3e 0954 42bd e786 26bd cb80 70be
00000270: ad62 5abd 97a7 d33c 97df 313e 0d0a f4bd
00000280: cfe8 c53d 7a14 4abd 2832 8ebe 3b96 acbd
00000290: 7f46 0abe 10b1 99bd a601 a83d 297d 00be
000002a0: c50a d8bd dec6 233e c13f 2fbe 0281 98bd
000002b0: 39d8 72be b0eb 823d dfd9 083c 6877 47be
000002c0: 7362 a53c baad a33b 1113 83bd d5c4 113e
000002d0: 0b5b 093e 51e7 6f3d a2a5 683e 91c0 46bc
000002e0: 576a 01bd bd00 67bd 0efb 133d 6e09 e7bd
000002f0: 044e 0abe df6c 30bd a55d 3a3e b1fe 1b3d
00000300: ceb1 8f3d a7dc 2cbd 79bf bd3d 0164 8cbd
00000310: f9ee 7a3d 7035 5a3e 9cba 1ebe f928 3d3d
00000320: bd30 f33c b921 803e 045f 21be bea8 07bd
00000330: 895b f3bd 96dd ddbd 1102 923e eb37 d2bd
00000340: 8621 2abe 0df9 25bd 6208 9a3b 5114 0abc
00000350: 6571 1e3e 24f3 0b3e 31b6 413e 5251 3f3d
00000360: 36dc 8b3d b1e9 8f3d 32bd a1bd e031 33be
00000370: 5c14 f7bc 45ad 4bbe 7c7e a8be 279f 8b3d
00000380: 9b73 353d a964 473c 2ef0 463d b72b 7abd
00000390: 7b78 fd3d 9f5f 543d fa06 303e 8233 203e
000003a0: aacf b7bd 5cb9 47bd 07d6 a0bd b862 14bd
000003b0: 23cb 533e 6223 2abd f6f5 80be ba1c 65be
000003c0: 6801 6ebd 9840 b63d e1bb 7f3d 2f57 e23b
000003d0: 5a93 12be 3963 14bc 432e 41be 9654 443e
000003e0: 37ae 373d 96b4 d9bd 349a 743e af6f f5bd
000003f0: e1fe a83c b84a a13d a0aa ccbd 52b9 623d
-0.007796171 0.030694759 0.09831823 -0.027799094 0.18671659 0.08853093 -0.097842626 -0.01690038
-0.18604074 0.16938752 -0.005538451 -0.10970115 0.009353404 0.009797499 -0.1866496 -0.23550713
-0.009416979 -0.21947572 -0.19656834 -0.09155659 0.12348685 0.0051466557 -0.1448196 -0.10548753
-0.29443797 -0.122692525 -0.08998892 0.0035206696 0.07719313 0.070886604 0.10378392 -0.13074407
-0.059214264 -0.033131596 -0.05356236 0.08730487 -0.27666372 -0.07998144 0.06702973 -0.042461786
-0.16681504 0.09227468 0.08101512 0.05839464 0.079817675 -0.19417162 -0.01497219 0.08039373
-0.05461229 0.15655683 -0.08104996 0.12238287 0.0095502 0.035430584 0.13968821 -0.007118713
0.07897665 0.049359605 0.13108985 0.03229131 -0.03104278 0.25297728 0.028487867 0.10740658
-0.045619383 -0.045151915 0.04153254 0.07052161 0.2343812 0.21585135 0.14261097 0.13697189
0.18535122 -0.06399666 -0.052731406 0.07095588 -0.21427262 0.010565108 0.0503538 0.014133359
-0.17514673 -0.1550116 -0.09949375 -0.035490043 0.059790846 -0.008326116 -0.0817311 0.021337975
-0.023686476 0.02174427 0.120836586 -0.06428492 0.05071244 -0.17705666 0.23958147 -0.057159856
0.11420189 -0.19013503 0.07355428 0.040830035 0.13063695 -0.08829364 0.018294167 -0.090292394
-0.033222888 -0.13364974 0.015238892 0.024094766 -0.36503133 -0.05667069 -0.11095139 0.21473487
0.02068987 0.07979172 -0.12902302 -0.22129543 0.067245886 -0.014590278 0.2575165 0.11145213
-0.005231742 -0.09449438 -0.13131835 0.0010954798 0.062303975 0.06707851 0.015815727 -0.23004268
0.14718615 -0.14161536 -0.14780693 0.04204102 -0.11486898 -0.07247672 0.11844887 0.023964364
0.15162212 -0.07355835 0.05991186 -0.017466627 -0.25854105 -0.16103391 -0.09565593 0.108424604
-0.12124484 -0.11251995 0.039521262 0.020175684 0.035204705 -0.24209888 0.1887662 -0.036947846
0.18608356 -0.047443423 -0.040655997 -0.2348663 -0.05331676 0.025836749 0.17370449 -0.119159795
0.09663545 -0.049335934 -0.2777264 -0.08427092 -0.13503455 -0.07504475 0.082034394 -0.12547745
-0.10548929 0.1599383 -0.17114164 -0.07446481 -0.23715295 0.0639261 0.008352726 -0.19479144
0.020188546 0.004995075 -0.06400121 0.14235242 0.13413636 0.05857021 0.22719434 -0.012130872
-0.031595554 -0.05639719 0.036128096 -0.112810954 -0.13506323 -0.043072578 0.18199785 0.03808469
0.070163354 -0.042202618 0.09265036 -0.06855012 0.06126306 0.21309447 -0.15500873 0.046181653
0.029686326 0.25025728 -0.15758902 -0.03311991 -0.11882693 -0.1083328 0.28517202 -0.10264572
-0.1661435 -0.040520716 0.0047007063 -0.008427695 0.15472944 0.1366697 0.18917157 0.046708412
0.06829111 0.07026995 -0.07897414 -0.17499495 -0.030161075 -0.19890316 -0.32909 0.06817465
0.044299703 0.012169995 0.048568897 -0.061076846 0.123764955 0.051849004 0.17190161 0.15644649
-0.08975156 -0.048760757 -0.078533225 -0.036226958 0.2068296 -0.04153765 -0.25187653 -0.2237424
-0.05810681 0.08899039 0.062435035 0.0069073658 -0.14314023 -0.00905686 -0.18865304 0.19172892
0.04484388 -0.10630147 0.23886949 -0.119841926 0.020629348 0.078755796 -0.09993482 0.055352516

module.0.bias f4 [128]
00000000: 2112 03bb 6311 03bb 3e12 03bb bc11 03bb
00000010: d111 03bb 4b12 033b ea11 03bb 0f12 03bb
00000020: 2c12 033b 2511 03bb 5711 033b 7d11 033b
00000030: 2712 03bb 1212 03bb 4e12 03bb 1212 03bb
00000040: c311 03bb 1912 03bb 2412 03bb 3812 033b
00000050: 2f12 03bb a411 03bb e211 033b 5012 03bb
00000060: 3912 033b e211 03bb df11 03bb 4112 03bb
00000070: 1d12 033b 8c11 033b b311 03bb 3a12 03bb
00000080: 4512 033b 2812 033b 4112 03bb 0d12 033b
00000090: 2212 033b 4712 03bb d30f 033b 5012 03bb
000000a0: ca0e 033b 5112 03bb 2e12 033b 4f12 03bb
000000b0: 8111 033b 4512 033b 2812 033b 3e12 033b
000000c0: 3412 03bb 0912 033b 3f12 033b 4112 033b
000000d0: 5212 033b 4512 033b 3812 03bb 3211 033b
000000e0: 5812 033b 4912 033b 3112 033b 5b12 033b
000000f0: 1d12 03bb 0512 033b 1212 03bb dc11 03bb
00000100: 2312 03bb 1d12 033b 5011 033b 8410 033b
00000110: 3612 03bb 3212 033b cc04 033b 2212 03bb
00000120: 4811 033b 2412 03bb 470b 033b 4d12 033b
00000130: 3612 03bb ff0e 03bb 4012 033b fa0d 03bb
00000140: 4812 03bb fc11 033b 5212 033b f311 03bb
00000150: 5712 03bb 8e11 033b 3a12 033b c211 033b
00000160: 4012 03bb 0211 03bb 1f12 03bb a510 03bb
00000170: 3c12 03bb 9511 033b 3412 03bb e711 033b
00000180: 2212 03bb c711 03bb 4812 033b 3512 033b
00000190: f811 03bb 5312 03bb 3612 03bb f211 03bb
000001a0: d511 03bb 5112 03bb e910 033b f111 03bb
000001b0: f111 03bb 1111 033b ce11 033b 4912 03bb
000001c0: 7d11 033b a20e 03bb ab11 03bb 9e11 033b
000001d0: 2d12 03bb 4712 033b 3e12 03bb ee11 03bb
000001e0: cc10 033b f511 033b 2812 033b 4612 03bb
000001f0: e311 033b 3a12 033b 0912 033b a311 03bb
-0.001999982 -0.0019999377 -0.0019999887 -0.0019999584 -0.0019999633 0.0019999917 -0.0019999691 -0.0019999777
0.0019999845 -0.0019999233 0.001999935 0.0019999437 -0.0019999833 -0.0019999784 -0.0019999924 -0.0019999784
-0.00199996 -0.00199998 -0.0019999826 0.0019999873 -0.0019999852 -0.0019999528 0.0019999673 -0.0019999929
0.0019999875 -0.0019999673 -0.0019999666 -0.0019999894 0.001999981 0.0019999472 -0.0019999563 -0.0019999878
0.0019999903 0.0019999836 -0.0019999894 0.0019999773 0.0019999822 -0.0019999908 0.0019998446 -0.0019999929
0.0019997829 -0.001999993 0.001999985 -0.0019999926 0.0019999447 0.0019999903 0.0019999836 0.0019999887
-0.0019999864 0.0019999763 0.001999989 0.0019999894 0.0019999933 0.0019999903 -0.0019999873 0.0019999263
0.0019999947 0.0019999912 0.0019999857 0.0019999954 -0.001999981 0.0019999754 -0.0019999784 -0.0019999659
-0.0019999824 0.001999981 0.0019999333 0.0019998858 -0.0019999868 0.001999986 0.0019991873 -0.0019999822
0.0019999314 -0.0019999826 0.0019995735 0.0019999922 -0.0019999868 -0.0019997952 0.0019999892 -0.0019997344
-0.001999991 0.0019999733 0.0019999933 -0.0019999712 -0.0019999945 0.0019999477 0.0019999878 0.0019999598
-0.0019999892 -0.001999915 -0.0019999815 -0.0019998935 -0.0019999882 0.0019999493 -0.0019999864 0.0019999684
-0.0019999822 -0.001999961 0.001999991 0.0019999866 -0.0019999724 -0.0019999936 -0.0019999868 -0.001999971
-0.0019999642 -0.001999993 0.0019999093 -0.0019999708 -0.0019999708 0.0019999186 0.0019999626 -0.0019999912
0.0019999437 -0.0019997736 -0.0019999545 0.0019999514 -0.0019999847 0.0019999908 -0.0019999887 -0.00199997
0.0019999025 0.0019999717 0.0019999836 -0.0019999905 0.0019999675 0.0019999878 0.0019999763 -0.0019999526

module.2.weight f4 [128, 128]
00000000: f8bb 13be 36d8 7c3e e8d5 91be d593 4cbd
00000010: d706 f53b e869 73ba 41a2 d73d 87be 6d3e
00000020: 512c 8f3c 557a 44be d9df 293d 42f2 3abe
00000030: a6c5 ad3d 1b49 98bd d880 bcbc efc7 083e
00000040: 0cd1 cc3d 48b4 9dbc 0d2d ed3d 15de 7fbd
00000050: f323 98bd 5a68 633e 0a0f 0a3e dbc6 22bd
00000060: 3d50 43bd 65d7 edbd 8ed5 43bd 7b37 2fbd
00000070: b7c3 b8bd 48de c63d d54e 6cbe 965a 27be
00000080: da0e 823c 89f5 f33c 10bd 053e 6eca edbd
00000090: 27fb 533e ead6 6ebd a9fd f63d 597c 4e3e
000000a0: 26e7 8f3d b034 04bd aa52 41be 222d 7e3d
000000b0: e2f2 cbbc 8244 203e 93c0 b63c ceff 24bd
000000c0: 5b0c a23c 4c6a 953a d1de 0d3e 94b2 8abd
000000d0: d144 18bd 583b 57bd 397b 5f3e 68fb 11be
000000e0: 5ba4 20be e7e7 3dbe f442 d63d 8c4f 623d
000000f0: d9b0 803e 2ffe 2b3d 0bd3 35bd efa2 6fbe
00000100: 1a56 98bd 498d 4bbe f5fd 95bd d4a0 8dbb
00000110: b51f 1f3d eb91 2abe 1350 07bc e06c 40bd
00000120: 4062 623e d9f9 edbd 98e5 8bb9 daf1 6e3c
00000130: eff8 2c3c a0b8 2bbe df1f 73bd 72bc 663d
00000140: cbf5 043e 1f0e f73d 29a1 b03d b199 f23d
00000150: 7444 0cbd 8d89 fa3d 722f 533e f967 0bbe
00000160: f1ea c4bc 220b d33d da14 353d f772 99bd
00000170: 99e8 62bd 793f e6bd d40c afbc 0358 80bd
00000180: ab52 e23d 45e1 21be bdc4 983e dab5 debd
00000190: 5849 8ebd 7e03 f83d bd2c 8bbe 6523 1fbe
000001a0: 399e debd b70f 2f3e 57a7 76bd ff2f 903d
000001b0: 3cc5 3dbe b7c8 b2bd cb12 b6bc fcbf 143e
000001c0: e242 023e 2a29 43bd 099c 55bd 4a84 663e
000001d0: 55e8 1c3d 2cea 6bbd bc81 bb3d 398e e6bc
000001e0: 7af8 2c3d e43b aebd c63f adbc d0b9 2dbd
000001f0: c105 633e 752a 93bd 9290 fdbd ec58 753e
00000200: e1a9 26bd 7014 65bc bd9b 86bd ea23 d93d
00000210: 3618 3a3e 0cf0 5f3e 326d 283e 4c76 653d
00000220: f863 993d b442 0cbe c38a 113d cb1d d2bd
00000230: 2a7c 743e 6eea 57bc 9575 1c3e 588d 69bc
00000240: 263d 803d 06e4 54bd a85e 87bd 76ad f53d
00000250: 12e1 f83d c02e 3fbd f1c8 83bd 78dc 07be
00000260: dde7 2c3e bdcf a83d 44d9 8e3d 42dd eabb
00000270: 24f5 69bd e05c 87bd 5b23 35bd 0a8b 893c
00000280: 630d 123e 3393 12be 6a3c 823c 94bb 26be
00000290: e65b adbb 9a73 82bd 825e f6bc 27b2 dd3d
000002a0: b4e9 5ebd a131 6dbe 8817 1e3e 273b e6bd
000002b0: 014b 04be 9252 323e 51ea afbd cee9 803c
000002c0: 303f 693d 255e 3c3d 644c 033e b896 403e
000002d0: 46b0 a43d 7f63 9abd 6c3f 6a3d f65f b8bb
000002e0: 67dd 4bbe d856 703e fa47 36be 5696 2b3e
000002f0: 3098 f3bc 6307 703d a502 73bd 174f 05be
00000300: cd7c d4bc d0a0 cb3c 3d8b 40be 792c 5f3e
00000310: 4213 f9bd 22cd ebbc 6330 c9bd a4ed 303e
00000320: 9ebe 40bd 6119 7f3e fef0 3d3e 0df7 ae3d
00000330: 9c72 5b3d 2f6d 673e acef 35be 6e93 1e3e
00000340: cb16 fb3d 6b6b b2bc e838 6ebe 45db 083d
00000350: 7b66 2dbe 6645 973e f146 8d3d c2d3 31be
00000360: 63a2 bebd c676 08be dd16 eebd a16a 8f3e
00000370: 977d 90bc 0c74 8dbd 6341 cb3d 8691 50be
00000380: fecc 473e 7f58 13bd b419 e7bd 18fc c33d
00000390: c228 f9bc 16c1 a8bb 56c5 d4bd fb4f 953d
000003a0: 25ec cabd 40dc 9d3d 1f00 e63d 5125 d83d
000003b0: 5e84 b53d 2fde 8dbd d410 54bd 2d7f 28bd
000003c0: 87f4 46bd a488 693b 52a4 28bd 5fe8 25be
000003d0: 5d59 dbbd e386 5c3e 0c65 933b 9aaa 72be
000003e0: e955 c03c 406b 8ebc 2a76 71bd 68cf f43d
000003f0: 82a1 e9bd 8fdf 683e e4ae 7cbb 253e 49be
-0.14427173 0.24691853 -0.2848351 -0.04994567 0.007477622 -0.00092854956 0.10528994 0.23217212
0.017477186 -0.19187291 0.041473243 -0.18256477 0.08484964 -0.07435819 -0.023010656 0.13357519
0.1000081 -0.019251004 0.115808584 -0.062467653 -0.07428732 0.22207776 0.134823 -0.039740425
-0.047683943 -0.11613349 -0.047811083 -0.04277752 -0.09021705 0.097103655 -0.23076947 -0.1634315
0.015876222 0.029780166 0.13060403 -0.11610876 0.20701276 -0.058310427 0.120601006 0.20164622
0.0702651 -0.03227681 -0.1887919 0.06205476 -0.024896089 0.15651134 0.022308623 -0.040283017
0.019781282 0.0011399477 0.13854529 -0.06772342 -0.037175003 -0.05254683 0.2182435 -0.1425606
-0.15687697 -0.18545495 0.10461989 0.055251643 0.25134924 0.041990455 -0.04439072 -0.23401998
-0.074382976 -0.19878115 -0.07323829 -0.0043221507 0.038848598 -0.16657226 -0.008258837 -0.04697883
0.22107792 -0.1161992 -0.00026683207 0.014584029 0.010557397 -0.16769648 -0.059356567 0.05633206
0.12984388 0.1206324 0.08624489 0.118457206 -0.03424497 0.12233267 0.20623568 -0.13613881
-0.02403781 0.10304858 0.04420934 -0.07492631 -0.055397604 -0.11242575 -0.021368422 -0.06266787
0.11050924 -0.1580859 0.298376 -0.10874529 -0.06947583 0.12110041 -0.2718257 -0.15540846
-0.10870022 0.17095838 -0.06021818 0.070404045 -0.1853227 -0.087296896 -0.022225758 0.14526361
0.12720826 -0.04764668 -0.05215076 0.22511402 0.038307507 -0.05759637 0.09155604 -0.028143989
0.042229153 -0.08507517 -0.021148574 -0.042413533 0.22170164 -0.071858324 -0.1238109 0.23959702
-0.040689353 -0.013981923 -0.065726735 0.10602553 0.18173298 0.21868914 0.16447905 0.05602102
0.07489771 -0.1369732 0.035532724 -0.10259589 0.2387549 -0.013178451 0.15279229 -0.01425489
0.06261663 -0.051975273 -0.06609851 0.11995976 0.12152304 -0.046675444 -0.06434811 -0.13267696
0.16885324 0.08242748 0.06975034 -0.0071674893 -0.05711855 -0.066095114 -0.04422317 0.016789932
0.14262919 -0.14313965 0.015897948 -0.16282493 -0.005290496 -0.063697055 -0.030074362 0.108249955
-0.054422095 -0.23163463 0.15438664 -0.11241751 -0.12919237 0.1741431 -0.08589614 0.015736487
0.056945026 0.04598822 0.1282211 0.18807495 0.08041434 -0.075385086 0.05718939 -0.005626674
-0.19908677 0.23470628 -0.17800894 0.16756567 -0.029735655 0.058600795 -0.059328694 -0.13018452
-0.025938416 0.024856955 -0.18803115 0.21794309 -0.12161876 -0.028784338 -0.09823682 0.17278153
-0.047056787 0.24912025 0.18548962 0.08543215 0.053576097 0.22600244 -0.17767209 0.15485927
0.12260207 -0.021779737 -0.23263896 0.033412237 -0.16933624 0.29545134 0.068982966 -0.17365935
-0.093083166 -0.13326558 -0.116254546 0.2801104 -0.01763801 -0.069069 0.09924581 -0.20368013
0.19511792 -0.03597307 -0.11284199 0.095695674 -0.030414943 -0.0051499708 -0.10389201 0.07290646
-0.09908322 0.07708025 0.11230492 0.105539925 0.08863138 -0.06927144 -0.05177386 -0.04113691
-0.048573043 0.0035634423 -0.041172333 -0.16201924 -0.10710404 0.2153583 0.0044981297 -0.23697892
0.023478465 -0.017385125 -0.05895058 0.11953622 -0.11407758 0.22741531 -0.0038556391 -0.19652613

module.2.bias f4 [128]
00000000: 1a12 03bb 0a11 03bb 4212 033b 90f5 023b
00000010: f111 03bb 070f 03bb e011 033b 6bff 023b
00000020: 4c12 033b f711 03bb 8a0d 033b 420e 03bb
00000030: c211 03bb 4212 033b 4d12 03bb 4a12 033b
00000040: 7201 023b 6211 03bb 29bb 023b 0512 033b
00000050: 3d12 03bb ad11 033b 2c12 03bb 8f11 03bb
00000060: 4012 033b f210 033b a40e 033b a0e9 023b
00000070: 3a12 03bb 3412 03bb dd0f 03bb b10e 033b
00000080: 0e12 033b 3e12 033b 4b12 033b 040f 03bb
00000090: 4012 033b 3112 033b e608 033b af11 033b
000000a0: acfa 023b e60d 03bb 3c10 03bb ac11 03bb
000000b0: 100d 03bb 3512 03bb c40f 033b e610 03bb
000000c0: bcec 02bb 3d12 033b 0d12 033b 1012 033b
000000d0: 3e11 03bb 1212 033b 3b08 033b e60d 033b
000000e0: d60f 033b 3812 03bb ca10 033b 6f10 033b
000000f0: 3a12 033b 1812 03bb 2312 033b e810 03bb
00000100: 5712 03bb f6fa 023b add0 02bb 4e12 03bb
00000110: eb0b 03bb eb0d 03bb 1b12 033b a503 033b
00000120: 0011 033b 860b 03bb 9cff 023b 3212 033b
00000130: e411 03bb 7310 03bb 1f12 03bb 800e 03bb
00000140: e7fc 023b 2712 033b fe0f 033b 7c11 03bb
00000150: 4962 e13a 77c2 023b 3a12 033b fe11 033b
00000160: 4f12 03bb 0c11 03bb e50c 033b 5bf5 02bb
00000170: 1f06 03bb 9cba 02bb 4412 03bb 2212 033b
00000180: 4c12 03bb 2112 033b c711 03bb 3d12 03bb
00000190: d20f 033b 1112 033b 3512 033b 4512 033b
000001a0: 0812 033b aa11 03bb 0a0e 03bb 0512 033b
000001b0: 4b12 03bb 2012 033b 1b12 033b 94de 02bb
000001c0: d40d 033b 4def 02bb 030f 033b 0000 0000
000001d0: 070e 03bb 0406 033b bf11 033b 4612 033b
000001e0: 2c12 03bb b111 03bb 1c0f 033b 4712 033b
000001f0: 9c10 033b c411 033b e80d 03bb 4412 033b
-0.0019999803 -0.001999917 0.0019999896 0.0019982792 -0.0019999708 -0.001999797 0.0019999668 0.0019988667
0.001999992 -0.0019999722 0.0019997084 -0.0019997512 -0.0019999598 0.0019999896 -0.0019999922 0.0019999915
0.0019837287 -0.0019999375 0.0019947982 0.0019999754 -0.0019999885 0.001999955 -0.0019999845 -0.001999948
0.0019999892 0.0019999114 0.001999774 0.0019975677 -0.0019999878 -0.0019999864 -0.001999847 0.001999777
0.0019999775 0.0019999887 0.0019999917 -0.0019997964 0.0019999892 0.0019999857 0.0019994318 0.0019999554
0.0019985838 -0.0019997298 -0.001999869 -0.0019999547 -0.00199968 -0.0019999866 0.001999841 -0.0019999086
-0.001997753 0.0019999885 0.0019999773 0.001999978 -0.001999929 0.0019999784 0.001999392 0.0019997298
0.0019998453 -0.0019999873 0.001999902 0.001999881 0.0019999878 -0.0019999798 0.0019999824 -0.001999909
-0.0019999945 0.001998601 -0.0019960806 -0.0019999924 -0.0019996117 -0.001999731 0.0019999805 0.0019991186
0.0019999146 -0.0019995882 0.001998878 0.001999986 -0.0019999677 -0.0019998818 -0.0019999815 -0.0019997656
0.0019987167 0.0019999833 0.0019998546 -0.0019999435 0.0017195429 0.0019952336 0.0019999878 0.0019999738
-0.0019999926 -0.0019999174 0.00199967 -0.001998267 -0.0019992662 -0.0019947654 -0.00199999 0.0019999822
-0.001999992 0.001999982 -0.001999961 -0.0019999885 0.0019998443 0.0019999782 0.0019999866 0.0019999903
0.001999976 -0.0019999542 -0.0019997382 0.0019999754 -0.0019999917 0.0019999817 0.0019999805 -0.0019969093
0.0019997256 -0.001997906 0.0019997961 0.0 -0.0019997375 0.00199926 0.0019999591 0.0019999905
-0.0019999845 -0.0019999559 0.001999802 0.0019999908 0.0019998914 0.0019999603 -0.0019997302 0.00199999

module.4.weight f4 [1, 128]
00000000: a599 dabd 7649 1e3e d473 1e3e 0659 403b
00000010: de60 033e 9a82 b33d d9d0 73bd cc76 11be
00000020: a239 2e3e 9dde 843d 9760 ccbd 65a5 0d3e
00000030: 9715 37bd 9ce7 24be fe8b 44be cf88 303e
00000040: 42ca 943b 6749 0bbd be77 2f3c 2ee4 c9bd
00000050: af67 4cbe 6dc4 8c3d 962c bc3d e86e eabd
00000060: f47a 103e 48a6 253e fe8a c6bd 2d18 ff3b
00000070: e9f9 013e aff0 db3d d5c4 5cbd 966e 2f3c
00000080: 2545 b7bd e19d 023e 9153 42be fe2a 96bb
00000090: 964f 0e3e f7c4 04be 5e6a 853d 38bb b4bd
000000a0: 4ac0 2e3d c4bb 49bd f2bc d3bc 6bde 753d
000000b0: 397f 24bd b174 d1bd 17b6 443e 1486 fabd
000000c0: a6af 79bd 0e54 4d3e 7837 063e 6cb5 fabd
000000d0: c3c1 a0bc c321 6b3e 5254 493c 5427 e5bd
000000e0: 1408 423c 18ed f33d 90d1 943c 8e5f 153e
000000f0: a6ab fbbd b993 db3d a658 a4bd b93c b23c
00000100: 9683 a7be b107 7abd a7fb 933c f901 6fbe
00000110: 5a4b e6ba 3d4d 2c3d 2133 e0bd a760 423d
00000120: 6a6f 0c3d fecf 08be 0519 8a3d bb63 dfbd
00000130: 66df 82bd b1ec 9fbd 3bd3 9e3d 9a09 b7bb
00000140: b768 e33c 496e dbbd 5dec 4c3d 862b d8bc
00000150: 8f40 3c3e 6258 bb3d 8590 073e 771d a93d
00000160: 14b8 5e3e aace c83d 7d44 193e 9910 653d
00000170: 23b0 b4bc d990 a83c c820 12be 4047 733e
00000180: 8338 76be d86f e7bd 1296 26bd 4be1 5abe
00000190: 71f8 d03d 58bf c6bd f69f ebbd 6bbc 253e
000001a0: 948e cd3d 65c3 193d 1200 52be 5129 81bd
000001b0: 27fa 4a3e 39ef 3f3e 32f7 6d3e b7c2 c43c
000001c0: 30b3 a3bd 7b99 183d 49dc b2bd a186 2abe
000001d0: 980c 643b bdec 923d 5312 53bd ab1b 253e
000001e0: 37aa 07be 6eea e73d a238 50bc 010e 34be
000001f0: 89f2 b7be aecb 1f3e 6a0b 8abd e4cb 68be
-0.106738366 0.1545771 0.15473872 0.0029349937 0.1282992 0.08765145 -0.059525345 -0.14205474
0.17014173 0.064877726 -0.099793606 0.13832624 -0.044698324 -0.16103977 -0.19194028 0.17239688
0.0045407126 -0.03400555 0.010709701 -0.09857975 -0.19961427 0.06873403 0.091881916 -0.11446935
0.14109403 0.16176713 -0.096944794 0.0077848644 0.1269299 0.10739266 -0.05389865 0.010707518
-0.08948735 0.12755539 -0.1897719 -0.004582762 0.13897547 -0.12965761 0.065144286 -0.08824772
0.04266385 -0.049251333 -0.025846932 0.060026567 -0.04016039 -0.10227335 0.19210087 -0.122326046
-0.060958527 0.20051596 0.13107097 -0.12241635 -0.019623643 0.22962098 0.01228817 -0.11189142
0.011842746 0.119104564 0.018166333 0.14587232 -0.12288599 0.10721535 -0.08024721 0.02175747
-0.3271758 -0.06104249 0.018064333 -0.23340596 -0.0017570064 0.042065848 -0.10947252 0.047455456
0.03428594 -0.13360593 0.06743053 -0.10907694 -0.06390266 -0.07808817 0.07755133 -0.0055858614
0.027759893 -0.107143946 0.0500301 -0.026387941 0.18384002 0.09147717 0.13238724 0.08257573
0.21749908 0.09805043 0.14967532 0.055924032 -0.022056645 0.020576881 -0.14270318 0.23757648
-0.24044995 -0.113006294 -0.040670462 -0.21375005 0.102036364 -0.09704465 -0.115051195 0.16185157
0.1003696 0.03753986 -0.2050784 -0.063067086 0.19821988 0.187436 0.23238829 0.024018629
-0.07993162 0.037255745 -0.08733422 -0.1665292 0.0034797546 0.071740605 -0.051531147 0.16123836
-0.13248526 0.11324011 -0.012708815 -0.17583467 -0.35927227 0.15605041 -0.06740458 -0.22734028
