best_pendulum_policy.pt (torch, 405980 bytes, 7 tensors)

module.0.weight f4 [256, 6]
000000 29 0b ad bd 85 27 03 bd f6 55 88 be 66 90 ca 3c
       -0.08449394 -0.03202011 -0.26628083 0.024727058
000010 ee a2 ca bb 7a d3 92 bd 5d ef 80 bd c0 58 c3 bc
       -0.0061839735 -0.07169242 -0.06295655 -0.02384603
000020 7a ef e2 bd 71 ef 51 bd 6c 7f 21 be 2d 0b 59 3e
       -0.11080833 -0.05125374 -0.15771264 0.2119567
000030 25 e7 25 3d e2 90 6a bc cc 01 06 3e ee a9 d3 3d
       0.04050364 -0.014316769 0.13086623 0.10335146
000040 c2 14 78 bc 24 68 08 3e 57 fc 15 3e 7a 0f d8 3d
       -0.015141668 0.13320976 0.14647041 0.10549827
000050 df cb 17 bd 6b 1a f4 bd b5 61 56 bd 63 5d 1c be
       -0.03705966 -0.11919101 -0.052339274 -0.15269999
000060 58 43 eb bb f0 0e 65 3a 0c 1b 35 3e 25 ff 5e 3d
       -0.007179659 0.00087378826 0.17686099 0.054442544
000070 ac d7 86 bc 3f d1 99 bd 98 98 11 3e 9c 06 0d bd
       -0.016460262 -0.07510614 0.14218366 -0.03443013
000080 fb 70 66 bd 81 32 5d bc 0d 93 a5 bd 56 38 e2 bd
       -0.05626009 -0.013500811 -0.08084688 -0.110459015
000090 54 5b 90 bd ca 4b e8 bb 48 72 73 3d d9 cf 09 3e
       -0.070486695 -0.007089113 0.05943516 0.13458194
0000a0 f8 05 97 bc 84 97 7a 3d e9 fc 29 3e ed be 8d 3d
       -0.018435463 0.061179653 0.16600384 0.06921182
0000b0 da fd b8 bb 99 92 fe 3d 58 f9 0f be f9 72 bb bd
       -0.005645496 0.12430305 -0.14059961 -0.09152789
0000c0 c1 9c a3 bc 0b 12 3b 3d 05 c3 56 3d 76 5a 86 3a
       -0.019972207 0.045671504 0.05243208 0.0010250348
0000d0 ba 6e b2 3d a4 97 cd bd 56 a9 8a 3c 83 91 5f 3d
       0.08712526 -0.10038689 0.016926449 0.05458213
0000e0 7f 78 11 bd d5 8a e6 bc 46 03 22 bd 7f d0 aa 3d
       -0.035515305 -0.028142372 -0.039553903 0.08340549
0000f0 81 d2 f3 3c 6f 67 ca 3c 62 8e 7c 3d 88 38 ea bd
       0.029763462 0.024707524 0.061659224 -0.11436564
000100 9c 5f ae b9 4f 24 e3 bd c3 13 d4 3d 2a 70 ea bd
       -0.000332591 -0.1109091 0.10355332 -0.11447175
000110 87 c0 e7 bd c2 0c 8c 3c 78 d5 8d 3d 74 c8 31 bd
       -0.113160186 0.017095927 0.069254816 -0.043404058
000120 11 88 75 bd f5 2a 59 bd 73 9b 95 3d 36 92 2c be
       -0.059944216 -0.053019483 0.0730504 -0.1685265
000130 19 ca cd 3c 6f 5d 52 bc 2e c8 28 3d 89 14 61 bd
       0.025120782 -0.012839659 0.04120653 -0.054951224
000140 3a 85 d2 bc 2f 45 9a 3d 18 5c a6 be 09 35 22 bc
       -0.025698293 0.07532727 -0.32492137 -0.00990034
000150 be 15 9a bb e6 c0 13 3e 65 d1 41 3c f2 3f d3 3c
       -0.004702299 0.14429054 0.011829709 0.025787327
000160 b9 13 12 3d e1 66 5a bc f5 67 b6 3d 83 65 2a 3e
       0.03566334 -0.013330192 0.08906547 0.16640286
000170 be 13 ff 3c 68 1f 90 3d 64 79 06 3e a2 92 9f bd
       0.031137343 0.0703724 0.13132244 -0.0779164
000180 2d 6f 1c bb 29 99 18 be 5a 13 d9 bd 0b 5c 27 bd
       -0.0023869977 -0.14902176 -0.10599394 -0.040859263
000190 59 3c 5b 3c be d7 15 bc 55 84 51 3d d8 79 a4 3d
       0.013381087 -0.009145675 0.051151592 0.08031052
0001a0 28 94 20 be 7a e7 92 3d 07 7c b1 3d 26 d4 a5 bd
       -0.15681517 0.07173057 0.086662345 -0.08097105
0001b0 d9 50 90 3d ad 44 09 bd d6 0d 53 be 00 9a 2c 38
       0.070466705 -0.03351276 -0.20610747 4.115142e-05
0001c0 6b 2b 4c 3e b9 d8 8f 3d 0a 9a e0 3d ec 03 10 be
       0.19938438 0.070237584 0.109668806 -0.14063996
0001d0 74 84 f5 bc 30 f0 1a be 9f 0e 2b 3e 5b 79 aa ba
       -0.029970385 -0.15130687 0.16704796 -0.0013006137
0001e0 93 c7 54 3e 97 2e c3 bd 1b ad 2e 3e 3a ee 82 bc
       0.20779257 -0.09530371 0.17058222 -0.015982736
0001f0 31 0b d0 bd 34 51 08 bd 5e 74 1d bd 43 49 a9 bc
       -0.101583846 -0.033280566 -0.038441055 -0.020664817
000200 53 26 f7 bd 4d b2 49 bd 57 28 88 bd 9c 21 60 3e
       -0.12067857 -0.049242307 -0.06648319 0.21887821
000210 33 63 02 be 06 9f 16 3e c6 98 42 be 4d 39 92 bd
       -0.12733154 0.147091 -0.19003591 -0.071398355
000220 8c 39 2c 3d f6 b7 a2 bd 3d 17 ad bc 3d 92 06 bd
       0.04204707 -0.07945244 -0.021129245 -0.032854307
000230 d3 0e 14 3d 1b 1e ad bc 7d 19 e9 3c f7 b7 d5 bd
       0.03614695 -0.02113252 0.028454537 -0.10435479
000240 09 9e 25 bd bc fc 37 3d cc 11 99 3b 11 38 2e 3e
       -0.040433917 0.04491876 0.004671311 0.17013575
000250 e2 36 43 bd 05 e8 84 bc 63 b4 de bc 25 b3 28 3c
       -0.047659762 -0.016223917 -0.027185624 0.010296618
000260 cc 25 d3 3a 99 61 1a be 5f f1 0e 3b ab 52 0c bd
       0.0016109287 -0.15076293 0.002181135 -0.034258526
000270 82 8b c5 3d 53 36 ea 3d 2b c2 bd 3d 5d 01 a1 bd
       0.0964575 0.11436143 0.0926555 -0.07861588
000280 25 b0 71 3d d1 70 1c bd ab c4 d1 bd dc 58 d1 3d
       0.059005875 -0.038193528 -0.102425896 0.10222027
000290 96 2a 23 3d cb 60 61 bd d3 77 2d be 28 24 cb 3d
       0.039835535 -0.05502395 -0.1694024 0.09919006
0002a0 ea 38 4d bd b9 2d cc 3c b0 ba b5 bc 06 e8 b1 3b
       -0.050103106 0.024924146 -0.022183746 0.0054292707
0002b0 5d e1 67 be 58 47 d9 3c 7b 85 ea bd 7b f7 30 3e
       -0.22644563 0.026523277 -0.11451241 0.17281906
0002c0 05 c6 a3 3c 32 82 30 bd 7d f9 35 3d 15 5e d3 3c
       0.019991884 -0.043092914 0.044427384 0.025801698
0002d0 d5 3e 04 be 23 e9 4c 3e b6 c5 aa bd 2e f7 0a 3d
       -0.12914594 0.2001081 -0.083384916 0.033927135
0002e0 b7 9f 4a bd 21 ef 74 3d eb 9e 97 bd 47 32 13 3c
       -0.049468722 0.059798364 -0.07403358 0.008984155
0002f0 07 45 86 3c 49 ca 12 3c 36 bd 9c bd d4 1a 4a bd
       0.016390337 0.008959361 -0.076532766 -0.04934199
000300 bb 84 be bc 74 9f 05 be 97 43 be bd 4c 29 54 bd
       -0.02325665 -0.13049108 -0.092902355 -0.051797196
000310 83 06 46 3d 10 21 0e 3c b4 48 11 be d1 83 5a bd
       0.048346054 0.008674875 -0.1418789 -0.053348366
000320 a8 a9 60 bd 6b 9d 2a be ff c5 f1 bd e5 2b 55 bd
       -0.054849297 -0.16661613 -0.11805343 -0.052043814
000330 99 b2 7e bd 4f 81 61 be e3 26 89 bd a0 38 81 bb
       -0.062182043 -0.22021984 -0.0669687 -0.003943518
000340 7f 2e 00 3c 7d 51 0b 3e e1 ce 61 bb 61 d7 1a 3d
       0.0078235855 0.13605304 -0.0034455585 0.037803058
000350 1e f8 e7 bd 14 b3 33 3e 1b b1 5d 3d 01 4e 00 be
       -0.113266215 0.17548782 0.05412398 -0.12529756
000360 61 71 3a be 5a a2 c3 3d 08 14 b5 bc 89 01 89 bd
       -0.18207313 0.095524505 -0.022104278 -0.06689746
000370 9f 27 16 3d ca a0 4e bd f8 8b 6b 3e 00 c0 2a 3d
       0.03665888 -0.05044631 0.23002613 0.04168701
000380 d6 92 cc 3d 1f c2 58 3d f7 33 6a be c1 04 e9 3c
       0.09988944 0.052919503 -0.22871386 0.02844465
000390 f0 3c ec 3d 5c 4b 45 3d 7f 33 1a 3d 4a c6 0d 3e
       0.115350604 0.04816757 0.037646767 0.13845173
0003a0 82 a4 0a 3c 44 d0 52 be 74 3c 43 3d cc c5 2b 3c
       0.008462073 -0.2058726 0.047665074 0.01048417
0003b0 ab f7 c1 3d 5a 87 12 3d 9f 68 88 bd 0d 9a 5c bb
       0.09471067 0.035773613 -0.0666058 -0.0033661157
0003c0 b5 d4 5f be 6e 8a 77 3d 62 30 42 3d d3 42 02 bc
       -0.21858485 0.06043475 0.047409423 -0.007950502
0003d0 d3 08 b2 bb 3d 9b 82 be 0d 42 35 bb 66 28 46 be
       -0.005433181 -0.25509062 -0.0027657778 -0.19351348
0003e0 34 ea be 3d 39 a3 78 bd 4c d5 e2 3d 96 77 2d be
       0.093220145 -0.060702536 0.110758394 -0.1694015
0003f0 7b 46 e2 bd f4 0f 0f 3e 91 76 b5 3e b4 80 cf bd
       -0.11048599 0.1397093 0.3544202 -0.1013197

module.0.bias f4 [256]
000000 04 83 3b 3c 92 fd 88 bb 0f fc 2d bc 6e f2 b0 bb
       0.011444811 -0.0041806186 -0.0106191775 -0.0053999936
000010 8a ce 8d bc e0 ce e3 b9 58 8a ee 3b c7 9a 9d 3b
       -0.0173104 -0.00043450948 0.0072796755 0.0048097107
000020 4e c6 91 bc 52 ed 51 bc 49 f2 7e bb 4f e1 a3 ba
       -0.017794754 -0.012812929 -0.0038901737 -0.001250306
000030 9a 96 84 3c 99 6d 38 bb de 06 31 bb 01 6d 01 3b
       0.016185094 -0.0028141497 -0.002701215 0.001974881
000040 36 f5 34 3c 92 27 5d 3b 9c a2 64 3c c7 3f 93 bc
       0.011044791 0.003374551 0.013954785 -0.017974747
000050 6e 6f 85 3b 32 28 a8 3c 89 72 1e 3b c6 10 13 3c
       0.0040721213 0.02052698 0.0024177155 0.008976167
000060 04 94 b1 bb 61 db 24 3b 3a bd 4f bc 84 30 34 3c
       -0.005419256 0.0025155174 -0.0126793925 0.010997895
000070 9e 26 cd bb 45 e9 1d bb 34 49 94 bb 5c e2 d7 3b
       -0.006260707 -0.0024095338 -0.004525328 0.0065882634
000080 05 37 ad bc 4f af 88 3c 71 f4 79 bb f7 4b 44 3b
       -0.0211444 0.016685156 -0.0038140083 0.0029952505
000090 90 7e 3a 3c 02 fc 82 ba 1a fe b1 bb 94 58 54 bc
       0.011382714 -0.0009993317 -0.0054319026 -0.012960572
0000a0 52 1e 80 ba 7e 84 66 bc 9c 49 34 3c e6 1f 99 bb
       -0.0009774661 -0.014069675 0.011003878 -0.004672992
0000b0 35 c9 7d bb ed aa 37 bc cd 27 a3 3b 36 6f 87 3b
       -0.0038724665 -0.0112101855 0.00497911 0.0041331304
0000c0 5d 50 41 bc b4 67 35 3c 70 fd dd bb 9c ec 7b 3b
       -0.011798945 0.011072088 -0.006774597 0.003844059
0000d0 95 29 90 bc 7d 25 77 bb 3a b4 8d bb cc 41 ac bb
       -0.017597953 -0.0037711554 -0.004324463 -0.005256867
0000e0 04 b4 8c 3b 14 79 f9 3b 72 1f d1 3a 89 86 6e 3b
       0.0042939205 0.0076133106 0.0015954806 0.0036396107
0000f0 40 f4 95 3b e4 0a 44 3c e5 2a 59 3c 6e ee d2 ba
       0.004576236 0.011965487 0.013254856 -0.0016092786
000100 00 f1 bc bb c2 d4 8a bc 32 79 5c bc d2 16 19 3c
       -0.005766034 -0.016947154 -0.01345663 0.00934382
000110 85 0b 41 3b 43 26 3f bb 25 59 2b bc cc 26 cb 3b
       0.002945633 -0.0029167093 -0.010458265 0.0061996933
000120 f0 c8 9b bb 23 04 3f bc 6c 44 87 bb 24 ad 61 3b
       -0.004754178 -0.011658701 -0.0041280296 0.0034435475
000130 9e 1f d1 bb 16 28 8b bb 86 95 31 3b 9f 9d 3a bc
       -0.006381943 -0.004246722 0.002709718 -0.011390119
000140 b2 9d 84 bc fe 9d dc 3b 88 77 7f bb b8 ff 8a bc
       -0.016188476 0.0067327013 -0.0038981158 -0.01696764
000150 0b 76 04 bb 28 ea db 3b 30 81 5e bb ec 21 88 ba
       -0.002021196 0.006711263 -0.0033951513 -0.0010386086
000160 54 47 1c bb 2f 1b 5c 3b 2b 89 b5 bb 5d a9 0c 3c
       -0.0023846226 0.0033585539 -0.0055400333 0.008585301
000170 f0 72 50 3c 6b 7d 2e 3c 5d 6a 2c bc 7e 3b df 3a
       0.012722716 0.010650019 -0.010523406 0.001703128
000180 0e eb ab 3a 2e 3f f7 3b 60 ca 0f 3c 98 64 a4 bb
       0.0013116316 0.0075453734 0.008776277 -0.0050168745
000190 7e b7 e4 3b 06 91 f9 3b c3 bf 35 3c 56 e0 02 bc
       0.006979882 0.007616165 0.011093083 -0.007988056
0001a0 68 1b 6a 3c 68 9d f4 3b 2e 14 f6 3b d5 f4 61 3b
       0.014288761 0.0074650533 0.00750973 0.0034478207
0001b0 c2 df 08 bc 4f c9 bf bb aa 18 92 3b 51 2d 46 3c
       -0.008354129 -0.0058528553 0.0044585066 0.012095765
0001c0 28 6c 8b 3c 2c 96 ee 3b 3c 5b 69 bc 98 a8 d0 b9
       0.017019346 0.0072810855 -0.014242943 -0.00039798464
0001d0 c0 55 7f b8 e1 de 04 3b 37 3f 2f bc 9b 25 65 bb
       -6.08766e-05 0.0020274448 -0.010696224 -0.0034965042
0001e0 78 69 29 3c 56 ed 0d 3c 30 8c 85 3c 0d fb 99 bc
       0.010340087 0.008662542 0.016302198 -0.018796468
0001f0 c9 e4 5c 3b ac ab 76 bb 6c f1 31 3c 65 4f 13 3b
       0.0033705703 -0.0037638946 0.010860782 0.0022477743
000200 8d 84 5c 3c 19 52 06 3b 8c 55 c5 3b fa 61 ad bb
       0.013459337 0.0020495711 0.006022161 -0.0052912207
000210 8a 49 fb ba fe c4 27 3b b9 8a 72 3c 3f ef 7d 3c
       -0.0019171697 0.0025599594 0.014803582 0.015498935
000220 f5 51 06 bc 90 1a 87 bb 0e 0b 6a 3c db 77 90 bc
       -0.008198251 -0.0041230395 0.014284862 -0.017635277
000230 86 3c d4 bb d6 f6 c7 ba 84 30 df bb 57 cd 38 3c
       -0.0064769415 -0.0015256058 -0.0068112034 0.011279426
000240 a0 1a 31 3c d2 95 df bb 5d 07 b6 3b 98 ba ef 3b
       0.010809571 -0.00682328 0.005555077 0.007315945
000250 bc 42 03 3c 89 b2 02 3b 3d 65 46 bc 61 c4 1e bc
       0.008011516 0.001994284 -0.012109098 -0.009690375
000260 b8 84 fe 3b 00 78 7f 38 cb 17 20 3c 98 7b 29 3b
       0.007767286 6.0908496e-05 0.009771298 0.002586102
000270 c0 69 ca b9 b8 64 0b 3c c4 76 f9 3b c2 94 3c 3a
       -0.00038607232 0.0085079 0.007613035 0.00071937975
000280 6c 70 d5 bb 53 3e 8f bb 3b 93 0e bc d8 72 15 39
       -0.006513646 -0.0043714433 -0.008702095 0.0001425253
000290 12 02 a2 bb 12 b9 bc 3b f7 b0 38 bc e1 cd 58 bc
       -0.0049440945 0.005759367 -0.01127266 -0.013232679
0002a0 d2 c6 e2 3b 48 ce 2f 39 07 d3 12 bb 88 db 71 bb
       0.006920674 0.00016766146 -0.0022403614 -0.0036904532
0002b0 e0 8a 75 3c a0 cc 87 bc bd 13 c1 bb b0 a0 5f bc
       0.014986724 -0.016577065 -0.0058922456 -0.013649151
0002c0 fe 9a fa bb ec 0a f4 3b 68 28 1b bc 4d 81 1e 3b
       -0.007647871 0.007447591 -0.009470083 0.0024185956
0002d0 00 89 7b 3c b4 eb d0 bb 91 52 64 bc d2 05 d0 3a
       0.015352488 -0.0063757543 -0.013935701 0.0015870875
0002e0 30 de eb bb 2c de da 3a 71 21 a4 ba 03 06 b2 bb
       -0.0071981177 0.0016698292 -0.0012522173 -0.0054328456
0002f0 84 b0 cc bb 93 06 80 3c d4 66 b0 3b 8c ab d4 3b
       -0.0062466282 0.015628135 0.005383352 0.0064901765
000300 2e e9 34 bc f9 8e 50 bc 06 bb af 3b a4 0f d0 bb
       -0.0110419225 -0.0127294 0.005362871 -0.0063495208
000310 e2 f7 30 3b f8 ef 94 bb 76 76 8a 3a 68 05 d8 3b
       0.0027003218 -0.004545208 0.0010563869 0.0065924414
000320 b0 1f 53 bc 32 6e 92 3b 57 eb a5 bb 2d 27 1b bc
       -0.012885973 0.0044687027 -0.005063455 -0.009469789
000330 02 6c b6 3b 32 d8 34 3c 36 25 a4 bb 28 1e aa bb
       0.0055670748 0.011037873 -0.0050093187 -0.005191583
000340 db 52 00 bc 46 c5 8f bb b3 2c 09 3c 45 83 24 3c
       -0.007832254 -0.0043875305 0.0083724735 0.010041063
000350 00 06 d4 b7 98 86 70 3b 5a 70 a0 bb 88 c4 48 b9
       -2.5275163e-05 0.0036701318 -0.004896206 -0.000191467
000360 e5 2b a1 3a 54 5e e8 bb b6 07 ea bb 22 6a e6 bb
       0.0012296407 -0.007091323 -0.0071420325 -0.007031695
000370 46 47 dc 3a c2 74 f9 3b a2 3c fa 3b 8e 0f df ba
       0.0016805909 0.0076127956 0.0076366225 -0.0017018185
000380 2d 81 81 bb 73 b1 8e 3c 60 11 b4 39 30 50 d8 b8
       -0.0039521665 0.017418599 0.0003434522 -0.00010314619
000390 eb fb 9f 3a 71 bb 13 3c f4 b5 e3 bb e9 9f 24 bc
       0.0012205815 0.0090168575 -0.0069491807 -0.010047891
0003a0 61 df 41 3c f5 c1 66 3b 12 63 cc 3b 23 4d 10 bc
       0.011833043 0.0035210822 0.006237396 -0.008807453
0003b0 db c3 9d bc a7 03 85 bc 3e f0 40 bc 40 30 4d b8
       -0.01925843 -0.016237093 -0.011776028 -4.8920745e-05
0003c0 6c 22 86 3b d2 a6 4e 3a ef 4f 4f 3c b0 80 21 bc
       0.004093459 0.00078831345 0.012653335 -0.009857342
0003d0 44 7b 18 3c 63 63 d0 3a 9b ff 8d bb 82 d8 48 bb
       0.009306733 0.001589876 -0.004333449 -0.0030646627
0003e0 09 52 69 3b 50 96 41 bc ba 89 0c 3c be 0c 02 bc
       0.0035601875 -0.011815622 0.008577758 -0.007937608
0003f0 60 8e b9 3a 3a 3e ed 3b d8 ee 31 39 bc 65 f6 3b
       0.0014156811 0.007240084 0.00016969012 0.007519452

module.2.weight f4 [256, 256]
000000 63 35 6a 3e c8 69 9a bd 8f 7a 9f bd 10 e1 8c ba
       0.22871928 -0.075397074 -0.07787048 -0.0010748226
000010 81 23 02 3d 63 0f 86 bc 1b 12 dd 3d 38 f4 9e 3d
       0.03177214 -0.016364759 0.10794469 0.07761425
000020 e7 11 af bd ab 70 d8 3c b7 04 95 3d 62 b0 51 3c
       -0.085483365 0.026420912 0.0727629 0.012798401
000030 4d a1 48 bd 7e 1a 61 3b 26 b3 4a 3e b0 33 20 be
       -0.048981953 0.0034348066 0.19794902 -0.15644717
000040 27 32 c0 bc a8 5a 48 3d 00 63 b3 bd 8d 60 30 3d
       -0.023461415 0.04891458 -0.08759117 0.043060828
000050 9a a3 5c 3d d1 82 ba 3b 55 1b 07 be b1 84 12 3e
       0.05386696 0.005691864 -0.1319402 0.1430843
000060 38 87 0b 3e 0f ca 10 be 5a 63 e7 3d ed e5 f7 bd
       0.136258 -0.14139579 0.11298247 -0.12104402
000070 03 54 d2 3d df 4a 14 bd 86 b9 f0 bc 97 1e 60 3e
       0.1026993 -0.036204215 -0.02938534 0.21886669
000080 12 f0 51 3e e2 e0 86 bb 22 0f fe bc a1 25 2d 3e
       0.20501736 -0.0041161636 -0.031013075 0.16908886
000090 79 bd e3 3c a8 3d 13 bd c7 83 8b bd db 4a 7a bd
       0.027800309 -0.03594747 -0.06812244 -0.061106544
0000a0 46 71 6d 3d f9 c6 23 3e e7 ce ca 3d 12 c3 e4 3c
       0.057969354 0.15993871 0.09902745 0.027925048
0000b0 6f cc 06 3e bc 0b 48 bd b0 69 42 3d b8 06 e9 bb
       0.13163923 -0.048839316 0.047464073 -0.0071113966
0000c0 0c f0 d5 bc eb d6 9f 3d 6e 5d 28 3e 48 c0 90 bd
       -0.02611544 0.07804664 0.1644189 -0.07067925
0000d0 ee 8e a8 bd 99 00 f2 3d d9 ac 23 3d 87 19 b8 3d
       -0.08230387 0.1181652 0.039959762 0.08989244
0000e0 db d1 fa 3d 5e 3a b9 bd 5e 0c d9 3d f0 e5 1c be
       0.12247058 -0.09044336 0.10598062 -0.15322089
0000f0 f1 63 fd 3d 21 04 17 3e 0f 09 9f 3c 49 33 11 3e
       0.12372578 0.14747669 0.0194135 0.1417972
000100 89 6f ad bd a4 0f 93 bd 39 52 73 be f1 11 0d 3e
       -0.08468539 -0.071807176 -0.23761834 0.13776375
000110 db 78 e2 bc 46 1c 96 bd 31 c0 77 bd 3f f5 8a 3d
       -0.027645519 -0.073296115 -0.060486022 0.06785058
000120 36 7a 3d bd 11 3e 8c 3d fa 22 c6 bd 3f ba 46 3c
       -0.046259128 0.06847776 -0.0967464 0.0121293655
000130 1a dd 9f 3d ab a7 d6 bc b4 55 0e be e4 b5 95 bd
       0.07805844 -0.026202997 -0.1389988 -0.073100835
000140 16 26 46 3e f0 09 57 bc 61 23 01 3c 10 65 8a 3e
       0.19350466 -0.013124928 0.00788197 0.2703023
000150 de 28 08 be 40 74 b9 3d 6a b9 e7 3d bd 1f 93 bd
       -0.1329684 0.09055376 0.11314662 -0.07183788
000160 82 7b fc bc 0e 52 c2 bd 1f de 7d 3e 17 8d 4b be
       -0.030820612 -0.09488307 0.24791764 -0.1987804
000170 51 02 e4 3c f4 aa 2e be 46 34 d5 bd 63 9a 84 bd
       0.027833136 -0.17057401 -0.10410361 -0.064747594
000180 b9 3a ee 3d 63 8f d2 3d 48 18 16 be f7 d2 b8 bd
       0.11632294 0.10281255 -0.146577 -0.09024613
000190 e4 29 da bd a6 d8 c2 3d 55 b0 10 3c 4b 7e 0f 3e
       -0.10652521 0.09513979 0.008831103 0.1401302
0001a0 61 67 7f 3d 39 61 c3 bd 75 06 4a bd d1 e2 a0 3c
       0.06235445 -0.09540028 -0.049322564 0.019639404
0001b0 80 4a 8b 3c 4b e8 a6 3c 6d c3 84 bc ba e2 8d bc
       0.017003298 0.020374438 -0.016206468 -0.017320026
0001c0 3c f1 56 bd 8e d2 53 3d 31 de a1 bd fb 19 37 3e
       -0.052476153 0.051714472 -0.07903708 0.17881005
0001d0 ae c6 90 bd e6 6a 76 bd c9 e7 92 3c f1 4a 24 be
       -0.07069145 -0.06016054 0.01793279 -0.16044213
0001e0 bc 3e 96 bd 30 4c a9 bc 5b 26 ee 3d 7b 6b 57 bd
       -0.073361844 -0.020666212 0.116284095 -0.052592736
0001f0 6d fc 79 3e 91 9b a0 3d 02 96 ca 3d c6 9d 82 3c
       0.24412699 0.07842172 0.09891893 0.015944373
000200 65 bf 8a 3c b7 85 6c 3c 3b ad cd 3c 8e d6 58 3d
       0.016936967 0.014436177 0.025107017 0.05293899
000210 7d 9a 87 3e cf c1 d3 3c af 4f 27 3e b6 ee 1e 3d
       0.26485053 0.025849251 0.1633899 0.03880187
000220 51 50 08 bd b2 93 23 3d 73 06 86 3d f4 d9 28 be
       -0.03327972 0.039935775 0.06544199 -0.16489393
000230 8d 0a 75 bd 19 de 4e bd 53 12 85 bc c0 f7 9f 3c
       -0.059824515 -0.050504778 -0.01624409 0.019527316
000240 94 46 0e bb 82 2e a0 3d c0 bf dc bc 77 da 39 3b
       -0.0021709548 0.07821371 -0.026946902 0.0028358975
000250 57 45 77 bd d5 6a f0 3c 85 42 d4 3d 9c 5c c7 bc
       -0.060368862 0.029347816 0.1036425 -0.024336152
000260 b4 35 ab bd d6 21 ad bd b5 9e ea bc 83 19 0a 3d
       -0.083598524 -0.08453719 -0.02864013 0.033715736
000270 02 8d 04 3d 72 b9 a2 3c c1 7f 1c 3e a1 30 22 bd
       0.032361038 0.019863818 0.15283109 -0.039597157
000280 15 4a 9b 3d b0 b6 91 bd 30 21 3d 3c 21 17 ff 3d
       0.075824894 -0.07114923 0.011543557 0.12455583
000290 d4 e5 7b bd da c9 80 3e ac 21 ca 3d 2b 32 85 3d
       -0.061498478 0.25154 0.09869704 0.065037094
0002a0 24 4c d3 bd 71 d6 be 3d 83 45 44 3d f5 34 3b bc
       -0.10317257 0.09318245 0.047917854 -0.0114262
0002b0 2a 3a 98 3d 64 9a 86 bd 48 58 49 39 7d 42 17 be
       0.07432969 -0.065724164 0.00019201741 -0.14771457
0002c0 44 a5 14 3c 38 f2 f2 3d 11 24 17 be bb 6f 0e be
       0.0090726055 0.11862606 -0.14759852 -0.1390981
0002d0 a1 db d3 bd e9 39 1f bd 46 66 1f bd 3b 40 8e 3d
       -0.10344625 -0.038873587 -0.038915895 0.06945845
0002e0 9e f8 ec bb 95 5b 0e bd f4 ef 09 bd 3d a3 32 bc
       -0.007231786 -0.03475531 -0.033676103 -0.010903177
0002f0 9b e6 7d bd b7 6d 1f 3d 59 43 d6 bd 2f 9b 2e bd
       -0.0619875 0.03892299 -0.10462064 -0.042628463
000300 f7 5c c5 bd 3a 7e c6 bb bc a1 90 3d c9 0a ef 3c
       -0.09636872 -0.006057528 0.070620984 0.029179947
000310 be 86 d6 3c 6a 17 6e 3e 25 57 05 3e f1 57 1b be
       0.026187297 0.2325112 0.13021524 -0.15170266
000320 eb d9 03 be e8 3a 68 3d e4 d9 7f 3b db 48 47 3e
       -0.12876098 0.056696802 0.0039039785 0.19461386
000330 4e ff 4f 3e 58 4a ca bd 56 c9 f5 3c 7c 34 d5 bc
       0.20312235 -0.09877461 0.030003231 -0.026026003
000340 37 c0 b2 bb 94 c8 11 bd 7d 9f a4 bd 81 9c f5 3d
       -0.0054550427 -0.035591677 -0.080382325 0.119927414
000350 98 02 d7 bd ac 17 c5 bb b2 2f 8f bc 5b 31 44 bc
       -0.104985416 -0.006014785 -0.017478798 -0.011974658
000360 70 45 91 3c 99 6f 9c bd 49 b6 df bd f9 61 4c bc
       0.017733306 -0.07638473 -0.1092344 -0.01247453
000370 d8 18 ea bd 12 aa 33 bd 4a 3f 72 be 0e 06 e3 3d
       -0.1143052 -0.043863364 -0.23656955 0.11085139
000380 26 03 be 3c 06 79 d7 bd fd 2b 54 3d 16 5a d7 bd
       0.02319486 -0.1052113 0.051799763 -0.105152294
000390 fc eb 66 3e ef d1 86 3d 66 5b 4a 3d 1e 93 c3 3d
       0.22550958 0.065830104 0.04940357 0.09549545
0003a0 fc 55 32 be e6 43 f6 bd dd 48 38 3d 62 35 8b 3a
       -0.17415613 -0.12024669 0.044991363 0.0010620768
0003b0 d8 78 7a 3c 9c 32 45 3d d3 3a 4c bd a5 05 32 3c
       0.0152876 0.048143968 -0.049860787 0.010865604
0003c0 e2 b8 98 3d 72 2e 83 bd d1 df 43 be da 1f 54 bd
       0.074571386 -0.06405343 -0.19128348 -0.05178819
0003d0 7a 54 00 3e 60 13 c8 bd ef 1e 47 bc 35 7e 92 bd
       0.12532225 -0.097693205 -0.012153371 -0.07152978
0003e0 5b cc be bd 64 e5 b3 bd 36 0f fa 3c 7e 5b d2 3b
       -0.093163215 -0.08783987 0.030524831 0.006419598
0003f0 57 7c 06 3e ab e2 5c 3d 4b 04 7d bd 7e e8 d5 3c
       0.1313337 0.053927105 -0.061771672 0.026111837

module.2.bias f4 [256]
000000 7c dd fd 3b 07 1a 5a bc c6 bb a0 bc dd 64 09 3c
       0.0077473503 -0.013311869 -0.019620787 0.008385864
000010 aa 02 fe 3a 32 8d d8 3b 21 36 5b bb b7 c7 06 3b
       0.0019379456 0.0066086287 -0.0033449011 0.0020565817
000020 aa e2 47 bc ca 68 4a 3c e5 7c 01 bb 0c cf 39 bc
       -0.012200037 0.012354085 -0.001975828 -0.011340868
000030 98 56 23 3c 42 b0 bd 3b e6 d1 28 3c 22 f4 fd 3a
       0.009969376 0.005788834 0.01030395 0.0019375125
000040 54 7a 9c bb d0 f1 da bb ba f8 44 3c 12 32 9d 3b
       -0.004775325 -0.0066816583 0.012022192 0.0047972286
000050 2e 62 cb bb 4f 25 65 3c 5e f6 fb 3b 58 ff d6 3a
       -0.0062067723 0.013985946 0.0076892814 0.0016403003
000060 a4 95 ed bb fc 3c 27 bc ee 48 34 bb 9a 84 88 3b
       -0.0072505046 -0.010207411 -0.002750929 0.004166198
000070 b8 6f 8c bb 32 b7 8a ba 6c 64 20 3c 12 98 89 ba
       -0.004285779 -0.0010583161 0.009789567 -0.0010497591
000080 8c 46 4d ba 8b 5b 91 3c 93 ac 92 bc cc 87 82 bc
       -0.00078306417 0.017743846 -0.017904555 -0.015933894
000090 7c c0 b0 bb 7e 86 78 bc 01 0e 13 3c 6e 54 c8 3b
       -0.0053940397 -0.015168784 0.008975507 0.0061135804
0000a0 4b e2 79 3b b5 3d 17 bb f4 ee d0 ba d7 a1 83 3b
       0.0038129266 -0.0023077552 -0.0015940354 0.0040170955
0000b0 53 74 37 bc d2 86 f5 3b c1 ea 66 bb 31 e6 87 bc
       -0.011197167 0.0074928785 -0.003523514 -0.016589256
0000c0 d8 6f cc b9 66 3c 8a bc a6 85 5f bc 1b cc 43 3c
       -0.00038993242 -0.016874503 -0.013642704 0.011950518
0000d0 36 8a 8d bc fc c5 82 bb 52 8c c4 bb 30 f7 c4 3b
       -0.017277818 -0.0039908867 -0.005998173 0.0060109124
0000e0 83 da a4 3b 71 74 12 bb 42 7b ab 3a 9f f7 01 bc
       0.0050309314 -0.0022347237 0.0013082998 -0.007932573
0000f0 b7 a1 32 3c 88 c3 0a 3a ac 17 71 bc 6b 3d 56 bc
       0.010902814 0.00052934187 -0.0147151165 -0.013076167
000100 e6 ea 99 bb 5e 54 82 bb f0 c3 06 bc ad a2 ba bb
       -0.0046971915 -0.0039773425 -0.008225426 -0.005695662
000110 fb 28 3f 3c 72 2b d2 bb 7c 45 a3 bc a6 af 8e bb
       0.011667485 -0.0064138705 -0.019930594 -0.004354435
000120 dc c0 39 3c 30 44 83 bb 08 ed 2e bb ce 56 c8 ba
       0.011337485 -0.0040059313 -0.0026691575 -0.0015284659
000130 62 6f 38 3b 98 1a e8 bb 10 b7 c6 39 d0 85 da bb
       0.0028142561 -0.0070832483 0.00037901895 -0.0066687837
000140 38 aa bf bb 59 6e a7 bc 04 40 f5 b9 ab d5 54 bc
       -0.005849149 -0.02043836 -0.00046777737 -0.012990396
000150 ce ee 1f 3c 96 5b 96 bb 77 3f 32 3c 65 fa 9e ba
       0.009761525 -0.0045885546 0.010879389 -0.0012129067
000160 dc ac d3 3a f2 81 9a 3b 25 f3 25 3c 5c 31 3c bc
       0.0016149539 0.0047151977 0.010128771 -0.011486378
000170 04 95 95 bb 16 88 19 bc 5f 9e c0 3b 58 4c 19 3c
       -0.004564883 -0.009370824 0.0058782543 0.009356581
000180 89 21 43 bb eb 6e 69 bc 78 52 96 bb 46 90 a1 bb
       -0.0029774627 -0.014247636 -0.0045874678 -0.004930529
000190 06 a5 46 bb 1a 32 a5 bb b8 e2 6c bc 7c 22 54 bc
       -0.0030310764 -0.005041373 -0.014458351 -0.012947675
0001a0 71 02 81 bc 9c 2e e4 3b 1d f1 9b 3c d3 4a 86 bc
       -0.015748234 0.006963564 0.01903587 -0.0163931
0001b0 56 f4 7e bc b7 cb 82 bc 3f 84 54 3c 38 de 8b 3a
       -0.015561184 -0.01596628 0.012970983 0.0010671085
0001c0 a4 28 36 bc 1d 44 05 bc 14 d6 09 bb ad 85 48 bb
       -0.011118088 -0.008133915 -0.0021032142 -0.0030597255
0001d0 3e 78 e2 bb a9 fd 13 bb 32 6a b4 3b aa 73 c8 3b
       -0.0069113066 -0.0022581613 0.0055058235 0.006117304
0001e0 20 d6 98 3a e2 47 f2 3b 24 b3 28 ba d9 cd 45 bc
       0.0011660494 0.007393823 -0.00064353854 -0.012073004
0001f0 f7 a7 15 3b b2 d9 10 bc ea 60 25 bc 82 ef a5 bc
       0.002283571 -0.008840965 -0.010093907 -0.020255808
000200 86 c5 b5 bb 8f 26 70 bc 45 65 c9 ba b1 3d 86 3c
       -0.0055472283 -0.014657631 -0.0015365264 0.016386839
000210 f3 d5 4b bc 68 0f 88 ba 5d d3 1c bc d7 24 5c bc
       -0.012441146 -0.0010380568 -0.009571877 -0.013436518
000220 ca df 89 bb 62 4e 5f bc e5 70 78 bb 72 97 97 3c
       -0.004207586 -0.013629528 -0.0037909087 0.018504832
000230 bf 25 39 bb 8e 80 8f bb 11 6e 75 3b 2d 7c 36 bc
       -0.0028251258 -0.0043793386 0.0037449638 -0.011138004
000240 2a e8 01 bc f6 2d 2d ba b7 58 85 3c 94 a3 f2 bb
       -0.007928887 -0.0006606275 0.016277654 -0.007404754
000250 ed 1b 74 bc d8 26 78 ba a7 9f 65 bc 1e 50 a6 bb
       -0.014899236 -0.00094662374 -0.014015115 -0.0050754687
000260 b5 1e 37 bc ad 19 71 bb e4 2e 11 bc 3d 69 7d bb
       -0.011176755 -0.0036788986 -0.008861277 -0.0038667463
000270 75 d9 56 bb b5 af 4d bb 22 a9 63 bb 24 86 d0 ba
       -0.0032783423 -0.0031385247 -0.0034738262 -0.0015909118
000280 cc b7 0a bb df a8 22 bc eb 1a 35 3c c2 f3 df ba
       -0.002116668 -0.009927957 0.011053781 -0.0017086195
000290 40 83 c8 38 91 cc 27 3b 18 63 21 b9 cf f8 a8 3a
       9.5611904e-05 0.0025604109 -0.00015391072 0.0012891534
0002a0 e7 af a1 bb a2 13 e1 bb 05 a8 39 3c 6e f8 df ba
       -0.0049342993 -0.0068687955 0.011331563 -0.0017087588
0002b0 61 22 17 3c 6d 28 1e 3b dd 5b c0 3a 33 3c 04 bc
       0.009224505 0.0024132982 0.0014675815 -0.008070993
0002c0 76 59 c8 3a f7 23 54 bc 34 b8 02 bc 86 a1 7e 3c
       0.001528545 -0.012948028 -0.007978488 0.01554144
0002d0 5a 8b 93 3a ee 98 22 bc 8c 31 f1 3b 5c 03 2f bc
       0.001125674 -0.009924157 0.007360643 -0.010681953
0002e0 de ae 28 3a dd 14 28 bb b6 74 5b bb 51 6b 88 bb
       0.00064347486 -0.00256472 -0.0033486313 -0.0041631837
0002f0 7d b5 63 bb 98 6a 5d bc 3c 8d 80 3b 8c ee a4 bc
       -0.0034745627 -0.013514183 0.0039230864 -0.02013328
000300 d6 47 7b 3b 36 a2 f6 ba 00 64 19 b7 d9 91 0e bc
       0.0038342378 -0.0018816653 -9.142794e-06 -0.008701765
000310 10 90 28 3c 24 8e 3a 3c 90 93 33 bc 4f 1b 32 bc
       0.010288253 0.011386428 -0.010960475 -0.010870769
000320 c2 7e c6 3b d4 3f 74 3a 4f 81 1c 3b 94 08 9a bb
       0.006057591 0.00093173725 0.0023880785 -0.0047007296
000330 a8 3b ab ba 79 bc 46 3c 40 88 77 3c 4b db f8 ba
       -0.0013064044 0.012129896 0.015108168 -0.0018986253
000340 41 1c 2b bc 15 14 24 3b 1c 9b dc bb 71 22 27 bc
       -0.010443748 0.0025036384 -0.0067323577 -0.010201083
000350 c6 fd 70 3b d6 8b 9e 3b ae 6e 00 3c e7 06 02 3b
       0.0036772355 0.004838447 0.007838888 0.001984054
000360 53 ae 84 bb 6e b5 d6 bb 8e f3 d3 3b a0 40 0e 39
       -0.0040491014 -0.00655239 0.006468243 0.0001356625
000370 5d 85 82 bc 76 89 a2 bb ae 4c 3c bb 7b b9 99 3c
       -0.015932733 -0.0049602343 -0.0028732228 0.018765202
000380 92 4f 5b 3c a3 05 9c 3b 25 2e 00 3c f5 dc 03 bb
       0.01338567 0.004761414 0.007823502 -0.0020120714
000390 90 5d 89 bb 5c 6b de bb 02 93 dd 3b fa 79 4c bc
       -0.0041920617 -0.0067877006 0.0067619095 -0.012480253
0003a0 70 d0 02 3c 5c 6a bc 39 2f 2e 55 3c 08 5d b7 bb
       0.007984266 0.00035937398 0.013011499 -0.005595807
0003b0 ec b4 dd bb f3 5c ef 3a 67 87 34 bb 7c 7e 80 3c
       -0.0067659523 0.0018261954 -0.0027546526 0.015685312
0003c0 00 7d ab bb 27 30 68 bb 2d 9c b0 bb e9 1c 8e 3c
       -0.005233407 -0.0035429092 -0.0053897114 0.01734777
0003d0 9d d3 cf ba 4c c7 f7 3a 60 01 fa bb f4 f3 c1 3b
       -0.0015855912 0.0018904 -0.0076295584 0.005918974
0003e0 b8 bf ee 3b bc 74 be bb 6f 0b 31 bc 52 8a 98 bb
       0.0072860382 -0.0058122557 -0.010805949 -0.004655161
0003f0 20 6c 25 bc 7c 2c 9d 3c cd c5 00 bc 3c 64 62 bc
       -0.01009658 0.01918625 -0.007859659 -0.013817843

module.4.weight f4 [128, 256]
000000 c9 b6 e9 bc 3b 01 95 3d 02 93 89 3d 5c 8e d9 bc
       -0.028529542 0.07275625 0.06717493 -0.02655714
000010 6e 6d e7 3a 47 f8 ce bd 26 a8 f5 3c dd b5 80 3d
       0.0017656514 -0.10105949 0.029987406 0.06284688
000020 58 fa 30 bc 3d 74 23 3e 88 82 07 3d 05 c2 89 bc
       -0.010801874 0.1596231 0.03308347 -0.016816149
000030 6f 79 22 be 71 61 8a 3c fa 5e 21 3e 9d 21 bd 3d
       -0.15866636 0.016892167 0.15758887 0.09234927
000040 48 31 de 3c 9f 2b 2a 3e 9e b4 af 3c 93 43 e6 3d
       0.027123109 0.16618203 0.02144843 0.112433575
000050 12 d0 91 3e 36 21 27 be 7f f4 14 be 37 c2 b0 bd
       0.28479058 -0.16321263 -0.14546393 -0.086307935
000060 20 13 8f 3d f9 33 c4 bc 80 a1 af bd 49 00 6b 3d
       0.0698607 -0.023950564 -0.085757256 0.05737332
000070 e6 d1 3a bc c9 e9 23 3d d0 8d c2 3c 44 f5 09 bc
       -0.011402583 0.040017877 0.023749262 -0.008420292
000080 85 39 af 3d 54 68 37 bc ad 18 87 bd 60 79 4e 3c
       0.08555893 -0.011194307 -0.065965034 0.01260218
000090 32 25 01 bd 9a 24 3c be e9 8f fc 3c db 6d 58 3d
       -0.031529613 -0.18373337 0.03083034 0.05283914
0000a0 39 1f 8d bd 70 20 26 3d 4f 28 0c 3e 9a 6c fb bd
       -0.06890721 0.04055828 0.13687252 -0.122765735
0000b0 f8 66 7e 3c b1 57 25 3e 50 fb a3 bd 9e 63 0f 3e
       0.015527479 0.16146733 -0.080069184 0.14002845
0000c0 4c 2a f2 3c 49 87 f9 3d 53 6f 4b bc f9 3f 63 3d
       0.029561184 0.12184007 -0.0124166785 0.05548093
0000d0 33 ac b2 bc 60 b5 cf 3d eb 9c 88 bd f5 65 9f bc
       -0.021810627 0.101420164 -0.06670555 -0.019457797
0000e0 45 8e c0 3d 33 5d 0c 3e 3c e1 e9 bd 88 68 06 be
       0.09402136 0.13707428 -0.11419913 -0.13125813
0000f0 60 e1 8f bc 0b 96 f0 3d 56 d6 5b 3e 12 f1 83 3c
       -0.017563522 0.117473684 0.21468481 0.016106162
000100 98 75 a3 3c 5e 59 0d bd 77 de e6 bd 90 3d a9 3d
       0.019953534 -0.034509055 -0.112729006 0.08263695
000110 c9 8d 0d 3e 50 68 21 bd ca 86 e7 3c 05 f6 b4 bd
       0.13823618 -0.03940612 0.028262515 -0.08835987
000120 67 39 81 3e 0f 36 59 bd bc 25 0d 3d 11 81 ba 3d
       0.25239107 -0.05303007 0.034459814 0.09106649
000130 82 db f2 3c 74 a1 d2 3d a6 b4 75 be c9 6b 10 bd
       0.029645685 0.10284701 -0.23994693 -0.035259042
000140 c4 95 0a be 16 b1 c0 3b 1b 6b 71 3d 1a b5 8f 3d
       -0.13533694 0.0058804853 0.058940034 0.07016964
000150 15 5e c1 bd 9c 9b 2a 3d 83 45 8e 3d 2d ba 33 3e
       -0.09441773 0.041652307 0.06946852 0.17551489
000160 7f f2 04 3d 83 c5 2c be 97 82 29 be 68 f0 24 bd
       0.032457825 -0.1687222 -0.16553722 -0.04026833
000170 30 2d 93 bd 4d 3e 26 3e aa 6c 56 3d 10 0e d1 bb
       -0.07186353 0.16234703 0.052349724 -0.00637985
000180 5a 22 a4 3d 51 93 21 be 02 2b 58 3d 66 9a d2 bd
       0.080143645 -0.15778853 0.05277539 -0.102833554
000190 5f 38 ac 3c 7f 19 af 3d f4 72 b4 3d 6b 07 71 3d
       0.021022974 0.08549785 0.08810988 0.058844965
0001a0 7e 16 e8 bd 25 b5 c7 bc 94 c9 46 3d db be ce 3d
       -0.11332415 -0.024378369 0.048532084 0.100949965
0001b0 a2 da 09 be 28 d5 8c 3d 3d 61 bb 3c 65 1b 65 bd
       -0.13462308 0.06876594 0.022873515 -0.05593433
0001c0 f4 c5 46 bc c9 85 77 bc a4 fd 37 3e 02 d2 1d be
       -0.012132157 -0.01510758 0.1796785 -0.15412143
0001d0 3d 21 07 3e fd 0e 7e bc a4 3e d2 bd 51 9d a6 bc
       0.13196273 -0.015506503 -0.10265854 -0.020338686
0001e0 c3 59 69 3d e9 89 79 3d f5 af 88 3d 24 c6 7e bc
       0.05697037 0.060922537 0.06674186 -0.01555017
0001f0 c6 a7 47 3d 5b cc 0e bd 91 00 f3 bd 96 21 95 3d
       0.048743986 -0.034862857 -0.118653424 0.07281797
000200 db 1f 01 3c 73 51 55 3c 2b c2 d2 bd 95 ac 83 be
       0.00788113 0.013019907 -0.10290941 -0.25717607
000210 51 1b 05 3e b5 1f 96 3d 8d 61 a9 3c 9a 2c 63 bc
       0.12998702 0.073302664 0.020676399 -0.013865614
000220 e7 30 0c 3d 69 1c e4 3d cd db 53 be 90 25 58 3e
       0.034226324 0.11138231 -0.20689316 0.21108079
000230 ed 29 a8 3d eb 3d 77 bd a8 fd 45 bd 41 b5 79 3c
       0.08211122 -0.060361784 -0.04833761 0.015240968
000240 8c 15 69 3e 64 1f 8e 3d 8e b6 2c 3b 6f b2 a4 3c
       0.22762126 0.06939581 0.0026353928 0.020104615
000250 10 bf 4b 3d 89 0f e5 3d 67 1b e5 bc e5 85 83 3d
       0.04974276 0.11184604 -0.027967168 0.06422023
000260 ec ad 66 be 39 67 13 3d af 8d 8a 3d c8 69 37 bd
       -0.22527283 0.035987113 0.06765305 -0.044778615
000270 3f 4b 9b 3d 78 ea b9 bc 65 40 2a be 08 76 1f be
       0.075827114 -0.022694811 -0.16626127 -0.15572369
000280 04 d1 d6 3b 23 25 7f bd 5b 0b 1a bd 7a a7 81 bd
       0.0065556783 -0.062291276 -0.037608486 -0.06330772
000290 a5 af 13 3e b6 f3 84 3e 38 d0 ee 3c 54 6e 77 bd
       0.14422472 0.25967187 0.02915202 -0.06040795
0002a0 1c 78 6b be 5a ef 29 3e ef 4d cb 3a 49 cf cd 3d
       -0.22995037 0.16595212 0.0015510897 0.10049302
0002b0 80 27 4d bc 70 b7 cf 38 2f 85 a6 bd 29 ef b5 3c
       -0.012521625 9.904697e-05 -0.081308715 0.022208767
0002c0 59 de a2 3d e3 22 a5 3d 3e 5f 45 bd b0 fd 29 3b
       0.07952566 0.08063295 -0.048186533 0.0025938563
0002d0 b1 98 c1 3d 4a 25 4c bd 84 f0 f0 bc bb 82 0f 3e
       0.09452952 -0.04984025 -0.029411562 0.14014713
0002e0 e5 3a aa bd ba c3 6f 3e 9b 5f 15 bd c9 b4 a5 3b
       -0.083120145 0.23414508 -0.03646813 0.0050569517
0002f0 81 2e 7c 3d e5 83 0b 3d 7c 05 83 3c 59 eb 57 be
       0.061567787 0.03406133 0.015993826 -0.21085872
000300 a0 b3 04 bd d5 66 79 3d bc 76 d7 bc d0 15 04 3e
       -0.032397866 0.060889084 -0.026301734 0.12898946
000310 11 92 73 bd ab e7 11 3d 4d 33 5b 3e bc c1 a1 3c
       -0.05946547 0.035621326 0.21406288 0.0197457
000320 b4 fa 01 3d 02 85 26 3b a0 38 d5 3d b9 7f 84 bc
       0.03173323 0.0025408869 0.10411191 -0.016174184
000330 34 b2 67 3d 79 fb ea 3d e5 ba 80 3d 78 a9 45 3d
       0.056566432 0.11473746 0.06285647 0.04825732
000340 a1 a9 55 3b 6e 65 0c bd eb fb a3 3d cc 87 cc 3c
       0.0032602327 -0.03427642 0.08007034 0.024967097
000350 c5 b4 40 3e 68 f5 f0 bc 8a 3d 85 bd 1b f3 c6 bd
       0.18818958 -0.029413894 -0.06505878 -0.097143374
000360 11 36 a1 bd 54 d7 83 3c ab 06 a0 bd 70 58 52 bd
       -0.078716405 0.016093887 -0.07813772 -0.05135387
000370 e2 da 1f bd 44 2d 08 3c 59 66 3f 3e 47 57 94 bd
       -0.039027102 0.008311573 0.18691386 -0.07243209
000380 7b 1a e9 3d f2 a8 aa 3d 78 55 e4 3d 0c aa b0 3d
       0.11382004 0.08333005 0.11149114 0.08626184
000390 17 7b c7 bd 2e 3d 08 be 38 7d 6d bc c5 bc 84 bd
       -0.097402744 -0.13304588 -0.0144951865 -0.064813174
0003a0 46 63 18 be 1f bd 9a 3c 89 79 a1 bd e1 f1 0c be
       -0.1488162 0.018889008 -0.07884509 -0.13764144
0003b0 d5 cd 35 3e 79 87 9d bc 67 2e 00 3e 6c a5 37 3e
       0.177543 -0.019229637 0.12517701 0.17934197
0003c0 2d a2 09 3d ec d4 8c 3d d2 0b 3a bd 2e 4e c2 bd
       0.03360193 0.06876549 -0.04542143 -0.09487568
0003d0 a1 5f 74 bb 53 ab 4f be 85 4e 1f bd 17 eb 8b bd
       -0.0037288445 -0.20280199 -0.03889324 -0.06831949
0003e0 7d 7e 1f bc eb ca 9c 3d 08 c2 95 ba a8 5e 4e 3d
       -0.009734747 0.07655891 -0.0011425624 0.05038324
0003f0 61 a2 ac bd 03 a1 e2 bd f2 f7 9d 3d c3 a3 15 3d
       -0.08429409 -0.11065867 0.077133074 0.03653313

module.4.bias f4 [128]
000000 bd 0d a4 3b 24 f6 63 3a d6 93 cc 3b ee 16 83 bc
       0.0050065205 0.00086960406 0.0062432094 -0.016002145
000010 a5 57 a2 bc 3c c9 ed 3b 36 ee cc 3b bb 04 5b bc
       -0.019817183 0.007256655 0.006253983 -0.013367827
000020 cc c4 cb ba aa 66 fa 3a c6 2b 9b bb af 71 0a 3c
       -0.0015546321 0.0019104083 -0.004735443 0.008449956
000030 9b c1 50 bc 8f 0e 8a 3b 45 eb c0 3a fa 30 cc bb
       -0.012741472 0.0042131613 0.0014718553 -0.0062314244
000040 08 83 24 ba f7 95 b6 bc d5 64 21 3c 6d 79 5c bb
       -0.00062756287 -0.022288306 0.0098507 -0.0033641711
000050 b8 dd 11 3c 29 a2 0d bc 16 73 b3 3a f4 34 d2 ba
       0.0089029595 -0.008644619 0.0013690914 -0.001603751
000060 c5 16 56 bb 68 8b f1 bb 6a ac c8 bb 6e 6c de bb
       -0.003266738 -0.007371355 -0.006124069 -0.006787828
000070 57 43 48 bc 33 0d 39 3c ae 43 d1 ba 98 6f 85 b9
       -0.012223086 0.011294651 -0.0015965605 -0.0002545088
000080 21 d0 05 bb da 5f 29 3c 10 69 3e bc b0 d5 2f 39
       -0.0020418244 0.010337794 -0.011621729 0.00016768905
000090 38 80 20 3c 43 6c a2 3b b4 af e4 3b 32 af 7f 3b
       0.009796195 0.0049567535 0.0069789533 0.0039014337
0000a0 15 36 68 3b 2e e6 3e 3c 75 40 6e bc ac 43 09 3b
       0.0035432626 0.011651559 -0.014541735 0.0020944877
0000b0 3a fa 52 bb 0c 0e 58 bc 66 73 29 3c e7 b4 06 bb
       -0.0032192604 -0.013186943 0.010342455 -0.0020554604
0000c0 fe c8 f1 bb 1a 65 ea 3b 8a 93 1e 3c 50 94 8e 3c
       -0.0073786965 0.0071531655 0.009678731 0.017404705
0000d0 3a 75 d3 3b 6b a3 19 bc fe ed 2f 3c 3e 41 bb 3b
       0.0064531835 -0.009377341 0.010737894 0.0057145646
0000e0 80 d9 f8 b8 90 f2 e8 bb 44 6f 1a bc 54 d4 04 3a
       -0.00011866074 -0.007108994 -0.009425942 0.000506704
0000f0 b4 ea 0c bb 88 a2 95 3b c3 81 8b bc 68 9f 1c bc
       -0.0021502199 0.0045664944 -0.017029649 -0.00955949
000100 f8 b4 4e 3c 15 5f 01 bc 2b 30 40 bc 8b 9c 33 bc
       0.0126163885 -0.0078962045 -0.011730234 -0.010962616
000110 c2 3e c8 bb ce ec b2 ba 05 35 34 3c 1a ba db bb
       -0.006110997 -0.0013650896 0.010998969 -0.0067055346
000120 00 e2 75 3a 41 c3 0a 3b c4 a3 a6 ba 6c 1c 98 bc
       0.0009379685 0.002117351 -0.0012713601 -0.01856824
000130 e1 34 6e bb 0d d4 34 bb f2 9c 23 bc 40 5f 58 39
       -0.0036347436 -0.0027592212 -0.009986149 0.00020634849
000140 09 3a 73 3b c8 20 58 3c ae 32 0b bb 35 1d 8b bc
       0.003711345 0.013191409 -0.0021239924 -0.0169817
000150 4c 53 1c bc 6a a6 d5 3a c4 dc 77 3c 4f af 3b bb
       -0.009541344 0.0016300206 0.015128318 -0.0028638428
000160 a6 5f 16 bc 70 78 70 bb 2a a9 1d bc 5e 53 c7 bb
       -0.009178078 -0.003669288 -0.009622851 -0.006082936
000170 d8 7c 6a bc 24 ce 8a bc f3 a7 0f bb c8 2c 90 bb
       -0.014311992 -0.016943999 -0.0021920174 -0.0043998696
000180 01 5f c0 bc 64 5e af 39 04 eb 4d bb c4 af bf bc
       -0.023482801 0.00033448928 -0.0031420598 -0.023399241
000190 fe 37 e2 bb 9b a1 a5 3c 3d d5 57 3c 55 4c 20 3c
       -0.0069036474 0.020218661 0.013173399 0.009783824
0001a0 f2 72 32 3b c0 2c 0b 3c 39 11 22 bc 08 a7 94 3b
       0.0027229157 0.008494556 -0.0098918015 0.0045365132
0001b0 f8 8e 70 bb fe 83 57 3c dc af 81 bc c9 90 a7 3b
       -0.003670631 0.013154028 -0.015830927 0.0051136953
0001c0 ec 76 29 bc bf 27 5f bb aa ec 59 bc 00 7f 1d 3c
       -0.010343295 -0.003405079 -0.013301054 0.009612799
0001d0 be a7 62 bc a8 c3 8b bb 58 da 42 bc 62 b6 0a 3c
       -0.013833938 -0.0042652674 -0.0118928775 0.008466335
0001e0 70 17 2e 3c b1 a5 be bc 86 ab 6c bc ee 42 62 3b
       0.010625705 -0.023272367 -0.014445191 0.0034524756
0001f0 00 e3 c0 bb e1 15 ad bb 92 88 95 bc 7c 2f 7e ba
       -0.0058864355 -0.005282149 -0.018253598 -0.0009696407

module.6.weight f4 [1, 128]
000000 4b 06 f6 bd 94 ae 6d 3e 10 9a d7 bd 20 82 6b 3e
       -0.12012919 0.23211128 -0.10527432 0.22998857
000010 79 27 41 3d 25 1f 28 bd 47 ed 4e be f4 4e 1c 3c
       0.047156785 -0.041045327 -0.20207702 0.009540308
000020 0f af 14 bd 1d a1 1c 3e da 71 d7 bd 89 83 96 be
       -0.03629976 0.15295835 -0.10519762 -0.29397228
000030 0f 83 86 3e 4d 39 15 bc f3 0f f2 bd 97 06 41 3e
       0.26271865 -0.0091079 -0.11819448 0.1885017
000040 af 49 19 be e8 15 85 3e 4c 53 d8 bd b0 f2 99 be
       -0.14969514 0.25993276 -0.105627626 -0.30067968
000050 b6 05 12 bd 51 e6 17 3b b0 00 6c be 71 4c b8 bd
       -0.035649978 0.002317805 -0.23047137 -0.08998955
000060 ed 04 ab be 0f 06 36 3e 68 03 7a 3e 90 54 d8 bd
       -0.33402196 0.17775749 0.24415362 -0.10563004
000070 bf fe c8 3c 50 8d a6 bc 91 49 28 3e 1d 48 7d bd
       0.024535535 -0.020331055 0.16434313 -0.06183635
000080 a0 85 88 3e 7c 27 f5 3d 4e bd 1b 3d 93 a9 73 3b
       0.26664448 0.11970422 0.038022332 0.0037179932
000090 a5 f3 6e bc e2 78 14 be e7 64 9e bd d1 b6 da bd
       -0.014584457 -0.14499238 -0.07734089 -0.10679401
0000a0 1b f9 78 bd 44 b9 b2 bd 31 3e 0d 3e 60 01 38 bd
       -0.06078444 -0.08726743 0.13793255 -0.044923186
0000b0 10 ad 81 3e 78 ae b8 bb ba 5a 20 bd 0f 70 9b bd
       0.2532735 -0.0056360327 -0.039149024 -0.07589733
0000c0 89 86 78 bd ee f2 a7 be b8 fc 9f bd 84 44 af bc
       -0.060675178 -0.32802528 -0.07811874 -0.021394975
0000d0 6b 81 f4 bd af 80 f5 3d 9f 16 9a bd 2e e2 17 be
       -0.11938747 0.11987435 -0.07523846 -0.14832374
0000e0 3a e7 36 be 15 4b 00 3d 68 bd ee 3b f4 29 3e bd
       -0.17861643 0.031321604 0.0072857626 -0.04642673
0000f0 e6 15 0e be f8 dd 51 3d 83 71 0e 3c 3d 08 8e 3c
       -0.13875541 0.051237077 0.0086940555 0.017337913
000100 fa 03 af bd 57 c4 ed 3c 6b 62 92 3d f8 e4 a5 bd
       -0.0854568 0.029024286 0.07147678 -0.08100313
000110 20 3c 02 be c8 7b 87 3c e7 a8 79 bd 71 4b 29 3d
       -0.12718248 0.016538516 -0.060952093 0.041331712
000120 ef 4a 61 3e 02 4a 9e 3b 7c 11 6f bd 7e e2 ab 3e
       0.22001241 0.0048305998 -0.058366284 0.33571237
000130 f5 e3 92 bd f9 71 d1 bd 69 b3 8a 3e 01 35 e2 bc
       -0.071723856 -0.10226817 0.27090004 -0.027613165
000140 06 d1 28 3d d8 59 b3 bc a9 91 29 3c 53 2e ed 3d
       0.041214965 -0.021893427 0.0103496695 0.11581101
000150 ab 0b 75 3e 13 6c 10 be 13 36 77 bd bf 53 8c 3d
       0.23930232 -0.14103727 -0.060354304 0.06851911
000160 a6 ea c4 3a bb 02 1b bd 9f 1d 04 3d 4e 8f 6c 3e
       0.0015023544 -0.0378444 0.03225481 0.23101541
000170 ea c3 48 3e e0 ce 99 3a 82 78 98 3b 61 23 1b bd
       0.19605985 0.0011734627 0.0046530375 -0.037875537
000180 1c 44 93 3b 7f 41 c1 bd 45 ed 34 3b 19 b1 4f 3d
       0.0044942033 -0.094363205 0.0027607244 0.050706003
000190 71 66 cb bd fa 0e 21 bd f5 1d 9e bc b1 3a db bd
       -0.099316485 -0.039320923 -0.019301394 -0.10704554
0001a0 da dd 19 be 95 d6 ca be b3 3a fd bd 7c b4 9d bd
       -0.15026036 -0.39616838 -0.123647116 -0.0770044
0001b0 12 cf 8d be c2 8f ec bd b4 d4 c4 bb 32 92 bb bd
       -0.27697045 -0.11550857 -0.0060068015 -0.09158744
0001c0 f2 62 31 3e 3d 2d df 3c 0d 06 21 3e 4f 7e 9e ba
       0.17322901 0.027243251 0.15724964 -0.0012092086
0001d0 20 b5 15 3e 6e 39 48 3e 59 da e5 bc b2 d0 9e bd
       0.14619875 0.19553158 -0.028058218 -0.07754649
0001e0 f6 98 cc bb 4f 5d 45 3e 2b 5d f4 3d 4f 1a 4c bc
       -0.0062438203 0.19273876 0.11931833 -0.012457444
0001f0 21 85 82 3d f0 fc c7 3d 39 f3 a7 3d c2 96 d6 3b
       0.063730486 0.09765041 0.08200688 0.0065487335
