pen1.pth (torch, 275820 bytes, 6 tensors)

network.0.weight f4 [256, 6]
00000000: 51a2 173d dd8b 643d 38e3 97bf 93b5 2a3e
00000010: ca39 473c 1ad5 a2bf dc49 5dbd 68f0 be3c
00000020: ce08 373f 57ed de3e e9b3 9dbe 882c 453f
00000030: c80e 973e 9d67 033e afbb 0d3e 645e a1bd
00000040: 3338 abbe 8339 5dbe f061 f9be 5510 bc3e
00000050: e538 473e 1659 b13d dedc 44be fa4b 56be
00000060: 8e1c 85bd 7090 cf3d 4b4b e63d cad4 39be
00000070: a64f 8fbe 1716 60ba cc3a 4fbe c6a6 0fbf
00000080: f7aa 853e 7792 c13e ac5f 933e ed5f 863e
00000090: 8130 ab3e 6636 bdbe 7921 1abe 2145 e1be
000000a0: 00b7 f1be 097a babd b0f7 caba 7edd 1c3c
000000b0: 102f 083f c11b 80be 7103 57be ef67 d23e
000000c0: 258c 3abf fd38 703e 4728 2cbf 0a54 ad3d
000000d0: 9933 d93d 9240 dcbe 5010 093d a11c 993c
000000e0: c2b6 0a3f 6436 bb3e 0d81 11be 7e04 273f
000000f0: b5c7 66be 3da5 eb3e becd f73e 91e4 cebd
00000100: fb9f d5bd c1e3 bc3d be77 96be 29f7 373e
00000110: 1acf 4f3d 98cc 5dbf 05f8 df3d f2f4 a83d
00000120: 4368 cdba f11a d3be 1166 b7bc a000 10bd
00000130: bc15 13bf d852 913e 3292 83bd 0b96 44be
00000140: 321d 013e 702c 303e 1b36 0cbf 2eba 723f
00000150: 99d1 64be dd2f 1ebe bd82 c5be f514 cf3e
00000160: f516 e93e b59b 10be e822 08bf 012b 443e
00000170: 345c 893e 9a34 00bf 5ae6 273e 1abe 553e
00000180: 5258 903c 2546 14be 3057 71be 85fc e63e
00000190: a4f8 75be 97fc df3e 658d 30bd ae2e 47be
000001a0: f689 4a3f 49a3 f23e 01ce 8bbe 9bff 883f
000001b0: 8e7c c83e dab5 0dbc 63db c8be 747d 27bb
000001c0: 807d 26bc da69 6f3e b6e8 733d 4754 b7bc
000001d0: f1cd 65bf aa4a 08be d7d5 843e 9ca4 4fbf
000001e0: 526f 0ebf 4ce5 403e b47f 013f cc2d a63d
000001f0: 3962 6fbe 8de1 b9be c198 c03d 87a5 b63d
00000200: a6b7 e3be e642 bbbd f237 a63e 69f1 393d
00000210: 013a 173e b724 c8be 9ff2 513e a64d 04bf
00000220: 1667 4d3e b866 12bf 9692 1bbd dbdc fa3d
00000230: a6e3 34bf 3e4f eb3c 1865 0cbe 66f6 22bf
00000240: 75dd 9d3c 29a0 c2be 2fb3 debe 43d0 b33e
00000250: 25a4 b83d f21e dcbd f15f b3be 7dbd a6bd
00000260: b2fd 183f 9191 9ebe a494 6dbe 9c29 083f
00000270: 6143 c93e db72 c23e adcf 10bf 8943 51be
00000280: f9f0 f53e 7461 edbe 22eb 15bf 9c8d c4be
00000290: 9d30 5d3c 33c6 4cbe 6351 b33e f2e9 f23c
000002a0: fc21 91bc 06d9 82bd 1388 f13e adbe 31be
000002b0: a9ea 0dbe e664 b23e c021 8f3e 7773 6b3d
000002c0: 2bec 013e 7cfb 453e 6c29 e83d c1f9 3fbf
000002d0: d396 4b3e 4da5 5fbe 8c27 d1be fab0 d43e
000002e0: 68be d2be b229 143e 9754 6d3e 5141 03bf
000002f0: 935f 17be 9471 2c3d 1649 863c 4034 37bf
00000300: de0c 003e 476f 963e c2b7 b43d 727f 31bf
00000310: 070c 4ebd ed0c 5fbb 0ad5 9ebe 13cc 173e
00000320: f439 c63e 8de9 a23e 3e4e 60be 7674 15be
00000330: 5eb5 00bd 600c 38be 757b e8be ac45 15be
00000340: d32e 89be e863 de3e 8ae9 1c3c d2c2 f6be
00000350: 639d 00bf fc8a 353e cce6 f63e 566c 0fbe
00000360: 7195 33bd 7e42 b1bc 4a08 0d3f 575f d5be
00000370: d363 29be 3521 023f 4f42 1f3d a394 a6bc
00000380: a468 5f3e 2002 f93d 3109 f0be d962 c9be
00000390: fa61 8f3c 3ef8 8fbe 8aa1 2c3e a22f 7f3e
000003a0: 1d86 b5be 30d0 de3f 9a27 283e c089 c23c
000003b0: da81 1bbe 1a86 f5bd c042 4c3b d91f a1bd
000003c0: ebab 703e 5636 10bf 729d bb3e 8b0d 953e
000003d0: 6f55 aebe 8667 23be 2d04 e1be 0a4b b5be
000003e0: a60f 65be 35c2 8abe e8c3 42be 2a29 1b3f
000003f0: 67ca a83e cef4 7b3d cf14 4dbe 57c4 0cbf
0.03702003 0.055797447 -1.1866217 0.16670828 0.012159774 -1.2721283 -0.054025516 0.023307994
0.7149781 0.4354045 -0.30801323 0.77021074 0.29503465 0.12832494 0.13841127 -0.07879332
-0.33441314 -0.2160397 -0.48707533 0.3673121 0.19455297 0.0865957 -0.19224879 -0.2092742
-0.06499587 0.10134971 0.1124483 -0.18147579 -0.27990454 -0.00085482135 -0.20237273 -0.5611385
0.26106998 0.37807056 0.2878393 0.2624506 0.33435443 -0.36955565 -0.15051831 -0.43998054
-0.4720993 -0.091053076 -0.0015485194 0.009574292 0.5319681 -0.25021175 -0.20997407 0.4109492
-0.72870094 0.2345924 -0.6724896 0.08463295 0.106055446 -0.43018013 0.033462822 0.01869041
0.54185116 0.36564934 -0.14209385 0.6524123 -0.2253712 0.46024504 0.48399156 -0.10102189
-0.104309045 0.09223128 -0.2938823 0.17965378 0.050734617 -0.8664031 0.10935978 0.082498446
-0.0015671331 -0.41231492 -0.022387536 -0.035156846 -0.5745504 0.28383517 -0.06424369 -0.19197862
0.12608793 0.17204452 -0.5477006 0.9481534 -0.2234558 -0.15447946 -0.38576308 0.40445676
0.45525327 -0.14121898 -0.5317826 0.1915703 0.26828158 -0.50080264 0.16396466 0.20873299
0.01762024 -0.14479883 -0.23568416 0.45114532 -0.2402063 0.43747398 -0.043103594 -0.194514
0.7911676 0.47390202 -0.27305606 1.0703005 0.39157528 -0.008649314 -0.3922988 -0.0025556954
-0.0101617575 0.23380223 0.059548102 -0.022379054 -0.89767367 -0.13309732 0.25944397 -0.8111055
-0.5563861 0.1883747 0.50585485 0.08114204 -0.23377313 -0.36304894 0.094041355 0.089182906
-0.4447605 -0.09143619 0.32464558 0.045396242 0.1476822 -0.3909051 0.20502709 -0.5168098
0.20058855 -0.57187986 -0.037981592 0.12249156 -0.70659864 0.028724309 -0.13710439 -0.63657224
0.019270638 -0.38012818 -0.4349608 0.3511983 0.09015683 -0.1074809 -0.35034135 -0.08141611
0.5976211 -0.30970433 -0.23201233 0.5318849 0.3930922 0.37978253 -0.5656689 -0.20435919
0.4803541 -0.46363413 -0.5856191 -0.3838929 0.01350036 -0.19997482 0.3502303 0.02965257
-0.0177164 -0.0638905 0.4717413 -0.17357893 -0.13859047 0.34842604 0.27955437 0.057483163
0.12687747 0.19334215 0.113360256 -0.7499047 0.19881754 -0.21840401 -0.40850484 0.41541272
-0.41160893 0.1446903 0.231768 -0.5127154 -0.14782552 0.042100504 0.016392272 -0.715641
0.12504908 0.29381773 0.088241115 -0.6933509 -0.05030444 -0.0034034804 -0.3102191 0.14823942
0.3871609 0.3181881 -0.21904847 -0.14595208 -0.031422965 -0.1797347 -0.4540669 -0.14577359
-0.26793537 0.43435597 0.009577164 -0.4819551 -0.50240153 0.177288 0.4822296 -0.1400617
-0.04384369 -0.021638151 0.55090773 -0.416743 -0.16541986 0.5083192 0.038881596 -0.020334547
0.21817261 0.121586084 -0.46882012 -0.39333227 0.017502774 -0.2811908 0.16858497 0.24920514
-0.35453883 1.7407284 0.16421357 0.023747325 -0.15186253 -0.119884685 0.0031167716 -0.078674026
0.23503082 -0.5633291 0.3664356 0.29111895 -0.34049556 -0.1595746 -0.43948498 -0.35408813
-0.2236925 -0.27101293 -0.19020045 0.60609686 0.3296692 0.06151276 -0.20027469 -0.5498709

network.0.bias f4 [256]
00000000: ecd3 6ebd 1a59 23be 8e89 f7bd 496f d8be
00000010: df2f 3d3d 287f b8be f9d0 77be e4da 813e
00000020: 8eb7 c8be 9415 5fbe ef5d adbe 1e0a 3fbe
00000030: 7ac2 e53c 8980 0b3d 4240 23be 8eba 5abe
00000040: 69cf c3be 3752 68be ca38 5cbe c681 2dbd
00000050: 9187 7dbe f25f 13bc a488 b9bd a6c5 3cbe
00000060: 5961 ebbd fe65 713e edef ebbe 4e07 e1bc
00000070: b2fa 803e d032 a9be 0f7f a6be 2555 4abe
00000080: 5d7e c23d 12da 4bbe 764a 103e 8d90 ca3d
00000090: 58ad 843e f6e7 e6bd 6164 bf3d f105 cfbd
000000a0: c6d5 9fbe 5b49 6ebe 9050 14be 92cd a9be
000000b0: 09d1 13be 7ad5 04bf d0c7 40be 40d4 53bd
000000c0: 87f8 76be c961 54bd 180e bcbe c19a 21bd
000000d0: 437a eabd 5bed 38be 4d21 0abe 22db 57bd
000000e0: b40d 5abd f35a e1be ba2b 353e 9c6c a13d
000000f0: e1e2 2dbb e886 abbc 787f 613d d559 66bd
00000100: a1c2 b6be 6c87 ab3e 68bf 0f3e 0980 f9bd
00000110: 076c 7ebd 8b52 09be 6848 5fbe ce68 003c
00000120: d713 bf3d b050 febd 7a43 91be e5c3 a0be
00000130: 9a94 bd3c a804 acbd 1050 1f3d 2e7c ab3d
00000140: 569c 1b3e 4d0d 91bd 93da c5be 77f4 643d
00000150: c7fd aabd ea2e 2b3e 9a87 753e 0130 83be
00000160: 1ebb 0ebe a444 c5be 4e2c 12be 7712 34be
00000170: e1e2 6e3d 46a5 653e 7bcc 713c 3a53 193e
00000180: c622 03bd 078e c3bd 091e 3cbe 930f b5be
00000190: 5479 9bbe d8d7 363d ee0f 81be 6e8d 243d
000001a0: fb9a 173e 56eb 373c de0e 563e 9ca1 0d3d
000001b0: fca5 95be 1ad9 f9bd ab92 3c3d 9dd7 8cbd
000001c0: 55f3 93be adb1 b7bd 35bd 643d 0153 d4bd
000001d0: eebe 5dbd 3b57 543e af0b 59be f1e7 65bd
000001e0: 85f3 dd3d 7370 21be 438d b43d 28a8 903d
000001f0: 7e25 dfbd 097f 75be f6b8 a0be 2d76 663c
00000200: 1a01 9c3e fc63 bcbd e3d2 7cbb b0f0 d6bd
00000210: f53c 32be 6fbc 37be fa55 6dbe 0618 ccbd
00000220: 7675 203e 4cfe 363e 6aa1 233e f8ab fcbd
00000230: 28de dc3c 9ddb ccbc 3ee9 1fbe 73fa 2cbe
00000240: f054 d0bc c918 ccbe 3259 e6be 7051 e33d
00000250: f7a4 a2bd d6bb 41be 8e47 72ba 3375 61be
00000260: 1866 ad3d 6d0e 01be 4709 cabe 3403 563e
00000270: 3bb7 90be 8373 a53d 2a2d 3f3e 2b59 b4bd
00000280: 47f0 16be e275 48be 58a8 013e c79c 143d
00000290: 1c07 58be 8fec 173e 9b96 43be 304c 3ebb
000002a0: 3f23 aabe 42e0 66bd a675 663d 2da6 cabd
000002b0: 60c0 0dbe e5f1 023e 9d22 99be 48cd 68be
000002c0: e47c 81be 675f b13e 9080 1d3c 069a 79be
000002d0: fa6b 6b3d ba8e 2ebc 7169 933b a789 ddbe
000002e0: c2ed c0bd 3fec 99bd 4ce3 873e 19bf 133c
000002f0: 4c10 85be 069e 133e a0a8 e838 91e2 0c3d
00000300: 428b 8bba ae2c 2a3e 05c0 cabd ff7f dfbd
00000310: 9af2 02bd d20f f83d 971c f13d 8214 0b3d
00000320: ada3 11be 1983 c9bc 9749 43bc 21a2 1a3e
00000330: 03c7 1c3e 5352 f8bd 1127 dc3d 6630 65be
00000340: b501 1abd c9f8 c1be c97a 95bd 77a0 a03e
00000350: 397f 9bbe 8d6a 893e 90ce b1be 1cb1 833e
00000360: c7b9 09be 7a59 e2bd f1fe 093d 19c5 3e3e
00000370: 9cab 983e e0fd 8cbe 696e 233e 26b4 5f3e
00000380: 8640 0fbe 4d7e 0a3e 16b9 3bbe 01f2 55be
00000390: fe48 e73d dd1a 123c b771 08bc 45ec e1be
000003a0: f00a 9fbd a224 3abd 1734 173e c669 28be
000003b0: 057e 32be 4c69 17be 0d02 233d e2c3 083c
000003c0: 84f5 b6be 47e6 76be 6e07 10be 0079 89be
000003d0: 35d6 96be c899 98be c82f eabd 4a1d d9bd
000003e0: 2fd7 25be 41be bd3d a0ed 4d3d 93aa b9be
000003f0: bfa1 a63e d51e d6bd e1d1 f1bd 5542 8a3e
-0.058307573 -0.15951958 -0.12086783 -0.42272404 0.04618823 -0.36034513 -0.2420081 0.25362313
-0.3920254 -0.21785575 -0.33860728 -0.18656203 0.028046835 0.034058128 -0.15942481 -0.21360227
-0.3824418 -0.22687612 -0.21506038 -0.04236009 -0.24758746 -0.008995043 -0.09059265 -0.18434772
-0.11493177 0.23574063 -0.46081486 -0.027469303 0.25191265 -0.3304658 -0.32518813 -0.19759043
0.09496758 -0.19907406 0.14090905 0.09890852 0.259135 -0.11274712 0.09345318 -0.10108555
-0.31217784 -0.2327017 -0.14483857 -0.3316465 -0.1443521 -0.5188824 -0.18826222 -0.05171609
-0.24118243 -0.051851068 -0.36729503 -0.039454225 -0.11449101 -0.18059294 -0.13489266 -0.052699216
-0.053235725 -0.440147 0.17692462 0.07882044 -0.0026532935 -0.020938352 0.055053204 -0.056238014
-0.35695365 0.33501756 0.1403786 -0.12182624 -0.06211474 -0.13410394 -0.21804965 0.007837487
0.09329956 -0.12417734 -0.28371793 -0.31399456 0.023142148 -0.083993256 0.038894713 0.08373295
0.15196356 -0.07082615 -0.3864332 0.055897202 -0.083491854 0.16717115 0.23977509 -0.25622562
-0.13938567 -0.3852893 -0.14274713 -0.17585169 0.058321837 0.22426328 0.014758225 0.14973155
-0.032015584 -0.09548574 -0.18370833 -0.35363445 -0.30366004 0.04463944 -0.25207466 0.04017394
0.14805214 0.011225542 0.20904109 0.03457795 -0.292282 -0.12199612 0.04603831 -0.068770625
-0.28896585 -0.08969436 0.055844504 -0.10367394 -0.054137163 0.20736401 -0.21195863 -0.0561294
0.10837463 -0.15765552 0.08816006 0.07063323 -0.10895823 -0.23974241 -0.31391114 0.014066261
0.3046959 -0.09198758 -0.0038577847 -0.10495126 -0.17406066 -0.17942975 -0.23177329 -0.099655196
0.15669808 0.17870444 0.15979543 -0.12337488 0.026961401 -0.025007064 -0.15616319 -0.16892414
-0.025431126 -0.3986266 -0.44989926 0.11099517 -0.07941621 -0.1891931 -0.000924223 -0.22017364
0.084667385 -0.12603159 -0.39460203 0.2089966 -0.28264794 0.08078673 0.18669572 -0.0880607
-0.14740096 -0.19576219 0.12661874 0.036282327 -0.21096462 0.14836334 -0.1910042 -0.002903711
-0.33230016 -0.056366213 0.056264542 -0.09894977 -0.13842916 0.12787588 -0.2990922 -0.22734559
-0.25290596 0.346431 0.009613171 -0.24375162 0.05747602 -0.010654146 0.0044986536 -0.43269083
-0.09420349 -0.075157635 0.265406 0.009017729 -0.25988996 0.1441575 0.00011094031 0.034395758
-0.001064636 0.16618606 -0.09899906 -0.10913085 -0.031969644 0.121123925 0.11773031 0.033955105
-0.14222594 -0.024598645 -0.011919401 0.1510091 0.15310292 -0.12125077 0.10749639 -0.22381744
-0.037599284 -0.3788512 -0.0729881 0.31372425 -0.303705 0.26839104 -0.34727907 0.2572106
-0.13449775 -0.110522225 0.033690397 0.18629874 0.29818428 -0.2753744 0.15960087 0.21846065
-0.13989457 0.13524742 -0.18332323 -0.20893098 0.11293219 0.0089175375 -0.008327893 -0.44125572
-0.07765758 -0.045445092 0.14765964 -0.164466 -0.17430885 -0.14786261 0.039796878 0.008347483
-0.3573419 -0.24111281 -0.14065334 -0.26850128 -0.29460302 -0.29804826 -0.11434895 -0.106012896
-0.16195367 0.09264804 0.050275445 -0.3626295 0.32545277 -0.104550995 -0.11807609 0.27003732

network.2.weight f4 [256, 256]
00000000: 6703 8fbe d510 ca3d 76bd 813e 67c3 eabd
00000010: 03db 0d3d 0392 f8bd 6862 26be 5eed 82be
00000020: bde8 dfbe 8374 0a3e 5b48 713d a1b6 9f3d
00000030: e546 8fbd 67d8 f03d 0da9 d13d eb5a 88bd
00000040: 3b60 c73d 3884 cc3d 3925 273e 2d06 31bf
00000050: eb42 56bc 894c 3cbe d654 5c3e 6481 96be
00000060: d2f1 0fbd 70d5 b73b 07c6 c33e d005 833d
00000070: 4829 2bbe ed31 d13d 76fa 2c3e 986c 34be
00000080: 6e29 05bf 6808 bb3d b3a0 5f3d 15b1 66bd
00000090: 7340 53be 7fe4 7e3d ead8 d43c b0aa 363e
000000a0: 5259 cbbd f8e0 b43d 9abe 50bd 8e71 dd3e
000000b0: 5a7b e9be 7bad 68be bc23 94bc acfd 713d
000000c0: 999d 5a3b 8a20 18bd 8d60 4c3e b424 c13d
000000d0: 9eab d03c 8e19 97be ad45 0bbe 7d36 5c3d
000000e0: b81c 7ebd b8cc 113d 84d7 c0be f5b2 933c
000000f0: e022 3dbb 157b afbe df51 2cbe a72d 2dbe
00000100: 38f9 8dbc 5aac 71be f11e ed3c 07c1 04bd
00000110: 18c4 49be 7285 193d 596c 8abd 86ff 253d
00000120: 586a 1d3e e3db 573d 0b68 8c3d 50c5 a9bc
00000130: e645 2a3d 84ad aebd f065 6c3d 9e04 c23d
00000140: 5dd7 35be b781 5e3e 7b19 1ebe c6cb dd3d
00000150: 041a 1b3d d6c7 a6bc 20b2 6cbe cacc 2ebf
00000160: e377 be3d d632 c2be 522f 073d 05dc 8e3d
00000170: 9515 773c 5770 54bd e4c0 673d 12b6 e3bc
00000180: 7434 15bf 431e 073d 13bc b33c 6913 0fbe
00000190: 615f 0a3e 9071 c6bc 304d ffbc ead1 44be
000001a0: f080 73be bf56 06bf 70c0 73be 9b79 0cbb
000001b0: 02db 2e3e 6f52 ec3d 59af d0be 3948 73bd
000001c0: f9af 33be 3273 66bd fb56 133e 52d9 ea3d
000001d0: 6d4c 773e 99dc ecbc 4518 c8bd 5a97 a83d
000001e0: 9058 2abe 7486 793e 972f d8bd e1fd 30be
000001f0: 3d0b 9dbc 23ab a03d 5422 ab3d bf5a 10bf
00000200: ac15 a3bd 5258 c6be 5d80 70bd b974 64bd
00000210: 79e3 22be b7fc e03d 56fe 013e 07cd 81be
00000220: 87da d83c 2b36 13be 47c3 ffbe cb71 38bd
00000230: e165 c6bd a809 30be 84e5 713e b161 86bd
00000240: 7615 113d 2974 c3be eca4 0a3e 2d6a e7bd
00000250: b484 0c3d 137d 063d a285 e03e e298 363e
00000260: 3e85 8cbd 32d3 9b3d 4baf db3c 65ab 433c
00000270: 61c2 c43e 62a0 3abd 7553 33be bd8e 903c
00000280: 68c5 8a3e 9742 063e 7f92 10be a477 c63d
00000290: f01f 383d 1fe2 b2bb 35f7 0a3e f828 af3c
000002a0: ef61 943c 8e67 dfbe 8b9e b0bc 737f 893e
000002b0: b9f3 233e 2afc 6b3c 01bc 163e d9e4 debd
000002c0: 72ce 7cbc a9d9 55bb fd76 2e3d f703 c0be
000002d0: 216b 1bbe 2bf1 033d cd96 22be 0d0c debe
000002e0: 5371 8cbd bc71 11be c40b 9ebe 25b9 5d3d
000002f0: 9eb1 51be 9a66 89be f51d a13d 6018 39bd
00000300: 659a 103d 466c 9abd bfda c0be 6300 373e
00000310: d52a a33d 0d2c 9f3c 4b31 843c d443 94be
00000320: ca27 27bd 9391 e6bb e67b 1bbe 7c89 243e
00000330: c760 82bd 7836 a3be ffde e4bd 873e fcbd
00000340: 4042 403d 7edc 2b3e 235f 26be 1751 40be
00000350: 25d3 0f3e 15be 983d 0658 9d3e e70a d5be
00000360: 1a1d c23d 6f6b 71bd 26f9 2d3d 0322 49bf
00000370: e50a c3be 81cb 873d 3e32 94be 7c7a e1bd
00000380: 2ec7 e5bc c725 e0bd 6692 313e f077 473e
00000390: f566 d1be 7700 67be 5a2e 273e 8695 1dbe
000003a0: a1c2 663e 9285 ff3d dd72 cf3d 18c2 ec3d
000003b0: 451b d93d 0111 253e 0259 90be 64d1 21bf
000003c0: 32ae a53d 5049 1fbe 4bac 32bd d2c0 89be
000003d0: d422 9d3e 4b40 5bbf 36b5 423e 7608 583d
000003e0: afd7 843d b200 423e 71ca 60be f1bb 363e
000003f0: 0255 f0ba c6d1 5dbe b27f d03d 8be9 efbe
-0.27932283 0.09866492 0.2533986 -0.11463051 0.034632694 -0.121372245 -0.16248477 -0.25571722
-0.43732253 0.13521008 0.058906894 0.077985056 -0.06995944 0.117600255 0.10237322 -0.06657966
0.097351514 0.09986156 0.16322793 -0.6915005 -0.013077478 -0.18388571 0.21516737 -0.29395592
-0.035142727 0.0056101605 0.3823702 0.06397593 -0.16714966 0.10214601 0.16892418 -0.1761955
-0.5201634 0.09132463 0.054596614 -0.056321222 -0.20630054 0.06222963 0.025982339 0.1783855
-0.09929146 0.08831972 -0.05096302 0.43250698 -0.45601922 -0.22722428 -0.018083446 0.05907981
0.0033358096 -0.037140407 0.19958706 0.09430829 0.025472458 -0.29511684 -0.13600798 0.0537629
-0.062039107 0.035595626 -0.37664425 0.01802967 -0.0028859898 -0.34273592 -0.16828106 -0.16911946
-0.01733075 -0.23600903 0.028945418 -0.032410648 -0.1970371 0.03748078 -0.06758947 0.04052689
0.15372598 0.052699935 0.06855782 -0.020723969 0.041570567 -0.08529189 0.057714403 0.09473537
-0.17757936 0.2172917 -0.15439408 0.10829882 0.037866607 -0.020358961 -0.23114824 -0.68281233
0.0930021 -0.3792941 0.033004113 0.06975559 0.015080829 -0.051864948 0.05658044 -0.027796779
-0.5828316 0.032987844 0.021940267 -0.13972248 0.13512947 -0.024224073 -0.031164736 -0.19220701
-0.23779655 -0.52476114 -0.23803878 -0.0021434787 0.17075732 0.115391605 -0.4075878 -0.05939505
-0.17547597 -0.056262203 0.14388649 0.11467232 0.24150248 -0.028913783 -0.09770254 0.08231993
-0.16635346 0.24367696 -0.10555952 -0.17284347 -0.019170398 0.07845142 0.08356157 -0.5638847
-0.07963118 -0.38739258 -0.058716167 -0.055775378 -0.15907086 0.109857015 0.12694678 -0.25351736
0.02647139 -0.14376132 -0.49953672 -0.045030396 -0.096874006 -0.17191184 0.2362271 -0.06561602
0.035420857 -0.3817456 0.13539475 -0.11299548 0.034306243 0.032834124 0.43851954 0.17831758
-0.068613514 0.07608642 0.026816985 0.011942719 0.3842955 -0.04556311 -0.17512305 0.017646188
0.27103734 0.1311134 -0.14118384 0.096907884 0.044952333 -0.0054590846 0.13570864 0.02138184
0.018113105 -0.43633693 -0.021559974 0.2685505 0.16010942 0.014403382 0.14720155 -0.10883493
-0.01543008 -0.0032630956 0.042593945 -0.37503025 -0.15177585 0.032212418 -0.15877838 -0.4336857
-0.068575524 -0.14203542 -0.3086835 0.054131646 -0.20477912 -0.2683609 0.07867042 -0.04518926
0.035303492 -0.07540183 -0.3766689 0.17871241 0.07967154 0.019430185 0.016136786 -0.28958
-0.04080943 -0.007036397 -0.15183982 0.16068071 -0.06366115 -0.31877494 -0.11175346 -0.12316614
0.04693818 0.1678333 -0.1624723 -0.18780933 0.14045389 0.0745813 0.3073122 -0.4160988
0.09478207 -0.058940347 0.042473935 -0.7856752 -0.3809425 0.06630612 -0.28944582 -0.1100969
-0.028049078 -0.109447055 0.17341003 0.19479346 -0.40898862 -0.22558771 0.16326275 -0.1538907
0.22535183 0.124766484 0.1012933 0.11560458 0.106009044 0.16119768 -0.28192908 -0.6321013
0.08089866 -0.1555531 -0.043621343 -0.26904923 0.30690634 -0.8564498 0.19014439 0.052742444
0.06486451 0.18945578 -0.21952225 0.17845131 -0.0018335881 -0.21662053 0.10180606 -0.46857867

network.2.bias f4 [256]
00000000: c83e 993c 38d2 2fbd f2b2 dd3c d044 413c
00000010: 0810 c0bd 8f7b 1ebe f7a5 fe3d 83c5 6abd
00000020: 0729 133c 4987 2bbd b157 813d 1fc9 02bb
00000030: 5dfb 14be bae6 4cbd efd8 9abc 7286 10bd
00000040: 71b4 183d 4966 6abd 6d52 a6bd 4425 b33c
00000050: f11b ae3d fc93 99bd 6397 95bd 3ddb 81bd
00000060: 7671 593d 25e4 99bc 5fdf d6bd c2aa 053c
00000070: 8004 e0bc ac59 4fbe 8493 8a3d b742 eebd
00000080: 5428 2fbb b014 64bd b1ff 42be 5d55 a43c
00000090: 43ec a3bb 71e1 11bd abf4 22be 8c6f 04be
000000a0: f4bd bfbb afaa 88bc 8b99 8fbb 2900 94bd
000000b0: c470 6c3d 698e 0fbc 21e6 1f3d 8d1b 46bd
000000c0: 52c1 40bc a991 903d f016 41be 64e3 7e3b
000000d0: 3823 a6bd 4a73 9d3d 85bb a5bd b677 cdbc
000000e0: 06fe e73d 1b8c 95bd fcb0 17be 1c3c b83d
000000f0: 909a 4bbd eddf 5d3d cf80 08be 8eb1 4e3d
00000100: 0b1f ebbc 818a 9cbd ac0d 3abe 1aa5 bd3a
00000110: bac7 1cbd c910 b93c 615f cdbd d1cb 47bd
00000120: cc42 8cbd 342f 5bbd f623 dc3c 98ca 38bd
00000130: ca48 0f3c 6972 36bd 9a9d e4bd affd cdbd
00000140: 00c2 91b9 c40f 123e eca2 57bc 0ec1 c43a
00000150: 2230 35bd 91e8 bbba 664b b1bc 36a2 7abd
00000160: fadd a8ba b63b 233b cee3 46bd ee5c 8cbd
00000170: fb42 1b3d b9b5 55bd fc9d d9bc 2d3d ebbc
00000180: 5b44 e73b 3735 74bd b526 ea3c fc92 84bd
00000190: f1e6 083e daef 39bd be90 cebd 40a6 abbd
000001a0: bb82 b0bc c6ca 31bd ff74 9bbd 178a 99bc
000001b0: 6eb8 e03d 84d2 813c 9f4e 3abd c237 e5bd
000001c0: f8d5 643d 2295 c8bc e319 8cbe 3d36 afbd
000001d0: 1eb1 26bd 693f 8abd d1a5 37bc d378 f33c
000001e0: 41b4 d2bd 5e6a 7e3b 2ad9 87bd 4c2c 26be
000001f0: bb2d b53c 6f55 383d 633d 1e3d 6e02 bebd
00000200: 6629 97bd d88e 773d 4862 66bb 965b d5bd
00000210: 92b3 00be 3650 9cbc 07be 89bd 99e3 53bd
00000220: 7a15 67bc 87f5 933d fba5 96bd 3d8b 0f3c
00000230: 7a6f b03d adab 5a3d 61cd 243d 8513 3ebd
00000240: 2d98 cdbd e4d4 37bd 12f2 f7ba 24fc 50bd
00000250: a12c 3abd eb61 dd3d 418d 4abd 87d1 34bd
00000260: 3014 96bd 5217 42bd bc92 603c 3556 1fbd
00000270: 2cba 9d3c 352a 8cbd 0ac2 a23d ace5 55be
00000280: 997f f73c c445 9dbd 5394 be3d 5294 40bd
00000290: fdd5 51bd 6f89 b0bb 7213 603c 6624 3dbd
000002a0: 439c ecbc ca8d ec3c 0948 01bd e382 693d
000002b0: e646 46ba df6e 063e 4f23 2fbc 9a3c cebc
000002c0: 81a5 06bc e6d0 88bd 7b8e 96bd f8ae 83bb
000002d0: ab11 96bd 5c91 47bd ecff ec3d c2ec 90bd
000002e0: 9d3b a2bc 5bb2 09bd aac4 5dbd 60ea 4f3d
000002f0: 2d8b 813d 22c4 75bd e59a 45bd 100c adbd
00000300: 6995 b8bd df26 abbb 858c 31bd 5cb2 223d
00000310: 2bda 12be 87e3 8bbd 8422 063d 1d9f 973b
00000320: 5671 33bd b590 eebb e575 b83c 1660 bebc
00000330: 0541 dc3d 07bf 673b 2099 23bd f2ea 5dbd
00000340: 3302 21ba 116c 3fbd 75a3 9339 94ac 723c
00000350: ec46 60bc 0b96 17bd 7e2f 62bd fc60 40bb
00000360: a39e dfbc 4cd8 3abd f360 723c 1dea d03c
00000370: 8ab4 343c 3f9e a1bc adbe 99bd 7b4c 83bb
00000380: 5ae8 593d 62de c4bd 3df4 df3c 6648 45bc
00000390: c873 b6bc c3f4 33bd 4858 673c efb7 55bd
000003a0: 73e6 adbc a167 e1bc 4977 773c ed80 0b3d
000003b0: 0408 a2bc 693f 7dbe 9060 48bd 4cc3 abbd
000003c0: ff91 42bd 07ff d8bd 880b dbbd 0bfb 0c3d
000003d0: 6fae 02bd 62c6 a0bc 67b4 c8bb 2863 02bc
000003e0: 9729 1abd 7f10 69be edd0 80bd b99c 843c
000003f0: 8c84 cfbc 1a73 03be 392c a7bd d3bc d53c
0.018706694 -0.04292509 0.027062867 0.011796191 -0.09378058 -0.15476821 0.12433999 -0.057317268
0.00898195 -0.041877065 0.06315554 -0.0019956303 -0.14549012 -0.050024725 -0.01890227 -0.035284467
0.037281457 -0.057226453 -0.0812119 0.021868356 0.08501423 -0.07498929 -0.07304265 -0.063406445
0.05308672 -0.018785546 -0.104918234 0.008158388 -0.027345896 -0.20249051 0.067664176 -0.116338186
-0.0026726918 -0.05568379 -0.19042851 0.020060236 -0.00500253 -0.03561539 -0.15913646 -0.12933177
-0.0058515016 -0.01668295 -0.0043823174 -0.07226593 0.05772473 -0.008761981 0.039037827 -0.04836612
-0.011764841 0.070590325 -0.18856406 0.003889286 -0.08112186 0.07688005 -0.08092407 -0.025081497
0.11327748 -0.073021136 -0.14813608 0.0899584 -0.04970795 0.05416863 -0.13330387 0.050462298
-0.028701326 -0.07643605 -0.18169278 0.001446876 -0.03827641 0.022591012 -0.10027958 -0.04877836
-0.06848678 -0.053511813 0.026872616 -0.045115083 0.008745382 -0.044542704 -0.111628726 -0.10058152
-0.00027801096 0.14263827 -0.013161402 0.0015011148 -0.044235356 -0.0014336278 -0.021642398 -0.061189853
-0.0012883537 0.0024907417 -0.048557095 -0.068536624 0.037905674 -0.052175257 -0.02656459 -0.028715694
0.007057709 -0.059621062 0.02858291 -0.064733475 0.13369347 -0.045394756 -0.10086201 -0.08381319
-0.021546712 -0.04340627 -0.075906746 -0.018742604 0.10972677 0.015847452 -0.045485135 -0.111922756
0.05586812 -0.024485175 -0.273635 -0.08555267 -0.040696256 -0.06750376 -0.011208967 0.0297207
-0.10288287 0.0038820724 -0.06633218 -0.16227835 0.022116533 0.04500335 0.03863276 -0.09277807
-0.07380943 0.06043896 -0.0035153795 -0.10417859 -0.125685 -0.019081216 -0.06725698 -0.051730726
-0.0141042415 0.07224565 -0.07355877 0.008761224 0.086150125 0.05338638 0.040234927 -0.046405334
-0.10038791 -0.044880763 -0.0018916747 -0.05102171 -0.045452718 0.10809692 -0.049451116 -0.044145133
-0.07328069 -0.04738552 0.013706859 -0.038900573 0.019253813 -0.06843988 0.07947166 -0.20888394
0.03021221 -0.07679322 0.09305634 -0.04701645 -0.051229466 -0.005387477 0.013676511 -0.04617729
-0.028883105 0.028876204 -0.03156284 0.05700959 -0.0007563665 0.13128231 -0.010689571 -0.025175381
-0.00821817 -0.06680469 -0.07351395 -0.0040186606 -0.07327589 -0.04872261 0.11572251 -0.07076408
-0.019803816 -0.03361736 -0.05414263 0.050760627 0.06325374 -0.0600015 -0.048243422 -0.08449566
-0.09012873 -0.0052231397 -0.0433469 0.039720878 -0.14341037 -0.06830507 0.03274776 0.004627122
-0.043809257 -0.007280434 0.022517154 -0.023239177 0.10754589 0.0035361664 -0.039940953 -0.05417914
-0.00061419903 -0.04673392 0.0002815981 0.014811654 -0.013688784 -0.037008327 -0.055221073 -0.0029354682
-0.027297324 -0.045616433 0.014793622 0.025502259 0.011029372 -0.019728778 -0.07507072 -0.00400692
0.053200103 -0.09612729 0.027338142 -0.012041187 -0.022272006 -0.043934595 0.014120169 -0.052177366
-0.02122805 -0.027515234 0.015104123 0.0340585 -0.019779213 -0.2473122 -0.048920214 -0.08386859
-0.047502514 -0.105955176 -0.10695559 0.0344191 -0.031904634 -0.019625846 -0.0061250213 -0.007958211
-0.03763732 -0.22760199 -0.062898494 0.016188012 -0.025331758 -0.12836877 -0.08162732 0.026091015

mean.weight f4 [1, 256]
00000000: 8b1f 39bd 2f8e f8bd 64fc 35be 06fb fabb
00000010: a0e5 a8bf 4ddb 903e 272b 4cbf 269a 063d
00000020: 46bf 35bf e5df 243d 2243 5cbd 86de e63b
00000030: 68eb 4d3f 424b 4bbd 4344 763c ffa4 21bf
00000040: ea7e d2be f02d 87bf 1422 b93e 01e5 63bd
00000050: 3671 893e 278b 8dbc 99a4 eabc 6ab6 c23e
00000060: e4bc 23bf e05b 963e e99d d2bc 5aff c63c
00000070: 9a04 4cbd dd51 333f 6d0b 84bd d2c5 c1bf
00000080: 7339 0d3d 1b9d a63c 5da7 f53e b0d3 a93b
00000090: 2e0c 1e3e 820c e4bc 2430 91bd e177 f7bc
000000a0: ed15 88bc 0abb 94bc f989 56bb 3c76 203d
000000b0: 70e1 c2be bba2 8ebe e8a1 d93c 1cac 8c3d
000000c0: 7699 903c d0bc a13e 315d 08bf 0b17 bdbc
000000d0: 8db2 4abf beb9 43bf 8ac3 9f3d ae2d f63d
000000e0: 6bbb b73c ccab 433c b8c4 423f 7450 9abe
000000f0: 7445 d4bc ba1e 7abe db3a 873e 8ad3 a6be
00000100: 6ca6 093d 2158 14bf 6f3c bb3e 3741 e4be
00000110: 043c 3e3d 497d 6d3a 16dd 3c3e be7e 963b
00000120: d429 efbc 6d28 c1be 262e 5cbe 0757 1b3d
00000130: 0fd1 813e 772b 633b 6db2 fd3e 6047 b03e
00000140: aefb 173f 1c5b a03d e4a1 1c3d b84d ae3c
00000150: 8e50 113c ee75 4f3b 7644 a0be 923c 633b
00000160: 6588 a13d c7f7 ac3b a323 153b 62dd b4bb
00000170: e2e6 acbc 639d 1dc0 6a6f ca3b 2c4c 693d
00000180: 4149 d1bc 912f 0fbd 2897 b83b 4ff5 453c
00000190: f3f3 13bf 8338 d0be 9b79 7bbe 25c3 6dbd
000001a0: 766e 2cbd 9fb0 2ec0 69d7 913b 715a 3e3f
000001b0: fa4f e23e 3bf3 b8be ba29 afbc 40bb c83e
000001c0: bb23 b83e c478 7b3c 6428 70be 8250 2dbc
000001d0: 5360 5ac0 0aca 1c3e 77b0 683d a361 863d
000001e0: aa19 c53e 98c1 e6bd 2c24 ddbe 4d5a 703f
000001f0: d2bb e5bf 1070 4d3e 4159 10bd 7c79 6abf
00000200: 9d82 0a3d a250 0f3f 840f b0bb 0a4e 163f
00000210: 483e 8d3e 1021 0bbf 08cb a03f 1570 893f
00000220: aff0 80be a0f0 50bd 0354 eebc 3480 943d
00000230: 96de 92be 05a0 24be 175c c63f 5905 fcba
00000240: 7f3a c83d 100a a33e 3840 0fbf 4a02 aebb
00000250: fc69 053d 1f55 0cbf 80e2 723e 88f9 603d
00000260: 9fe1 26bd ce92 383d df9a efbc a736 283e
00000270: e427 41bd bf48 113f d303 9a3e 88ae 013f
00000280: 64a2 51bd 1928 ddbc 64c4 e9bf d567 36bf
00000290: 5bce cd3c 0676 1e3c f16f a73c 7afe ba3c
000002a0: c3de d2bb 1f93 5cbd 9ff4 a1bc 02f2 a8bd
000002b0: 02a2 c93c 13f4 9f3d 126d afbe 9e8e 1d3c
000002c0: 74ca ae3e 142a 90be 7c1c 813f ac6f 02bf
000002d0: 959f 793e 37cd 833a 5ceb 8f3d ef7c febe
000002e0: 2edd 84bf e742 e8bd 82c0 6abd 5d52 933c
000002f0: 28b9 06be c24e bcbe ff78 8ebb 440c 48bf
00000300: 8b5e 8b3e dbb6 f1bd 9aaa eabe 6d12 913f
00000310: 41a3 e4be db5b cdbb 7d56 73be bb11 a93b
00000320: 149a d33e b9c7 133c 29cb 163d c1bc 6d3d
00000330: e392 113f d58d 76bc 2160 f8be 61ca fe3a
00000340: 9e33 783d 6e4a 983d 22fb 683d 852b 313d
00000350: 959f 6f3b cd71 a4bc 6aab b53e 84b8 06bd
00000360: 400c c5bc 8d63 3abd 9a45 633c 7583 cebe
00000370: 7764 5139 28d2 f03c f20e 153f 13f8 64bc
00000380: 53ad be3e f3c8 563f 5b9a 953e a51a 193d
00000390: beec 0ebd 0549 d23a e216 803d cd45 6ebf
000003a0: 3ca4 4dbe 462e 4d3e a3f5 323f 8a25 a23f
000003b0: 6644 3e3d 1428 0740 36d7 91bc dcb7 9abe
000003c0: 8b5a 2e3d e7f2 923f 5ee6 733e f575 543e
000003d0: b7e1 05bf ac87 693e ffe7 5a3d 41bc cf3c
000003e0: 8174 c73d 8628 8ebf 67fb 683d 38f6 a2bf
000003f0: faf6 623c 7a7d e13e 9039 8e3d d72a a5bd
-0.045196097 -0.12136494 -0.1777206 -0.007659319 -1.3195076 0.28292313 -0.79753345 0.03286185
-0.70994985 0.040252585 -0.05377496 0.00704557 0.80437326 -0.04963232 0.015030923 -0.6314239
-0.41112453 -1.0560894 0.36158812 -0.055638317 0.26844186 -0.017278267 -0.02864294 0.38029796
-0.639601 0.2936697 -0.025710063 0.024291683 -0.049809076 0.7004679 -0.06447492 -1.5138495
0.034478616 0.020338586 0.4797925 0.005182706 0.15434334 -0.027837995 -0.0708926 -0.03020853
-0.016612018 -0.018155593 -0.0032736047 0.039175257 -0.3806262 -0.27858528 0.02656646 0.06868765
0.0176513 0.31589365 -0.532672 -0.023082277 -0.79178697 -0.76455295 0.07800968 0.120204315
0.022428235 0.011942815 0.7608142 -0.30139506 -0.025912024 -0.24425784 0.2641209 -0.32583266
0.033605978 -0.57946974 0.36569545 -0.44581005 0.046443954 0.00090595015 0.18443713 0.0045927456
-0.02919475 -0.37726155 -0.21501979 0.037924793 0.25354812 0.0034663358 0.4955019 0.34429455
0.5936841 0.07829878 0.03824033 0.021277294 0.008869303 0.0031655985 -0.31302232 0.0034673554
0.07887343 0.005278561 0.0022756837 -0.005519555 -0.021106187 -2.4627311 0.0061778324 0.05695741
-0.025547625 -0.034957472 0.0056332536 0.012082412 -0.5779411 -0.40668115 -0.24558108 -0.058047432
-0.04209753 -2.72953 0.0044507277 0.7435675 0.44201642 -0.3612307 -0.021382201 0.3920536
0.3596476 0.015348617 -0.23452908 -0.010578277 -3.4121292 0.15311447 0.056808915 0.065615915
0.38496143 -0.11267394 -0.4319166 0.9388779 -1.7947943 0.2006228 -0.03524137 -0.9159162
0.03381597 0.5598241 -0.0053729434 0.5871283 0.2758658 -0.54347324 1.256196 1.073733
-0.25183627 -0.051010728 -0.029092794 0.07251015 -0.28685445 -0.16076668 1.5496854 -0.0019227668
0.09776782 0.31843615 -0.55957365 -0.0053103315 0.032571778 -0.54817384 0.23719215 0.05492547
-0.040742513 0.04506188 -0.029248653 0.16427098 -0.047157183 0.56751627 0.30081043 0.5065694
-0.05118026 -0.02699666 -1.8263059 -0.71252185 0.025122812 0.009671694 0.02043912 0.022826422
-0.0064352467 -0.053851243 -0.019769965 -0.08249284 0.024613384 0.07810225 -0.34262902 0.009616522
0.34138834 -0.28157103 1.0086818 -0.5095165 0.24377282 0.0010055666 0.07027313 -0.49704692
-1.0379999 -0.113408856 -0.057312496 0.01798361 -0.13156569 -0.36778837 -0.00434792 -0.78143716
0.27220568 -0.11802455 -0.45833284 1.1333748 -0.44655803 -0.0062670535 -0.23763461 0.0051595843
0.4132849 0.009019786 0.036814842 0.058041338 0.56864756 -0.015048464 -0.4851084 0.0019438976
0.0605961 0.07436071 0.056880124 0.043254394 0.0036563624 -0.020073796 0.3548234 -0.03289081
-0.024053693 -0.045505095 0.013871575 -0.4033467 0.0001996922 0.029397085 0.5822593 -0.013975161
0.3724161 0.83900374 0.29219326 0.037378926 -0.034893744 0.001604349 0.062543646 -0.9307526
-0.20082182 0.20037183 0.6990606 1.2667706 0.04645195 2.1118212 -0.017802816 -0.302184
0.042566817 1.1480378 0.23818347 0.20748122 -0.5229754 0.22805661 0.053443905 0.025358321
0.09739018 -1.1106117 0.05688038 -1.273139 0.013852829 0.44041044 0.06944573 -0.08064812

log_std.weight f4 [1, 256]
00000000: b58c d23e 7d57 973d 7d9b b0bc 81f3 17bc
00000010: b8de 2ebd d0cf 933e 63bb d83d 83d2 debe
00000020: 92c9 ea3c ce3b 8abc b572 44bf 5545 38b8
00000030: 11fc a23d 74e9 c0bc cfa8 82bb 1ec6 12be
00000040: d849 dcbd 4919 bebd c032 6b3e f700 f83b
00000050: 3433 253f a35a febc 85de 523b 05ed 053e
00000060: f5e3 0cbe 186b 423e c489 6a3e f593 5e3e
00000070: 3c02 bebc bb48 8c3c 2174 24bf 271a babe
00000080: 1073 833c 2808 f13b f686 233e 73b4 453a
00000090: 8f5f 44bd eb62 6ebc de22 9d3e 1f7d 2d3e
000000a0: 6f4d 423d 55d1 c23b ea5e 543c 3988 30bd
000000b0: 9173 33bd 8d37 763c b415 f3bb 058a 913d
000000c0: b2ed e6bd d54e 363d 3902 933e ed68 a43e
000000d0: 9a37 dfbd 69ab aebe 9462 91bc 7832 913d
000000e0: 4084 6abe e593 9cbb 6488 d0bc cf7d 75bd
000000f0: 304a a53c 9697 88bd 593c a5bc 9429 d5bd
00000100: cf8a 9fbc 7e08 923d f321 823e cefd 813e
00000110: 777e 06bd fc7b ea3c b5d0 05be 39c7 ac3e
00000120: f115 863e f09d 1abe 9c4f 61be c4ec febc
00000130: 9cbb f33c bdd6 213c c08f 6d3d a72b fbbd
00000140: d2ec dd3d ea4f 86be 74d7 493c 1bbe e6bc
00000150: 8aff a3be 35ed f43b f972 13be 596f 413b
00000160: b028 843d 0262 cf3b aa58 653c 18b4 183d
00000170: 0042 7b3e 8206 0fbe dc1d 31bc b99f ae3c
00000180: 0ed3 103b 4526 5abd 04af e03c 1f24 36bd
00000190: b268 b9bc 7737 c3bc 0ca0 c03d 55be 0a3e
000001a0: 8de7 e53b bd3f 9d3d 25c3 59bb 3ea5 fbbd
000001b0: 0ca1 983e 4eed f1bd df6c 04be 4687 01be
000001c0: 587b babe 038f 0ebd 79d4 b73e 0093 6d3d
000001d0: 53fd 32bd fff7 dfbe a5f7 333c 8b25 b7be
000001e0: 4ed4 523e 2570 103f b1f7 b13c 5293 b5bd
000001f0: 0eea b43d 81b7 09be 0423 ecbe 0671 dabd
00000200: 9eca db3c 81af 0c3e b308 743b d150 03be
00000210: 5ca5 423e c781 6b3d 0691 72bd 45b9 1abf
00000220: a864 aabc c5c4 84bd 1f48 8e3c 699a 0abe
00000230: 87b0 5cbf 28f3 2d3d e7a6 b03c e425 063c
00000240: 089c 61be 4bb2 e43d 7574 c3bc e117 a13a
00000250: 81a8 b13b e9a2 923c 425a bcbe 45f1 863c
00000260: 2d4c 47bc 4a44 c6bc 866d 4ebd 7ed0 3abc
00000270: f083 fb3a 0935 bebe a878 1ebd 36ae a2bd
00000280: 8333 6bbe 59d1 f2bc 0532 f13e fcd5 833c
00000290: 3f39 533c 7c65 17bc c5f7 363d ae91 5d3c
000002a0: 781c bebb 14c8 bdbb 7b6f 583d 7a3e aa3e
000002b0: addc 02bd bc67 9ebe 2a5f 7f3e 3b5e b43b
000002c0: fe12 17bd 04e5 9a3e 7a24 a9bd c9e3 e4bd
000002d0: ce0d 283e f4e4 5d3c 07fa c9be c230 11bd
000002e0: 369c b23d 4cca 05bd 8f2f 883d b86d 52be
000002f0: a32b 34bc e2d5 bdbd 314b 1ebc 49b8 04bc
00000300: b760 ab3d f8c7 12be a262 743d 7b56 43bf
00000310: ac81 1abd a2dd 0cbc f190 0ebe 6dcf 2c3b
00000320: 1e2f 3fbd 29c2 dabb 33bf 263c 7c5a b8be
00000330: 133d 63bd 291b dbbc af47 14be 7fac 463d
00000340: ed21 3b3d 9a50 343e 864d 553d fc8d e2be
00000350: 14b6 0c3c 7bb7 cebd d511 efbd 51a6 073d
00000360: d409 c93e 4704 9c3c 634e 39bd 5f30 7f3d
00000370: 6581 e3bc 065d a23c b6df c6bd 2cf0 a83c
00000380: 8f5a 283f f87f 663e ace3 693d 5a51 eabc
00000390: 113c bd3c 24ea 63ba 71a9 04be af76 7b3d
000003a0: ab6c 0c3d a700 99bd 7eca acbb 79a8 cf3e
000003b0: e63b dfbc e9f6 2fbe 2acb 6d3b 84ad 36bd
000003c0: d24b 95bb b921 933d c6a7 2fbe 76c1 94bb
000003d0: 671f d5bd d438 193d 6a4e cf3b 3263 8c3c
000003e0: 1e7f a6bd 35d5 f9bb a343 69bc f719 6fbe
000003f0: c11c 203c f800 c5bd b5ca 683d 38e2 da3a
0.41122976 0.07389734 -0.021558518 -0.009274364 -0.04269287 0.28869486 0.10582616 -0.43519983
0.02866057 -0.01687422 -0.7673753 -4.393359e-05 0.07958234 -0.02354882 -0.0039874087 -0.14333388
-0.10756272 -0.092821665 0.22968578 0.0075684744 0.64531255 -0.031049078 0.003217609 0.13078697
-0.13758834 0.18986166 0.22904116 0.21736129 -0.023194425 0.017124524 -0.642397 -0.36348078
0.016046077 0.0073557086 0.15969452 0.00075418426 -0.047942694 -0.014549951 0.30690664 0.16942261
0.047437128 0.0059453645 0.012962082 -0.043098662 -0.043811385 0.015027893 -0.0074183587 0.07106403
-0.112758055 0.044508774 0.28712633 0.32111302 -0.10899277 -0.3411515 -0.017747201 0.07089704
-0.22902012 -0.0047783726 -0.025455661 -0.059934434 0.020176977 -0.06669538 -0.020170378 -0.10408321
-0.019475369 0.07130526 0.25416526 0.2538895 -0.03283545 0.028623573 -0.13067897 0.33745745
0.26188615 -0.15099311 -0.22003025 -0.031118758 0.029752545 0.009877858 0.05799842 -0.122641854
0.108361855 -0.26232845 0.012319434 -0.028166821 -0.32030898 0.0074745663 -0.14399327 0.0029515831
0.06453073 0.006328822 0.01399819 0.037281126 0.24536896 -0.13967326 -0.010810342 0.021316396
0.0022098455 -0.053259153 0.027427204 -0.04446804 -0.02263293 -0.023830159 0.094055265 0.13549168
0.0070161284 0.07678173 -0.0033227887 -0.12287377 0.2981037 -0.118128404 -0.12932156 -0.12649259
-0.3642223 -0.034804355 0.3590429 0.05800152 -0.04369862 -0.43743894 0.010984336 -0.3577083
0.205888 0.5642112 0.021724554 -0.0886599 0.08833705 -0.13448907 -0.46120465 -0.10666089
0.026830014 0.13738824 0.003723663 -0.12823798 0.19008392 0.057496812 -0.059220336 -0.6043895
-0.02079995 -0.06482843 0.017368374 -0.13535465 -0.8620686 0.04246822 0.02156396 0.008187745
-0.22032177 0.11166819 -0.023859242 0.0012290442 0.0054216986 0.017899947 -0.3678761 0.016472468
-0.012164158 -0.024202485 -0.05039742 -0.0114022475 0.0019189101 -0.37149838 -0.038689286 -0.07943384
-0.22968869 -0.02964084 0.47108474 0.016093247 0.0128920665 -0.009240504 0.044669885 0.013523502
-0.0058017336 -0.0057916734 0.05284069 0.3325079 -0.031948734 -0.30938518 0.24938646 0.005504397
-0.036883347 0.3025285 -0.082589105 -0.11176259 0.16411516 0.013543356 -0.39448568 -0.03544689
0.08721201 -0.03266363 0.06649696 -0.20549667 -0.010996732 -0.092693105 -0.009661482 -0.008100578
0.08368056 -0.14334095 0.059664376 -0.76303834 -0.03772132 -0.008597763 -0.13922478 0.0026368753
-0.046675794 -0.0066759777 0.010177421 -0.36006534 -0.055478167 -0.02674635 -0.1448047 0.04850435
0.04568665 0.17608872 0.052075885 -0.4424895 0.008588333 -0.1009359 -0.11673323 0.033117596
0.3926531 0.019045008 -0.04524077 0.06230199 -0.027771661 0.019819748 -0.09710638 0.020622335
0.6576318 0.22509754 0.05710189 -0.028603245 0.023099931 -0.00086942525 -0.12955262 0.061392482
0.03428332 -0.074708275 -0.0052731624 0.40558222 -0.027250241 -0.17184032 0.0036284425 -0.04459907
-0.0045561576 0.071841665 -0.17153844 -0.004539664 -0.1040638 0.03740771 0.0063264864 0.017137144
-0.081297144 -0.007624293 -0.014237317 -0.23349749 0.00977248 -0.096193254 0.05683394 0.0016699499
