pendulum_ppo_model.pt (torch, 211914 bytes, 14 tensors)

actor.0.weight f4 [128, 6]
-0.0071215606 -0.0069382694 -0.021387588 -0.011872852 0.024338309 0.005003598 0.32336247 0.34531528
0.17277291 -0.6918175 0.72216254 -0.06950508 -0.54201955 0.36519602 0.7593909 0.5674408
0.25280467 0.040756058 0.011844354 0.07397793 0.23932552 0.022007983 0.45287102 -0.3056419
-0.0014161965 -0.02278041 -0.024590258 -0.02277801 -0.0035333117 0.0019463925 0.03629667 -0.19666922
-0.051099453 0.64073014 0.009158553 -0.3192691 -0.034956243 -0.098019965 0.55062306 -0.9501644
0.39879006 0.014465162 -0.38577905 0.098857544 1.179334 1.3689704 -0.097229615 0.032444205
0.29367307 0.33798152 -0.13008653 0.26480696 -0.35535142 -0.27506754 -0.017311849 0.02654141
-0.046365526 -0.07021026 -0.00018356775 0.002737371 -0.0176868 -0.035324175 -0.026665611 0.013747359
0.0015798376 0.0040140944 0.02194755 0.11311261 0.01595567 -0.47505292 -0.5012619 -0.21028593
-0.02300385 0.024363337 -0.09395469 0.12554249 0.011826411 0.0027866266 -0.48156637 -0.014024352
1.247641 0.9326335 -0.08661333 0.0021072933 0.12077421 0.25731793 0.23194899 0.2867708
0.206473 -0.28421998 -0.022590978 -0.05957552 -0.061328087 -0.11727413 -0.00851732 -0.0022103817
0.44534287 -0.114929974 -0.15520146 -0.03230487 -0.5548515 -0.27819785 0.16776007 0.038605683
-0.2549778 -0.9017807 0.6729193 0.3060575 -0.05093417 -0.27000153 0.048804324 0.13415854
-0.017490903 0.001865628 -0.053244356 0.0126200775 -0.023063444 0.013581618 -0.004356955 -0.0005993997
0.51835954 -0.07506251 0.626981 -0.88059944 0.3543073 -0.16141894 0.103299096 -0.07308118
-0.3337077 -0.23639412 -0.60958564 -0.20796952 0.11256695 -0.019916391 0.013405583 -0.0332277
0.04345115 0.020114258 0.20393012 0.1918289 -0.5705635 0.1787415 -0.15399015 -0.5728279
-0.042396612 0.043964785 0.27637467 -0.13833998 0.018907834 0.0014154123 -0.14828548 -0.10855993
0.36229852 -0.06443319 0.49189407 -0.28255448 0.106075555 -0.06026492 0.1405742 0.09602597
0.29991657 -0.16636692 0.09374476 -0.08369389 -0.04850966 0.06219363 -0.0042770924 -0.0038653729
0.075900465 0.14288951 -0.019279383 0.034172032 0.0037821843 0.00043221252 0.15539259 0.23338397
-0.7388561 -0.5448561 0.12299251 0.39924002 -0.017237792 0.04354281 -0.053248603 0.035200175
0.020883799 0.007225937 -0.057865683 -0.00052052137 -0.014604424 0.0034674194 0.029420512 0.0052635646
0.24839807 -0.053817637 0.5636275 -0.24126947 0.57481426 -0.27473098 -0.2542819 0.135023
0.98336136 0.64533925 -0.46863213 -0.013700962 0.015013784 0.014031215 -0.033602435 -0.15341355
-0.02974221 -0.0028108235 0.10928396 0.21200562 -0.064338535 -0.78976935 0.54707867 0.0500987
-0.20939912 -0.5259384 -0.09231522 -0.0015538393 -0.31493565 -0.16309094 -0.004355686 0.08984969
0.08721661 0.17604893 -0.0035252098 0.0013372531 -0.010551704 0.27469307 -1.0384803 -0.77214485
0.20483625 0.5159913 0.04909806 0.0077235866 -0.48923677 -0.36805817 -0.18711084 0.26726806
0.41168374 0.29706737 -0.27817923 0.09688645 -0.15227203 -0.53221065 0.08430415 -0.21330549
0.058897123 -0.15117711 0.026711538 0.0052337428 0.09425842 -0.2722202 -0.527996 -0.37631154
00000000: fb5b e9bb 6c5a e3bb 0635 afbc 5a86 42bc
00000010: 2261 c73c 39f5 a33b c48f a53e 2acd b03e
00000020: 62eb 303e f41a 31bf a5df 383f ae58 8ebd
00000030: cbc1 0abf f9fa ba3e 7167 423f cd43 113f
00000040: 9d6f 813e d3ef 263d d20e 423c be81 973d
00000050: c011 753e 164a b43c b6de e73e 187d 9cbe
00000060: ab9f b9ba fb9d babc 8271 c9bc f398 babc
00000070: 228f 67bb 181e ff3a d1ab 143d a863 49be
00000080: a94d 51bd e406 243f c10d 163c 3d77 a3be
00000090: 472e 0fbd b1be c8bd a2f5 0c3f f93d 73bf
000000a0: 362e cc3e 49ff 6c3c d584 c5be d375 ca3d
000000b0: 6bf4 963f 6c3a af3f 5220 c7bd 37e4 043d
000000c0: 515c 963e ea0b ad3e 6735 05be c794 873e
000000d0: 9ff0 b5be a7d5 8cbe 94d1 8dbc 5f6d d93c
000000e0: c7e9 3dbd 66ca 8fbd 187c 40b9 7765 333b
000000f0: e8e3 90bc 15b0 10bd d771 dabc 9a3c 613c
00000100: 8e12 cf3a aa88 833b 59cb b33c 96a7 e73d
00000110: 77b5 823c 233a f3be b352 00bf 3255 57be
00000120: 9272 bcbc 9f95 c73c 516b c0bd 368e 003e
00000130: 90c3 413c d69f 363b de8f f6be 65c6 65bc
00000140: b3b2 9f3f 12c1 6e3f 5462 b1bd 841a 0a3b
00000150: 7858 f73d 2dbf 833e 0984 6d3e 9fd3 923e
00000160: a86d 533e 4885 91be b710 b9bc 7605 74bd
00000170: 2933 7bbd 6b2d f0bd 3b8c 0bbc 0ddc 10bb
00000180: fb03 e43e 6860 ebbd 22ed 1ebe 1d52 04bd
00000190: bf0a 0ebf f36f 8ebe 4cc9 2b3e fe20 1e3d
000001a0: 738c 82be 1adb 66bf 7044 2c3f 92b3 9c3e
000001b0: 59a0 50bd a43d 8abe 0be7 473d db60 093e
000001c0: 1549 8fbc 1688 f43a c116 5abd 71c4 4e3c
000001d0: 8cef bcbc 6f85 5e3c cac4 8ebb 0821 1dba
000001e0: 36b3 043f 60ba 99bd d481 203f f76e 61bf
000001f0: c467 b53e 024b 25be 7a8e d33d 96ab 95bd
00000200: bcdb aabe 4d11 72be ce0d 1cbf f6f5 54be
00000210: 8089 e63d b327 a3bc 17a3 5b3c c519 08bd
00000220: d5f9 313d a8c6 a43c 0fd3 503e cc6e 443e
00000230: 7310 12bf 0308 373e 98af 1dbe d9a4 12bf
00000240: 12a8 2dbd 6b14 343d fb80 8d3e ffa8 0dbe
00000250: 9ae4 9a3c 5b85 b93a 26d8 17be ab54 debd
00000260: 317f b93e 8cf5 83bd 8ad9 fb3e fbaa 90be
00000270: 243e d93d 59d8 76bd aff2 0f3e 44a9 c43d
00000280: aa8e 993e 175c 2abe 41fd bf3d b467 abbd
00000290: 11b2 46bd bfbe 7e3d da26 8cbb 3252 7dbb
000002a0: b471 9b3d a151 123e ccef 9dbc f9f7 0b3d
000002b0: 86de 773b 959a e239 3c1f 1f3e 35fc 6e3e
000002c0: ac25 3dbf b07b 0bbf 7fe3 fb3d 3069 cc3e
000002d0: 4536 8dbc f259 323d 351b 5abd 0f2e 103d
000002e0: 8014 ab3c 8ec7 ec3b 9104 6dbd 9973 08ba
000002f0: 6547 6fbc a53d 633b 4903 f13c fb79 ac3b
00000300: 105c 7e3e e26f 5cbd e449 103f 580f 77be
00000310: 0727 133f 8aa9 8cbe 3d31 82be 7843 0a3e
00000320: 92bd 7b3f f434 253f 8df0 efbe 007a 60bc
00000330: 60fc 753c 2ee3 653c b5a2 09bd 7118 1dbe
00000340: efa5 f3bc cb35 38bb 45d0 df3d 0018 593e
00000350: ecc3 83bd 532e 4abf 590d 0c3f 4b34 4d3d
00000360: b96c 56be e6a3 06bf c30f bdbd 32aa cbba
00000370: 3f3f a1be 5001 27be 24ba 8ebb 1d03 b83d
00000380: 9f9e b23d 2c46 343e 3507 67bb c546 af3a
00000390: 0ee1 2cbc 92a4 8c3e ecec 84bf 49ab 45bf
000003a0: 98c0 513e 0118 043f 0c1b 493d 2416 fd3b
000003b0: 3e7d fabe 1f72 bcbe fc99 3fbe 5cd7 883e
000003c0: 36c8 d23e 3719 983e 826d 8ebe 676c c63d
000003d0: 33ed 1bbe f53e 08bf a7a7 ac3d c16c 5abe
000003e0: 1c3e 713d 2cce 1abe 28d2 da3c d17f ab3b
000003f0: 8f0a c13d 7260 8bbe bf2a 07bf e8ab c0be

actor.0.bias f4 [128]
-0.5158255 0.113209024 -0.20957015 -0.52104604 -0.19795619 -0.29038513 -0.0850486 0.046253413
-0.35488626 -0.27024788 -0.2517185 -0.24787745 -0.5489093 0.018170387 -0.3113736 -0.36937705
0.08850434 0.28137016 -0.5575049 -0.14410147 0.17140773 -0.15223417 -0.59586155 -0.25465977
-0.6629222 -0.21613084 -0.45662424 -0.3681405 -0.28991795 -0.34702885 -0.49572316 -0.6674132
-0.44846264 0.16637878 -0.42646578 0.14863391 -0.049825642 -0.67070717 -0.20613696 -0.33814546
-0.2621718 -0.6820188 -0.011461272 -0.016398411 -0.38560444 -0.27647194 -0.660315 -0.1612396
0.22290462 -0.29751906 -0.3046858 -0.50809884 -0.17127113 -0.38281292 0.12310658 -0.50375885
-0.49045002 -0.39228567 -0.6237194 -0.6555115 -0.36752555 -0.2580288 0.35028064 0.100280575
0.11152676 -0.5746497 -0.21579444 0.31102386 -0.13346021 0.15553607 0.3696766 -0.3004372
0.26462424 0.10790433 -0.07600498 -0.30696714 0.06342642 -0.21005286 -0.55510813 0.16110986
-0.17072059 -0.24513549 -0.28783828 -0.2896792 -0.363097 0.17464598 -0.24272446 0.3147724
-0.08745404 0.10926541 0.2020945 -0.085626476 0.16023819 -0.57133126 -0.27966446 0.34251764
-0.16505748 -0.13888267 -0.29929268 -0.015632764 -0.3111899 -0.50364834 -0.7984622 -0.14949095
-0.09001943 0.13583723 -0.17549495 -0.32348478 -0.05489361 -0.20279872 -1.0126686 -0.655411
-0.8249789 -0.5237462 -0.5719848 -0.32871553 -0.55891955 -0.36938342 0.16841169 -0.50732803
-0.3465479 -0.4284476 -0.060518388 0.004351388 -0.19646412 0.006484587 -0.3703239 -0.48831898
00000000: 240d 04bf 22da e73d 8f99 56be 4663 05bf
00000010: 07b5 4abe 5cad 94be f62d aebd 3874 3d3d
00000020: a7b3 b5be ee5d 8abe 3fe1 80be 96d3 7dbe
00000030: 5285 0cbf 10da 943c 5c6c 9fbe fd1e bdbe
00000040: c341 b53d c00f 903e a4b8 0ebf 568f 13be
00000050: 8285 2f3e 46e3 1bbe 628a 18bf c462 82be
00000060: 45b5 29bf 6751 5dbe a7ca e9be e97c bcbe
00000070: 2070 94be c4ad b1be 6dcf fdbe 97db 2abf
00000080: e59c e5be 335f 2a3e b959 dabe 7d33 183e
00000090: f915 4cbd 77b3 2bbf 9115 53be 6721 adbe
000000a0: 623b 86be c998 2ebf 0fc8 3bbc f655 86bc
000000b0: f26d c5be bb8d 8dbe 670a 29bf fe1b 25be
000000c0: 1c41 643e 6b54 98be c7ff 9bbe c412 02bf
000000d0: b361 2fbe 0e00 c4be 4d1f fc3d 57f6 00bf
000000e0: 441c fbbe abd9 c8be 13ac 1fbf 9acf 27bf
000000f0: 4f2c bcbe 5a1c 84be fc57 b33e e75f cd3d
00000100: 2468 e43d 3e1c 13bf 38f9 5cbe 853e 9f3e
00000110: cba9 08be d944 1f3e 4046 bd3e e8d2 99be
00000120: d47c 873e f2fc dc3d 80a8 9bbd cc2a 9dbe
00000130: b6e5 813d 1918 57be 911b 0ebf fcf9 243e
00000140: 61d1 2ebe cc04 7bbe 8a5f 93be d550 94be
00000150: dae7 b9be 65d6 323e c38c 78be d929 a13e
00000160: 1b1b b3bd 8bc6 df3d dcf1 4e3e ef5c afbd
00000170: 7b15 243e c442 12bf 2e30 8fbe 795e af3e
00000180: d404 29be 4237 0ebe e43c 99be 4810 80bc
00000190: 4854 9fbe 19ef 00bf 0568 4cbf 2814 19be
000001a0: 1b5c b8bd ea18 0b3e f3b4 33be cc9f a5be
000001b0: 1fd8 60bd 78aa 4fbe 209f 81bf 04c9 27bf
000001c0: d131 53bf 3b14 06bf 996d 12bf 674d a8be
000001d0: 5a15 0fbf d31f bdbe 1d74 2c3e 40e0 01bf
000001e0: ba6e b1be 7c5d dbbe 21e2 77bd 1796 8e3b
000001f0: e42d 49be a97c d43b 189b bdbe f204 fabe

actor.2.weight f4 [128, 128]
0.00802834 -0.059240993 -0.14925747 -0.06722571 -0.0917699 -0.19231188 0.003025104 -0.056802183
0.0072113127 -0.0751635 -0.028396565 0.16119157 0.06969907 0.0047933054 0.1466977 -0.02654321
-0.109612145 0.011865926 0.013803657 -0.23231411 -0.14608665 0.06418443 0.13915005 0.15160923
-0.14177091 -0.09347797 -0.04438966 -0.31458098 -0.022773316 -0.004708354 -0.1273821 -0.04535119
0.047495544 -0.21917844 -0.121404395 -0.13562605 -0.09784866 0.04079879 0.03141228 -0.041972645
-0.26346707 -0.037754696 -0.08660819 -0.16481997 0.17373446 -0.18409619 -0.267275 -0.0056619705
-0.12127039 0.19730847 -0.049762867 0.07144321 -0.03134154 0.26426432 0.05808225 -0.15368992
0.07079862 -0.08955064 -0.064653255 -0.084502555 0.11826278 0.048757646 -0.2619207 0.13696405
-0.11987587 0.016398093 -0.106737025 -0.0541407 -0.15615906 -0.011910284 -0.15348962 0.074481726
-0.012098269 0.01430951 -0.27793816 -0.047404684 -0.01372462 0.16876477 -0.13777749 -0.0952967
-0.115892544 -0.06047181 -0.06235079 -0.058769453 -0.12238061 -0.16861083 -0.08779195 -0.1479255
0.0129807005 0.12013487 -0.072619885 -0.10276716 0.18718989 -0.27328765 0.038302 -0.29686213
-0.020226877 -0.04758832 0.06058128 -0.062058434 -0.23610215 0.02964745 -0.14130346 0.12550469
-0.11306774 -0.02952991 -0.051888205 -0.0046595624 -0.31101242 -0.16434504 0.01769657 0.052076112
-0.12248866 -0.0074955476 -0.08874507 -0.18961805 0.1275923 -0.09004779 -0.12230422 0.04909552
-0.14071038 -0.058057353 0.17703505 0.039582867 -0.06280442 -0.34741405 0.07428308 -0.1280715
0.109962024 0.029936133 -0.20859198 0.01510841 0.099339254 0.013667228 -0.026932023 0.06923153
-0.049504757 -0.048702657 0.12171011 0.19799124 0.0062770024 -0.013606285 0.004596224 -0.29377714
-0.10045483 -0.13300782 0.038099267 0.079397336 0.20930277 -0.20939721 -0.055075552 -0.056230266
0.14957695 0.0009421778 -0.14312007 -0.11853389 -0.18684661 -0.08695817 -0.11614058 0.2134588
-0.10912372 0.01199477 -0.090999015 -0.13658442 -0.13942377 -0.07145247 -0.24909475 -0.0098744
-0.008767918 -0.07992639 -0.088839 0.05742662 -0.072188966 -0.23855948 -0.32608575 0.04856894
0.0416471 -0.013643634 -0.15689372 -0.32480615 0.1643084 0.07461424 -0.21794434 -0.10686362
0.18838401 0.12466491 -0.26308894 0.05054518 0.007879715 -0.09217954 0.0689205 -0.20435263
-0.10003018 0.033170436 0.0021837105 0.07018999 -0.17142616 -0.15044129 0.07116209 -0.16041775
0.08004593 -0.016382582 -0.13017674 -0.10976728 -0.2818906 0.112653136 0.30853596 0.006568418
-0.110869415 0.2620727 0.04797906 -0.12407053 0.05312829 0.029168345 0.2790018 -0.115187
0.12227338 -0.20391665 -0.32318613 -0.099834695 0.08499718 -0.010896167 -0.06285117 -0.18739983
-0.09131156 0.056833412 0.0020246562 0.074403055 0.048631184 0.049450256 -0.14855133 -0.043546997
-0.08829024 -0.12565263 -0.12974244 0.15346587 -0.0448349 -0.07287279 -0.042844225 -0.03095397
-0.008437012 -0.17331854 -0.09569282 -0.020996068 -0.21128942 -0.080646224 -0.20750763 0.046065666
-0.2286239 -0.0032671597 -0.089271456 -0.10667995 0.1766182 -0.12954924 -0.017007574 0.0027369575
00000000: 4c89 033c afa6 72bd f3d6 18be a2ad 89bd
00000010: dbf1 bbbd 68ed 44be d340 463b 68a9 68bd
00000020: e04c ec3b 52ef 99bd ea9f e8bc 670f 253e
00000030: 63be 8e3d 2911 9d3b ec37 163e 2571 d9bc
00000040: 557c e0bd 4d69 423c bc28 623c c0e3 6dbe
00000050: bd97 15be 2073 833d 5a7d 0e3e 733f 1b3e
00000060: 652c 11be 6171 bfbd efd1 35bd c210 a1be
00000070: 1b8f babc 8948 9abb 7470 02be 2bc2 39bd
00000080: b08a 423d 5070 60be dea2 f8bd 8ee1 0abe
00000090: e164 c8bd a21c 273d 2aaa 003d 82eb 2bbd
000000a0: 28e5 86be aba4 1abd a25f b1bd 91c6 28be
000000b0: 72e7 313e b683 3cbe 45d8 88be 0d88 b9bb
000000c0: 9c5c f8bd 3b0b 4a3e 26d4 4bbd d150 923d
000000d0: fd5f 00bd a74d 873e a7e7 6d3d e460 1dbe
000000e0: defe 903d 5366 b7bd ed68 84bd ad0f adbd
000000f0: c233 f23d 19b6 473d 781a 86be 4e40 0c3e
00000100: 7b81 f5bd 4b55 863c f198 dabd a3c2 5dbd
00000110: 29e8 1fbe 5a23 43bc 622c 1dbe e089 983d
00000120: d137 46bc 6f72 6a3c e94d 8ebe 6a2b 42bd
00000130: 3bdd 60bc acd0 2c3e 8b15 0dbe eb2a c3bd
00000140: 1259 edbd 4ab1 77bd 8b63 7fbd 3db8 70bd
00000150: afa2 fabd 51a8 2cbe 44cc b3bd c879 17be
00000160: 01ad 543c 4509 f63d bcb9 94bd 9777 d2bd
00000170: b5ae 3f3e 5cec 8bbe 8fe2 1c3d 50fe 97be
00000180: d6b2 a5bc f8eb 42bd 1424 783d fc30 7ebd
00000190: c3c4 71be 36df f23c dbb1 10be 4d84 003e
000001a0: 0f90 e7bd b6e8 f1bc ba88 54bd 3eaf 98bb
000001b0: 053d 9fbe 114a 28be 66f8 903c c34d 553d
000001c0: 56db fabd 369d f5bb fabf b5bd 3c2b 42be
000001d0: 8ea7 023e fa6a b8bd a37a fabd 6218 493d
000001e0: 6216 10be 8ccd 6dbd ad48 353e a521 223d
000001f0: 9b9f 80bd 41e0 b1be ba21 983d 2d25 03be
00000200: c533 e13d 9f3c f53c 2399 55be 4489 773c
00000210: 6172 cb3d 82ec 5f3c 8ca0 dcbc 43c9 8d3d
00000220: 80c5 4abd 707c 47bd 2643 f93d 37be 4a3e
00000230: 50af cd3b e5ec 5ebc ec9b 963b f569 96be
00000240: 43bb cdbd 3433 08be fa0d 1c3d 129b a23d
00000250: 7753 563e 396c 56be e796 61bd b551 66bd
00000260: b32a 193e 7bfc 763a 118e 12be e5c1 f2bd
00000270: b854 3fbe 2017 b2bd 1ddb edbd f294 5a3e
00000280: 427c dfbd b685 443c b15d babd c9dc 0bbe
00000290: 1bc5 0ebe ac55 92bd b212 7fbe 3cc8 21bc
000002a0: 50a7 0fbc 72b0 a3bd 39f1 b5bd 2d38 6b3d
000002b0: cfd7 93bd f048 74be b6f4 a6be 3af0 463d
000002c0: 2696 2a3d 8c89 5fbc bfa8 20be fe4c a6be
000002d0: 7640 283e 5acf 983d cd2c 5fbe 50db dabd
000002e0: bde7 403e 5150 ff3d 98b3 86be 7608 4f3d
000002f0: ec19 013c a0c8 bcbd 3126 8d3d d141 51be
00000300: 9fdc ccbd b9dd 073d 951c 0f3b c5bf 8f3d
00000310: 578a 2fbe 480d 1abe 6ebd 913d 8d44 24be
00000320: 1fef a33d c434 86bc 0d4d 05be abcd e0bd
00000330: f753 90be b0b6 e63d 6df8 9d3e e23b d73b
00000340: 810f e3bd 652e 863e b185 443d b118 febd
00000350: 0d9d 593d 74f2 ee3c 53d9 8e3e 29e7 ebbd
00000360: 776a fa3d 87cf 50be a778 a5be 2276 ccbd
00000370: 0013 ae3d d685 32bc 1db8 80bd bee5 3fbe
00000380: 8e01 bbbd 27ca 683d 18b0 043b a160 983d
00000390: 7e31 473d 5a8c 4a3d d71d 18be 565e 32bd
000003a0: 83d1 b4bd 15ab 00be 34db 04be 2826 1d3e
000003b0: cda4 37bd 543e 95bd 6d7d 2fbd 2e93 fdbc
000003c0: 653b 0abc 6a7a 31be 99fa c3bd f2ff abbc
000003d0: 415c 58be d929 a5bd e17c 54be 5aaf 3c3d
000003e0: 621c 6abe d81d 56bb f4d3 b6bd 057b dabd
000003f0: 67db 343e 8ea8 04be 7853 8bbc 875e 333b

actor.2.bias f4 [128]
-0.13701114 -0.12135863 -0.11842311 -0.13801742 0.22835998 -0.12500657 -0.17415754 -0.08883605
-0.18098898 -0.17751017 -0.15121832 -0.108140126 -0.16212009 -0.18523735 -0.15651637 0.097562246
-0.11648107 -0.15366411 -0.17955099 -0.12358755 -0.032997563 -0.18597777 -0.18492185 -0.116986394
-0.11321399 -0.1137414 0.25394323 -0.16562642 0.43009895 -0.11928781 -0.14708292 -0.04882132
-0.123205446 -0.10306743 -0.12712194 -0.08277238 -0.10539769 -0.17359547 -0.14631374 -0.09515905
-0.13359538 -0.14199346 -0.08805583 -0.1130362 -0.18539605 -0.06811121 -0.0638681 -0.1165723
-0.11260804 -0.12366887 -0.18270178 -0.1582191 -0.052345086 -0.13669921 -0.12878291 -0.1006349
-0.11266188 -0.076938346 -0.0882012 -0.096486196 -0.19160587 -0.11999479 -0.18629123 -0.23698288
0.15343437 -0.13820739 -0.05953636 -0.028169587 -0.26873624 -0.06372627 -0.116688974 -0.12227418
-0.083694056 -0.08554757 7.597931e-05 -0.16251656 -0.13607937 -0.14914447 0.45118922 0.12738448
-0.06973607 -0.16511047 -0.1565415 -0.10394839 -0.057510115 -0.09582939 0.3420003 0.092952974
-0.04538739 -0.13211949 -0.09409164 -0.17036968 -0.06740619 -0.18043722 -0.0572545 -0.11313906
-0.1334052 -0.09223961 -0.12553777 -0.028358705 -0.15193872 -0.08523833 -0.0682099 -0.101894684
-0.064482756 -0.13368604 0.25913355 -0.16976339 -0.15590617 -0.08170938 -0.24497615 -0.22337858
-0.13136254 -0.105277635 -0.2328312 -0.10853732 -0.13400206 -0.11884811 -0.21653377 -0.067082174
-0.06554499 -0.093817025 -0.13966572 -0.14852189 -0.11915243 -0.12361031 -0.07458849 -0.15191858
00000000: a64c 0cbe e08a f8bd d187 f2bd 7054 0dbe
00000010: 33d7 693e b901 00be 5b56 32be adef b5bd
00000020: 2d55 39be 3ac5 35be fad8 1abe 9278 ddbd
00000030: cf02 26be dcae 3dbe d445 20be b7ce c73d
00000040: a18d eebd 205a 1dbe 37dc 37be 781b fdbd
00000050: 7428 07bd f570 3ebe 275c 3dbe 9096 efbd
00000060: bddc e7bd 40f1 e8bd d904 823e f999 29be
00000070: ee35 dc3e 2b4d f4bd e89c 16be ddf8 47bd
00000080: 2353 fcbd 0415 d3bd 412c 02be 9184 a9bd
00000090: beda d7bd 03c3 31be 45d3 15be bfe2 c2bd
000000a0: 3acd 08be bc66 11be 9d56 b4bd 867f e7bd
000000b0: 76d8 3dbe e47d 8bbd 47cd 82bd 75bd eebd
000000c0: 0b9f e6bd 1b46 fdbd 2d16 3bbe 3004 22be
000000d0: cd67 56bd e1fa 0bbe abdf 03be ac19 cebd
000000e0: 46bb e6bd da91 9dbd d5a2 b4bd 8e9a c5bd
000000f0: 5434 44be d4bf f5bd 21c3 3ebe a4ab 72be
00000100: e61d 1d3e 3d86 0dbe 66dc 73bd e8c3 e6bc
00000110: cc97 89be eb82 82bd a1fa eebd e36a fabd
00000120: ca67 abbd 9033 afbd 1557 9f38 be6a 26be
00000130: 6458 0bbe 54b9 18be 4602 e73e 1471 023e
00000140: c9d1 8ebd b812 29be 6a4c 20be e5e2 d4bd
00000150: ba8f 6bbd 3342 c4bd aa1a af3e 215e be3d
00000160: 21e8 39bd 554a 07be 1eb3 c0bd 6475 2ebe
00000170: 420c 8abd 89c4 38be b283 6abd 74b5 e7bd
00000180: 5f9b 08be 1fe8 bcbd f98c 00be 8450 e8bc
00000190: d395 1bbe 6f91 aebd a2b1 8bbd 29ae d0bd
000001a0: 890f 84bd fee4 08be 27ad 843e 74d6 2dbe
000001b0: dea5 1fbe 3f57 a7bd 07db 7abe 5bbd 64be
000001c0: e783 06be cd9b d7bd 4d6b 6ebe d048 debd
000001d0: d637 09be a366 f3bd 07bb 5dbe 6162 89bd
000001e0: 743c 86bd 2423 c0bd 8804 0fbe 1f16 18be
000001f0: 3006 f4bd 6727 fdbd dac1 98bd 8b90 1bbe

actor.4.weight f4 [64, 128]
-0.1408189 0.11541578 -0.07430752 0.029465038 -0.046546154 -0.47242212 -0.13139531 -0.05254214
-0.008048819 -0.025820997 -0.14763069 -0.046516564 0.0050652074 0.08893258 -0.22174682 0.17020294
0.15551385 -0.034593556 -0.006041886 -0.21721394 -0.122558415 -0.2422147 0.080540165 0.08769081
-0.10790016 -0.002535164 0.1798838 0.053419635 -0.14297414 0.1592834 -0.1890432 0.103844345
-0.21241544 -0.06917277 0.058172163 -0.24492094 0.045566972 0.07201679 -0.09384962 -0.13735501
-0.109313704 0.088648625 0.03790886 -0.15367633 0.032790195 0.019334694 0.060030345 -0.011579654
0.09040154 -0.026020093 0.11200416 0.16183966 -0.15913212 0.0030430036 -0.08104297 0.16510202
-0.19435593 0.069649674 -0.08729165 0.101836145 0.007333159 -0.2336928 0.17228134 -0.21918215
-0.05809155 -0.009989678 0.019360702 -0.2494081 -0.21734825 -0.09337642 -0.0705557 -0.01513067
0.07470929 -0.2872748 0.008565379 0.20645195 -0.005832119 -0.09163825 -0.21608391 0.07057406
0.033452075 0.053086843 0.1578463 -0.015914885 -0.30303475 -0.058782652 -0.035032265 -0.10535123
0.23082078 -0.045111258 -0.10661286 0.055197306 -0.0007232367 -0.059855185 -0.35485077 -0.28141823
-0.12217777 -0.15542492 -0.04318961 -0.060589485 0.07840535 -0.09153261 0.11517839 -0.10230664
-0.13254946 0.068678856 -0.14855134 -0.07374649 -0.098416835 0.118847154 -0.01674052 -0.08259231
-0.1460341 -0.024417622 -0.109840296 -0.1356104 -0.3563764 -0.010233058 0.09204094 -0.57094455
0.06724471 -0.11434034 -0.08777682 -0.16782057 -0.015953716 -0.06510278 0.10828963 0.11916189
0.2045403 -0.014046415 -0.031172868 0.028505133 -0.025104113 0.22501165 0.12054559 0.062129818
0.12182142 0.008059261 0.20326918 -0.038025144 -0.12549944 0.001556834 0.006204788 0.056229025
0.13815603 0.14157896 0.11943544 -0.0540919 -0.061672743 0.17692481 0.05225536 0.22470938
0.11473119 0.07443734 -0.03709248 -0.0925007 0.120374694 -0.09261449 0.07542919 0.030924698
-0.034070253 -0.04262764 -0.2067425 -0.12073209 -0.10981826 0.032790624 0.10137335 -0.10912459
0.07896355 0.09648692 0.14952202 -0.18167019 -0.041276444 0.17001611 0.22817993 -0.004111806
-0.09953439 0.11931624 -0.08678446 -0.08995571 -0.13405247 -0.05346395 -0.08256792 -0.18940563
0.00097636995 0.12035466 -0.101889126 0.09611558 -0.054896686 -0.16175392 0.10226837 -0.08671436
-0.049555056 0.033487577 0.06720871 -0.10439941 -0.32289672 -0.017286222 -0.024052825 0.0700119
-0.3163604 -0.15897165 0.06753004 -0.06802293 0.011702577 0.09830086 -0.24302793 -0.4477911
0.04123662 0.097266465 0.22513436 -0.37431067 0.22010048 -0.031235227 -0.06819532 -0.0034292769
-0.16648625 -0.012711324 -0.029969247 -0.037405983 -0.31104544 -0.28857404 0.028736431 -0.36821967
0.057819515 -0.032400724 0.13593969 -0.0331873 0.03924325 0.010567361 -0.15820378 0.15076776
-0.012767323 0.050270956 -0.13598724 0.120196216 0.07119464 -0.25638166 -0.03115431 -0.088017404
0.054759726 -0.25623122 0.080758564 -0.051567532 -0.053681847 -0.09683949 0.030837469 -0.32606202
-0.020903153 -0.071573235 0.027290842 -0.16875604 0.019703366 -0.064231105 -0.095699824 -0.291799
00000000: d432 10be 1c5f ec3d 8b2e 98bd aa60 f13c
00000010: 2ea7 3ebd 50e1 f1be 7e8c 06be 6d36 57bd
00000020: 32df 03bc 8e86 d3bc 802c 17be 2788 3ebd
00000030: 0afa a53b 4922 b63d 9911 63be ae49 2e3e
00000040: 063f 1f3e f9b1 0dbd 03fb c5bb 556d 5ebe
00000050: e8ff fabd 2107 78be 3ef2 a43d 3d97 b33d
00000060: c2fa dcbd fe24 26bb 7533 383e 8cce 5a3d
00000070: d067 12be 301b 233e 8a94 41be 58ac d43d
00000080: 6f83 59be 74aa 8dbd ef45 6e3d 8ecc 7abe
00000090: 6fa4 3a3d 8a7d 933d 3b34 c0bd cba6 0cbe
000000a0: dddf dfbd 698d b53d 5246 1b3d 545d 1dbe
000000b0: 034f 063d cb63 9e3c 61e2 753d 97b8 3dbc
000000c0: 7124 b93d 1728 d5bc 7062 e53d 4cb9 253e
000000d0: 88f3 22be 216d 473b dbf9 a5bd 8110 293e
000000e0: 3e05 47be 7da4 8e3d f7c5 b2bd 788f d03d
000000f0: ff4a f03b 2a4d 6fbe 856a 303e 4971 60be
00000100: 68f1 6dbd bfab 23bc 569a 9e3c d664 7fbe
00000110: 8a90 5ebe 233c bfbd 827f 90bd a1e6 77bc
00000120: 2f01 993d af15 93be ce55 0c3c 2468 533e
00000130: 5c1b bfbb d6ac bbbd 1a45 5dbe 2289 903d
00000140: 0b05 093d 9771 593d 76a2 213e ef5f 82bc
00000150: 5f27 9bbe 14c6 70bd fe7d 0fbd 63c2 d7bd
00000160: 485c 6c3e 95c6 38bd d857 dabd 9216 623d
00000170: 9897 3dba b62a 75bd 00af b5be 0d16 90be
00000180: 5738 fabd b627 1fbe 97e7 30bd ae2c 78bd
00000190: fc92 a03d 7375 bbbd a6e2 eb3d 2586 d1bd
000001a0: 0cbb 07be 80a7 8c3d d81d 18be 6608 97bd
000001b0: c48e c9bd 2366 f33d 6a23 89bc 2826 a9bd
000001c0: f789 15be 7707 c8bc f3f3 e0bd 74dd 0abe
000001d0: f876 b6be 8ea8 27bc f67f bc3d 6c29 12bf
000001e0: 98b7 893d 452b eabd 55c4 b3bd 28d9 2bbe
000001f0: 5eb1 82bc 9b54 85bd f4c6 dd3d 260b f43d
00000200: 0373 513e ef22 66bc 3e5e ffbc 9983 e93c
00000210: 24a7 cdbc 7469 663e 9be0 f63d d67b 7e3d
00000220: 827d f93d fe0a 043c cc25 503e 41c0 1bbd
00000230: ed82 00be ae0e cc3a 8951 cb3b 6850 663d
00000240: c678 0d3e 13fa 103e 919a f43d 788f 5dbd
00000250: 8f9c 7cbd c72b 353e b709 563d 371a 663e
00000260: 30f8 ea3d 9b72 983d 49ee 17bd 0271 bdbd
00000270: 0287 f63d aaac bdbd 9f7a 9a3d cb55 fd3c
00000280: 408d 0bbd 529a 2ebd 4eb4 53be 6342 f7bd
00000290: 65e8 e0bd 764f 063d d59c cf3d b77c dfbd
000002a0: a4b7 a13d ef9a c53d 4d1c 193e c007 3abe
000002b0: 7d11 29bd b418 2e3e 00a8 693e 54bc 86bb
000002c0: b0d8 cbbd 135c f43d 0dbc b1bd b33a b8bd
000002d0: 0d45 09be 04fd 5abd 5f19 a9bd 8df3 41be
000002e0: 14f3 7f3a 817c f63d 3fab d0bd 3fd8 c43d
000002f0: 59db 60bd d2a2 25be 1472 d13d 4c97 b1bd
00000300: 3efa 4abd 452a 093d b8a4 893d 5ccf d5bd
00000310: b852 a5be d69b 8dbc 6e0a c5bc 6662 8f3d
00000320: fef9 a1be 77c9 22be 314d 8a3d 9b4f 8bbd
00000330: 2abc 3f3c f651 c93d 50dc 78be e044 e5be
00000340: bbe7 283d a433 c73d 9f89 663e a6a5 bfbe
00000350: 0562 613e 05e1 ffbc fda9 8bbd b8bd 60bb
00000360: 5f7b 2abe 2843 50bc 1182 f5bc 0437 19bd
00000370: 5941 9fbe fabf 93be aa68 eb3c 4a87 bcbe
00000380: 28d4 6c3d 9fb6 04bd c633 0b3e 68ef 07bd
00000390: 88bd 203d b922 2d3c 2c00 22be dd62 1a3e
000003a0: 092e 51bc ebe8 4d3d 3d40 0bbe 6f29 f63d
000003b0: 7fce 913d 7544 83be 5337 ffbc 7842 b4bd
000003c0: bc4b 603d bd30 83be bf64 a53d 7a38 53bd
000003d0: 7fe1 5bbd c853 c6bd dc9e fc3c 9af1 a6be
000003e0: 173d abbc fd94 92bd 0b91 df3c 62ce 2cbe
000003f0: f468 a13c 998b 83bd 45fe c3bd ae66 95be

actor.4.bias f4 [64]
-0.39171568 -0.31964177 -0.3117658 -0.3954931 -0.21262471 -0.39539158 -0.42211932 -0.327142
0.32441056 -0.28212336 -0.33486632 -0.37906426 -0.45606568 -0.43189454 -0.07897321 -0.3576033
0.013898337 -0.29559362 -0.06459402 -0.38128537 -0.08112855 -0.3163767 -0.106531136 -0.3719531
0.13996655 -0.2853264 -0.19712777 -0.15073611 -0.023896344 -0.23621257 -0.22945341 -0.25127906
-0.112554476 -0.26063824 -0.066565275 -0.24240552 -0.25486416 -0.2924926 -0.36086607 -0.32695943
0.036521345 0.11500373 -0.30653375 -0.16126327 -0.39043486 -0.18984553 -0.18290694 -0.32575193
-0.29766592 -0.35874587 -0.038974844 -0.28615013 -0.43693396 -0.23502877 -0.19740213 -0.27336767
-0.1375297 -0.10190759 -0.2051845 -0.2550722 -0.09996105 -0.47172636 -0.28513318 -0.14815599
00000000: f58e c8be 16a8 a3be c49f 9fbe 127e cabe
00000010: 4bba 59be c470 cabe 0620 d8be 287f a7be
00000020: 2419 a63e 7972 90be 9973 abbe b614 c2be
00000030: 7181 e9be 4821 ddbe b5bc a1bd c817 b7be
00000040: dab5 633c 0c58 97be df49 84bd d637 c3be
00000050: ba26 a6bd 20fc a1be ff2c dabd a370 bebe
00000060: 6453 0f3e 4d16 92be dddb 49be 915a 1abe
00000070: 44c2 c3bc b5e1 71be d6f5 6abe a6a7 80be
00000080: f682 e6bd 6072 85be 6053 88bd 2739 78be
00000090: 8e7d 82be 97c1 95be 70c3 b8be 3a67 a7be
000000a0: 6897 153d 1387 eb3d fef1 9cbe 3322 25be
000000b0: 14e7 c7be de66 42be f54b 3bbe f5c8 a6be
000000c0: ab67 98be 8aad b7be 16a4 1fbd 4582 92be
000000d0: cfb5 dfbe 62ab 70be c923 4abe d9f6 8bbe
000000e0: 96d4 0cbe edb4 d0bd e31b 52be d398 82be
000000f0: 61b8 ccbd 1e86 f1be fafc 91be 34b6 17be

actor.6.weight f4 [1, 64]
-0.026759332 0.011757075 -0.053453118 -0.0057145106 -4.6514204e-05 0.005133294 -0.002379537 0.03499996
-0.100329444 -0.0035971995 0.1063051 0.007784742 -0.0053513614 0.01132793 -0.09828777 0.00030981892
-0.078954935 -0.0046087857 0.041247007 0.002485951 -0.021254517 -0.04230199 -0.057988975 0.063070334
0.05925981 0.010786526 -0.031720005 -0.064882256 0.06588775 0.0057516363 -0.05959002 -0.0068717995
-0.22734883 0.21614833 -0.14584398 -0.10637611 -0.0021451938 -0.037553106 0.059469096 -0.0036324067
-0.14940381 0.14454761 -0.008082604 0.021794407 0.013516003 -0.0009914811 -0.025921248 -0.0241229
-0.06682077 0.15866221 -0.015706675 0.12412251 -0.0014148467 -0.0029664354 0.0025024477 -0.029477524
-0.08891484 -0.022298632 0.12021427 0.05428532 -0.0007781356 0.026600087 0.015777705 0.0011266555
00000000: 6336 dbbc bfa0 403c a8f1 5abd ca40 bbbb
00000010: 3f18 43b8 3135 a83b 02f2 1bbb 1e5c 0f3d
00000020: 8679 cdbd febe 6bbb 7db6 d93d 2617 ff3b
00000030: 795a afbb c898 393c 194b c9bd 316f a239
00000040: 20b3 a1bd 4c05 97bb 9ff2 283d 56eb 223b
00000050: f41d aebc da44 2dbd d985 6dbd 052b 813d
00000060: 6aba 723d f8b9 303c d6ec 01bd fde0 84bd
00000070: 28f0 863d 3978 bc3b aa14 74bd d52c e1bb
00000080: 22ce 68be fd55 5d3e 2058 15be b8db d9bd
00000090: 6196 0cbb 49d1 19bd de95 733d ac0d 6ebb
000000a0: 50fd 18be 4a04 143e e66c 04bc 2f8a b23c
000000b0: 3a72 5d3c 96f4 81ba cc58 d4bc 639d c5bc
000000c0: 54d9 88bd 5978 223e 49ab 80bc f133 fe3d
000000d0: 6172 b9ba 8768 42bb 1b00 243b d97a f1bc
000000e0: fc18 b6bd 9fab b6bc e632 f63d 495a 5e3d
000000f0: ccfb 4bba 6de8 d93c 3f40 813c 49ac 933a

critic.0.weight f4 [128, 6]
-1.5025636 -2.268545 0.15725338 -1.5812559 -0.13511519 0.010465196 0.6179004 0.014135973
-0.8356704 1.0887526 -0.083062805 -0.3602619 0.5113028 -2.066327 -0.07834874 -0.34871766
-0.45080057 -0.06292063 0.28483567 -2.9781942 0.9687247 -0.39511463 0.13846861 -0.17847595
1.7787213 0.97421944 0.15705979 0.17630984 0.3653413 -0.20195453 0.100770645 -0.14505985
0.93096066 0.5257264 0.14963132 -0.27468723 2.1191993 1.8831203 -0.90412515 -0.589782
0.15361431 0.16851628 -2.9179807 -0.28979507 -1.5101805 -1.1967671 0.38918713 0.06844451
-0.16908616 -2.776575 0.56150824 1.6401577 0.7470869 -0.034024514 1.947866 -0.40999693
-1.3748549 -2.841493 0.22521901 -0.01528244 0.1498539 -0.158322 1.5748717 -0.41468498
-0.6559596 0.34549558 -3.2558315 1.2045598 -1.350147 2.3573773 -0.37733975 0.5798729
-0.41252452 -0.7228865 -0.4340628 -1.3940185 -0.100191936 0.25485823 2.7634556 1.0781775
0.091958374 -1.4139689 0.05928023 -0.19792114 -0.3264026 -2.1423995 -0.5557515 0.4179071
0.89286786 0.5114408 -2.613436 -2.01793 1.235667 -0.93738747 0.542331 0.20731351
-1.758035 -0.36515126 0.08403979 -0.7992553 0.049630005 -0.24517399 0.04740481 1.6729646
-0.6264839 -0.63692206 0.035442587 -0.016456254 -1.3442249 -2.696174 -1.5931841 0.9140394
1.0329468 -0.3324423 -1.470065 -1.5889627 0.718641 0.08629347 -0.33129263 0.012264208
2.034203 -0.8661191 -0.5191376 0.43620652 -0.28308508 -0.2570427 1.9043345 0.7615475
-0.056050044 0.4714951 -0.14076085 0.24513955 -1.3159628 -0.1960864 1.520803 1.2097588
-0.09251929 -0.21963243 -0.30840495 -1.8435149 2.0884004 2.3291023 -0.034773856 0.2964174
-1.836125 2.0277703 0.8098303 0.097592615 0.013398677 -0.23833235 -1.3992206 0.9771966
-1.6235188 0.030149601 -0.002846757 -0.02816004 -1.0929483 -1.6015706 -0.88017774 0.33199996
-0.14917581 -0.27368432 2.6125865 2.1354988 -0.61143905 0.5169082 -0.01704576 -0.07229648
-0.42672518 0.58413935 -0.9958286 0.5832721 0.3976203 0.2941323 0.21647099 -0.13861158
1.6313136 -0.58328456 0.25720724 -0.42072594 2.704463 -3.562215 1.4267286 1.623725
0.28709668 -0.24366617 -0.2251352 0.18086651 1.7658955 -1.9003143 -0.15100348 -0.13208644
-0.5428883 0.3356142 0.29894388 -3.5817575 0.037271917 -0.092558675 0.6989984 1.5514952
1.6251287 0.39542696 0.056152914 -0.26100415 -0.9264241 -0.02837337 -1.7440015 -2.141189
-0.2746163 0.42310235 -0.98323405 1.1700034 -0.5224523 0.39356792 0.2257206 0.3094878
0.43867862 0.094555 2.449368 1.3104253 -0.3162042 0.17540263 -0.40244 -0.27468452
0.60394233 0.14686555 0.111409575 -0.506354 0.95336896 -2.8485062 0.2803637 0.88661546
0.2545637 -0.108858615 -0.31260973 0.13520078 -0.04974322 -0.5116589 -0.39842352 -0.3863802
-2.4892468 0.4685306 0.23497117 0.34215388 -0.08297638 -0.048226822 0.19902946 -2.6884677
-0.021057023 1.1855668 -0.07718545 0.20420547 -0.2222983 0.24968365 0.43772143 0.028523013
00000000: 0154 c0bf d72f 11c0 0807 213e 9866 cabf
00000010: a35b 0abe 3776 2b3c b82e 1e3f 919a 673c
00000020: 7fee 55bf 3f5c 8b3f d51c aabd 3f74 b8be
00000030: bee4 023f b43e 04c0 4e75 a0bd 1f8b b2be
00000040: 55cf e6be 88dc 80bd fbd5 913e bc9a 3ec0
00000050: 58fe 773f 774c cabe b7ca 0d3e 66c2 36be
00000060: 24ad e33f 7266 793f 48d4 203e 918a 343e
00000070: 040e bb3e 2bcd 4ebe d760 ce3d 928a 14be
00000080: 7053 6e3f 0196 063f f438 193e cea3 8cbe
00000090: f6a0 0740 160a f13f bf74 67bf f4fb 16bf
000000a0: 124d 1d3e 888f 2c3e 32c0 3ac0 0560 94be
000000b0: 984d c1bf aa2f 99bf 8943 c73e a32c 8c3d
000000c0: ec24 2dbe 68b3 31c0 01bf 0f3f b0f0 d13f
000000d0: 1641 3f3f 4a5d 0bbd ac53 f93f 1eeb d1be
000000e0: 3ffb afbf 05db 35c0 d09f 663e 3363 7abc
000000f0: 4d73 193e 2a1f 22be 6595 c93f 9751 d4be
00000100: f8ec 27bf cce4 b03e 8b5f 50c0 042f 9a3f
00000110: 9ed1 acbf 45df 1640 ad32 c1be 8d72 143f
00000120: 6a36 d3be 170f 39bf 7b3d debe 336f b2bf
00000130: 6e31 cdbd c77c 823e 75dc 3040 b801 8a3f
00000140: ac54 bc3d effc b4bf d4cf 723d d7ab 4abe
00000150: 3e1e a7be 131d 09c0 bb45 0ebf ebf7 d53e
00000160: fd92 643f c9ed 023f 8942 27c0 c425 01c0
00000170: 562a 9e3f a0f8 6fbf 34d6 0a3f fe49 543e
00000180: 4a07 e1bf 1bf5 babe 0e1d ac3d ff9b 4cbf
00000190: d548 4b3d e40e 7bbe 8c2b 423d b423 d63f
000001a0: 4061 20bf 530d 23bf 3f2c 113d 44cf 86bc
000001b0: 900f acbf 1d8e 2cc0 75ed cbbf 7cfe 693f
000001c0: 9a37 843f e135 aabe 172b bcbf 2163 cbbf
000001d0: dbf8 373f a1ba b03d 309f a9be d1ef 483c
000001e0: 6230 0240 fbb9 5dbf 34e6 04bf 7656 df3e
000001f0: 87f0 90be 1a9b 83be 3cc1 f33f c7f4 423f
00000200: bb94 65bd ce67 f13e 9d23 10be dd05 7b3e
00000210: 7871 a8bf e0ca 48be aca9 c23f 60d9 9a3f
00000220: c17a bdbd 53e7 60be 41e7 9dbe 4cf8 ebbf
00000230: 5aa8 0540 0310 1540 086f 0ebd 05c4 973e
00000240: 2506 ebbf fdc6 0140 0a51 4f3f a3de c73d
00000250: 2086 5b3c 650d 74be a919 b3bf 8e29 7a3f
00000260: 77cf cfbf 4cfc f63c a890 3abb e2af e6bc
00000270: bbe5 8bbf 4400 cdbf 5453 61bf e6fb a93e
00000280: 8bc1 18be 5a20 8cbe 9e34 2740 03ac 0840
00000290: 4587 1cbf 1954 043f 8da3 8bbc 2d10 94bd
000002a0: b97b dabe 288a 153f a0ee 7ebf 5251 153f
000002b0: e394 cb3e 8298 963e 92aa 5d3e 32f0 0dbe
000002c0: e2ce d03f 2352 15bf abb0 833e 6469 d7be
000002d0: ec15 2d40 55fb 63c0 0b9f b63f 39d6 cf3f
000002e0: 56fe 923e a083 79be d889 66be 1235 393e
000002f0: dd08 e23f 803d f3bf a8a0 1abe ab41 07be
00000300: bafa 0abf a0d5 ab3e 2c0f 993e 843b 65c0
00000310: 70aa 183d 678f bdbd 8ff1 323f 6597 c63f
00000320: 3804 d03f 6775 ca3e 9900 663d 56a2 85be
00000330: 212a 6dbf 456f e8bc 713b dfbf 3e09 09c0
00000340: 829a 8cbe dfa0 d83e 3ab5 7bbf acc2 953f
00000350: 6fbf 05bf bc81 c93e 4d23 673e 2f75 9e3e
00000360: 7c9a e03e 0da6 c13d 72c2 1c40 04bc a73f
00000370: 84e5 a1be bf9c 333e 9e0c cebe 73a3 8cbe
00000380: f79b 1a3f ec63 163e b42a e43d 6aa0 01bf
00000390: fd0f 743f ed4d 36c0 d58b 8f3e 3bf9 623f
000003a0: 2c56 823e 44f1 debd 620e a0be 1372 0a3e
000003b0: 8cbf 4bbd 14fc 02bf 2bfe cbbe a0d3 c5be
000003c0: d24f 1fc0 3ee3 ef3e 489c 703e cb2e af3e
000003d0: 85ef a9bd 7d89 45bd 61ce 4b3e db0f 2cc0
000003e0: c77f acbc a7c0 973f 6813 9ebd 3d1b 513e
000003f0: 2aa2 63be 12ad 7f3e 061d e03e 18a9 e93c

critic.0.bias f4 [128]
-0.062781535 1.3521498 0.98153704 -0.21723835 1.03838 -1.069454 0.7979186 1.4085371
0.65644324 0.3637016 -0.8399583 0.15575752 0.9625067 0.29000196 0.27855617 0.8991073
0.13560918 1.3335208 -0.11164388 0.49124917 1.2231417 0.5063897 -1.1569102 -1.7274101
-1.6052817 0.4653036 0.5097563 -0.2309317 1.0099516 0.10080027 0.09784242 -1.1783341
0.8291881 0.27966443 0.9473988 0.32565838 -0.05044248 0.060649212 0.62323564 0.3699726
-1.7403166 0.2655928 -0.5950573 -0.16742882 -0.29848218 -0.022508822 0.5905108 -0.041605543
1.3143167 0.43820798 -1.3430898 -0.26637444 -0.49515933 -0.5944601 0.38071692 -0.42640254
1.6650187 0.48808378 -0.7952254 1.5217739 0.08814574 0.7733417 0.1663434 -0.000628949
-0.72378385 0.15720455 -0.4627147 0.0679957 0.34410807 -1.3738722 0.1336 -0.016644722
0.5744371 -0.08353798 1.0980241 0.12665218 0.34914297 0.41331154 -2.2869115 -0.74126005
-0.8520646 0.64962596 -0.09828662 0.41600484 -0.0672077 0.86259115 -1.180651 -2.1442816
-0.052302003 0.8348471 -1.725435 -0.23809537 0.99502295 0.32728165 0.42541745 0.47356096
0.021532416 0.6167196 -0.0712157 0.018050369 0.9976771 -0.58876395 0.27759293 1.2566928
-1.1177317 0.6548665 0.10657477 -0.27598307 0.26312512 0.7762713 1.7862227 -0.30471227
0.013592847 -0.13259026 -0.009353521 0.5128651 -0.6559038 1.3662746 0.77028644 0.38492385
-0.020032527 -1.6256145 -0.60048103 -1.5122107 0.7199526 -0.16399404 -1.3497928 -0.41027793
00000000: 9b93 80bd 3f13 ad3f 0346 7b3f bb73 5ebe
00000010: a3e9 843f dee3 88bf 6544 4c3f f24a b43f
00000020: aa0c 283f 1937 ba3e 8207 57bf e67e 1f3e
00000030: d766 763f 237b 943e ea9e 8e3e e52b 663f
00000040: 22dd 0a3e cfb0 aa3f 8ca5 e4bd 0385 fb3e
00000050: e88f 9c3f c1a2 013f a215 94bf c61b ddbf
00000060: df79 cdbf 463c ee3e 647f 023f 5c79 6cbe
00000070: 1846 813f 5f70 ce3d 9b61 c83d a7d3 96bf
00000080: ac45 543f 2d30 8f3e ba88 723f b2bc a63e
00000090: c69c 4ebd 4f6b 783d 5f8c 1f3f 0c6d bd3e
000000a0: b2c2 debf c8fb 873e ad55 18bf 7672 2bbe
000000b0: a8d2 98be 6c64 b8bc b72b 173f 936a 2abd
000000c0: 883b a83f cc5c e03e 5eea abbf 3b62 88be
000000d0: 8685 fdbe 8a2e 18bf 54ed c23e 6f51 dabe
000000e0: 551f d53f 1ee6 f93e e493 4bbf 7dc9 c23f
000000f0: c185 b43d b9f9 453f ed55 2a3e 0ee0 24ba
00000100: e649 39bf 3bfa 203e f1e8 ecbe 5441 8b3d
00000110: ef2e b03e 0bdb afbf 70ce 083e 835a 88bc
00000120: 4f0e 133f f615 abbd 0e8c 8c3f 1cb1 013e
00000130: dec2 b23e 929d d33e c25c 12c0 38c3 3dbf
00000140: e820 5abf e34d 263f 7f4a c9bd 96fe d43e
00000150: 31a4 89bd c6d2 5c3f 921f 97bf e93b 09c0
00000160: a03a 56bd 8ab8 553f 0edb dcbf 46cf 73be
00000170: d3b9 7e3f 7691 a73e 51d0 d93e 9576 f23e
00000180: c064 b03c 56e1 1d3f 89d9 91bd 5ede 933c
00000190: c467 7f3f 3cb9 16bf a920 8e3e 4fdb a03f
000001a0: d511 8fbf 55a5 273f df43 da3d a74d 8dbe
000001b0: 56b8 863e b7b9 463f f2a2 e43f 3f03 9cbe
000001c0: 88b4 5e3c bec5 07be 833f 19bc 214b 033f
000001d0: 50e9 27bf 16e2 ae3f 7e31 453f bd14 c53e
000001e0: 411b a4bc 2314 d0bf 20b9 19bf 1f90 c1bf
000001f0: d04e 383f 0eee 27be 03c6 acbf f30f d2be

critic.2.weight f4 [128, 128]
0.8235683 0.12874663 -0.16920184 -0.23789868 -0.4765346 0.5977471 -0.2987001 0.5945141
0.012368977 -0.2539144 -0.27610683 0.6641696 0.9361754 -0.018830629 0.2669531 -0.1596066
0.36687446 0.33185208 -0.21831012 0.22024201 0.1697844 0.25152978 0.29337865 0.8492702
-0.3870035 -0.039022654 0.24219267 0.81680334 0.83061755 0.023001589 -0.2575011 0.329523
-0.3131725 1.192385 0.3393917 0.2290233 -0.14176181 0.24637203 0.06758335 -0.3528345
1.1402332 1.1757238 -0.17745139 0.4578523 -0.07448403 0.88146055 -0.1859417 -0.37227914
0.5705103 0.44325325 0.762662 0.9241118 0.58809 0.22300339 -0.17685427 -0.18665761
0.28175566 -0.46027008 0.31500867 0.069810964 0.74740875 -0.10989239 1.1476448 0.49814144
0.64390165 0.02533694 0.6189402 -0.480162 0.44771785 2.185517 0.0930288 -0.23995186
-0.31007385 0.6990898 0.65029943 -0.79038316 -0.034820776 0.33129466 1.9917923 0.6484987
0.74375874 -0.02920192 -0.46023688 -0.91144764 0.0885976 0.3984972 1.2023277 2.638477
0.6369394 0.029899996 1.4179913 0.796513 -0.16925612 0.040116906 0.13971384 -0.04067555
-0.59149307 0.64280957 -0.8501353 0.024144813 0.22794624 0.056255635 0.59160584 0.025235116
-0.12932293 0.26773882 0.31109625 -0.4408496 -0.004874226 0.605662 -0.1321044 0.24851574
-0.40454638 -0.10755622 0.15111934 1.0762843 -0.79799736 -0.037543803 0.6816415 0.40311775
0.53156453 1.0932695 -0.25688973 -1.0815313 0.41889274 0.20529038 0.1672279 0.030794745
1.4766158 0.5866797 0.48630995 0.3883103 -0.3994547 1.5855103 0.07134382 0.3076561
-0.115575 0.7264176 -0.23459062 -0.0023083682 0.79964584 0.3585511 0.45169944 0.48792946
1.1983294 0.6322073 0.59683836 0.6728703 0.70732665 0.3639762 0.21712752 0.72415
-0.4271449 0.02301958 0.6410569 1.4002895 0.25557068 -0.35996723 0.33085474 -0.5794084
-0.29227424 0.71877164 0.22450106 0.835501 0.5027312 0.7989512 0.2179179 -0.021417903
1.0456583 1.3094224 0.21687023 0.27408722 -0.42763013 0.9551726 -0.09780533 -0.17186178
0.9464156 0.41897324 1.6510553 0.39227608 0.45269626 -0.05798989 -0.091886945 -0.14309227
0.6970979 0.4266578 0.25754127 0.0822869 0.42045546 -0.27882203 1.3249463 1.8482078
1.09041 0.5167598 1.0792546 0.12549862 1.1906832 2.532795 0.54289496 0.28914103
-0.4497018 1.5162253 0.9439278 -0.27585834 -0.28540364 0.47691917 1.8204883 0.018304115
1.655124 0.80546796 -0.07784126 -0.14260212 0.6161785 0.8097666 1.3811232 1.597638
1.209215 0.3296625 1.9362541 0.4791569 0.5485348 0.4343042 0.42802384 -0.6048149
0.28362703 -0.09937234 -0.2485337 0.26187092 0.6161503 0.52025867 0.8214275 0.5200708
0.4400982 0.46234387 0.77963763 0.47994214 0.07009764 0.4914162 -1.5203838 0.49573013
1.3401748 0.8453745 0.7715318 0.5097689 -0.2959129 0.08943806 0.91037333 0.98789024
1.3205725 1.6283536 -0.20922898 -0.62148935 0.7593871 0.9242702 -0.43271425 0.20958246
00000000: 5fd5 523f 28d6 033e 3f43 2dbe b69b 73be
00000010: 58fc f3be f405 193f 38ef 98be 1332 183f
00000020: 40a7 4a3c 1101 82be e05d 8dbe 0507 2a3f
00000030: 31a9 6f3f b142 9abc 14ae 883e ea6f 23be
00000040: f8d6 bb3e 84e8 a93e b08c 5fbe 1f87 613e
00000050: f6db 2d3e 83c8 803e ba35 963e c669 593f
00000060: 5325 c6be 38d6 1fbd 5b01 783e 061a 513f
00000070: 5aa3 543f d46d bc3c 2fd7 83be 3db7 a83e
00000080: 2558 a0be 12a0 983f c0c4 ad3e 1585 6a3e
00000090: 022a 11be f348 7c3e 2469 8a3d b9a6 b4be
000000a0: 29f3 913f 1e7e 963f d1b5 35be 9e6b ea3e
000000b0: 158b 98bd 66a7 613f 8067 3ebe 5f9b bebe
000000c0: f70c 123f 17f2 e23e d13d 433f 9792 6c3f
000000d0: 118d 163f 005b 643e 4919 35be 2c23 3fbe
000000e0: 4742 903e 85a8 ebbe d148 a13e 0df9 8e3d
000000f0: 2e56 3f3f 430f e1bd 06e6 923f 650c ff3e
00000100: bdd6 243f 6a8f cf3c dd72 1e3f cbd7 f5be
00000110: 463b e53e 83df 0b40 e285 be3d f1b5 75be
00000120: 00c2 9ebe 8df7 323f 067a 263f 8d56 4abf
00000130: 3ba0 0ebd 749f a93e 0df3 fe3f 0304 263f
00000140: f966 3e3f dd38 efbc 2ba4 ebbe a254 69bf
00000150: a972 b53d d307 cc3e e0e5 993f cfdc 2840
00000160: 760e 233f d6f0 f43c bd80 b53f 47e8 4b3f
00000170: 7a51 2dbe a051 243d 2511 0f3e 689b 26bd
00000180: 176c 17bf 2b8f 243f 78a2 59bf 58cb c53c
00000190: bd6a 693e 4f6c 663d 7b73 173f e0b9 ce3c
000001a0: 3b6d 04be 1015 893e 0248 9f3e 0ab7 e1be
000001b0: f9b7 9fbb aa0c 1b3f 6046 07be e97a 7e3e
000001c0: b420 cfbe 6f46 dcbd 07bf 1a3e afc3 893f
000001d0: 8e49 4cbf 88c7 19bd 0f80 2e3f 7365 ce3e
000001e0: 9d14 083f 41f0 8b3f 0d87 83be 9e6f 8abf
000001f0: 1c79 d63e a437 523e ca3d 2b3e 4345 fc3c
00000200: bf01 bd3f a430 163f 9efd f83e 9cd0 c63e
00000210: 5485 ccbe 00f2 ca3f b51c 923d 1a85 9d3e
00000220: 96b2 ecbd 81f6 393f 8638 70be fe47 17bb
00000230: 97b5 4c3f 0394 b73e 2645 e73e e4d1 f93e
00000240: dc62 993f 56d8 213f 66ca 183f 3a41 2c3f
00000250: 5c13 353f 175b ba3e ad56 5e3e e561 393f
00000260: bdb2 dabe 8f93 bc3c 4e1c 243f b03c b33f
00000270: 29da 823e a04d b8be cb65 a93e 1c54 14bf
00000280: f8a4 95be 6b01 383f 9be3 653e 65e3 553f
00000290: feb2 003f 1188 4c3f df25 5f3e 9974 afbc
000002a0: 22d8 853f 279b a73f 3b13 5e3e 2955 8c3e
000002b0: 56f2 dabe 3186 743f 294e c8bd 89fc 2fbe
000002c0: 4b48 723f a983 d63e c855 d33f 69d8 c83e
000002d0: cec7 e73e cf86 6dbd 392f bcbd c886 12be
000002e0: 0275 323f e472 da3e 73dc 833e 0986 a83d
000002f0: f045 d73e c3c1 8ebe d797 a93f 1392 ec3f
00000300: 8e92 8b3f 5f4a 043f 0425 8a3f b682 003e
00000310: 4f68 983f 5019 2240 2afb 0a3f 4b0a 943e
00000320: 503f e6be ac13 c23f 41a5 713f 4e3d 8dbe
00000330: 6d20 92be c02e f43e c305 e93f 83f2 953c
00000340: 1adb d33f 2633 4e3f 3d6b 9fbd 4a06 12be
00000350: e0bd 1d3f dd4c 4f3f a5c8 b03f 677f cc3f
00000360: 8fc7 9a3f 86c9 a83e 2dd7 f73f 0e54 f53e
00000370: c76c 0c3f 1f5d de3e f125 db3e 26d5 1abf
00000380: 9037 913e ba83 cbbd 9e7f 7ebe f213 863e
00000390: 07bc 1d3f ac2f 053f 1349 523f 5c23 053f
000003a0: 8d54 e13e 56b8 ec3e 5596 473f faba f53e
000003b0: 5a8f 8f3d e79a fb3e f09b c2bf 57d0 fd3e
000003c0: d98a ab3f 776a 583f 1c83 453f 3780 023f
000003d0: e581 97be 4d2b b73d 3a0e 693f 60e6 7c3f
000003e0: 8508 a93f e46d d03f 1f40 56be ed19 1fbf
000003f0: 3167 423f f99c 6c3f b98c ddbe c99c 563e

critic.2.bias f4 [128]
0.3132057 -0.09708255 0.84077394 0.15890582 0.42092663 -0.09938303 0.4929885 0.0063991915
-0.93665576 0.03445089 -1.0902771 -0.80445594 -0.05343138 -0.7970921 -1.265553 0.1768231
0.61753815 0.42123485 -0.8972932 0.32112578 0.16297422 -0.8868476 -0.26646492 0.766544
-0.2303892 -0.10859969 -0.76705027 -0.46981367 -0.28969863 -1.197829 -0.95216495 -0.09666553
-0.46421477 -1.3390198 -0.80931264 -0.63596636 -0.6772448 -0.7500615 0.082243934 -0.7074936
-1.0852975 0.6051637 0.9178453 -1.0795213 -1.058306 -1.5735675 -0.30160668 0.26715577
-0.732184 -0.5450503 0.10754938 -0.58009154 -0.70078474 0.006095325 -0.16892616 0.65592235
-0.1725809 0.30534574 -0.16146177 -1.05622 -0.411182 0.028814215 -0.7752174 0.4267871
-1.0903311 -0.2682757 -1.0131551 -0.04706053 -0.79415417 0.20090428 -0.50359726 -0.9147925
-0.6887059 -1.089462 0.005459264 -0.6673214 0.35122222 -0.07340005 -0.63113844 -0.27378908
-0.78524506 -0.9828499 -1.1326911 0.24716458 1.0790381 -0.6355918 0.2876368 0.17669192
-0.030915314 -0.19753787 -0.8637571 0.91208154 0.55615354 0.37092352 0.23112221 -1.2757674
-0.115632124 -0.827153 -0.6704637 -0.9960988 -1.0767365 -0.069220714 -0.7603351 -0.32033882
-0.92792183 -0.34852356 -1.1262187 -0.16263999 0.7453266 0.08158685 -0.34550318 0.5974475
-0.81476235 0.3275204 0.05705309 -0.17182574 -0.23881195 0.4940647 -0.31049347 0.7980536
-0.1647921 0.5931948 0.5193205 -0.32000732 -1.0781845 -0.8248657 -0.083404794 -0.47690752
00000000: 7f5c a03e 37d3 c6bd f63c 573f 35b8 223e
00000010: b283 d73e 5489 cbbd fd68 fc3e 4fb0 d13b
00000020: acc8 6fbf 601c 0d3d 338e 8bbf d3f0 4dbf
00000030: ddda 5abd 3a0e 4cbf a4fd a1bf 1d11 353e
00000040: fb16 1e3f 18ac d73e 02b5 65bf 996a a43e
00000050: b7e2 263e 7208 63bf 176e 88be 3a3c 443f
00000060: 25eb 6bbe 8469 debd 685d 44bf 6b8b f0be
00000070: 6153 94be 7652 99bf 15c1 73bf 94f8 c5bd
00000080: 8fad edbe 0065 abbf 1d2f 4fbf b1ce 22bf
00000090: ea5f 2dbf 0804 40bf 826f a83d 4d1e 35bf
000000a0: 07eb 8abf 02ec 1a3f e9f7 6a3f c12d 8abf
000000b0: 9276 87bf a96a c9bf 316c 9abe a4c8 883e
000000c0: 6970 3bbf 6b88 0bbf d942 dc3d e180 14bf
000000d0: a166 33bf 4bbb c73b fbfa 2cbe 87ea 273f
000000e0: 0cb9 30be 4756 9c3e 3c56 25be 3832 87bf
000000f0: 7286 d2be ca0b ec3c a674 46bf d783 da3e
00000100: f88f 8bbf 6f5b 89be 11af 81bf 8bc2 40bd
00000110: b04d 4bbf dab9 4d3e c0eb 00bf d72f 6abf
00000120: 084f 30bf 7e73 8bbf a0e3 b23b 93d5 2abf
00000130: 66d3 b33e c452 96bd 4a92 21bf 152e 8cbe
00000140: d205 49bf 0d9c 7bbf 06fc 90bf b618 7d3e
00000150: ec1d 8a3f 25b6 22bf 2145 933e baee 343e
00000160: 1d42 fdbc 5e47 4abe 2f1f 5dbf 2d7e 693f
00000170: 1460 0e3f b0e9 bd3e 4dab 6c3e 594c a3bf
00000180: 89d0 ecbd 4dc0 53bf 82a3 2bbf 5500 7fbf
00000190: 80d2 89bf 97c3 8dbd 52a5 42bf 7303 a4be
000001a0: 498c 6dbf ae71 b2be ef27 90bf 198b 26be
000001b0: b9cd 3e3f 0217 a73d cbe5 b0be 52f2 183f
000001c0: 4494 50bf c1b0 a73e 80b0 693d 16f3 2fbe
000001d0: 1f8b 74be 0cf6 fc3e 00f9 9ebe 3e4d 4c3f
000001e0: 43bf 28be 9ddb 173f 30f2 043f 00d8 a3be
000001f0: f301 8abf 662a 53bf 22d0 aabd 392d f4be
