pendulum_ppo_model.pt (torch, 211914 bytes, 14 tensors)

actor.0.weight f4 [128, 6]
00000000: 1f63 73bd efa0 f7bd bb9e af3d 9a92 7fbc
00000010: 1eae 813e bdda fa3b 7ffb 583c 7c82 83bd
00000020: 57f3 69be e3be e43d 852a bc3b 2ce1 fdbd
00000030: 7844 48bd 209f 4abd 01be 853d 3e27 4e3e
00000040: eb58 883d b313 943d 7121 973d 1942 0bbe
00000050: d038 dfbd f7d8 99bd aec2 c9bc 1d08 8dbd
00000060: 7471 b4bb 5ff5 c3bd bea9 85bd ce5f bcbc
00000070: 245f 4b3d 7a05 c43c 36dc febd 53a6 e9bc
00000080: 7d13 1bbe e233 743d 3f6a 5b3c 6745 2a3d
00000090: bb74 cebd b170 3e3d 0c58 cebc ea16 29bb
000000a0: db0e f5bc c504 b3bd 6de5 a83d 9999 013b
000000b0: 7ec5 f1bd 3aa7 cbbc f326 69be 254f 583d
000000c0: 02f6 e43c 2fe5 82bc 781f 0cbe e015 0a3e
000000d0: 5a47 73be fd79 333c ce2c dcbd 33ae 893d
000000e0: 2b22 92bd 7ee8 ebbd da51 053e 4adc b13d
000000f0: 882a d53d 7cfa 20be 6021 ecbc 4711 cabd
00000100: cdd3 0abc e2cf fc3b da84 833d 674d 94bd
00000110: 3068 323a cfc2 463e 8b12 06bd 2206 85bd
00000120: b1a9 03be e05e 94bd d61b 44bd 58a3 123e
00000130: 2061 c13d d102 95bd 150c 61be c514 363d
00000140: 4db7 033c 3308 31bd bcf0 bdbc 129e 49bd
00000150: 21a5 963e 61c3 e4bb e610 efbd 5f5c 87bd
00000160: 61f5 80bd 0434 fdbd ad24 cebc 8731 5ebe
00000170: 0570 f9bd 0a9d 0ebd 50c4 913d 02af 263d
00000180: 7ed7 193e 4ab6 21be dc52 383d a5b1 cf3d
00000190: 2117 55be 647c 7e3d 7287 bdbd a72c d63d
000001a0: 38b1 343d e6ae 1dbe d2e6 9e3c 915d 74be
000001b0: cf1f 4bbd d0b5 40be c2d0 8c3e 11ae 7a3c
000001c0: a0b5 e93d cc59 ffbc 0b58 07bd 7916 b23d
000001d0: f71b dbbd f2d9 3c3d 8fab a0bc b027 82bc
000001e0: 47a9 043e 43a6 59be 0e18 4a3e a960 c33d
000001f0: 7fd4 6cbd 0afb febc dd34 78bd 248d 53bc
00000200: 0269 823d 0ee3 683d f90f 73be e227 ff3c
00000210: 5492 2f3e c461 e5bc 272f b63c 3d92 0c3d
00000220: 399c 273e c14c cf3c 0775 343d dd20 e73c
00000230: 5d14 0abe e9c2 293e 4714 3dbd 144e 80bd
00000240: 361c b43d 7b97 4ebd d5f4 e63d 64d4 44be
00000250: 2668 0d3d 954f 073d f567 1ebe 671f 893d
00000260: 512e 843d 443b c83d 0d37 b83d 403d c13d
00000270: fb65 263d ffa0 4e3d 98fb acbd a6d1 6e3e
00000280: 74be 81bc ae69 3abe 26cc e43d 8029 cebc
00000290: ddf1 c2bd 97d1 b73d 74a2 183e 4b3e 3dbe
000002a0: ab1c 2e3e c8ff a13e 45db c5bd b167 153e
000002b0: c731 083e ccc6 15bc 6d42 803c 0136 5cbe
000002c0: 63f6 853d aad3 003e 7274 1c3e 1ffb 063e
000002d0: c564 11be aa99 e43d 2022 b63d c936 8b3c
000002e0: b127 2e3e 2733 263e 9840 b43d 301a 5e3e
000002f0: 7764 1abc f0d8 a7bc 0631 38be 3909 3fbc
00000300: 9617 ce3d 3268 283c 6abd a0bd f6a6 81bd
00000310: d364 d53e 8ef2 18be 0448 033e 55b3 1bbd
00000320: 7e9f 06be 11fe 9dbc af9c 8cbd 3dcb e63d
00000330: d847 5abd ce59 1a3e 0aca 35bd fa5e 00be
00000340: 1a9a a43d 94f4 533d a561 d63d 433d 33bc
00000350: 5a41 cf3d ed8c d8bd c5cb f23d db30 48bd
00000360: 5324 fa3d 5a7f a93d 10a8 62bd 7d93 fdbd
00000370: f215 13be 9faa 873c 73de ed3d b8b1 fc3c
00000380: 62e7 273d fd44 563e f383 cb3d 95ab 16bb
00000390: e625 523d 941d 123e 62ff 12be f22c 81bc
000003a0: 0dcd ff3d 8ad2 623e 4294 08be f753 89bd
000003b0: d4ad dabc f470 03bd 7d6f da3d d9bb a6bd
000003c0: db18 713d 734a b53d cd44 41be 6919 82bd
000003d0: 7ab0 5b3c 41a7 0dbd a98d 86bd 9e6a 9b3d
000003e0: 5fb6 c63d 1402 513e adbf 2fbe ecaa 64bc
000003f0: 5b85 34be b9d0 533e 44f2 b1bc 367f cabd
-0.0594207 -0.120912425 0.08575197 -0.015598917 0.25328153 0.00765547 0.013243555 -0.06421372
-0.22846733 0.11169221 0.0057423734 -0.12396464 -0.048893422 -0.04946816 0.06530381 0.20132157
0.06657585 0.0723032 0.07379425 -0.13599433 -0.10899508 -0.07512086 -0.024628963 -0.06886313
-0.0055066887 -0.09568285 -0.065265164 -0.022994902 0.04965128 0.023928393 -0.12444346 -0.028521692
-0.15144153 0.05961979 0.01339203 0.041570093 -0.10080858 0.04649419 -0.025188468 -0.0025801011
-0.02991431 -0.08741144 0.082468845 0.001977539 -0.11805247 -0.024860013 -0.22768764 0.052809853
0.027949337 -0.015978424 -0.1368388 0.13484907 -0.23757687 0.010954377 -0.10750733 0.06722679
-0.07135423 -0.11518954 0.13019505 0.08684595 0.10408503 -0.15720552 -0.028824508 -0.09866577
-0.008473349 0.0077152112 0.06421824 -0.07241326 0.0006805686 0.19410251 -0.032732528 -0.0649531
-0.12857701 -0.072446585 -0.04787811 0.14320123 0.09442353 -0.07275928 -0.21977265 0.0444534
0.008039308 -0.04322071 -0.02318608 -0.049223013 0.29422858 -0.006981299 -0.11673145 -0.06609415
-0.06296802 -0.12363437 -0.025163973 -0.2169858 -0.12179569 -0.034817733 0.07117522 0.040694244
0.1502361 -0.15792194 0.045000896 0.10141305 -0.20809604 0.062130347 -0.0925435 0.104577355
0.04411432 -0.1539875 0.019397173 -0.23863818 -0.049590882 -0.18819356 0.2750302 0.01530029
0.11411595 -0.031170748 -0.03304295 0.086956926 -0.10698693 0.046106286 -0.019613056 -0.015888065
0.12955199 -0.2125483 0.19735739 0.09539921 -0.05781984 -0.031125564 -0.06059729 -0.0129120685
0.06367685 0.05685716 -0.23736562 0.031146947 0.17145663 -0.02800072 0.02223928 0.03431915
0.16368188 0.025305154 0.04405692 0.028213913 -0.1348433 0.16578259 -0.046161916 -0.06264892
0.08794443 -0.05043743 0.11277167 -0.19221646 0.03452315 0.03303488 -0.15469344 0.06695443
0.06454147 0.09776929 0.08994875 0.09435511 0.0406246 0.050446507 -0.08446425 0.23322162
-0.015837885 -0.18204376 0.11171751 -0.025166273 -0.09518788 0.08975523 0.14905721 -0.18480794
0.17003123 0.31640458 -0.09660963 0.14590336 0.13300239 -0.009141635 0.015656674 -0.21504976
0.06541135 0.12580743 0.15278795 0.13181733 -0.14198597 0.111621216 0.088932276 0.016993897
0.17007329 0.1623045 0.08801383 0.21689677 -0.009423367 -0.020489186 -0.17987451 -0.011659914
0.100630924 0.010278748 -0.07848628 -0.063306734 0.41678485 -0.14936277 0.1282044 -0.03801282
-0.13146779 -0.019286187 -0.068658225 0.112692334 -0.05329117 0.1507332 -0.044382133 -0.1253623
0.08037205 0.05174692 0.10467843 -0.010939899 0.10119887 -0.105737545 0.11855272 -0.048874717
0.122139595 0.082762435 -0.05533606 -0.12381647 -0.1436384 0.01656085 0.116146944 0.030846462
0.04099215 0.20924754 0.09937277 -0.0022990454 0.051305674 0.14269096 -0.14355233 -0.015768502
0.12490282 0.22150627 -0.13337806 -0.06705468 -0.026694216 -0.032090142 0.10665796 -0.08141298
0.058861595 0.08852091 -0.18873902 -0.06352503 0.0134087745 -0.034583334 -0.06569988 0.07588695
0.09702753 0.20410949 -0.17162962 -0.013956767 -0.17628996 0.2068509 -0.021721967 -0.09887545

actor.0.bias f4 [128]
00000000: 31ed 2bbc 0586 88bc 4420 27bb 3973 a1bb
00000010: be0d dfbb fc1a 8fbc 877f bbbb 36df 40bd
00000020: b252 d6ba 216b 2bbd 51f2 4fbb 4534 a4bc
00000030: e936 2fbc 8dea cebb 277c 4abc bcb4 0abc
00000040: b9ea 1e3c ec50 08ba 11c2 e03b 5490 e2bb
00000050: b948 08bb a78b 5ebc df98 c7bc 04a3 b6bc
00000060: 01cd d6bc 92a3 17bc b96b 83bc 2392 a33b
00000070: e884 febc 473e a33a 7d1a 6ebc b18a 31bd
00000080: 8300 29bd 558d 073c a9eb 94bc 1ab0 4aba
00000090: f83d 87bc 36ff 30bc c74b 69bc fcf1 193a
000000a0: d47f e0bc 3ce1 a03c 3578 0ebc 95a4 97bc
000000b0: c409 4dbc cd54 bfbc acd0 3cbc 945d cc3b
000000c0: 84eb b8bc 92e9 08bb 7e6c 87bb b575 b8bc
000000d0: cea0 543b 447c 8b38 65c4 06bd 2eb8 d5bc
000000e0: 2b9f 74bb f643 2dbc c150 043c 1d89 f0bc
000000f0: c25c 97bc a977 86bc da83 7db8 60d7 fd3b
00000100: d9d9 42bc 7399 59bc 7a4b c2bc ed4b 62bc
00000110: b8df f0ba 5da1 5bbd c213 26bc ebaf 2c3c
00000120: 5ff7 3ebc 386e aabb a585 acbc 6d35 e7bc
00000130: b8f5 efbc 0233 d1bc fc81 babb f11c 4ebc
00000140: 3db2 93bb 65b1 48bd 31fa 63bc 2cef 44bc
00000150: 428f 1bbc b7c2 96bb 725b 02bc 7bb3 debc
00000160: 1a1e b8ba ee91 0ebd 5fc5 0abc f396 f7bc
00000170: 5d29 17bd 05c5 beba 0c0e 16bb 0bae 0fbd
00000180: dced d2bc d8ec 84bc 738a c8bc 5626 3bbc
00000190: 682b 10bd 6d65 d2bc 84dc 88bc 2c9f 74bc
000001a0: eda6 c8bc b29a 1fbc af41 fabc 8335 b1bc
000001b0: c4c3 d03c 01a0 34bd 1f6f 15bd 0c77 bcbb
000001c0: 82d8 68bc 4102 93bc 6533 343c 3025 ae3c
000001d0: ea6b 0cbd 757d c1bc 1838 29bc e49b 9e3b
000001e0: 651e babb 330f dabc 80b3 7bbc b8c6 1fbc
000001f0: 5680 8cbc b54e d4bb 7fb7 91bc eb18 c8bc
-0.010493563 -0.016665468 -0.002550141 -0.0049270657 -0.006807058 -0.017468922 -0.0057219896 -0.04708787
-0.001635155 -0.041850213 -0.0031730125 -0.020044455 -0.010694244 -0.0063145817 -0.012358702 -0.008465942
0.009699517 -0.00052000466 0.006859072 -0.006914178 -0.00207953 -0.0135831 -0.024364887 -0.022294529
-0.0262208 -0.009255307 -0.016042577 0.004991786 -0.031069234 0.0012454473 -0.0145326825 -0.043345157
-0.041260254 0.008273442 -0.018178778 -0.00077319297 -0.016509041 -0.0108030345 -0.014239258 0.00058725453
-0.027404703 0.01963865 -0.008695652 -0.018511096 -0.012514535 -0.023355866 -0.011524361 0.0062367413
-0.02257324 -0.0020891172 -0.0041328063 -0.022517065 0.003244448 6.651183e-05 -0.03290214 -0.0260888
-0.0037326317 -0.010575285 0.008075894 -0.029362256 -0.018476848 -0.01641448 -6.0442697e-05 0.007746622
-0.011892759 -0.013281214 -0.02371763 -0.013812047 -0.001837722 -0.053620685 -0.010136547 0.010539989
-0.011655658 -0.0052011274 -0.02105982 -0.028223718 -0.029291973 -0.025537018 -0.005691765 -0.012580142
-0.0045073316 -0.0489973 -0.013914631 -0.012019914 -0.009494605 -0.0046008485 -0.007956373 -0.027185192
-0.0014047057 -0.03480714 -0.0084699085 -0.030223345 -0.03690468 -0.0014554566 -0.0022896556 -0.03507809
-0.025748186 -0.016226217 -0.02448008 -0.011422714 -0.035197645 -0.02568313 -0.016706713 -0.014930528
-0.024493659 -0.009741472 -0.030548899 -0.021631962 0.025483973 -0.044097904 -0.036482926 -0.005751496
-0.014211776 -0.01794541 0.010998582 0.021257967 -0.034282602 -0.023619393 -0.010328315 0.004840361
-0.005679893 -0.026618576 -0.01536262 -0.009751968 -0.01715104 -0.006479109 -0.017787693 -0.024425944

actor.2.weight f4 [128, 128]
00000000: 916c 033d 26d0 56bd 482e 16be fab4 92bd
00000010: dbf1 bbbd ff89 36be 1cb1 ce3c 516e ccbc
00000020: e390 3c3c 52ef 99bd 6e59 00bd 49c3 233e
00000030: c702 f23d 43c4 563d 6f8e 1f3e cfbc aebc
00000040: a418 b8bd 3e1a 853d 644b 323d 2dc3 53be
00000050: bf59 06be 4c49 ac3d 5a7d 0e3e 6081 263e
00000060: 0d57 f0bd be56 5dbd 6e70 40bd 11ae 9fbe
00000070: 8c46 84bc f19d 8f3d cec3 fcbd 1513 aebc
00000080: 73b9 6f3d c13a 56be 9922 fbbd ddc2 bfbd
00000090: 0455 a3bd 6594 573d 79ec 8f3d 2751 afbc
000000a0: 5f6b 89be d4c1 80bc f369 9dbd 271b 13be
000000b0: da25 363e cba5 22be 7fb1 88be 7771 ef3b
000000c0: c9ef f0bd eeb0 693e 26d4 4bbd 2081 f13d
000000d0: 3282 4d3c 11bc 913e 9f86 c93d 2ee9 0ebe
000000e0: 0913 a23d 721b a8bd 2085 78bd b502 88bd
000000f0: 3c44 0c3e 2602 d53d 4d4a 7fbe 78cc 323e
00000100: ae42 96bd 59a7 013d c2f0 d9bd fd67 b6bb
00000110: 8084 08be c56e 07bb 256d e3bd d6e0 cc3d
00000120: f3b2 c03b c452 013d e5da 7dbe 6a2b 42bd
00000130: 7c29 cf3c 79d1 353e 7a34 06be af2c 7fbd
00000140: 9885 b0bd 811c 96bd d747 0abd 0950 8dbd
00000150: 43c8 f5bd 288c 0dbe 3f19 b3bd 961d d4bd
00000160: ae09 053d 1dd8 1e3e 3f8e 38bd c70d b7bd
00000170: 4a34 523e 3c91 6dbe 77dd 6c3d d74e 96be
00000180: 8a95 2fbc 3cf8 dbbc 1424 783d 0127 17bd
00000190: 72ef 73be c83b 553d b959 07be 911d 263e
000001a0: 0f90 e7bd e7bc 68bb 47d6 a2bc 66dd bc3b
000001b0: 4f44 9bbe 5e0b 14be 8280 d93d 0646 8c3d
000001c0: b5a4 a9bd 2daa 8b3c 5400 d4bc 43aa 2abe
000001d0: 2231 093e fa6a b8bd 3b31 aabd 6a08 b03d
000001e0: a6a3 d7bd f2d3 18bd 6fed 523e 006f 7b3d
000001f0: 4379 71bd 31f2 94be ba21 983d f605 09be
00000200: 53bf ff3d 7efe 773d 9ac0 4bbe 2501 5b3d
00000210: eeab 3e3e e954 b93d 25cb e63c 4360 c83d
00000220: 6930 fabb 20fa 70bc 687e 0d3e 022e 383e
00000230: 340a f13b e166 9c3d 3672 3d3d 719c 64be
00000240: 1bc8 8dbd fece f6bd a460 543d fee4 e53d
00000250: ca97 683e a006 3fbe 78bd 42bd f850 1dbd
00000260: f418 223e b194 163d 8685 08be 6d5f e0bd
00000270: 0ee7 0dbe ee31 c3bd 6c45 c1bd 159f 813e
00000280: 5665 b2bd 02a1 953d 5629 5cbd f76a edbd
00000290: e378 bebd 80e4 b2bd c28b 22be 479f 863b
000002a0: fdde 623d 412a 3bbd 3430 f5bc 261a f33d
000002b0: bde7 8fbd 5fed 4dbe 2044 a2be f92b d03d
000002c0: c6cc 803d 50eb 923c 8c9c 06be 9dd3 a0be
000002d0: 846d 543e 7338 f43d c602 0abe a5ea d4bd
000002e0: 44d1 1b3e bebe 3e3e 467d 5ebe cf8a 283d
000002f0: 2c1e f93b f936 0fbd db4e 063e 6fc1 f5bd
00000300: 00da 3abd f457 803d fe7a 433d 3718 4c3d
00000310: 5445 18be f8ef 05be f0aa 313e 9ec4 01be
00000320: fda9 003e bdb5 4e3c 5924 e9bd aedf e9bd
00000330: 313e 7abe aa02 093e 6b82 ab3e 0d63 193d
00000340: 06eb 89bd 2c95 923e 6ec2 5e3d 9b65 26be
00000350: 9db4 c63d 11ae be3d aebc 8b3e 2bb1 11bd
00000360: 493a 283e c522 1bbe d935 99be 6e57 68bd
00000370: 16d9 e13d 0d87 683d a47a 9fba e6c6 f5bd
00000380: a14c 9ebd 8eb2 e23d 4776 8d3c 712e c23d
00000390: 8815 133d c068 be3d 273b 06be a0b5 83bb
000003a0: 5a2a 5ebd 79bf d2bd 7e92 ffbd b7d4 1b3e
000003b0: 7c07 62bc c1dd a6bd 96bc e8bb ccf2 853b
000003c0: defa 923c cbc9 03be 2ac9 bebc 31c2 f43c
000003d0: b4ef 0dbe a713 4abd 3cf6 f4bd e8a1 673d
000003e0: 4551 0abe d4aa 373d 3bda 71bd f4eb 7abd
000003f0: c47c 133e f316 02bd 82a3 f23c 2a7e 743d
0.03208596 -0.0524446 -0.14666092 -0.07163425 -0.0917699 -0.17826079 0.025230937 -0.024954947
0.011509153 -0.0751635 -0.031335287 0.15992464 0.11816936 0.052433264 0.15581678 -0.021330265
-0.08989075 0.06499146 0.04352893 -0.20679922 -0.13120173 0.08412418 0.13915005 0.1626029
-0.117353536 -0.054037802 -0.04698222 -0.3118749 -0.01614692 0.07012547 -0.12342034 -0.021249333
0.058526468 -0.2092085 -0.12262458 -0.09363339 -0.079752 0.052631754 0.070275255 -0.021401001
-0.2683973 -0.015717424 -0.07686224 -0.14365827 0.17787877 -0.15883557 -0.2669792 0.0073072272
-0.117644854 0.228214 -0.049762867 0.11792207 0.012543248 0.28463796 0.0984013 -0.13956138
0.07913787 -0.0820836 -0.060673833 -0.06641141 0.13697904 0.104008004 -0.24930687 0.17460811
-0.07336937 0.031653736 -0.10641624 -0.0055665956 -0.13331795 -0.002066539 -0.11104802 0.100038216
0.0058807074 0.031573072 -0.24790533 -0.047404684 0.025288336 0.17755689 -0.13105956 -0.062298473
-0.08619231 -0.073296554 -0.033759918 -0.06900031 -0.120010875 -0.13822997 -0.0874505 -0.103572056
0.032479934 0.15512128 -0.04505753 -0.08938175 0.20527759 -0.23199934 0.057828393 -0.29357025
-0.010716805 -0.026851766 0.06058128 -0.03690243 -0.2382181 0.052058965 -0.1321782 0.16222216
-0.11306774 -0.0035512985 -0.019877566 0.0057636974 -0.30325553 -0.14457461 0.10620214 0.068492934
-0.082833685 0.01704892 -0.025879063 -0.16666512 0.13397649 -0.09004779 -0.08310171 0.08595355
-0.1052926 -0.0373115 0.20598386 0.061385155 -0.058953535 -0.29091027 0.07428308 -0.1338118
0.12487664 0.060545437 -0.1989769 0.05346789 0.18620273 0.090493985 0.028173039 0.097839855
-0.0076351655 -0.014708072 0.13817751 0.179863 0.0073559526 0.0763681 0.0462515 -0.22325303
-0.06922933 -0.120511994 0.051849976 0.112253174 0.22714153 -0.18654871 -0.047543973 -0.038407296
0.15829831 0.036762897 -0.13332185 -0.10955701 -0.13857672 -0.09531008 -0.09437069 0.25316682
-0.087107345 0.073061004 -0.05375036 -0.115926675 -0.09300401 -0.08734989 -0.15873626 0.004108343
0.05538844 -0.045694593 -0.029930212 0.11870222 -0.070266224 -0.20110081 -0.316926 0.10164637
0.062890574 0.017934471 -0.13145655 -0.31411448 0.20744902 0.11924829 -0.1347762 -0.103963174
0.15216547 0.1862745 -0.21727476 0.041148003 0.0076024737 -0.034964535 0.13116018 -0.11999785
-0.045618057 0.06266776 0.047724716 0.04982778 -0.14870197 -0.13079822 0.17350364 -0.1267266
0.12564845 0.012616572 -0.11383886 -0.11419617 -0.24437787 0.13379923 0.3349794 0.037447978
-0.0673428 0.28629434 0.05438464 -0.16249697 0.09702418 0.09310544 0.2729239 -0.03556935
0.16428484 -0.15149982 -0.29923895 -0.056724004 0.11027734 0.05676942 -0.0012167287 -0.120008275
-0.077294596 0.11069213 0.017268313 0.09481514 0.035909206 0.09297323 -0.13108502 -0.004019454
-0.05423961 -0.10290427 -0.12479113 0.15217863 -0.01379573 -0.08147765 -0.0071025593 0.0040877815
0.017941888 -0.12869947 -0.023289282 0.029877754 -0.1386097 -0.04933515 -0.11961028 0.05655089
-0.13507564 0.04484065 -0.05904601 -0.06126018 0.14403063 -0.031760167 0.029618982 0.059690632

actor.2.bias f4 [128]
00000000: 0e83 aebc e1da 41bc e089 32bc c735 47bc
00000010: 6599 87bc b214 53bb 4dd3 14bc 6fb7 9fbc
00000020: bb23 95bc 93c0 eabb ccba e0bb ee2c aabc
00000030: a7b1 71bc 39a4 9abc a476 16bc 17aa 5239
00000040: 769d 063b 7c48 8cbb 111e 9eba 4a29 8dbc
00000050: 8089 97bc 6d77 1cbd 4c52 2cbd 34a6 76bc
00000060: 5c3a b9bc d3fa 7abc a5ee 94bc 0d43 b6bb
00000070: 0ef6 34bc c9e6 3fbc b50a b5bc 8dc0 98bc
00000080: 45b0 13bc 6bdd e1bb 2aa5 22bc d9a7 71bc
00000090: 7fde bebc c506 33b9 63d0 8ebc 4993 a5bc
000000a0: c800 cdbc cd01 8abc 6ca0 5fbc ac54 d33a
000000b0: 8d47 34bc 893d 4ebc b02d 5bbc cc18 53bc
000000c0: 6ed8 2cbd e50c 2fbc cadb a4bb 4275 a7bc
000000d0: 44d5 91bc 2dbf c9bc 619f 5d3b e2c2 edbc
000000e0: e04d c939 655f 22bc 2950 a1bb c207 01bc
000000f0: 20b6 4abc 589e 8abb 4294 9fbc 72df f6b9
00000100: 887a eabb 1ba0 b5bb b46b 26bc 2fa3 803c
00000110: 3d18 5c3c 3514 64bc b866 4dbc 9d07 64bc
00000120: 9061 acbb a212 61bc 3c4e a7bc 8ca6 4abc
00000130: 3b07 d1bc 2a52 82bc ef11 21bb 8ab6 583b
00000140: 6a53 b33c e8da 48bb 58d0 debb 2ea7 afbc
00000150: 0759 533b 1fe6 00bc 0de1 03bc a44d c7bc
00000160: 67b6 cebc ff2a e4bb 5776 e6bc 02ac 43bc
00000170: 289f 90bc da0e d6bb bce8 07bb c22c 89bc
00000180: bfd6 a3bc fe26 72bc 0d17 8cbc bdaa c33b
00000190: ca6f 20bc 9faa 2ebc 127d b6bc a887 12bc
000001a0: 004e 5ebc 3bf6 cfbc 89ae ca3b e0aa 23bc
000001b0: 15ca 5ebc 535c 4bbc 03cc f1bb 37ec 15bd
000001c0: 2489 c0bc 1962 95bb 8b6b 0dbc 05e0 50bc
000001d0: e681 8fbc ad59 7abc 43ba 79bc c1a0 74ba
000001e0: 6dfa b7bc f0be f33a e3b8 a6bc 1881 2cbc
000001f0: 1c4f f0bb 3e37 a8bc caf4 e8bb 44e9 6c3b
-0.021302726 -0.01183197 -0.01089713 -0.012158818 -0.016552636 -0.003220838 -0.009083581 -0.019496648
-0.018205514 -0.00716407 -0.0068582054 -0.020773377 -0.014751828 -0.018877136 -0.00918356 0.00020090524
0.0020540631 -0.0042811017 -0.0012063404 -0.017231602 -0.018498182 -0.03819983 -0.042070672 -0.015054274
-0.022610836 -0.01531859 -0.0181802 -0.0055621923 -0.011044992 -0.011712738 -0.022099832 -0.018646503
-0.009014194 -0.00689285 -0.0099270735 -0.014749491 -0.023299454 -0.00017073292 -0.01743335 -0.020211833
-0.025024787 -0.016846562 -0.013649087 0.0016123257 -0.011003387 -0.012587913 -0.013377592 -0.01288433
-0.04219859 -0.010684227 -0.0050310837 -0.020441655 -0.017801888 -0.024627293 0.003381692 -0.029023591
0.0003839573 -0.009910439 -0.004922886 -0.007875385 -0.012372524 -0.004230302 -0.019479875 -0.00047087256
-0.00715572 -0.0055427677 -0.010157514 0.015702812 0.013433513 -0.013920833 -0.012536697 -0.013917831
-0.005260654 -0.013737353 -0.020423047 -0.012368809 -0.025516143 -0.01590832 -0.002457734 0.0033067786
0.02189036 -0.0030648056 -0.006799739 -0.021442022 0.003224911 -0.007867365 -0.008049262 -0.024329014
-0.02523346 -0.0069631333 -0.0281326 -0.011942865 -0.017654017 -0.006532532 -0.0020738086 -0.016744975
-0.01999986 -0.014779804 -0.017100835 0.0059712813 -0.009792278 -0.010660796 -0.022276435 -0.008943476
-0.013568401 -0.025385967 0.006185357 -0.00998947 -0.013597985 -0.0124121485 -0.0073790564 -0.036602225
-0.023502894 -0.0045588133 -0.008631597 -0.012748723 -0.017517995 -0.015280169 -0.015242162 -0.00093318155
-0.02245828 0.0018596333 -0.020351833 -0.010528825 -0.0073336493 -0.020534154 -0.0071092593 0.003614978

actor.4.weight f4 [64, 128]
00000000: 18ff 06be 3b2c 233e 6bf8 8cbd 8a4c 253d
00000010: 878e c13b 4f28 73be 0c2b 0bbe c54a d2bc
00000020: 65be 923d d888 08bd d69a 11be 6b42 20bd
00000030: 30ee 08bc 15c9 993d 136b 08be bc02 833e
00000040: 575f 9a3d 4809 42bd 89ad 3f3b ecda 6fbe
00000050: 8a51 03be dc52 76be d078 183e 8db6 b03d
00000060: 1d06 ebbd 7b75 2fbc 6da5 b93e 4736 bf3d
00000070: 02c6 8fbd 2e0f 053e 21ce 13be ce21 9b3d
00000080: 3529 6abe c911 0cbd ef45 6e3d 4cfd 02be
00000090: 6b17 333d cece 0a3e 0e38 81bd 7404 a6bd
000000a0: 29ee dabd a85e d63d c7fa d43b dd99 e1bd
000000b0: 21a8 3d3d cbeb 863d 20ba 7f3d 1d74 123c
000000c0: e629 fa3d df10 163d 59f2 093e 341b 003e
000000d0: 58a5 1abe 9a78 713c 0e2f 33bc b903 213e
000000e0: d9fd 043d fe53 813d 4aaa d3bd b5a2 8a3d
000000f0: 36ae a43a 8f0d 32be 7e44 4e3e 0823 8fbd
00000100: 04b0 72bd 6a95 9abc 22e3 8fbc 9339 31bd
00000110: 9217 37be 8f04 a5bd ec24 76bd 8b88 163d
00000120: dcf4 983d 58eb 81be db5d a93d 7822 273e
00000130: ae40 0d3d 1baa 03bd 12ee 67bc ce02 eb3d
00000140: c594 303d d8c8 4f3d a108 473e f8e7 7e3d
00000150: 1946 bebd e52c 51bd c849 4b3d 9611 c3bd
00000160: 60fa 9a3e 8d93 973c 97e9 d2bd 14ea 7d3d
00000170: 252d 4f3e 3a6d e7bc ef58 9ebe 0d16 90be
00000180: 9c45 e1bd 66f4 08be fbdb adbc 5f37 5a3d
00000190: 9d89 a73d b989 b9bd 8ac7 c13d 7ffb 9fbd
000001a0: 9649 fcbd 4538 283d bed6 a4bd cf83 99bd
000001b0: 3564 94bd a9ee f23d a4fe 0dbd 97e9 aebd
000001c0: 0a43 1fbe 01a9 1cbc ad99 17bc 95b7 24be
000001d0: 3d75 b2be 6f83 a3bc 1976 563d 06a1 bbbd
000001e0: 3b83 ffbc 6798 94bd 5d85 2dbd 93b5 2abe
000001f0: 8e01 a33c 6995 65bd 06ba 9c3e fea2 2a3e
00000200: 0373 513e e77f 0b3c cfcc a8bc 1cae 013d
00000210: a381 de3c 80bd 3b3e ad29 2d3e 8301 7c3d
00000220: 78c6 9d3d b642 1a3e c088 4c3e 4258 48bd
00000230: 6ffb b1bd 6f5a cb3c 35c1 693d 5dcb 103e
00000240: 30f7 1d3e 6a59 b83d 6610 333e 707c 10bd
00000250: cf12 f4bb c72b 353e 9e92 7a3d 9b16 723e
00000260: 04bc f43d 0008 913d 3b4e 8a3d 8730 d1bd
00000270: dd04 183e ff27 8dbd 176d bd3d cce5 b6bd
00000280: c7d9 4dbd 545b 02bd 35e8 5ebe c07b f7bd
00000290: ade8 e7bd 1e57 80b9 3475 ef3d d493 a7bd
000002a0: a4b7 a13d 4f23 ce3d 4d1c 193e 2b82 f8bd
000002b0: 5fb3 06bd 261c 353e c246 583e 31eb 47bc
000002c0: 8f83 ecbd c5ff f63d 9ab5 96bd 668b bdbd
000002d0: 0d45 09be 3e32 9ebd c40b bfbc e6d0 37be
000002e0: 4e4b 883d 625e 1d3e c566 d0bd 4ff7 883d
000002f0: 395c fcbc 6345 23be 77fd e33d 53ab 1ebd
00000300: 332a 52bd d66c 093d c105 c43d 4b0b 3dbd
00000310: 7af8 69be 3a5d 36bc ac1c 06bd 93e6 163d
00000320: fef9 a1be 7f63 a6bd 1830 f63d 1fed 90bd
00000330: ecac b43c 7789 d83d 43fc 39be c8e4 98be
00000340: c310 5f3d c507 bb3d ea04 703e f331 39be
00000350: c511 383e f4f2 ffbc 994c 95bd 4aa0 be3d
00000360: aa44 20be f08c 80bd cfa9 33bd 564d 99bc
00000370: 177e 21be bf3d 8ebe aa68 eb3c 4a87 bcbe
00000380: 81cf c03d 2cbd dabc 797c 113e a1cb 67bd
00000390: 0028 673d 3755 073c e308 1ebe 9ed0 1d3e
000003a0: 5b08 b0bc 3d2a 743d 9920 dbbc 6f29 f63d
000003b0: 32c0 963d 7544 83be 3015 2abd a993 0bbe
000003c0: 063a 763d b33c 84be 4396 073d 571d 4cbd
000003d0: 47ce e6bc 0e7c 81bd 015d 443d fa6c 08be
000003e0: 472b dabc 1ea9 94bd 006e b63c 5dd0 1ebd
000003f0: 63f1 033b 998b 83bd 02c2 0d3e dabc 96be
-0.13183248 0.15934841 -0.068833195 0.040356196 0.005906883 -0.23745845 -0.1359064 -0.025670419
0.07165221 -0.03333363 -0.14219221 -0.03912584 -0.00835757 0.075090565 -0.13322096 0.25588024
0.07537716 -0.047372133 0.0029247722 -0.23423356 -0.12824073 -0.24055046 0.14889836 0.08628569
-0.114757754 -0.010709162 0.36259022 0.093365245 -0.07020189 0.12994072 -0.144341 0.07574807
-0.22867282 -0.03419665 0.058172163 -0.12791938 0.043723505 0.13555452 -0.0630952 -0.08106318
-0.10689957 0.10467273 0.0064996216 -0.11015675 0.04630292 0.06587943 0.062433362 0.008938816
0.12215023 0.036637183 0.13471355 0.12510377 -0.15102136 0.014738226 -0.010936512 0.15724076
0.03246865 0.06314848 -0.103352144 0.06769315 0.0012564126 -0.17387985 0.20143315 -0.069891036
-0.059249893 -0.018870074 -0.01756436 -0.043267798 -0.17880085 -0.0805751 -0.060093805 0.03675131
0.07468578 -0.25374866 0.08269855 0.16321743 0.03448551 -0.032144647 -0.0141558815 0.11475144
0.043110628 0.05072865 0.19436885 0.06223294 -0.09290714 -0.051068205 0.04963091 -0.095248386
0.30269146 0.018502975 -0.1029846 0.061990812 0.20232065 -0.028250325 -0.30927226 -0.28141823
-0.10999605 -0.1337448 -0.021223059 0.053275462 0.081805445 -0.09059472 0.09461887 -0.07811641
-0.12318723 0.041069288 -0.08048771 -0.074958436 -0.072456755 0.11861927 -0.034666672 -0.085406475
-0.15552917 -0.009561778 -0.009252948 -0.16085656 -0.3485507 -0.019960133 0.05235872 -0.09161572
-0.031190505 -0.07255631 -0.042363513 -0.16670828 0.019898202 -0.05605069 0.30610675 0.16663739
0.2045403 0.008514381 -0.020605473 0.031660184 0.027161425 0.18334007 0.1691043 0.06152488
0.077038705 0.1506451 0.19974041 -0.048912294 -0.08690535 0.024823396 0.057069022 0.14140077
0.15426326 0.090014294 0.17486724 -0.035274923 -0.007448531 0.17692481 0.06117498 0.23641436
0.11949924 0.07081604 0.067532025 -0.10214334 0.14845605 -0.06892394 0.09249323 -0.08930549
-0.050256517 -0.03182538 -0.21768267 -0.1208415 -0.11323676 -0.0002447897 0.116922766 -0.08182493
0.07896355 0.10065328 0.14952202 -0.121342026 -0.032885905 0.17686519 0.21120742 -0.01220207
-0.1154853 0.12060503 -0.073588565 -0.09255104 -0.13405247 -0.07724427 -0.02332104 -0.17950782
0.06654988 0.15368035 -0.10175852 0.06687795 -0.030805694 -0.15944438 0.11132329 -0.038737606
-0.051309776 0.03355106 0.0957141 -0.046153348 -0.22848693 -0.011130625 -0.032742187 0.036840986
-0.3163604 -0.08124446 0.12020892 -0.07076477 0.022055112 0.10573094 -0.18162636 -0.29862046
0.054459345 0.09132341 0.23439375 -0.1808546 0.17975529 -0.031243779 -0.072900005 0.093079165
-0.15651193 -0.06276882 -0.043863114 -0.018713634 -0.15770756 -0.27781484 0.028736431 -0.36821967
0.09414578 -0.026701532 0.14207639 -0.05659068 0.05643463 0.008260063 -0.15433078 0.15411612
-0.02148836 0.059610594 -0.026748942 0.120196216 0.07360877 -0.25638166 -0.041524112 -0.13630547
0.06011393 -0.2582756 0.033102285 -0.04983267 -0.028174533 -0.0632249 0.047940258 -0.13322821
-0.026631964 -0.07258819 0.022269249 -0.03877293 0.0020132891 -0.064231105 0.1384354 -0.29440957

actor.4.bias f4 [64]
00000000: d4d5 babb a6c5 21bc eb93 05bc a0e4 3ebd
00000010: 7799 e3bb a626 3ebc c480 02bc a6ec a5bc
00000020: d7fe 8dbc 9db2 6abc 910a 40bb 4f41 2e3a
00000030: c71a 44bc a34d debc 10fc 63b9 02cc 09bc
00000040: ae46 253b 6611 87bc 3ae0 eabb 2df1 56bc
00000050: 1f3d 80bc 24e2 fe3a c17e d7bc 5d84 b3bb
00000060: 7901 b03b 1d1d f2b9 57bf 9f3a 0000 0000
00000070: 41ff e2bc fde8 c83b e3ca 95bc dd2c 22bc
00000080: 1930 23bc 4af2 70bc 0673 a33b 4c4a cdbc
00000090: 3120 c9bb 1355 03bc f00c 12ba 203f bdbc
000000a0: f0e0 92bc 2f85 0c3c 3398 b93a 8ab5 3fbd
000000b0: dad5 09bc 2081 8dbc 142d 18bc 83d6 18bd
000000c0: 87a0 44bc c5e7 a3ba ee5a 7b3b 75c2 bfba
000000d0: 6eb3 7b3b dcc0 24bc 01f8 b2ba f569 deba
000000e0: 3380 fb3b 14cf adbc 51b6 1fbc e961 5ebc
000000f0: 5abf e7ba d9c9 99bc 4ae8 c1bb f683 513a
-0.00570176 -0.009873783 -0.008152942 -0.046604753 -0.0069457847 -0.011605894 -0.00796527 -0.020254444
-0.017333431 -0.014324811 -0.0029303173 0.0006647305 -0.011969275 -0.02713663 -0.00021742308 -0.008410456
0.002521913 -0.016487788 -0.007167843 -0.013119024 -0.015654145 0.0019446057 -0.026305558 -0.0054784254
0.0053712693 -0.00046179528 0.0012187761 0.0 -0.027709605 0.00613129 -0.01828522 -0.009898392
-0.009960198 -0.014706204 0.004988077 -0.025059842 -0.0061378707 -0.008015889 -0.0005571386 -0.02310139
-0.017929524 0.008576675 0.0014159739 -0.04680399 -0.008412803 -0.017273486 -0.009288091 -0.03731395
-0.012001163 -0.0012504986 0.003835376 -0.0014630096 0.003840651 -0.010055747 -0.0013654233 -0.0016968834
0.0076751946 -0.021216907 -0.009748057 -0.013573148 -0.0017680929 -0.018773006 -0.0059175836 0.0007992381

actor.6.weight f4 [1, 64]
00000000: 0ce8 7fbd b8fc af3d 2681 09be 238b fb38
00000010: 5a1d 623e 3d60 8f3b 47cb ae3d 8e37 c43d
00000020: d4f5 ca3d 871c 823e 7c4c 8f3c b6d1 7b3d
00000030: b295 9c3c d870 883e 6949 993c 1baf 713c
00000040: da47 2bbe 74e8 ae3d c0d0 cbbd f31d d93d
00000050: ac53 523d 4dd9 e4bd b179 53be 1c99 b43c
00000060: 6c46 53be 68ba debd 5add 39bd 899f 5ebe
00000070: 93fb 37bb d89c a4bd b478 5c3e 9cdb e4bd
00000080: 7c0e ecbe b10b c83d 6b78 b4be 69d2 6b3c
00000090: a467 e53d aaa3 47bd 003a d83c 97ee 9c3b
000000a0: 6ae3 33be 4e02 cebd 4a05 1a3d 7748 5ebe
000000b0: d6f1 b93d b52b 54be 0b9a 783e 959e e0ba
000000c0: dfe9 27be 3e68 d4bd 0a41 c7be 5e32 efbc
000000d0: cb4c a9bd 2355 21be 3941 bc3d bcae 39be
000000e0: 7b97 b9be 641d 8f39 9d70 093e 609f c53d
000000f0: 9f01 203e c3f3 283b 793c 013d b44e f1bd
-0.062477157 0.08593124 -0.13428172 0.00011994529 0.22081509 0.004375486 0.08534866 0.09580909
0.09910169 0.2541239 0.017492525 0.061479293 0.019114349 0.26648593 0.018711763 0.014751221
-0.16726628 0.08540431 -0.09951925 0.106014155 0.051349327 -0.11174259 -0.2065189 0.022045664
-0.20632333 -0.10875398 -0.045377113 -0.21740545 -0.0028073534 -0.08037728 0.2153042 -0.111747
-0.461048 0.09767855 -0.35248122 0.014393427 0.112014085 -0.048740067 0.026394844 0.0047891843
-0.1756722 -0.10059033 0.0376027 -0.2170733 0.0907933 -0.20719798 0.24277513 -0.0017137105
-0.16397808 -0.10371445 -0.38916808 -0.029198822 -0.082666 -0.15755133 0.09192128 -0.18133062
-0.36248383 0.00027296983 0.13421865 0.09649539 0.15625618 0.002578006 0.03155181 -0.117825896

critic.0.weight f4 [128, 6]
00000000: 19f8 5bbe 5c4e 20be 1063 9d3d 49df 4fbd
00000010: 96e2 56be 98d7 ec3d 1c06 8dbe f4de 02be
00000020: f129 8cbc 8941 babf 62b0 7f3c 5059 edbd
00000030: dc0e 4d3e 94b0 c8bd 1adf 2dbe 2c07 95bf
00000040: 82f0 513c 95fe 0cbe 50ff d5bd ff1f e7be
00000050: ba2e 9ebd 8f6a 63bf 182c cebd 1fe9 dabd
00000060: 2247 413e d563 c6bc c9c7 053d bd3c 1f3f
00000070: ed11 02bd 07b0 573e c79e 2bbe 3afc 203d
00000080: aadb e5ba 068c be3f cfc6 03bc a1e5 e03d
00000090: a61b cc3e b159 29be a6e1 ccbe 2708 afbf
000000a0: 130c 063d 0df3 9dbe d0fb 7bbe 8164 bcbc
000000b0: 4b92 09be 064c bc3e d4b8 59be b982 223d
000000c0: 8708 88be 8df0 c6bd 5268 9f3e 282a 703e
000000d0: ec20 7bbe 3977 f53d d2af 2b3d d2da 17be
000000e0: b8f9 dcbc 24c9 333c 8dea 45be 8e32 1bbe
000000f0: 6a38 903b c517 a0be 7f8a d0bb 7de2 3abf
00000100: 1ca6 84bd cd9b 30be 297f 87be d9c8 abbd
00000110: 9f39 6ebd 13a9 b1bf 909b 58bc a9ef 2ebe
00000120: 5f01 fabe e9e2 d23d 5c92 443e c994 893f
00000130: d632 fdbc 1aa8 ed3c 6968 773d 44e0 f3be
00000140: 7e30 1abe beb4 173e f1bf 98be e300 7c3d
00000150: 74a3 00bf 8f46 3d3d a384 673d bc99 763f
00000160: a8fa fbbb f519 2f3e c51c 2fbf 50fe 5d3d
00000170: 0de3 98be 55c7 22bf 2bf5 6a3e b3b4 49be
00000180: 25db a8be 116b d9be f8a9 7e3c 263d 6d3d
00000190: 656e aebd 09a5 853d 7177 d43d 1486 04be
000001a0: 5333 1cbe f744 37bf a51f 43bc 7f27 19be
000001b0: 2ea4 b93b a6a6 963d a325 763c 7d49 58bf
000001c0: a64e f2bc f721 cebe 4f6b 29bc 7a31 f1bd
000001d0: 2cc6 0ebe 66df 6d3e f61a bbbe 927e 47be
000001e0: 110f 52be 64b6 15be e75b f6bd a0eb 05be
000001f0: e0e3 d0bd 8e5f 5d3d 6728 883d 1c7b c5be
00000200: 34ae 39be a851 5e3e 8464 4fbe e115 233d
00000210: c6fc 69be 3df4 2a3e 12ae 133f e4b6 1e3f
00000220: 444f 9a3e c0be 0c3e b955 733d 31c2 8fbe
00000230: 072b 9cbe 2c78 cfbc 6cfe 86be 537c 66be
00000240: 2bf7 bd3e cade f13e e5c7 c5be 6356 3cbf
00000250: 2cdc c23d f4ab 92be 7c4b 7ebd a393 57be
00000260: 8f86 6ebd 4b7d 2ebf 2f70 00bd c43d 10be
00000270: e4e2 debd edc2 5fbe d7b3 abbe 0678 84bf
00000280: dbd0 69bd bae2 1cbe 1db0 aabd 83b8 3abe
00000290: 70aa 3b3e d765 933e 565d 6abe 1f54 023e
000002a0: 15f4 0bbe 5d26 e53e c63d 68be fa78 aa3f
000002b0: 5de0 02bd 2a5d cc3c 6af1 a1be 5e34 c73d
000002c0: ff5b 71bc ed44 3e3f ebc4 11bc 8c43 573e
000002d0: 859b cbbd 5399 f7bd 6b8f babd 7e3f 30be
000002e0: 2665 cebe 56f2 83be ffdc 63be 5392 95be
000002f0: 7131 d83d 985e 1c3d da7c a0be 4fe6 483d
00000300: 0f43 9abe bcfd 7abe 66b5 e23c 1268 343f
00000310: ffe6 fdbc 61a6 563e a262 bc3e 4168 6b3e
00000320: 94fa 6ebe 7aba 19bf c47f 833e 8abb 44be
00000330: 14f8 933e 5137 7c3d a033 84be b8b9 5cbf
00000340: 27b3 053e 9d96 a4be 1eb6 92be aa1c 12bd
00000350: ab86 fd3d ee6f b63e 10fb 13be 47a6 2e3d
00000360: 1e21 553e c595 21be 1f2d 49bd 71b7 56bf
00000370: 51b8 063c 0638 62be f2c2 403e c179 cebd
00000380: e0f2 8abd 079e 313d 019a 2dbe 220f 0ebe
00000390: cd8e 443d 449f f0bd e1ef 37be ed94 343e
000003a0: 0d54 55be 4a38 1fbd ef1d f53d 1e3f 0abe
000003b0: 8a82 f43d a94d c53e e702 0fbe d1eb ce3d
000003c0: ff18 23be fe35 e13e 07a3 99bd 81f8 be3f
000003d0: 5ea9 c23c 7b02 933c e96f 24be c963 be3e
000003e0: 7138 6abe 08d7 9c3f 557b 8f3c bb01 e13d
000003f0: 5456 29be 3577 71be a7b5 bdbd eec2 5fbf
-0.2148136 -0.15654892 0.0768491 -0.05075005 -0.20984873 0.11564559 -0.27543724 -0.12780362
-0.017109843 -1.455125 0.015606018 -0.11589301 0.200252 -0.097993046 -0.16979638 -1.1642814
0.012813689 -0.1376899 -0.104490876 -0.451416 -0.07723756 -0.8883447 -0.10067004 -0.106889956
0.18874791 -0.024217525 0.032661233 0.62202054 -0.031755377 0.21063243 -0.16759787 0.039303042
-0.0017536778 1.4886482 -0.008043005 0.10981298 0.39864844 -0.16538121 -0.40015906 -1.3674363
0.03272636 -0.30849496 -0.24607778 -0.022997143 -0.13434713 0.3677675 -0.21261913 0.039675448
-0.26569006 -0.0971385 0.31134278 0.23453581 -0.24524277 0.119856305 0.041915722 -0.14829567
-0.026974544 0.010973249 -0.19327755 -0.15156004 0.0044012563 -0.31268135 -0.0063641663 -0.73001844
-0.06476995 -0.17246933 -0.26464203 -0.08387918 -0.05816042 -1.3879722 -0.013220683 -0.1708361
-0.4882917 0.10297186 0.19196457 1.0748531 -0.03090803 0.029010821 0.060402308 -0.4763204
-0.15057561 0.14815041 -0.2983394 0.061524283 -0.5024941 0.046209868 0.056522977 0.9632833
-0.0076897927 0.17099746 -0.68403274 0.05419761 -0.29860726 -0.63585407 0.22945087 -0.19697838
-0.32979694 -0.42464498 0.015543453 0.057919644 -0.0851715 0.065256186 0.10374344 -0.12941772
-0.15253954 -0.71589607 -0.0119094 -0.14956473 0.0056653237 0.073560044 0.015023622 -0.84487134
-0.029578518 -0.40260288 -0.010340526 -0.11777015 -0.13942784 0.23229751 -0.36544007 -0.19481876
-0.2051356 -0.14620358 -0.12029248 -0.13078165 -0.10199714 0.054046206 0.06648331 -0.38570487
-0.1813286 0.21710837 -0.20253187 0.039815787 -0.22850332 0.16694732 0.57687485 0.6199782
0.301386 0.1374464 0.059407923 -0.28077844 -0.30501577 -0.025325857 -0.26365983 -0.22508363
0.37102637 0.47240287 -0.3862907 -0.73569316 0.09514651 -0.28646815 -0.062083706 -0.21052413
-0.058233794 -0.6815993 -0.031356987 -0.14086062 -0.1088312 -0.21851702 -0.33535644 -1.0349128
-0.057083946 -0.15320864 -0.08334372 -0.18234448 0.18326735 0.28788635 -0.22887167 0.12727402
-0.13667329 0.4475583 -0.22679815 1.3318169 -0.03195225 0.024946768 -0.31629497 0.09726785
-0.014731406 0.7432392 -0.008897047 0.21021861 -0.09941772 -0.12089791 -0.09109386 -0.1721172
-0.40311545 -0.25770825 -0.22252272 -0.292132 0.10556305 0.03817615 -0.31345254 0.049047764
-0.30129287 -0.24510854 0.027674388 0.704713 -0.030993937 0.20961906 0.36794 0.22988988
-0.23337775 -0.60050166 0.25683415 -0.19212165 0.28900206 0.06157619 -0.25820637 -0.86220884
0.13056622 -0.3214616 -0.2865457 -0.035671867 0.123792015 0.3563227 -0.14451241 0.042639043
0.20813414 -0.15779789 -0.049115296 -0.8387366 0.008222655 -0.22091684 0.18824366 -0.100818165
-0.06784606 0.043363597 -0.16953279 -0.1387296 0.047987748 -0.117491275 -0.179626 0.17634936
-0.20832844 -0.03887204 0.119686 -0.1350064 0.11938961 0.38535812 -0.13965951 0.10103572
-0.15927504 0.43986505 -0.07501798 1.4919587 0.023762401 0.017945519 -0.16058315 0.37185505
-0.22873093 1.2253122 0.017514864 0.10986658 -0.16536838 -0.2358063 -0.09263163 -0.87406814

critic.0.bias f4 [128]
00000000: 071b 3b3d 1fb1 6d3d 9f78 bd3c 1f8c 3e3d
00000010: 7c93 d6bc 15c8 dbbd ae80 cc3e 7d64 013a
00000020: fa7c 323d 902b 663d 375c 593d 30d0 cf3d
00000030: e9e0 67bd e705 903c fc3c 81bd 2146 f13e
00000040: a926 8c3c 9682 9b3d 4d5b a83c fdcc 8c3b
00000050: 8545 423d 632d 0c3d 5100 8b3e 4f2d a43d
00000060: 5e1e b53e 4a31 a03d 165f 073e 2ba6 163d
00000070: a4a2 27bc f0c5 8abd 539b 96b9 d65b 133d
00000080: 5901 4abd 9678 8d3e 0196 9f3e f81e 153d
00000090: 8be1 d7bc 3d99 183d 87b7 773b 636c 90bb
000000a0: 7886 2bbe 1a73 b6bc 74ec bd3d e140 e33b
000000b0: 4755 333f 2953 b4bd d2d0 013d 4a71 06bd
000000c0: 3aac 853e 3349 f3bc 9996 8fbc 0456 86ba
000000d0: d3ad 31be 71b7 b93c 0763 263d a692 503d
000000e0: de9e 8a3c f9c9 443d a0f3 153d 3096 d63d
000000f0: a274 973d 8645 263d cd79 97bd f1bd febb
00000100: 3ee8 ea3c b695 3f3d f550 5cbc 1c92 c83c
00000110: 0535 363d f16c 113d 1fa7 e63c bc55 563c
00000120: 11a5 423c 12ba f93d ea5a 113f f09f 1f3f
00000130: 7fcd f03c 3051 1c3e be0b 4e3e 9283 dc3c
00000140: 7747 22bb 63ec 193c ab39 983c 0589 ef3c
00000150: ba57 bd3c 3882 e43c 8daa 843d d21c 38bd
00000160: c950 8e3e 8a38 363d 7f63 323d f92c 213b
00000170: 2751 a03c 5572 82bc b02d 2f3d 0939 273c
00000180: a422 cb3c 9a7f f63c e152 903d fc98 e73c
00000190: 93f0 693c f185 e93c 3873 8f3e a411 0a3f
000001a0: 31ab a2bb ad0b ee3c ff2e c63c fa76 5ebc
000001b0: 203f 6d3c e83f 483d ca51 833e f066 583d
000001c0: 15a8 d83e d28a aa3c 36e6 6a3c e272 1e3f
000001d0: b30a a23e 6e9a 1b3d 81af ba3e e972 b8bd
000001e0: 1ab5 083c 8e7b 9abd 359a 793d ac5a c63c
000001f0: a655 06bd 9932 9b3c 43c5 36bd 8c93 bb3c
0.045680072 0.058030244 0.023128806 0.04652035 -0.026193373 -0.10731522 0.39941925 0.00049359334
0.04357622 0.05619389 0.05306646 0.101471305 -0.056610975 0.01758094 -0.0631046 0.47123817
0.017108278 0.07593267 0.020551348 0.0042968974 0.04742958 0.03422297 0.2714868 0.080164544
0.3537473 0.07821901 0.13219866 0.036779564 -0.010231648 -0.06776035 -0.00028725955 0.035976253
-0.04931769 0.27631062 0.3116913 0.036406487 -0.026352664 0.037255514 0.00377986 -0.004407452
-0.16750515 -0.022271682 0.092736155 0.0069352244 0.70052 -0.08804924 0.031693287 -0.032822885
0.2610796 -0.02969799 -0.017527865 -0.0010249023 -0.17351465 0.02267048 0.040621784 0.050921105
0.016921457 0.04804418 0.036609292 0.10477865 0.07395293 0.040593646 -0.073962785 -0.0077741076
0.028675195 0.046773635 -0.013447036 0.024483733 0.044484157 0.035504285 0.028155861 0.013081964
0.011880175 0.12193693 0.5677935 0.6235342 0.029394863 0.15265346 0.20121667 0.026918206
-0.0024761835 0.009394738 0.018582186 0.02924014 0.02311312 0.027894124 0.064778425 -0.04494936
0.2779601 0.044487514 0.043551918 0.0024593456 0.019569946 -0.015923658 0.04276818 0.010206469
0.024796791 0.030090142 0.07047058 0.02827119 0.014278549 0.028506251 0.28017592 0.5393317
-0.0049642553 0.029058302 0.024192331 -0.013578171 0.014480382 0.04888907 0.25648338 0.052832544
0.42315736 0.020818148 0.014337113 0.6189405 0.31648788 0.037989073 0.36462024 -0.090062924
0.008343959 -0.075430974 0.06093808 0.024213158 -0.032796524 0.018945025 -0.044621717 0.022897504

critic.2.weight f4 [128, 128]
00000000: 1d56 0bbc 95fe 9f3e bcf3 75be 5edf 56be
00000010: 818b fabd 2b00 593e bcb9 303e c61d 0d3e
00000020: 9ccb 983e 2585 b23d 23a2 bebe c6b9 813e
00000030: 2220 043f fa54 f4bd 4def 733e 2229 5b3e
00000040: 2cfd 433d 1d7c 6bbe c047 d8be d379 1ebe
00000050: 1697 743e fba5 9bbd 263a 4e3f 7017 5f3e
00000060: 21fb 313e d9bb 75be f04a adbd 21a0 ec3d
00000070: 2315 343f 67d5 0c3e 2af0 11be 23f3 f9bc
00000080: 0351 96bd 7db6 2b3e 81d9 613d acea 1d3e
00000090: 7533 85bd 2129 143e c1a0 d3bc 9913 253e
000000a0: e117 3c3f 74b5 183e 9a1c 4ebe a94c c53c
000000b0: f8ec 083f e2a9 8b3e feda b3bd 77c4 67be
000000c0: bcbb 023f 3213 153e 97ea fc3d c880 b73e
000000d0: b724 bb3e 2d4c 383e a046 ed3d 8d97 80bc
000000e0: 9aa1 68bd 9014 233e f046 1b3e 4221 d7bd
000000f0: 5b4c 393e 0253 69be 7590 4f3e 0cee a1bd
00000100: cc13 cebd b3fd f7bd 7ca2 e33e 3e86 eb3c
00000110: d937 d83d 012d 6a3f 1dc0 633d 9b5e 96bd
00000120: 3536 5abe c2c4 5c3f 7d27 133f ca01 863e
00000130: eaad ce3d d842 4c3e 39df d13e 50db 5fbd
00000140: 4586 b63e f165 c4bc 124d 7c3d 9e30 7fbe
00000150: e553 833d 3507 a13c b242 093f ac05 8a3e
00000160: cd32 043f 9e1b be3d d9e1 293e b7d3 793d
00000170: 69b0 1cbe 2ef8 d73d 0437 a93d 908f 3b3e
00000180: 17ba 13be 4d90 b33e 0f18 dbbd 07e3 303b
00000190: c55b 43be 0d0e 1ebe 82e1 2b3f 35a7 973d
000001a0: 4f33 04be be4d 053f 6a23 98bd 6876 5fbd
000001b0: a838 6fbc 2730 cebc 533e d1bd 5429 003c
000001c0: 98e1 dc3d 090b a6be 77df 223d 61f1 403f
000001d0: 5834 493e 4a35 0a3e f77f 153f a1f7 843e
000001e0: 7771 d0bd e689 953e 5b0b 93bd 3e75 acbc
000001f0: 5a51 2f3e a6db f7bc 3d88 dc3e 26b6 3c3e
00000200: fd72 233e 1b2f aa3e 5b9b 803e 951f 803d
00000210: 3332 573e 70c5 773e b833 803e 6c64 f03d
00000220: 1113 5b3d b49c 2d3e 48a5 223d c894 243e
00000230: 6cfe c53e 04c9 813d c720 003e 10c4 da3e
00000240: 83fb 6b3e 0fe9 713e 4d8b 95bd 3fee ec3d
00000250: edc0 9b3e efd5 4b3c a50f 0f3f df21 26be
00000260: ffe8 d53d 5db4 423d 95e3 e73c d7f7 b53e
00000270: 34f5 203f 227c 903e 1c2c 083d 4a57 2cbd
00000280: 5669 833d 565d 603e f979 873e 02aa 503e
00000290: 7b92 143e 60a2 c63d 6ac7 903d d4da 453e
000002a0: 01ba 163f 18db f23e 59d1 74bd 2276 f7bd
000002b0: cf2c d53e d448 013d 3eed 113d b81f 243e
000002c0: d970 013f 89f2 413e 30a1 5a3e b365 2b3e
000002d0: ae60 553e 5b5f 93bc c0f0 d83e e878 64bd
000002e0: d7b0 113d 9199 413e 037e 463e 764d 173d
000002f0: 734f 523d fbdd d3bd 7d71 843e edfb 363e
00000300: 647d 803e 7384 bd3d 9955 0d3f ad0d 213e
00000310: db7f 963e cec6 793f 967b 6c3e 2681 5d3e
00000320: 80df 873e da0f 3b3f aa9d 033f ebb7 4d3d
00000330: 400d 2d3e 669c e63d 7b52 ba3e 81d2 32be
00000340: 9424 b73e 1400 183e 6a3f 903e 61f4 033e
00000350: 76e2 3b3e b8d6 c63e 3d13 b03e e283 003f
00000360: 2d36 373f a0bb d93c 6e24 633e ae13 2b3b
00000370: b6d0 863d 010e 92bd 0778 383e 244e 7e3d
00000380: 6073 1d3e 333e 05be 3a2b 9abd 2237 443e
00000390: cd6f b73e 9c62 033e b78a 283f f093 a43e
000003a0: 3cca d6bd f43d e33e d40d a13d d994 893d
000003b0: 633b 213e 2693 623d 344d 63bf 26c3 033d
000003c0: dcc8 383e 4b87 713e 2460 27bc 5e43 dd3e
000003d0: a63e 683e 665b 01bd 04c1 f93e 3b74 9d3e
000003e0: 9015 f3bc 2ed2 973e 6ce6 8fbc ce24 e03d
000003f0: 1732 933e 0787 993e 8a3d 8a3e 2c7b 093d
-0.008504418 0.31248918 -0.24018759 -0.20983645 -0.122336395 0.2119147 0.17258352 0.13780889
0.29842842 0.087168016 -0.37233075 0.25337046 0.5161153 -0.119302705 0.23821755 0.2140241
0.047848865 -0.22996564 -0.4224224 -0.1547616 0.2388576 -0.07600018 0.8055748 0.21786284
0.17380954 -0.2399744 -0.08461559 0.1155398 0.7034475 0.13753282 -0.14251772 -0.030511444
-0.073396705 0.16768833 0.05513907 0.15421551 -0.06503955 0.14468814 -0.02583349 0.16120757
0.73473936 0.14912969 -0.20128098 0.024084406 0.53486586 0.27278048 -0.08782004 -0.22633539
0.5106771 0.14558104 0.12349432 0.3584044 0.3655145 0.17997809 0.11585736 -0.015697265
-0.05679474 0.15925813 0.1516378 -0.1050439 0.18095534 -0.22785571 0.2026995 -0.07906732
-0.1006237 -0.12108936 0.44459903 0.028750535 0.10557527 0.9147492 0.055603135 -0.07342263
-0.21309741 0.8623773 0.5748213 0.2617324 0.10091765 0.19947374 0.40990618 -0.054652512
0.35649315 -0.02397439 0.061596937 -0.2492089 0.06412486 0.019656757 0.53617394 0.26957452
0.51640016 0.09282611 0.1659006 0.060992923 -0.1530167 0.105453834 0.082624465 0.18316483
-0.14426456 0.3507103 -0.10697948 0.0026990788 -0.19077976 -0.15435047 0.6714097 0.07404939
-0.12910198 0.5207175 -0.0742863 -0.05455628 -0.01460091 -0.025169445 -0.102169655 0.007822353
0.10785216 -0.32430294 0.039763894 0.75368315 0.19648874 0.1349689 0.58398384 0.25970176
-0.10177892 0.2920677 -0.071799 -0.021052 0.17120877 -0.030256104 0.43072692 0.18428859
0.15961833 0.33239064 0.25118527 0.06256024 0.21015243 0.2419641 0.25039458 0.11737904
0.05348498 0.16954309 0.039708406 0.1607238 0.3867067 0.06337169 0.12512504 0.4272771
0.23045163 0.23624061 -0.0730196 0.11568879 0.30420628 0.012441142 0.55883247 -0.16223858
0.10444831 0.04753529 0.028306762 0.3554065 0.6287415 0.28219706 0.03324519 -0.042075433
0.064165756 0.21910605 0.26460245 0.20377353 0.14509003 0.09698939 0.07069285 0.19321758
0.5887757 0.4743278 -0.059769962 -0.12083079 0.4163575 0.031563595 0.035626642 0.16027725
0.50562817 0.18940176 0.2135055 0.16738014 0.20837662 -0.017989805 0.42371178 -0.055779368
0.03556904 0.18906237 0.19384007 0.036939107 0.0513453 -0.10345074 0.25867835 0.1786954
0.25095665 0.09253778 0.55208737 0.15727873 0.2939442 0.97568977 0.2309402 0.21631297
0.26537704 0.7307106 0.5141245 0.050224226 0.16899586 0.112602994 0.36391053 -0.17463113
0.35770094 0.1484378 0.2817338 0.12886192 0.18348107 0.38835692 0.34389678 0.5020124
0.7156704 0.026578724 0.22181866 0.002610426 0.06582777 -0.07131577 0.18014537 0.06208624
0.15376043 -0.13012008 -0.07527776 0.19161656 0.35827485 0.12830585 0.6583666 0.32144117
-0.10487792 0.44383204 0.07863966 0.067178436 0.1574531 0.055316113 -0.8878968 0.03216853
0.18045372 0.23586766 -0.010215793 0.4321546 0.22680148 -0.031581305 0.48780072 0.3075274
-0.029673368 0.29652542 -0.017565928 0.1094452 0.28749153 0.2998583 0.27000076 0.03356473

critic.2.bias f4 [128]
00000000: 9a12 313e 11a4 263d a05d 2f3e 8e21 66bc
00000010: 26ff f73d b028 8b3c 1c08 d5bc c41d 50bc
00000020: ecec 3e3d f973 2dbd b437 2a3d 95a8 b13c
00000030: 0000 0000 465b 1c3d ae2f e4bc cd70 553e
00000040: 964d 423f 43d6 7b3e e131 1d3d 6dce a03e
00000050: 7be3 423e 07ff db3c 875f 333d 5caf d23e
00000060: a2d2 0c3d 024c 27bc da8b d33b 4312 e23c
00000070: d712 ccbc 9a82 343d 7ebd 2c3d f1a6 383d
00000080: 36f2 3c3d 9708 3c3d d2d3 f03c c197 3d3d
00000090: 0e11 143d c113 2b3d b57a a73d cade d73c
000000a0: 5788 373d 9a50 ea3e 4ac4 333f 13b9 0d3d
000000b0: a473 163d 2122 f23c 7765 003d d0be e33d
000000c0: 42c7 fd3c cb97 963c 94ab 2a3d 901d 0c3d
000000d0: 7b84 123d 5e57 f9bc 8f9c 453e 38db 2e3f
000000e0: 4d5e d1bc 0000 0000 d792 08bd fa7f 173d
000000f0: 8664 133d f469 133e c422 213d 1d64 823e
00000100: f820 303d b712 4d3d 7905 263d 0000 0000
00000110: 05ed 133d e385 403e 5f0a cf3c 3cb6 e63c
00000120: 5119 3c3d 78a7 ed3c 81b1 733e 08ea 613b
00000130: d246 333d 7af0 0b3d d1ad 033d 94a9 b23b
00000140: c439 1c3d b7a5 033d 7f0e 343d 5d8f f23d
00000150: 1587 893e 17fa 103d 0000 0000 0386 5e3e
00000160: 57be b9bc cec5 84bb 3f95 c43c 9b5f 3e3f
00000170: e8d1 2b3d 36de 953d 3f8e bd3e 525c 403d
00000180: ee14 193d 860c 12ba 8b81 1c3d ca35 193d
00000190: e3fd 963c 362a 7dbd 0be8 01bd 04f6 893d
000001a0: 897c 5f3d 5d11 1cbc e5af d33c 5232 c93c
000001b0: a911 873e d02e 823e 3118 123d 77f7 053f
000001c0: 75b2 ed3c f94b f4bc 8070 e7ba f9e5 393d
000001d0: f6c2 433c d1c3 90bc 769d d2bd 22c0 cbbc
000001e0: 1c0a 123d e3d7 d0bc 2abd 523d 8535 093d
000001f0: 7f94 383d e91a 113d 253d 953c 3f9c 253d
0.17292252 0.04068381 0.17125559 -0.014046086 0.121092126 0.016987175 -0.026004843 -0.012702409
0.046612665 -0.04234693 0.04155703 0.021686831 0.0 0.038172983 -0.027854767 0.20843811
0.75899637 0.24593453 0.038377646 0.3140749 0.1903209 0.026855005 0.043792274 0.41149414
0.034380563 -0.010210993 0.0064558806 0.027596598 -0.024911327 0.044069864 0.0421729 0.045081083
0.046129428 0.04590663 0.029397879 0.046287302 0.036149077 0.041766886 0.081777014 0.026351351
0.04480776 0.4576462 0.7022139 0.03460033 0.036731377 0.02955729 0.031346764 0.11120379
0.030978803 0.018382927 0.041667536 0.03420788 0.035770874 -0.030437168 0.19298004 0.6830325
-0.025557661 0.0 -0.033343162 0.036987282 0.03598454 0.14395887 0.039339796 0.25467005
0.04300019 0.050066676 0.040532563 0.0 0.03611471 0.18801074 0.0252735 0.028163068
0.04592258 0.02901052 0.23798181 0.003447177 0.04376871 0.034164883 0.032148186 0.005452344
0.038141027 0.03214046 0.043959137 0.118437506 0.26860872 0.035394754 0.0 0.21730809
-0.022673769 -0.0040519005 0.023996947 0.7436463 0.04194823 0.07317774 0.37022588 0.046963044
0.037373476 -0.0005571324 0.03820948 0.037404813 0.01843161 -0.061807834 -0.031715434 0.06736377
0.054562125 -0.009525624 0.025840709 0.024560127 0.2638066 0.2542634 0.035667602 0.52330726
0.029015759 -0.029821383 -0.0017657429 0.045385335 0.011948338 -0.017671498 -0.102839395 -0.02487189
0.035654172 -0.025493568 0.051449932 0.033498306 0.045063492 0.035426054 0.018217633 0.04043221
