pendulum_ppo_model.pt (torch, 211914 bytes, 14 tensors)

actor.0.weight f4 [128, 6]
0	0x3db20a60	0.08693385
1	0x3dcc379a	0.09971543
2	0xbd9c23ae	-0.07623993
3	0xbdaa1c05	-0.083061256
4	0xbe61591d	-0.2200665
5	0x3c67bdb9	0.0141443545
6	0x3da4b403	0.08042147
7	0x3c8a178d	0.016856933
8	0xbe43ad8e	-0.19109175
9	0xbe0793f2	-0.1324003
10	0xbde8183c	-0.11332747
11	0x3e045dcb	0.12926404
12	0xbc489fcc	-0.01224513
13	0xbd07cc9a	-0.033154108
14	0xbdadbba8	-0.08483058
15	0xbe011d81	-0.12608911
16	0x3d8451a9	0.06460888
17	0xbe02b36b	-0.12763755
18	0xbe1a5a08	-0.15073407
19	0x3abb9d2a	0.0014313806
20	0xbc07f58d	-0.00829829
21	0xbd3bf780	-0.04589033
22	0x3cb77e71	0.02239916
23	0xbe926583	-0.28593072
24	0x3e86dcba	0.26340276
25	0xbca82851	-0.020527037
26	0x3e266578	0.16249645
27	0x3dc32a7e	0.09529589
28	0x3df0a05b	0.117493354
29	0x3de95ec3	0.113950275
30	0xbe15b043	-0.1461802
31	0xbaf00789	-0.0018312793
32	0x3d931455	0.071816124
33	0xbd49687a	-0.049171902
34	0x3cd3b76b	0.025844296
35	0xbd92a329	-0.071600266
36	0xbce05932	-0.027386282
37	0x3dc165f9	0.09443278
38	0x3e3954cb	0.18098752
39	0xbd8aee82	-0.06783773
40	0xbd6bc630	-0.057562053
41	0x3dada0b6	0.08477919
42	0x3c60c678	0.013719194
43	0xbc403e7b	-0.0117336465
44	0xbe5074e0	-0.20357084
45	0x3cf3ee2d	0.029776657
46	0x3e148125	0.1450239
47	0xbcd01731	-0.025401684
48	0x3cce3fff	0.025177
49	0x3c77e002	0.015129091
50	0xbd331812	-0.043724127
51	0xbdfbe4c5	-0.12299494
52	0x3e3f742c	0.1869666
53	0x3c330e58	0.010928713
54	0xbd923c0b	-0.071403585
55	0xbe21745e	-0.15767047
56	0xbdae018f	-0.08496391
57	0xbe1237dd	-0.14279123
58	0x3d3c52da	0.04597745
59	0x3d5353d8	0.05159363
60	0xbe257aa4	-0.16160065
61	0x3d7ad423	0.061237466
62	0xbd591cb6	-0.053005897
63	0x3db204cb	0.086923204
64	0xbce0ce5d	-0.027442152
65	0x3e8f7b94	0.2802397
66	0xbdf6e620	-0.120556116
67	0xbd9e3a23	-0.077259324
68	0x3e32aa90	0.17447877
69	0xbe0799d2	-0.13242272
70	0xbd92f6d6	-0.071759865
71	0xbe2283cd	-0.1587059
72	0xbe48b9ea	-0.1960217
73	0xbe6a00b4	-0.2285183
74	0xbd987eb5	-0.074460424
75	0x3d8b8b7f	0.06813716
76	0x3dac54a1	0.08414579
77	0x3e972900	0.29523468
78	0xbe0281dd	-0.12744851
79	0x3d2b2351	0.041781727
80	0xbdca1cf0	-0.09868801
81	0x3d0af124	0.033921376
82	0x3dab66d0	0.08369219
83	0x3d77908d	0.06044059
84	0x3cf8c742	0.030368451
85	0x3df22739	0.118238874
86	0x3d40fdd0	0.047117054
87	0xbcddcf2e	-0.02707633
88	0x3df656fd	0.120283104
89	0xbe87ab38	-0.26497817
90	0xbdabd676	-0.083905146
91	0xbde7fc65	-0.11327437
92	0xbdd7b895	-0.10533253
93	0x3e8fac34	0.28061068
94	0xbc969f66	-0.018386554
95	0xbe665bdb	-0.22495978
96	0xbbc5c21b	-0.006035102
97	0x3dd33b22	0.10314013
98	0xbdba68d1	-0.091020234
99	0xbc850838	-0.01623927
100	0xbd7a6b8d	-0.061137725
101	0xbdc45f40	-0.0958848
102	0xbdfec3ee	-0.12439714
103	0xbe353cf7	-0.17699037
104	0x3e46901e	0.19390914
105	0x3cd2d3ef	0.025735823
106	0x3ce07f26	0.02740438
107	0x3d5d5445	0.054035444
108	0x3dafea12	0.08589567
109	0x3e00f574	0.12593633
110	0x3db51ff5	0.08843986
111	0x3d201a58	0.039087623
112	0xbd6a182c	-0.05715196
113	0xbdb8c517	-0.09021967
114	0xbe04414d	-0.12915535
115	0xbc9adcb2	-0.018904064
116	0xbd3eb71e	-0.046561353
117	0x3e9caca4	0.30600464
118	0xbd3a687d	-0.045509804
119	0xbc953875	-0.018215397
120	0x3e8f09ac	0.27937067
121	0xbe5e62af	-0.21717332
122	0xbe4f2366	-0.20228347
123	0x3e88386c	0.26605546
124	0xbe0af81c	-0.13571209
125	0xbd7b6d20	-0.061383367
126	0xbe7ab914	-0.24484664
127	0xbde62c05	-0.11238865
128	0xbe091dc8	-0.13390267
129	0x3e1d8dfc	0.15386194
130	0x3ceda2b6	0.02900825
131	0x3e38211a	0.17981377
132	0xbd9a1ef5	-0.07525436
133	0x3dc9ed79	0.098597474
134	0x3da739f2	0.08165349
135	0xbd3fba2b	-0.046808403
136	0xbdda159f	-0.10648655
137	0x3da8ee16	0.08248536
138	0xbe37b96d	-0.17941828
139	0xbe2248cb	-0.15848081
140	0xbd87e7e7	-0.06636029
141	0xbe82f84c	-0.2558006
142	0x3d8a3b45	0.06749586
143	0xbe0763fc	-0.13221735
144	0x3d7e6314	0.062106207
145	0xbd0b10bf	-0.033951517
146	0x3df04934	0.117327124
147	0x3da67a7f	0.08128833
148	0x3e592b16	0.21207842
149	0x3e26af28	0.16277754
150	0x3e808fd4	0.25109732
151	0xbe41a0a5	-0.18908937
152	0x3d0742e5	0.03302278
153	0x3e2aec0b	0.16691606
154	0xbdba53c3	-0.090980075
155	0xbe2f8d36	-0.17143711
156	0xbdb96ff5	-0.09054557
157	0xbe51d541	-0.20491506
158	0xbd8b698c	-0.06807241
159	0xbce88037	-0.02838145
160	0xbd4017a8	-0.04689756
161	0xbcd2e2e2	-0.025742952
162	0x3b852325	0.0040630274
163	0x3d8e42a7	0.06946307
164	0x3c8b0acc	0.016972922
165	0x3e1188e3	0.14212374
166	0xbdf7eace	-0.12105332
167	0xbe87e453	-0.26541385
168	0x3e0ab068	0.13543856
169	0x3e2177ba	0.15768328
170	0xbdf3e21f	-0.119083636
171	0x3d774755	0.060370762
172	0x3dcdecb9	0.10054917
173	0x3da054f8	0.078287065
174	0x3dc03c76	0.09386532
175	0x3c219d31	0.0098641375
176	0xbe58d78b	-0.21175973
177	0x3ac92578	0.001534625
178	0xbcd4dbc8	-0.025983706
179	0xbd97613b	-0.07391592
180	0x3dd50632	0.10401572
181	0x3daaf2f4	0.08347121
182	0xbd89881c	-0.06715414
183	0x3c8a2e4c	0.01686778
184	0xbc559960	-0.013037056
185	0x3cd805d3	0.026369965
186	0xbd0a92a7	-0.033831265
187	0x3d832ea0	0.064053774
188	0xbe45936f	-0.19294523
189	0x3e168122	0.14697698
190	0xbbb05ce7	-0.0053821686
191	0xbc07a231	-0.008278416
192	0xbd3ead36	-0.046551906
193	0x3d92b56c	0.0716351
194	0xbda8a9e7	-0.08235531
195	0xbc715f61	-0.014732213
196	0x3d9f6f3a	0.07784887
197	0x3e323ec0	0.1740675
198	0x3da189a0	0.07887578
199	0x3d7c8288	0.06164792
200	0xbc8e1188	-0.017342344
201	0xbda490f3	-0.08035459
202	0x3d6e86a9	0.05823389
203	0xbe086009	-0.13317885
204	0xbde0cca8	-0.10976535
205	0xbcafeb12	-0.021474395
206	0x3c956ce5	0.018240402
207	0x3bfa69f7	0.0076420265
208	0x3e164feb	0.14678924
209	0x3be66e0c	0.0070321616
210	0xbde79443	-0.113075756
211	0x39c2477a	0.00037055818
212	0x3e7e5794	0.24838096
213	0xbe3080c6	-0.17236623
214	0x3e8e61a8	0.2780888
215	0x3d58f0a2	0.05296386
216	0x3cf1a1f7	0.029496176
217	0xbe320923	-0.17386298
218	0xbe31d282	-0.17365459
219	0xbd5fa7f4	-0.054603532
220	0xbe2bd683	-0.16781048
221	0x3d45530f	0.048174914
222	0x3db2c61c	0.087291926
223	0x3d4741dc	0.048646793
224	0x3d7f6507	0.062352207
225	0x3c39a980	0.011331916
226	0xbd1b239d	-0.03787576
227	0x3df91e6f	0.12164008
228	0x3e0415ef	0.12898992
229	0x3d45d4cc	0.048298642
230	0x3e7ac94e	0.24490854
231	0x3d811bc5	0.06304125
232	0xbe16c0d4	-0.14721996
233	0x3dfd6b08	0.1237393
234	0xbda93ddd	-0.082637526
235	0x3b794247	0.003803389
236	0xbacdb9bf	-0.0015695615
237	0xbdb25c9c	-0.0870907
238	0x3de89599	0.113566585
239	0x3cfbea35	0.030751327
240	0xbcc390dc	-0.023872785
241	0x3e2dc5d8	0.16970003
242	0x3d866e36	0.0656399
243	0xbdd23748	-0.1026445
244	0xbc9934d6	-0.018701952
245	0x3d88a887	0.06672769
246	0x3e75dfb4	0.24011117
247	0xbbe1ac76	-0.006887014
248	0xbe50eaa8	-0.20402014
249	0xbd0ec606	-0.03485682
250	0xbd9306e4	-0.07179049
251	0xbdd08718	-0.10182017
252	0xbe0077b1	-0.12545659
253	0x3d13344d	0.03593855
254	0x3d52fb0f	0.05150896
255	0x3d58f2c3	0.05296589

actor.0.bias f4 [128]
0	0xbcc879bb	-0.024472108
1	0x3c8e1217	0.01734261
2	0xbc3587c5	-0.011079733
3	0xbc774179	-0.0150912935
4	0x3c5ae434	0.013360072
5	0xbc84995d	-0.01618641
6	0xbb28d715	-0.0025762965
7	0xbc29bdf3	-0.010360229
8	0xbc9e5b51	-0.019330652
9	0x3c9ce4bd	0.01915204
10	0x3c2384c0	0.009980381
11	0xbc61f4d2	-0.01379128
12	0x3ca9646e	0.020677771
13	0x3b2be927	0.00262315
14	0xbd1557ca	-0.036460675
15	0xbbb20aee	-0.005433432
16	0xbd504871	-0.050850336
17	0x3b87b88c	0.0041418727
18	0xbc4e94bd	-0.012608704
19	0xba613a87	-0.000859179
20	0xbbbf198f	-0.0058319042
21	0xbbaa79cc	-0.0052025076
22	0xbbf90196	-0.007599066
23	0xbc11c93f	-0.008898078
24	0xbaa13703	-0.001229972
25	0xbc1b1f6f	-0.009467944
26	0xbc8ed10b	-0.017433664
27	0xbc540b5a	-0.01294216
28	0x3b8608ec	0.004090419
29	0xbc7c089e	-0.015382914
30	0xbcfd8064	-0.03094501
31	0xbce66e2d	-0.028128708
32	0xbc4e4e00	-0.012591839
33	0x3b263d3f	0.0025366095
34	0xba105af6	-0.00055067183
35	0xbba676dc	-0.005080087
36	0xbc775832	-0.015096711
37	0xbb2a5487	-0.0025990324
38	0xbbae0a6c	-0.005311301
39	0xba32b398	-0.00068169227
40	0xbb6e8b30	-0.003639888
41	0xbc67c57e	-0.014146207
42	0xbd0356b8	-0.032065123
43	0xbbe6879d	-0.0070352093
44	0x3ce0493e	0.027378675
45	0xbbeb5ba3	-0.007182555
46	0xbc33ee16	-0.010982057
47	0xbb8c27d6	-0.0042772098
48	0xbbd2a3ea	-0.0064282315
49	0xbd09b208	-0.03361705
50	0x3c399d40	0.011328995
51	0xbc3fa162	-0.0116961915
52	0xbb600677	-0.003418354
53	0xbc66e84c	-0.01409347
54	0xbca0b015	-0.019615212
55	0xbc1b06d3	-0.009462076
56	0xbcd7ec5d	-0.026357824
57	0x3c1f73e4	0.00973222
58	0xbb56b3eb	-0.0032761048
59	0x3be72c35	0.0070548304
60	0xbc8f437d	-0.017488236
61	0x3c1d0887	0.009584553
62	0xbccecbee	-0.025243726
63	0xbcf041f3	-0.029328322
64	0xbc010c63	-0.007876488
65	0xbd05f2e5	-0.032702345
66	0xbce6c04c	-0.028167866
67	0x3b9cbbc1	0.004783124
68	0x3c05bcaa	0.008162657
69	0xbba4ef38	-0.0050334
70	0xbb903a58	-0.0044014864
71	0xbc8d0213	-0.017212903
72	0x3bcd777d	0.0062703476
73	0xbc7edf6b	-0.015556197
74	0xbd19785a	-0.03746829
75	0xbb69ad7a	-0.0035656379
76	0xbb900a03	-0.0043957247
77	0x3ca5542e	0.020181742
78	0x3b158995	0.00228176
79	0x3bf11181	0.007356823
80	0xbbff2347	-0.007786188
81	0xbb83d8fd	-0.0040236698
82	0xbccecefe	-0.025245186
83	0xbb7bea1a	-0.0038439096
84	0xbc9aebfc	-0.018911354
85	0xbb8309f1	-0.003998988
86	0xbc220b8d	-0.009890449
87	0xbbc30bb9	-0.005952325
88	0x3bd922c7	0.0066264602
89	0x3cc1e589	0.023669021
90	0x392bbdf5	0.00016378595
91	0xbc13922e	-0.00900702
92	0xbc5b8ee7	-0.01340077
93	0x3c2761b7	0.010216168
94	0xbcaba96e	-0.020954814
95	0xbafdf211	-0.001937451
96	0xbbb12140	-0.005405575
97	0xbcc0911f	-0.0235067
98	0xbccc545a	-0.024942566
99	0xbc24c073	-0.010055649
100	0xbd6e89ac	-0.058236763
101	0xbc9803ac	-0.018556438
102	0xbb09238c	-0.0020925729
103	0x3cf15a38	0.029461965
104	0x3c1668c2	0.00918025
105	0xbb9cae75	-0.004781539
106	0xbd23ed0b	-0.040020984
107	0xbbf2efca	-0.007413839
108	0xbb65293f	-0.0034967212
109	0xbc529b78	-0.012854449
110	0xbcc52fdb	-0.02407067
111	0x3b37f35f	0.0028068644
112	0x3c7b56dd	0.015340534
113	0x3ab772ec	0.0013996041
114	0x3c24f1ac	0.010067385
115	0xbc12f904	-0.008970503
116	0x3cc418c7	0.023937596
117	0xbd658cbe	-0.056042425
118	0xbd249c1f	-0.04018795
119	0x3b2584cf	0.0025256162
120	0x3c3758d5	0.011190613
121	0xbc7dfeab	-0.015502612
122	0xbc1faabc	-0.009745296
123	0x3c8f3851	0.017482908
124	0xbc26556d	-0.010152203
125	0x3c4d168e	0.0125175845
126	0xbc8a7d5b	-0.016905477
127	0xbca82399	-0.020524787

actor.2.weight f4 [128, 128]
0	0x3d914c32	0.07094611
1	0xbdbad74c	-0.09123096
2	0xbc4a6e1d	-0.012355355
3	0x3e7693d8	0.24079835
4	0xbc9140b4	-0.017731048
5	0xbcdf4aaf	-0.027257292
6	0xbeab5aea	-0.334678
7	0x3d63acd8	0.05558476
8	0xbbe062ac	-0.0068477
9	0x3ce46aad	0.027882898
10	0xbe2ff7a8	-0.17184317
11	0x3e0f41de	0.1398997
12	0xbdf09ec5	-0.11749033
13	0xbc1279ba	-0.008940155
14	0x3d8d32e6	0.06894474
15	0x3dbbd4ad	0.09171424
16	0xbd69a7d1	-0.057044808
17	0xbd26b5a6	-0.040700577
18	0xbde75cf7	-0.112970285
19	0xbc9e39b8	-0.019314632
20	0x3c9dcde6	0.01926322
21	0x39a3d7a7	0.00031250456
22	0x3e32b272	0.17450884
23	0x3d41ad5b	0.047284465
24	0xbd8ee37f	-0.06976985
25	0xbe031ff4	-0.12805158
26	0x3e0e7772	0.13912752
27	0xbbcd59ed	-0.0062668235
28	0x3dc5e71b	0.096632205
29	0x3de9e31a	0.11420269
30	0x3e62bc4b	0.2214214
31	0x3dcc52ad	0.09976707
32	0xbdbdab5f	-0.09261202
33	0xbd8c3fee	-0.06848131
34	0xbea0d8d0	-0.31415415
35	0x3def989a	0.11699028
36	0xbcb29758	-0.021800682
37	0x3e58340f	0.21113609
38	0x3d9a09cd	0.075214006
39	0x3cc2a445	0.02375997
40	0x3c9e0d45	0.019293437
41	0x3ca969bd	0.020680303
42	0x3e56ff37	0.20995794
43	0xbe852d5d	-0.26011172
44	0x3e8bac6a	0.2727998
45	0xbc663730	-0.014051244
46	0x3d82e630	0.06391561
47	0xbe85e228	-0.26149106
48	0x3d53c79a	0.051704027
49	0xbe3bd82f	-0.18344186
50	0xbce3a7e3	-0.027790016
51	0xbdb27409	-0.08713538
52	0xbd3eeefd	-0.046614636
53	0xbdf63161	-0.12021137
54	0x3c9600bf	0.018310903
55	0xbe20272f	-0.15639947
56	0x3de4e3c7	0.111762576
57	0x3d0d136e	0.034442358
58	0x3e784237	0.24244009
59	0xbcc61bb8	-0.02418314
60	0x3e4eebc0	0.20207119
61	0x3e038bc5	0.12846287
62	0x3e310c93	0.17289953
63	0xbdf71ff4	-0.120666414
64	0xbac7d052	-0.0015244579
65	0x3d16755a	0.03673301
66	0xbdaf1a79	-0.08549971
67	0xbd6bf2a1	-0.057604436
68	0x3dd69ee4	0.10479525
69	0xbd563331	-0.052294914
70	0xbe130a4f	-0.14359401
71	0x3e0dcec4	0.13848406
72	0x3d4e21eb	0.050325315
73	0x3d51b6d9	0.051199768
74	0x3e80719c	0.25086677
75	0xba5271b8	-0.00080278097
76	0xbd935dd6	-0.07195632
77	0x3d869af4	0.06572524
78	0xbda1f710	-0.079084516
79	0x3db0ec95	0.086388744
80	0xbe095968	-0.13413012
81	0xbcdf081c	-0.027225547
82	0x3d2f0323	0.0427276
83	0xbdaa5c1e	-0.08318351
84	0xbc962216	-0.0183268
85	0xbb2efe61	-0.0026701915
86	0xbb050c14	-0.0020301389
87	0x3ea01579	0.31266382
88	0x3c3522e1	0.011055679
89	0x3cc4e654	0.02403561
90	0xbd5e55b1	-0.05428094
91	0xbe314623	-0.17311911
92	0xbb65db59	-0.0035073368
93	0x3d496b84	0.0491748
94	0x3e55f116	0.20892748
95	0xbe0d2f6a	-0.13787618
96	0x3e16004a	0.14648548
97	0xbd6c8dba	-0.05775235
98	0xbe3a3dd0	-0.18187642
99	0xbe4ddcec	-0.20103806
100	0x3ce7893a	0.028263677
101	0xbe108b51	-0.14115645
102	0x3d3834d6	0.044972263
103	0xbdd0687e	-0.1017618
104	0x3e68eebd	0.22747321
105	0x3dc53bc6	0.096305415
106	0xbd345bd4	-0.044032887
107	0x3e6ebee2	0.23315004
108	0x3cab3b15	0.020902196
109	0x3c62c4e1	0.013840885
110	0x3c417ca4	0.011809502
111	0x3dcad16e	0.09903227
112	0xbe3a19d0	-0.18173909
113	0xbe90fb4e	-0.2831673
114	0x3d4f4c14	0.050609663
115	0x3e5e3917	0.21701466
116	0xbc84ed8d	-0.016226554
117	0x3d809cac	0.06279883
118	0xbc51b57c	-0.012799617
119	0x3cb17074	0.021660067
120	0xbdc6125b	-0.0967147
121	0x3d7bd214	0.061479643
122	0xbccea163	-0.02522344
123	0xbe118bfd	-0.14213558
124	0xbe613467	-0.21992646
125	0x3c02871c	0.007966783
126	0x3d969e60	0.073544264
127	0xbd7418f9	-0.05959413
128	0xbd79c7aa	-0.06098143
129	0xbe4b2f74	-0.1984232
130	0xbe869be8	-0.26290822
131	0x3e8879ba	0.2665537
132	0x3d35c151	0.044373814
133	0x3da13853	0.07872071
134	0xbdb227d5	-0.086990036
135	0x3afa8f1b	0.0019116135
136	0x3df27b9f	0.11839985
137	0x3dd107b5	0.10206548
138	0x3dc21de7	0.0947836
139	0x3e36c475	0.1784838
140	0x3d52ec1b	0.0514947
141	0x3e01cff3	0.12676983
142	0x3c47fd12	0.012206333
143	0xbd0821c6	-0.033235334
144	0x3d43ff37	0.047850814
145	0xbde73224	-0.112888604
146	0x3dca0725	0.09864644
147	0xbe150373	-0.14552097
148	0x3e60ae03	0.2194138
149	0xbd89d931	-0.06730879
150	0x3ccebc6c	0.02523633
151	0x3dc62e7c	0.09676835
152	0x3dc6e12d	0.097109176
153	0x3cd3dd98	0.0258625
154	0x3e372713	0.17886
155	0x3d96f872	0.07371606
156	0xbe2bf694	-0.16793281
157	0x3ea43a05	0.32075515
158	0x3d96997f	0.07353496
159	0x3db24680	0.08704853
160	0x3dca4bef	0.098777644
161	0xbebdb5cb	-0.3705276
162	0xbdaef8cd	-0.08543549
163	0xbd87ec1f	-0.066368334
164	0xbd8154be	-0.063149914
165	0xbdd1cc6f	-0.10244071
166	0xbd9916a7	-0.07475024
167	0xbdbe1b2c	-0.092825264
168	0x3dbd2910	0.09236348
169	0xbc646259	-0.0139394635
170	0xbd52e81a	-0.05149088
171	0xbe580f02	-0.21099475
172	0xbe689852	-0.22714356
173	0xbbebc882	-0.0071955333
174	0x3e370946	0.17874631
175	0xbb8a8a02	-0.0042278776
176	0xbd061c63	-0.032741915
177	0x3e0cebb2	0.13761786
178	0x3d1dab04	0.03849317
179	0xbdd612c8	-0.10452801
180	0xbd6bad38	-0.05753824
181	0x3d654b57	0.055980053
182	0xbcc88813	-0.024478948
183	0x3bf7452e	0.0075460887
184	0xbe61f671	-0.22066666
185	0x3cdac0a8	0.026703194
186	0x3cb0c4a3	0.021578139
187	0x3e5df6ce	0.2167618
188	0x3dfcd962	0.1234615
189	0x3dac10bf	0.084016316
190	0x3df4b896	0.119492695
191	0x3db4be3b	0.08825346
192	0x3e5c180b	0.21493547
193	0x3ddb2c53	0.107018135
194	0x3d90d1d9	0.07071275
195	0xbc9387f6	-0.018009167
196	0x3daae2eb	0.083440624
197	0x3e9205c6	0.2852003
198	0x3da19de4	0.07891443
199	0xbd94ccbe	-0.07265614
200	0x3cecc4e7	0.028902484
201	0xbd5e32d0	-0.054247677
202	0x3dac648b	0.084176145
203	0x3e766fb3	0.24066047
204	0xbb07c0d6	-0.0020714304
205	0xbd07e959	-0.033181522
206	0xbcf7ae7d	-0.03023457
207	0x3e12acf0	0.14323783
208	0xbd31c4d8	-0.043400615
209	0x3ea39415	0.31948915
210	0x3ddb25e6	0.10700588
211	0xbe01516e	-0.12628719
212	0x3e5aeca5	0.21379335
213	0x3d653294	0.05595644
214	0xba99aff0	-0.0011725407
215	0xbca014bd	-0.019541139
216	0x3dde6ee9	0.10860998
217	0xbdc401f6	-0.095706865
218	0xbcc3b053	-0.023887789
219	0x3ddd9276	0.10818951
220	0x3df32bb8	0.11873573
221	0x3db3088b	0.08741864
222	0xbe0e92c6	-0.13923177
223	0x3e13c766	0.14431533
224	0x3d04e5d4	0.032445744
225	0x3d6f204c	0.05838041
226	0x3db8e078	0.09027189
227	0x3e09f97f	0.13474081
228	0xbe3f0dac	-0.18657559
229	0x3d2857a1	0.041099194
230	0x3dd4cfdb	0.10391208
231	0xbe3cba33	-0.18430404
232	0xbdfc6bb6	-0.12325232
233	0xbe1db951	-0.15402724
234	0x3c2f2dc5	0.010692065
235	0x3e4d77cd	0.20065232
236	0x3e153219	0.14569892
237	0xbdae0e9e	-0.08498882
238	0xbda2cfa1	-0.07949758
239	0x3d95e397	0.073188
240	0x3d849a28	0.064747155
241	0x3d53df7e	0.05172681
242	0xbd4bb513	-0.049733233
243	0xbc807a48	-0.015683308
244	0xbe20d8af	-0.15707658
245	0xbe1b9a68	-0.1519562
246	0x3d4b412b	0.049622696
247	0xbbae7c14	-0.00532485
248	0x3ddf78f3	0.10911741
249	0xbe7f8a06	-0.24954996
250	0xbdeaa318	-0.11456889
251	0xbb822991	-0.0039722403
252	0x3dac0ea0	0.08401227
253	0xbd869089	-0.06570537
254	0x3e05646a	0.13026586
255	0xbe21d53a	-0.15803996

actor.2.bias f4 [128]
0	0xbc4d8781	-0.012544514
1	0x3934799a	0.00017211438
2	0xbb751d1c	-0.0037401384
3	0xbc034109	-0.008011111
4	0xbc512d8e	-0.012767209
5	0x3cdc0938	0.026859865
6	0xbd6bb2af	-0.057543453
7	0xbc16cce1	-0.00920412
8	0x3ad9d6d6	0.0016619812
9	0xbc954dc9	-0.018225567
10	0xbc37c456	-0.011216244
11	0xbcb0bf01	-0.021575453
12	0xbbadb6d0	-0.005301334
13	0xbc30231a	-0.010750556
14	0x3c36c0f3	0.011154401
15	0xbc016d3d	-0.00789958
16	0x3bd2e3d9	0.006435853
17	0x3c2217a3	0.009893331
18	0xbd2e0541	-0.04248548
19	0xba994ce1	-0.0011695885
20	0xbbe4fe67	-0.006988335
21	0xb9f41179	-0.00046552325
22	0xbc17286a	-0.009225944
23	0x391ff323	0.00015253997
24	0xbc04b813	-0.008100527
25	0xbcd168e1	-0.025562705
26	0xbbf59611	-0.007494696
27	0xbc89e8d5	-0.016834656
28	0xbbdb85bc	-0.006699292
29	0xbcbdb5c3	-0.02315796
30	0xbc4102b9	-0.011780434
31	0xbba55894	-0.0050459597
32	0xbbd7f421	-0.0065903817
33	0x3b75dc8d	0.0037515492
34	0xbcb0b497	-0.021570487
35	0xbbd1a2c9	-0.0063975793
36	0xbb2f1263	-0.002671384
37	0xbba88ce9	-0.005143751
38	0x3b8baa86	0.0042622713
39	0xbd122edd	-0.035689224
40	0xbc4e25a4	-0.012582216
41	0xbc4b86b1	-0.01242225
42	0xbbe28a50	-0.006913461
43	0xbc3e367e	-0.011609672
44	0xbc9a7f38	-0.01885949
45	0xbc40a929	-0.011759081
46	0xbc03e2b4	-0.008049656
47	0xbb7ba6c8	-0.003839897
48	0x3b812621	0.003941313
49	0x3c5e67a8	0.013574518
50	0xbc34bda3	-0.011031541
51	0xbb450b03	-0.0030066378
52	0xbc169f15	-0.009193202
53	0x3c0d26e6	0.008615231
54	0xbc1be6ba	-0.009515459
55	0xbbc510dc	-0.0060139727
56	0x3c897b88	0.016782537
57	0xbbdb5019	-0.006692898
58	0x3c9bb755	0.019008318
59	0xbc89a1ae	-0.016800728
60	0xbbf11349	-0.0073570353
61	0xbc9684c0	-0.018373847
62	0xbbbf1fd2	-0.0058326507
63	0x3bb8c792	0.005639025
64	0xbb31ca50	-0.0027128644
65	0xbcad72e2	-0.021172944
66	0xbc2839b0	-0.01026766
67	0x3bacbbd4	0.0052714143
68	0xbbb065d9	-0.005383235
69	0xbc215f49	-0.009849378
70	0xbbcc3f41	-0.0062331264
71	0x3bc50108	0.006012086
72	0xbc0508e6	-0.008119797
73	0x3aa5d217	0.0012651113
74	0xb9940d3e	-0.00028238626
75	0x3c1f6b37	0.009730152
76	0xbc11faa6	-0.008909857
77	0xbc22093f	-0.0098899
78	0x3b9c5da7	0.0047719064
79	0xbafa4fb1	-0.0019097236
80	0xbb76be94	-0.0037650215
81	0xbb020c55	-0.0019843776
82	0xbc5238e3	-0.012830946
83	0x3b8ccd2f	0.0042969207
84	0xbbd90751	-0.0066231866
85	0x3c07a18a	0.00827826
86	0xbc3bd34e	-0.011463953
87	0xbba741f6	-0.0051042987
88	0x3bf4f433	0.0074754
89	0x3babbf9e	0.0052413484
90	0xbc091f21	-0.008369238
91	0x3b691ddc	0.0035570776
92	0x3bd1cdf3	0.006402725
93	0x3b17aeef	0.002314504
94	0x3b3c389c	0.0028720265
95	0xbcba2d4a	-0.022726674
96	0xb9b65742	-0.00034778757
97	0x3c91ba8b	0.017789146
98	0xbc4db718	-0.01255586
99	0xbc9a9973	-0.018871998
100	0xbc6a31cf	-0.014294102
101	0xbc4b34b0	-0.012402698
102	0xbc9546df	-0.01822227
103	0x3b82a0a9	0.0039864373
104	0xbc84da4d	-0.016217375
105	0xbc031608	-0.008000858
106	0xbab1b2b2	-0.0013557284
107	0xbb38871f	-0.002815671
108	0xbc15ee2f	-0.009151026
109	0xbc3d4888	-0.011552937
110	0xbc92988f	-0.017895011
111	0xb915eb75	-0.00014297462
112	0xbc130eef	-0.008975728
113	0xbb5bed7a	-0.0033558295
114	0x3a9c300e	0.0011916177
115	0x3c437599	0.011929893
116	0xbbf6c873	-0.0075312196
117	0xbc167bae	-0.009184761
118	0xbbb40997	-0.0054943073
119	0x3b85c5fd	0.00408244
120	0x3ac290c9	0.0014844175
121	0xbd20885f	-0.039192554
122	0xbb20092d	-0.0024419532
123	0xbc243fab	-0.010024945
124	0x3c9bc8b3	0.0190166
125	0x3afd7979	0.001933857
126	0x3c2052fa	0.009785408
127	0xbc686d2a	-0.014186183

actor.4.weight f4 [64, 128]
0	0x3c2ca950	0.010538414
1	0x3e062647	0.13100539
2	0xbde5339b	-0.111914836
3	0x3dcd8355	0.10034815
4	0xbc554458	-0.013016783
5	0xbd5eb095	-0.05436762
6	0xbe49dfb0	-0.19714236
7	0xbab0505b	-0.0013451682
8	0x3e83d1e6	0.25746077
9	0xbe83cced	-0.25742283
10	0x3d598000	0.053100586
11	0x3d437fd9	0.047729347
12	0x3dd16f8e	0.102263555
13	0xbe02446b	-0.12721412
14	0xbde9f28a	-0.11423214
15	0x3dbd9dad	0.0925859
16	0xbd0421df	-0.032258864
17	0xbdbf16d3	-0.09330525
18	0x3dc4fb8b	0.096182905
19	0xbdcce701	-0.10004998
20	0x3c62dc2f	0.013846441
21	0x3dac13c3	0.08402207
22	0x3e9002fc	0.28127277
23	0xbd6b3904	-0.05742742
24	0xbcbc6dc2	-0.023001555
25	0xbd811a83	-0.06303885
26	0x3da4b923	0.080431245
27	0xbdbdb870	-0.09263694
28	0x3e553229	0.20819916
29	0xbe861c7b	-0.26193604
30	0x3e8eab53	0.27865085
31	0x3c245edc	0.010032382
32	0xbd3412df	-0.04396331
33	0x3d2a8129	0.041627083
34	0xbe7a9166	-0.24469528
35	0x3e4d37fd	0.20040889
36	0xbdc972bf	-0.09836339
37	0x3dda6e30	0.10665548
38	0xbd74f72b	-0.05980603
39	0x3df4593e	0.11931084
40	0x3e329060	0.17437887
41	0x3e045c31	0.12925793
42	0x3c8f3a0f	0.01748374
43	0x3de6df7f	0.11273097
44	0x3d2dbfd7	0.04241928
45	0x3d1f3c50	0.038875878
46	0xbdc72533	-0.09723892
47	0x3d9d8172	0.07690705
48	0x3e02a355	0.12757619
49	0x3ccde444	0.02513326
50	0xbd1bdb8c	-0.038051173
51	0x3e2a5815	0.16635163
52	0xbd8d8e44	-0.06911901
53	0xbc0254a4	-0.00795475
54	0xbdc674a8	-0.09690219
55	0xbde3a69c	-0.111157626
56	0xbcbeede8	-0.023306802
57	0xbcea3fd8	-0.028594896
58	0x3d258686	0.040411495
59	0x3d68b8e2	0.056816943
60	0xbd221197	-0.039567556
61	0x3e3e541a	0.1858677
62	0x3e70d8cf	0.23520206
63	0x3dba36db	0.09092494
64	0x3c53d4e4	0.012929175
65	0x3c9f6fc4	0.019462474
66	0x3db8db4d	0.09026203
67	0xbbf2be21	-0.007407919
68	0x3d7fe478	0.062473744
69	0xbe0438ed	-0.1291234
70	0xbd30baf2	-0.043147035
71	0xbc453864	-0.01203737
72	0xbd85051b	-0.064951144
73	0xbe19ba27	-0.15012418
74	0xbe8af984	-0.2714349
75	0xbe1b0adf	-0.15140866
76	0x3d6bc08e	0.05755668
77	0x3db7928b	0.08963498
78	0xbdf25e3c	-0.1183438
79	0x3d284044	0.041076913
80	0x3e0b40b5	0.13598903
81	0xbcdd38fb	-0.02700471
82	0x3e1ca287	0.15296374
83	0xbbe48b9b	-0.00697465
84	0x3e0d150a	0.13777557
85	0xbd7c4483	-0.061588775
86	0x3baa98b7	0.0052061933
87	0xbd932e4c	-0.07186565
88	0xbde038f3	-0.10948362
89	0x3c6e4adc	0.014544215
90	0xbd940c82	-0.07228948
91	0xbdeb7429	-0.11496765
92	0xbd7a0e00	-0.061048508
93	0x3ca17258	0.019707844
94	0xbd4442d7	-0.047915306
95	0xbe1403c2	-0.14454558
96	0xbe49ec4f	-0.19719051
97	0x3ea1b0b4	0.31580126
98	0xbe844adb	-0.2583836
99	0x3d802bcf	0.06258356
100	0xbe154478	-0.145769
101	0x3ce81162	0.028328601
102	0xbb5f58b1	-0.0034079964
103	0xbd517289	-0.05113462
104	0xbd845898	-0.064622104
105	0xbd97d52d	-0.07413707
106	0xbe90661f	-0.28202912
107	0x3d9208c6	0.0713058
108	0xbda4bf3e	-0.08044289
109	0x3dde16f5	0.108442225
110	0x3d9f5b57	0.077810936
111	0xbd9d0995	-0.07667843
112	0xbe461d90	-0.19347215
113	0x3e74ab7a	0.23893538
114	0x3dfdc80f	0.12391674
115	0xbca39e4e	-0.019972946
116	0x3d19c690	0.03754288
117	0x3e8d5bdf	0.27609155
118	0x3dc212dd	0.09476254
119	0xbdceae9b	-0.10091897
120	0xbd78e38e	-0.060763888
121	0xbe52747d	-0.20552249
122	0xbe0ddae3	-0.1385303
123	0x3db85802	0.09001161
124	0x3e67026f	0.22559522
125	0x3d16addb	0.036786895
126	0x3e39c4bd	0.18141456
127	0x3d8986cd	0.06715164
128	0xbe3c2fff	-0.18377684
129	0xbd8b6b5f	-0.06807589
130	0x3d579285	0.052629966
131	0x3e05f513	0.1308177
132	0x3dc38d23	0.09548404
133	0x3e31be3d	0.17357726
134	0x3eb7c170	0.3588977
135	0x3c8abfff	0.016937254
136	0xbd881f0e	-0.06646548
137	0x3c2bd332	0.010487365
138	0x3d2ec6c8	0.04267004
139	0xbe66aba1	-0.22526409
140	0xbdf722fc	-0.120672196
141	0xbce2c432	-0.027681444
142	0xbd40045c	-0.046879157
143	0x3e284461	0.16432334
144	0xbe06791a	-0.13132134
145	0xbe5480fe	-0.20752332
146	0xbe066026	-0.13122615
147	0x3dec4f0c	0.115385145
148	0x3e5e812c	0.21728963
149	0xbda24512	-0.0792333
150	0xbce9a1e7	-0.028519584
151	0xbda6e1ca	-0.081485346
152	0xbe3db764	-0.18526989
153	0xbdb873a4	-0.09006432
154	0x3e38a1e2	0.18030503
155	0xbb840881	-0.004029334
156	0x3ddf44a9	0.10901768
157	0x3d1f2907	0.038857486
158	0x3e1a56be	0.15072152
159	0xbe8e645d	-0.27810946
160	0xbda2868a	-0.079358175
161	0x3d97431d	0.07385848
162	0x3da51501	0.08060647
163	0x3db2eb2a	0.0873626
164	0xbc32efbb	-0.010921414
165	0xbc82b32c	-0.015954576
166	0x3dd48496	0.10376851
167	0x3d66e903	0.05637456
168	0xbc8eea36	-0.017445665
169	0x3da2644f	0.079292886
170	0xbe2403be	-0.16017053
171	0x3d6d3c6a	0.057918943
172	0x3d8f05e7	0.06983548
173	0x3d6906e9	0.056891356
174	0xbd7db0c4	-0.061936155
175	0x3c4503bc	0.012024816
176	0x3da2ae69	0.07943422
177	0x3dfad3ee	0.12247454
178	0x3e4efdad	0.20213957
179	0x3cc64148	0.02420105
180	0x3d52a698	0.051428407
181	0xbe2d569c	-0.1692757
182	0xbe707f10	-0.2348597
183	0x3e3fba86	0.18723497
184	0x3eab0977	0.3340566
185	0x3d9ca70a	0.07649048
186	0xbd448c1c	-0.04798518
187	0xbd3d736e	-0.04625266
188	0x3e293f0a	0.16527954
189	0xbe0bdf91	-0.13659503
190	0x3d200455	0.03906663
191	0xbd407113	-0.046982836
192	0x3e855ed0	0.260489
193	0x3d576f45	0.05259635
194	0x3e52e484	0.20594984
195	0xbe05d111	-0.13068034
196	0x3daf793b	0.08568045
197	0x3cb900dd	0.02258342
198	0x3e0948e6	0.13406715
199	0xbdacec0c	-0.0844346
200	0x3d0b182d	0.033958603
201	0x3e630e4d	0.22173424
202	0x3ce62b51	0.028096827
203	0xbcaad074	-0.020851351
204	0x3db22f22	0.08700396
205	0x3be18d09	0.006883268
206	0x3e23d91d	0.16000791
207	0xbe2f8270	-0.17139602
208	0x3e172ce6	0.14763221
209	0x3c9144e2	0.017733041
210	0x3cf16d1c	0.029470973
211	0xbe0aaeb8	-0.13543212
212	0x3e9e32bb	0.3089808
213	0xbd253f2a	-0.04034344
214	0x3d92a158	0.0715968
215	0x3db5f126	0.08883886
216	0xbde1d6c4	-0.110272914
217	0xbe6b4689	-0.22976126
218	0xbe164ad9	-0.1467699
219	0x3c5e43f5	0.013566007
220	0x3def395e	0.11680864
221	0x3cd097c6	0.025462996
222	0xbd91f5fc	-0.07126996
223	0xbe88b22e	-0.2669844
224	0xbdf61b13	-0.12016883
225	0x3d8884e8	0.06665975
226	0xbd27d1e8	-0.040971667
227	0x3b743755	0.0037264426
228	0x3d50ec87	0.05100682
229	0x3d914b51	0.070944436
230	0xbca42f19	-0.02004199
231	0x3d3cc97d	0.04609059
232	0x3e3bac5f	0.18327473
233	0x3d93cf13	0.07217231
234	0xbc6469bf	-0.013941227
235	0xbe6a53a7	-0.22883473
236	0xbc80abe3	-0.015706962
237	0x3d808b08	0.06276518
238	0xbe7a2717	-0.24428974
239	0xbe284ba9	-0.16435112
240	0x3e08a885	0.13345535
241	0xbd2e1369	-0.04249898
242	0x3de081a5	0.10962228
243	0x3c9af865	0.018917272
244	0xbdb387bf	-0.08766126
245	0xbcd15807	-0.02555467
246	0x3c70b6ec	0.0146920495
247	0x3d5a125f	0.053240176
248	0xbe084817	-0.1330875
249	0xbc836197	-0.016037745
250	0x3da49569	0.0803631
251	0xbdb98579	-0.09058661
252	0xbdda7010	-0.106659055
253	0x3d5783ea	0.052616037
254	0xbdfd94c8	-0.123818934
255	0x3d750e7f	0.059828278

actor.4.bias f4 [64]
0	0xb9fba078	-0.0004799401
1	0xbbc03e6a	-0.0058668153
2	0xbba6b0d2	-0.0050869966
3	0x3aea74c1	0.0017887579
4	0xbc6838ad	-0.014173669
5	0xba76c944	-0.0009414146
6	0xbc4c9e49	-0.01248891
7	0xbbbcb68f	-0.0057590674
8	0xbc8705f9	-0.01648234
9	0xbab8f8ec	-0.001411227
10	0xbbf02c1d	-0.0073294775
11	0x3a7e3df1	0.0009698561
12	0x3cc134ef	0.023584811
13	0x3b6f122e	0.0036479342
14	0x3c0e32c2	0.008679094
15	0x3a8bdf81	0.0010671468
16	0x3ac9b99f	0.0015390402
17	0xbafac762	-0.0019132907
18	0xbb8dcf3f	-0.004327684
19	0x3b6c0004	0.0036010752
20	0xbc687d4e	-0.014190031
21	0xbbef927b	-0.007311163
22	0xba3c1c24	-0.0007175824
23	0xbb6faf54	-0.003657301
24	0xbbb834b5	-0.0056215175
25	0x3d1c910e	0.038224272
26	0xbc421f60	-0.011848301
27	0x3b19f36a	0.0023491033
28	0xbbaeace9	-0.005330671
29	0xbbec625a	-0.007213873
30	0xbb651cfb	-0.00349599
31	0xbc538305	-0.012909655
32	0xbb5a5cb7	-0.0033319423
33	0xbb9a0533	-0.004700327
34	0x3776f957	1.4720797e-05
35	0xba04a8a2	-0.00050605286
36	0xbc70fe08	-0.014709003
37	0xbbc21229	-0.005922575
38	0xbbd1cc79	-0.006402549
39	0xbb9edb99	-0.0048479554
40	0xba0b7679	-0.0005320083
41	0xbb8db60e	-0.004324681
42	0xbbcd5310	-0.0062660053
43	0xbc2ca7d9	-0.010538065
44	0xbc7ccca2	-0.015429648
45	0x3c2fb721	0.010724814
46	0xbc3e8c4b	-0.011630128
47	0xbc03d13e	-0.008045493
48	0xbb94b283	-0.004537882
49	0x3b0a201d	0.002107627
50	0xbc1dd566	-0.009633398
51	0xbc3c243e	-0.01148325
52	0xbb400815	-0.0029301692
53	0xbcf4cddc	-0.029883318
54	0x00000000	0.0
55	0x3ab4bca7	0.0013789133
56	0xbb1d2a04	-0.0023981342
57	0x3c1b450e	0.009476913
58	0xbc35005a	-0.011047447
59	0xbc290a41	-0.010317386
60	0xba16b182	-0.00057484966
61	0x3c43f3ab	0.01195995
62	0xbafba1da	-0.0019198016
63	0xbb2a0623	-0.00259436

actor.6.weight f4 [1, 64]
0	0xbce62686	-0.028094541
1	0xbd849220	-0.06473184
2	0x3ca2995a	0.019848514
3	0xbda3f170	-0.08005035
4	0xbe2eac04	-0.17057806
5	0x3d261a6d	0.040552545
6	0x3c320436	0.010865262
7	0xbe2eac61	-0.17057945
8	0x3bb75da7	0.005595881
9	0x3e50ec73	0.20402698
10	0xbcd79ae5	-0.026318977
11	0x3e9276de	0.28606313
12	0x3d303a20	0.043024182
13	0xbd99dd36	-0.07512896
14	0x3e31f635	0.17379077
15	0x3e93caf5	0.2886578
16	0x3e2c65fb	0.16835777
17	0xbd063ae6	-0.032771014
18	0xbec3b48b	-0.3822368
19	0x3e4378f7	0.19089113
20	0x3eda7555	0.42667642
21	0x3e7dd58e	0.24788496
22	0x3ece01db	0.4023579
23	0x3e817787	0.25286505
24	0xbdde49a5	-0.1085389
25	0x3d6cc1ac	0.057801887
26	0x3ca612a3	0.020272559
27	0x3e695414	0.2278598
28	0xbca17abb	-0.019711843
29	0x3e28ae83	0.16472821
30	0xbe17b6d0	-0.14815831
31	0x3dfde853	0.12397828
32	0xbe4efb49	-0.20213045
33	0xbca035fa	-0.019556988
34	0xbd9d7a50	-0.07689345
35	0x3e700602	0.23439792
36	0xbe3fe761	-0.18740608
37	0xbe6b7dc0	-0.22997189
38	0x3d66a39c	0.056308374
39	0xbeab9be6	-0.3351738
40	0x3c3c6635	0.011498977
41	0xbd91126e	-0.07083593
42	0x3d8836ee	0.06651102
43	0xbd985e55	-0.074398674
44	0xbe6f500d	-0.2337038
45	0x3d6c9d30	0.057767093
46	0x3d7aa7ec	0.0611953
47	0xbe1c4307	-0.15259944
48	0xbe8dc1b8	-0.27686858
49	0x3e56c3f3	0.20973186
50	0xbdf0ccf2	-0.1175784
51	0x3d9a8730	0.07545316
52	0xbe461604	-0.19344336
53	0x3dfd7cb3	0.123773
54	0x3e4970c4	0.19671923
55	0x3d85ea8c	0.06538877
56	0xbddd43cd	-0.108039476
57	0x3d53284e	0.05155211
58	0xbd5ac7d6	-0.053413235
59	0x3e4b373b	0.19845288
60	0x3e66618e	0.22498152
61	0xbddcbed0	-0.10778582
62	0xbd11e613	-0.035619806
63	0xbe3b7096	-0.18304667

critic.0.weight f4 [128, 6]
0	0xbdcdc50a	-0.10047348
1	0x3d80cea3	0.06289413
2	0xbe8880bd	-0.2666072
3	0xbf5e1536	-0.86751115
4	0xbd6257b6	-0.05525943
5	0xbe1f8a42	-0.15580085
6	0x3d983db4	0.07433644
7	0x3e3b41f4	0.18286878
8	0xbed20745	-0.4102117
9	0x3f5afa14	0.8553784
10	0x3d731a6f	0.05935138
11	0x3e51afeb	0.20477264
12	0x3dcd2585	0.10016922
13	0xbe55a004	-0.20861822
14	0xbe496543	-0.19667535
15	0xbf50fc74	-0.8163521
16	0xbdac5dfb	-0.08416363
17	0xbdfd75e6	-0.12376003
18	0x3e6bb488	0.23018086
19	0xbe602092	-0.21887425
20	0xbeb5d0f4	-0.3551098
21	0xbf35daae	-0.71036804
22	0xbe2f741f	-0.1713414
23	0xbedcb231	-0.431047
24	0xbce504aa	-0.027956326
25	0x3e87e176	0.265392
26	0xbede561e	-0.43425077
27	0x3ab5ca96	0.0013869579
28	0x3e30f7cc	0.17282027
29	0x3e5c2911	0.2150004
30	0xbda8f003	-0.082489036
31	0x3d52c4a1	0.05145705
32	0xbf0794cd	-0.52961427
33	0xbf027048	-0.5095258
34	0xbd82de22	-0.06390025
35	0xbe22e19a	-0.15906373
36	0xbe302a9d	-0.17203756
37	0xbe3e85b2	-0.18605688
38	0xbeb3ca5e	-0.3511533
39	0xbf134ad3	-0.5753605
40	0xbd2d740f	-0.04234701
41	0xbe47fd95	-0.19530328
42	0x3e7053c5	0.23469456
43	0x3e11a64e	0.14223596
44	0xbef690c0	-0.4815731
45	0x3f3d19bf	0.7386741
46	0xb9154467	-0.00014235229
47	0x3e87d016	0.26525944
48	0xbe50adda	-0.20378819
49	0x3e92e1cb	0.2868789
50	0xbe7372f8	-0.23774326
51	0xbddeac9e	-0.10872768
52	0x3df46c8c	0.11934766
53	0x3e5634ed	0.20918627
54	0xbc557613	-0.013028639
55	0xbdfb359e	-0.12266086
56	0xbd254f97	-0.040359106
57	0xbf3e3a1f	-0.74307436
58	0xbe746d45	-0.23869808
59	0xbe732daf	-0.23747896
60	0x3e0ade62	0.13561395
61	0x3e80ac41	0.2513142
62	0xbe9e07e6	-0.308654
63	0xbe846ef0	-0.2586589
64	0x3e6d4e17	0.2317432
65	0x3d89e472	0.067330256
66	0x3ea2416d	0.3169054
67	0x3d7f70d8	0.062363476
68	0xbee4a2b9	-0.44655398
69	0x3f39ac69	0.725287
70	0xbe24b5c4	-0.16084963
71	0x3db10aa5	0.086446084
72	0xbc530294	-0.012879033
73	0xbe243b7f	-0.16038321
74	0xbea0f09b	-0.31433567
75	0xbf0604f3	-0.523513
76	0x3e9daf5b	0.30797848
77	0xbd368acf	-0.044565972
78	0x3d839795	0.06425396
79	0x3d9dbb41	0.077017315
80	0xbf187a1f	-0.5956134
81	0xbefb16bf	-0.4904079
82	0x3e9bb685	0.3041269
83	0xbdf913bd	-0.12161968
84	0xbe01570f	-0.12630866
85	0xbc162456	-0.009163937
86	0x3c529da1	0.0128549645
87	0xbec65045	-0.38733116
88	0x3e458064	0.19287258
89	0x3c79b1f0	0.0152401775
90	0x3d29e3de	0.041477077
91	0x3da365f0	0.079784274
92	0xbed4ee91	-0.41588262
93	0x3f8b7546	1.0895164
94	0x3a58f8cb	0.0008276819
95	0x3e25245c	0.16127151
96	0xbc1d9f15	-0.009620448
97	0xbe35624f	-0.17713283
98	0xbd88f6b3	-0.06687679
99	0xbf2988e4	-0.66224504
100	0xbe70d135	-0.23517306
101	0xbdf61521	-0.12015749
102	0x3e42726f	0.18988965
103	0x3c49b417	0.012311003
104	0xbee74690	-0.45171022
105	0x3f82776f	1.0192698
106	0xba94f6be	-0.0011365039
107	0x3e719778	0.23592937
108	0xbc816a27	-0.015797688
109	0xbe9e599a	-0.30927736
110	0xbe85babf	-0.26119038
111	0xbe8f5cb9	-0.2800043
112	0xbea43eae	-0.3207907
113	0xbd614fe1	-0.05500782
114	0xbd581fc5	-0.052764673
115	0xbe0a6d5d	-0.13518281
116	0xbeaf1146	-0.34192866
117	0xbf3d0fc8	-0.73852205
118	0xbd90e7e7	-0.07075482
119	0xbe7dc07c	-0.24780458
120	0xbea6293c	-0.32453334
121	0xbe19a9db	-0.15006201
122	0x3ef4206a	0.4768098
123	0x3f24ecc4	0.64423776
124	0xbcc2bf9a	-0.023773003
125	0xbe15e52f	-0.14638208
126	0xbcf35766	-0.02970476
127	0xbe403305	-0.18769462
128	0xbdd4b4a6	-0.103860185
129	0xbf381b39	-0.7191654
130	0xbd131495	-0.0359083
131	0xbe180a21	-0.14847614
132	0x3e81cc44	0.25351155
133	0xbe40344a	-0.18769947
134	0xbf02e716	-0.5113386
135	0x3f4b6661	0.7945309
136	0x3aa6119b	0.0012670042
137	0x3ec13aff	0.37740323
138	0x3b017c36	0.0019757873
139	0x3e641bd9	0.22276248
140	0xbe3721b3	-0.17883949
141	0x3f533829	0.8250757
142	0x3d57a45e	0.052646987
143	0x3e415533	0.18880157
144	0xbe074ae2	-0.1321216
145	0xbd1a7875	-0.037712533
146	0xbec3cdb4	-0.38242877
147	0xbf19f53a	-0.6013981
148	0xbd59ff3b	-0.053221922
149	0xbe4d4bca	-0.20048442
150	0x3eaaae04	0.33335888
151	0xbd42bc7d	-0.047543038
152	0xbe32688d	-0.17422695
153	0xbea14bdb	-0.31503186
154	0xbe09b8fd	-0.13449474
155	0xbd48536e	-0.04890769
156	0xbd050de8	-0.032483965
157	0xbde6df1f	-0.11273026
158	0xbe3a6acd	-0.18204804
159	0xbf2f0e33	-0.6838104
160	0xbd2d5393	-0.04231603
161	0xbe1dfa93	-0.15427618
162	0x3db10361	0.086432226
163	0x3d1c199d	0.038110364
164	0xbdc0f955	-0.09422556
165	0xbf135328	-0.5754876
166	0xbd6ec18e	-0.058290057
167	0xbe4029a4	-0.18765885
168	0x3de4f835	0.11180154
169	0xbc642dd2	-0.01392694
170	0xbe4ae4b8	-0.19813812
171	0xbf24440f	-0.6416635
172	0x3e1f23b0	0.15540957
173	0xbd173059	-0.036911342
174	0xbe091cd5	-0.13389905
175	0x3db91550	0.09037268
176	0xbef78986	-0.4834711
177	0xbece6584	-0.40311825
178	0x3eb2b936	0.3490693
179	0xbca7005b	-0.020385912
180	0x3e21757d	0.15767474
181	0x3df922bb	0.121648274
182	0xbf3d40f1	-0.7392722
183	0xbea361e2	-0.31910616
184	0x3e7112a0	0.23542261
185	0xbda8ef49	-0.08248765
186	0x3e89de30	0.26927328
187	0x3da4112e	0.08011089
188	0xbebc7373	-0.3680683
189	0x3f55c744	0.8350718
190	0xbb1dd790	-0.0024084784
191	0x3dc9be3b	0.09850737
192	0x3d4b0527	0.04956546
193	0x3e6fb53f	0.23408984
194	0xbe63925e	-0.22223803
195	0xbf0481be	-0.5176047
196	0x3e297217	0.16547428
197	0x3d3bc53a	0.045842387
198	0x3e150c95	0.14555581
199	0x3d141004	0.036148086
200	0xbe6b9731	-0.23006894
201	0xbe60e624	-0.21962792
202	0x3eb1888d	0.34674492
203	0xbcf37b58	-0.0297219
204	0x3ee17973	0.4403797
205	0xbdc07689	-0.09397609
206	0xbf159f35	-0.58446056
207	0x3f055a25	0.52090675
208	0xbdfe5f4a	-0.12420519
209	0x3e9fcb77	0.3120992
210	0xbe159fb0	-0.14611697
211	0x3d3ea9b8	0.046548575
212	0xbe446f95	-0.1918319
213	0xbed6f0aa	-0.41980487
214	0x3e285fa0	0.16442728
215	0x3da0e1a2	0.07855536
216	0xbdd661bc	-0.1046786
217	0x3e2cdcbf	0.16881083
218	0xbf1d8dba	-0.6154438
219	0x3f030bcf	0.51189893
220	0xbcba541d	-0.022745186
221	0x3e4c3053	0.19940309
222	0xbdaaef63	-0.08346441
223	0xbd20bdcc	-0.039243504
224	0xbe845d21	-0.25852302
225	0xbee0f7ba	-0.43939
226	0x3ecf475b	0.40484127
227	0xbe49cdbd	-0.19707389
228	0xbe91479f	-0.28374955
229	0x3e175276	0.1477755
230	0xbe926008	-0.2858889
231	0x3dc82e7c	0.09774491
232	0x3e2fd757	0.1717199
233	0x3d79c43e	0.060978167
234	0x3dd49d94	0.10381618
235	0xbdbac0b9	-0.0911879
236	0xbe1a33e0	-0.15058851
237	0xbe11dff6	-0.1424559
238	0x3d4ff45f	0.05077016
239	0x3ccd94e0	0.025095403
240	0x3e9742ba	0.29543096
241	0x3e7f2aa6	0.24918613
242	0xbedec685	-0.43510833
243	0x3f446f51	0.76732355
244	0x3bd4b37f	0.006491124
245	0x3e8ec8e4	0.27887642
246	0x3e0614b2	0.13093832
247	0x3eb9660a	0.36210662
248	0xbe1b6dc0	-0.15178585
249	0x3e8282f9	0.2549055
250	0x3dc2babc	0.09508273
251	0x3d88b3ad	0.066748954
252	0x3d834935	0.064104475
253	0x3dd6e116	0.104921505
254	0xbf4bb799	-0.7957702
255	0x3f57e002	0.84326184

critic.0.bias f4 [128]
0	0x3dff0fa3	0.12454154
1	0x3e493726	0.19649944
2	0x3cc4a3d2	0.024003897
3	0x3a4b2aa7	0.0007750191
4	0x3e293748	0.16524994
5	0x3e37ca93	0.1794837
6	0x3d282f8c	0.04106097
7	0x3e18db9a	0.14927521
8	0x3d9df183	0.0771208
9	0xbc6496b5	-0.013951947
10	0x3e1eea07	0.15518962
11	0x3d723bec	0.059139177
12	0x3d11fc01	0.03564072
13	0x3e090137	0.1337937
14	0x3d2bd2a1	0.04194892
15	0x3d1f0168	0.0388197
16	0xbba9c6cb	-0.0051811687
17	0x3d98faac	0.07469687
18	0x3d6ba127	0.057526734
19	0x3b0996bc	0.0020994386
20	0x3e2ba379	0.16761579
21	0x3d2c86b0	0.042120636
22	0x3dc23886	0.09483437
23	0x3e4b879a	0.19875947
24	0x3dc9beee	0.0985087
25	0xbd07fc0f	-0.033199366
26	0x3d8175af	0.063212745
27	0x3ceebc66	0.02914257
28	0x3d37633e	0.04477238
29	0x3dc2e0e6	0.09515552
30	0x3e33358b	0.17500894
31	0x3e206a03	0.1566544
32	0x3df8f9c4	0.12157014
33	0x3da3ff41	0.0800767
34	0x3d8a9617	0.067669086
35	0x3ca3afc0	0.019981265
36	0x3d20c22c	0.039247677
37	0x3e0e6858	0.13906991
38	0x3e2733f4	0.16328412
39	0x3d6e6d0c	0.058209464
40	0x3e061316	0.13093218
41	0x3e30a26d	0.1724946
42	0x3dec7496	0.115456745
43	0x3ccc8e5d	0.024970228
44	0x3e7433d3	0.23847894
45	0x3e1ffd98	0.15624082
46	0x3e2a8242	0.16651252
47	0x3d3464f2	0.04404158
48	0x3dc9331c	0.098242015
49	0xbba94e07	-0.0051667723
50	0x3bdff11f	0.006834164
51	0x3b937bcc	0.0045008417
52	0x3da7681d	0.08174155
53	0xbb93515c	-0.004495783
54	0x3e232a78	0.1593417
55	0x3ba94aaf	0.0051663737
56	0x3d81b0e3	0.063325666
57	0x3e257312	0.16157177
58	0x3e3ff612	0.18746212
59	0x3d380bac	0.044933006
60	0x3e17b406	0.14814767
61	0x3dfd8d12	0.12380423
62	0x3d9f3db9	0.077754445
63	0x3be21ad4	0.006900171
64	0x3dcbab17	0.09944742
65	0x3d7ef431	0.062244598
66	0x3e04e64c	0.12978476
67	0x3de65624	0.11246899
68	0x3db2c864	0.08729628
69	0x3cbc5b48	0.022992745
70	0x3de8df3b	0.11370703
71	0x3dfab8fa	0.12242313
72	0x3d3971f2	0.045274682
73	0x3e0328ba	0.12808505
74	0x3d4f703f	0.050644156
75	0x3e00508c	0.12530726
76	0x3e13997d	0.1441402
77	0x3ce42ba0	0.027852833
78	0x3d31ec1b	0.04343806
79	0x3d77b6a9	0.060476933
80	0x3da6fcd0	0.08153689
81	0xbbfd4300	-0.0077289343
82	0x3e079de4	0.13243824
83	0x3e1d74df	0.15376614
84	0x3dd6b251	0.1048323
85	0x3d8072ad	0.06271873
86	0x3dea7d73	0.11449709
87	0x3c8af81e	0.016964015
88	0x3dcd168b	0.10014065
89	0x3d83b603	0.064312
90	0x3e1d07e7	0.15335046
91	0x3e73ddf4	0.23815137
92	0x3e2a8d80	0.1665554
93	0x3c958393	0.018251216
94	0x3ddbbb84	0.10729125
95	0x3e2ba505	0.16762169
96	0x3dacc45b	0.08435889
97	0x3e209758	0.15682733
98	0x3b1c4bd6	0.0023848913
99	0x3dc50278	0.096196115
100	0x3cf8ac0b	0.030355474
101	0x3d5e0c56	0.054210983
102	0x3af0a6f4	0.0018360303
103	0x3dd957c1	0.10612441
104	0x3d9c973d	0.07646034
105	0x3d1d87e5	0.038459677
106	0x3dd294b9	0.10282273
107	0x3e1edcec	0.15513963
108	0x3da76e9e	0.081753954
109	0xbbc5ed9a	-0.006040287
110	0x3d82b34e	0.06381856
111	0x3e1eb7ef	0.15499853
112	0xbd222811	-0.03958899
113	0x3e21d9d6	0.15805754
114	0xbd4f19af	-0.050561603
115	0x3e078216	0.13233218
116	0x3d835eda	0.06414576
117	0x3e1e1885	0.15439041
118	0x3e079514	0.13240463
119	0x3e0a2750	0.13491559
120	0x3b939ea1	0.004504994
121	0x3d9aca58	0.07558125
122	0x3e286eee	0.16448566
123	0x3da1bfb7	0.07897895
124	0x3db80459	0.08985204
125	0x3d228004	0.039672866
126	0x3dcbf683	0.09959128
127	0x3e1f3cec	0.15550584

critic.2.weight f4 [128, 128]
0	0x3e9ec5b7	0.3101022
1	0x3dbe7ad3	0.093007706
2	0xbe0ba0e7	-0.13635598
3	0x3e7d2ffe	0.24725339
4	0xbe1dd9c4	-0.15415102
5	0x3e8eef93	0.27917156
6	0x3e2b1ae4	0.16709477
7	0xbd0a312a	-0.033738293
8	0x3d428e21	0.047498826
9	0xbbdd6c55	-0.006757299
10	0xbe9855cf	-0.29752967
11	0xbd2a3121	-0.04155076
12	0x3d1f595e	0.038903587
13	0x3e058d99	0.13042296
14	0xbed35030	-0.41272116
15	0xbdca698d	-0.098834135
16	0xbe612158	-0.21985376
17	0xbd7aa081	-0.061188225
18	0xbe1e12b3	-0.1543682
19	0x3e755f08	0.23962033
20	0x3eb09ef2	0.34496266
21	0x3d067f9c	0.03283654
22	0xbdf87e19	-0.12133426
23	0xbd1e7f6e	-0.038695745
24	0x3e919caa	0.28439838
25	0xbd57a42d	-0.052646805
26	0x3e9b0097	0.30273888
27	0x3e2b8dfe	0.16753384
28	0xbd5910a0	-0.05299437
29	0xbd825f9c	-0.06365892
30	0x3db7b403	0.089698814
31	0xbd702dc6	-0.058637403
32	0xbedad3fe	-0.42739862
33	0x3ce8f6bb	0.028437963
34	0x3d18652e	0.037205867
35	0xbebaa1e8	-0.3645165
36	0xbea53955	-0.32270303
37	0x3ae5e93b	0.0017540822
38	0xbe97418b	-0.29542193
39	0xbe118318	-0.14210165
40	0xbe42f76e	-0.190397
41	0xbea87b4a	-0.32906562
42	0xbd0e591c	-0.03475295
43	0xbe7700bc	-0.24121374
44	0xbd803bf5	-0.06261436
45	0xbd7e6edd	-0.062117446
46	0xbd5c5275	-0.053789575
47	0xbe203a88	-0.15647328
48	0x3dd7bdf4	0.105342776
49	0x3e0bcb0c	0.13651675
50	0x3e1f55a0	0.15560007
51	0xbe873003	-0.26403818
52	0x3da73859	0.08165044
53	0x3e5dd0c2	0.21661666
54	0xbe33aea4	-0.17547089
55	0xbdfde1ee	-0.12396608
56	0x3cde97c8	0.027171984
57	0xbd99e721	-0.075147875
58	0x3d5ebf83	0.05438186
59	0xbdc85290	-0.097813725
60	0xbe27c417	-0.16383396
61	0xbb82d8f4	-0.003993148
62	0xbe818527	-0.252969
63	0x3db92d44	0.09041837
64	0xbdb01afe	-0.08598898
65	0x3d67626b	0.056490343
66	0xbe0fcdf5	-0.1404341
67	0x3df46379	0.119330354
68	0x3e044048	0.12915146
69	0xbce46d47	-0.027884139
70	0x3e82a701	0.2551804
71	0xbe010dcf	-0.12602924
72	0x3dbb16af	0.09135186
73	0x3d1046bd	0.03522371
74	0xbe6ac0cd	-0.2292511
75	0xbdd4a12d	-0.10382304
76	0xbe0642cf	-0.13111423
77	0x3e0ab40d	0.13545246
78	0x3e8ceeff	0.2752609
79	0x3cbc998c	0.023022436
80	0xbe1d1683	-0.15340619
81	0xbe90e10f	-0.28296706
82	0xbd1dad61	-0.038495425
83	0xbdd051d6	-0.10171859
84	0x3db872a2	0.090062395
85	0xbe8bd441	-0.27310374
86	0xbe257991	-0.16159655
87	0x3e325da5	0.17418535
88	0x3d9159c7	0.07097202
89	0x3e048d4f	0.1294453
90	0x3d6fafef	0.058517393
91	0xbe34ad1d	-0.17644162
92	0x3e1e6b89	0.15470709
93	0x3dd4a272	0.103825465
94	0xbd1dfd0b	-0.0385714
95	0x3e2528b1	0.16128804
96	0x3df2cbba	0.11855264
97	0x3e1b5e69	0.15172733
98	0x3ecdfbf5	0.4023129
99	0x3ebcb2c4	0.36855137
100	0xbe32f59b	-0.17476504
101	0x3c6bc858	0.014391027
102	0x3b868bcf	0.004106022
103	0xbf0b5fa2	-0.544428
104	0xbd893085	-0.066987075
105	0xbe4ae53e	-0.19814011
106	0x3d2886c0	0.041144133
107	0xbe07363a	-0.1320428
108	0x3d49a6d9	0.049231384
109	0xbdbcce74	-0.09219065
110	0xbe9fd6d7	-0.31218597
111	0xbb87c4dc	-0.0041433405
112	0x3e64d8d2	0.22348335
113	0xbd645eaf	-0.05575436
114	0xbe2bf061	-0.16790916
115	0xbd68c82e	-0.05683153
116	0x3dcb2e81	0.09920979
117	0x3dbd52b3	0.09244289
118	0xbe0bc157	-0.13647972
119	0xbe3dd606	-0.18538675
120	0x3db3bc6e	0.087761745
121	0x3de223b5	0.11041967
122	0x3dd65a1c	0.10466406
123	0x3c7ad338	0.015309148
124	0x3e7e8361	0.24854805
125	0x3e8f15ef	0.27946422
126	0x3cac620b	0.021042844
127	0xbe3f5c7d	-0.18687625
128	0x3e679ca9	0.22618355
129	0xbd2fffa7	-0.04296842
130	0x3e077bac	0.13230771
131	0x3e4ecd71	0.20195557
132	0x3df35a0b	0.11882409
133	0x3cb24fa7	0.021766497
134	0xbdf72a62	-0.12068631
135	0x3e95ec2c	0.29281747
136	0x3df6ba2d	0.12047229
137	0x3cc6a3e9	0.02424808
138	0x3e3c27e2	0.18374589
139	0x3e21cdd2	0.1580117
140	0x3d8c0e82	0.06838705
141	0x3e485191	0.19562365
142	0x3db23b3d	0.08702705
143	0x3dee4ff5	0.11636344
144	0xbbcb5bd2	-0.006206014
145	0x3df8391a	0.12120266
146	0x3db8ffac	0.090331405
147	0xbd2386a0	-0.03992331
148	0xbe6f3c24	-0.23362786
149	0x3cabba1f	0.020962773
150	0x3e530c42	0.20610145
151	0x3e2d9b81	0.16953851
152	0x3ea9ee8e	0.33189815
153	0x3e176590	0.14784837
154	0x3e48146e	0.19539043
155	0x3db8b474	0.09018794
156	0x3e84f151	0.2596536
157	0x3e211dec	0.1573407
158	0x3e646e83	0.22307782
159	0x3e2d9239	0.16950311
160	0x3e4c1caa	0.1993281
161	0x3e430ebe	0.19048592
162	0x3ebb157c	0.3653983
163	0xbcdfc2f3	-0.027314639
164	0x3e3260fa	0.17419806
165	0x3ed6e156	0.41968793
166	0x3e6d6a65	0.23185118
167	0x3dc30d05	0.09523968
168	0xbc6463e2	-0.01393983
169	0xbcd544be	-0.026033755
170	0xbb56899d	-0.0032735833
171	0x3db69b32	0.0891632
172	0x3e8814f9	0.265785
173	0xbc1ca55b	-0.009560908
174	0x3ebe5813	0.3717657
175	0x3ebc9fa7	0.36840555
176	0x3e0d6a22	0.13810018
177	0x3e287fc9	0.16454996
178	0x3eab657f	0.33475873
179	0x3d9d69c4	0.07686189
180	0xbe560757	-0.20901237
181	0x3e9da4f0	0.307899
182	0x3e8b1284	0.27162564
183	0x3e9b867d	0.30376044
184	0x3d3d1637	0.046163764
185	0x3e1e3c00	0.15452576
186	0x3e895be2	0.26827914
187	0x3e44cd0e	0.19218847
188	0x3dce82d0	0.10083544
189	0x3def37ef	0.1168059
190	0xbb885248	-0.0041601993
191	0x3c48abf9	0.012248033
192	0x3ecc3efe	0.3989181
193	0x3e1777f6	0.14791855
194	0x3e0a6eba	0.13518801
195	0xbed4761b	-0.41496357
196	0x3e5722a2	0.21009305
197	0x3e30786f	0.17233442
198	0x3e79bd64	0.24388653
199	0x3e7cf394	0.24702293
200	0xbc315409	-0.010823258
201	0xbe90cb2b	-0.28280005
202	0x3e16871a	0.14699975
203	0xbcf5ed36	-0.030020338
204	0x3e84ab05	0.25911728
205	0xbbc16d79	-0.0059029427
206	0xbc10c870	-0.0088368505
207	0xbe4a3d6d	-0.19749995
208	0xbc0b4e95	-0.008502622
209	0x3e5dc5e1	0.21657516
210	0xbe14fd81	-0.14549829
211	0xbcf36b03	-0.029714113
212	0x3d1077bd	0.03527044
213	0x3c3d226c	0.011543851
214	0x3db28620	0.087169886
215	0x3e2f86a7	0.1714121
216	0x3e8e838a	0.2783473
217	0x3e62528a	0.22101799
218	0x3e87f8ca	0.26556998
219	0x3e4ff628	0.20308745
220	0x3b0ec647	0.0021785663
221	0x3dbf8036	0.09350626
222	0xbbc7c1dd	-0.0060961084
223	0x3e6eb038	0.2330941
224	0x3d835300	0.06412315
225	0x3ea695a6	0.32536048
226	0x3e216782	0.15762141
227	0x3e16b4a9	0.14717354
228	0x3e175f31	0.14782406
229	0x3dc17f96	0.09448163
230	0x3e1eea83	0.15519147
231	0xbece04a8	-0.40237927
232	0x399ea67c	0.0003026015
233	0xbdc11ad8	-0.09428948
234	0x3d92aef3	0.07162275
235	0x3e21a7d0	0.15786672
236	0xbe5e1e5c	-0.21691269
237	0x3d7bf56e	0.061513357
238	0x3e28c7fd	0.1648254
239	0x3e695e6c	0.22789925
240	0x3e26be69	0.16283573
241	0x3e8bda07	0.2731478
242	0x3dd09fd7	0.10186737
243	0x3db96afa	0.09053607
244	0x3e055179	0.1301936
245	0x3e26c975	0.16287787
246	0x3e53207f	0.20617865
247	0x3ebb1c94	0.3654524
248	0x3e684d9e	0.22685859
249	0x3d48a398	0.04898414
250	0x3db2a3b8	0.08722633
251	0x3e4a17b3	0.19735603
252	0x3ec8f657	0.39250442
253	0xbd79fc87	-0.061031844
254	0x3e15eccc	0.14641112
255	0x3d488b51	0.048960987
