sacpen5.pth (torch, 276052 bytes, 6 tensors)

network.0.weight f4 [256, 6]
0	0x3ecbb891	0.3978925
1	0xbef10519	-0.47074202
2	0x3c84b5b5	0.016199926
3	0x3e056a16	0.1302875
4	0x3e0c2e14	0.13689452
5	0x3f33c56e	0.7022313
6	0x3c721623	0.014775786
7	0x3cbfc00b	0.023407003
8	0xbfe83a6d	-1.814283
9	0xbe786cc0	-0.24260235
10	0x3ec872fa	0.3915022
11	0xbed1622a	-0.40895206
12	0x3d916ea3	0.071011804
13	0x3f060d4e	0.5236405
14	0xbf5dc71f	-0.8663196
15	0xbe3ea89b	-0.18619005
16	0x3ec5a9ba	0.38606054
17	0xbf4ec8a0	-0.8077488
18	0xbbecd3a3	-0.0072273775
19	0xbe195d37	-0.14976965
20	0xbfa2e731	-1.2726804
21	0x3e5dcc9a	0.2166008
22	0x3db43f1e	0.08801101
23	0xbf8a427c	-1.080154
24	0x3f062d76	0.5241312
25	0x3f3883f0	0.7207632
26	0x3efb75ea	0.491134
27	0xbef8a08d	-0.4855999
28	0xbea267c0	-0.3171978
29	0xbf2bee66	-0.6716064
30	0xbe94d627	-0.29069635
31	0x3f16b010	0.588624
32	0xbf4410d6	-0.7658819
33	0xbe70e5b5	-0.23525126
34	0x3ec92541	0.39286235
35	0x3ed81ff7	0.42211887
36	0x3d684678	0.05670783
37	0xbf34a232	-0.7055999
38	0xbf32afa7	-0.69799274
39	0x3eeee172	0.46656376
40	0x3f1d5d87	0.61470836
41	0xbf81da24	-1.0144696
42	0xbecf2e63	-0.40465078
43	0x3f020230	0.5078459
44	0xbf9ebb82	-1.2400973
45	0xbeb01996	-0.3439452
46	0xbe9c5097	-0.30530235
47	0xbf09e1c4	-0.53860116
48	0x3aa3502d	0.0012459807
49	0xbfa2358d	-1.2672592
50	0xbf156f1e	-0.58372676
51	0xbf402c5d	-0.75067693
52	0x3df0ef87	0.11764436
53	0xbc41aafd	-0.011820552
54	0xbf590f96	-0.8478941
55	0xbe815216	-0.2525794
56	0x3cd9c54d	0.026583338
57	0x3e39b53b	0.1813554
58	0xbf385bd3	-0.7201511
59	0x3f9da525	1.2316023
60	0x3d88c5b9	0.066783376
61	0xbdb943a6	-0.09046106
62	0xbed6cb19	-0.41951826
63	0x3f624598	0.8838744
64	0x3e2fd983	0.17172818
65	0xbf7015d4	-0.9378331
66	0x3ea732dc	0.3265599
67	0x3f2c0b94	0.67205167
68	0x3f06a836	0.5260042
69	0xbdfb47b5	-0.122695364
70	0xbf1c43f0	-0.61041164
71	0x3d8ead5f	0.06966662
72	0xbe400bec	-0.18754548
73	0x3e4923bf	0.19642542
74	0xbd9681f5	-0.07349006
75	0xbd2aaba1	-0.041667584
76	0x3ec06eb6	0.37584466
77	0x3fa9a84f	1.3254489
78	0x3e7338f2	0.23752192
79	0xbdd15025	-0.102203645
80	0xbe28f302	-0.1649895
81	0x3f2fcb66	0.68669736
82	0x3ef48234	0.47755587
83	0xbf1e0b9f	-0.6173648
84	0x3f5ee1eb	0.87063473
85	0x3ea1d825	0.31610218
86	0xbec60d59	-0.38682058
87	0xbec510e4	-0.3848945
88	0xbebcb5d3	-0.3685747
89	0x3ecbe77e	0.39825052
90	0x3dfcbd8d	0.123408414
91	0x3d2a3975	0.0415587
92	0xbf8aa8ed	-1.0832802
93	0x3e5c8165	0.21533735
94	0x3cc9e4a9	0.024645166
95	0xbf83e941	-1.0305558
96	0xbf33d966	-0.702536
97	0x3e96e31d	0.2947015
98	0x3db7da97	0.089772396
99	0xbebcc377	-0.36867878
100	0xbf14af13	-0.5807964
101	0xbeefde9a	-0.4684952
102	0xbf24ffea	-0.64452994
103	0xbee434fa	-0.44571668
104	0x3f2a738f	0.6658258
105	0x3e440e3b	0.19146053
106	0x3f061029	0.5236841
107	0x3ebdd3ef	0.37075755
108	0xbf06d972	-0.52675545
109	0x3e72b38f	0.23701309
110	0x3e4a79d5	0.19773038
111	0x3dde30d4	0.10849157
112	0xbe9be508	-0.30448174
113	0x3fa533dd	1.2906452
114	0xbeb488dc	-0.35260665
115	0xbea6c643	-0.32573137
116	0xbe9c5092	-0.3053022
117	0xbe54ec84	-0.20793349
118	0xbec27353	-0.3797861
119	0xbf6b1f89	-0.91844994
120	0xbf27d430	-0.6555815
121	0x3e8bc6b5	0.2730004
122	0x3f04e142	0.51906216
123	0xbe5fe1a0	-0.21863413
124	0x3f00e654	0.5035145
125	0x3ea6728b	0.32509264
126	0xbe09d737	-0.13461004
127	0x3e9a76fd	0.30168906
128	0xbfab1703	-1.3366398
129	0xbb36a1b1	-0.0027867372
130	0xbf1516ef	-0.5823812
131	0x3ef30688	0.4746592
132	0xbee3ae9c	-0.44469154
133	0xbe6afe17	-0.2294849
134	0x3ece899f	0.40339372
135	0xbf5de29d	-0.8667391
136	0xbe933c72	-0.28757054
137	0x3eeef4dd	0.4667119
138	0xbe9299fd	-0.2863311
139	0xbf703b12	-0.93840134
140	0xbd35d944	-0.044396654
141	0xbf6040d8	-0.87598944
142	0xbf11e30d	-0.56987077
143	0xbe0737a3	-0.13204817
144	0xbf3cad30	-0.73701763
145	0x3ea9628c	0.33082998
146	0xbefd116c	-0.49427354
147	0xbdff681e	-0.12471031
148	0xbf388cfa	-0.72090113
149	0xbe82cc73	-0.25546607
150	0xbee19ac4	-0.4406339
151	0x3bb59999	0.005541992
152	0x3f6697fb	0.90075654
153	0xbe728306	-0.23682794
154	0xbf06df70	-0.5268469
155	0xbd93f5d6	-0.07224624
156	0xbed0256e	-0.40653557
157	0xbf6f0ef7	-0.9338221
158	0xbef48c65	-0.47763363
159	0xbf0c4495	-0.5479215
160	0x3ec68c25	0.38778797
161	0xbe0521dd	-0.13001199
162	0x3d1d35cd	0.038381387
163	0x3eabce69	0.33555916
164	0x4066f558	3.6087246
165	0x3e457b53	0.19285326
166	0xbf8ee42c	-1.1163383
167	0x408f3dca	4.4762926
168	0xbed70c10	-0.4200139
169	0x3d2e9931	0.042626563
170	0x3f5bf91d	0.8592699
171	0x3deed8d0	0.116624475
172	0xbe41547d	-0.18879886
173	0xbef40e75	-0.4766728
174	0x3d8c68b5	0.06855909
175	0xbe83af6a	-0.25719768
176	0x3f93f53c	1.1559215
177	0x3e74b14c	0.23895758
178	0x3d64d69d	0.055868734
179	0x3f2a0808	0.66418505
180	0x3ee948f0	0.4556346
181	0x3ead8fcd	0.33898774
182	0xbecd1065	-0.4005157
183	0xbeefc8aa	-0.46832782
184	0xbeebbc2f	-0.4604201
185	0x3dc89e35	0.097958006
186	0xbe38abc8	-0.1803428
187	0x3ee4e400	0.447052
188	0x3f84afa8	1.0366106
189	0x3e1447be	0.14480492
190	0xbf2f2a85	-0.68424255
191	0x3fbd2a3e	1.4778516
192	0x3ef0127a	0.46889096
193	0x3e840d00	0.25791168
194	0xbf25cb91	-0.6476374
195	0x3da5d4a9	0.08097202
196	0x3ecaad0b	0.39585146
197	0xbfa7222a	-1.3057301
198	0x3eb78162	0.358409
199	0x3e5986bf	0.21242808
200	0x3e6e5d5a	0.23277798
201	0xbdcd0078	-0.10009855
202	0xbf8366a4	-1.0265698
203	0x3f159af3	0.5843956
204	0xbbd515d1	-0.006502845
205	0xbe7dbb8f	-0.24778579
206	0xbf88ff73	-1.0702957
207	0xbef5e64d	-0.48027268
208	0x3e3d3730	0.18478084
209	0xbe9f9fe2	-0.31176668
210	0x3e7f81f7	0.24951921
211	0x3eaa6bea	0.33285457
212	0x3ec9f958	0.39448047
213	0x3e53a3bd	0.2066793
214	0xbf2e5292	-0.6809474
215	0xbeabfa73	-0.33589515
216	0xbea05c9a	-0.3132065
217	0x3dd40818	0.10353106
218	0x3f0e04e9	0.5547624
219	0x3eda1567	0.42594454
220	0xbf7bae6c	-0.9831302
221	0x3f8e9ff3	1.1142563
222	0xbe3fcd9d	-0.18730779
223	0x3e672b0c	0.22575015
224	0x40396c1d	2.8972237
225	0x3ec3b182	0.38221365
226	0xbf918875	-1.1369768
227	0x3ff7f01d	1.9370152
228	0x3e34126c	0.17585152
229	0xbd8667e8	-0.06562787
230	0xbf098298	-0.53714895
231	0x3f3da18b	0.7407462
232	0x3d6d4a0c	0.057931945
233	0xbf37712a	-0.7165705
234	0x3ee389a5	0.44440952
235	0xbed2bd79	-0.4116018
236	0xbf3554a3	-0.7083227
237	0x3ef3b637	0.47599956
238	0xbf3f07f3	-0.74621505
239	0x3e7b8d82	0.245657
240	0xbe586094	-0.21130592
241	0xbf648709	-0.8926855
242	0x3d969333	0.07352295
243	0x3e0d77a8	0.13815176
244	0x3f3737b4	0.7156937
245	0x3c82299d	0.015888983
246	0xbe9398ab	-0.28827414
247	0xbe2c16d1	-0.16805579
248	0x3f0f39ab	0.5594737
249	0x3ec29570	0.38004637
250	0xbe1835d5	-0.14864285
251	0xbf3480a9	-0.7050882
252	0x3edbabba	0.42904454
253	0x3e84ff29	0.25975922
254	0xbf06c5b4	-0.5264542
255	0xbedf8176	-0.43653458

network.0.bias f4 [256]
0	0x3e6edaaa	0.23325601
1	0xbd149d50	-0.036282837
2	0xbe26dcbb	-0.1629514
3	0xbf180a55	-0.59390765
4	0x3d993e74	0.07482615
5	0x3c44b8b3	0.012006926
6	0xbe79058f	-0.24318527
7	0xbecd4d32	-0.40097958
8	0xbd13a367	-0.036044504
9	0xbea99887	-0.33124182
10	0xbf0a7217	-0.5408034
11	0x3da9b722	0.08286883
12	0x3e2254cb	0.15852658
13	0xbf1f4eb1	-0.6222945
14	0xbeb8d047	-0.36096403
15	0xbf1ce506	-0.6128696
16	0x3e0693c2	0.13142303
17	0xbe6fa3b6	-0.23402295
18	0xbeb06bea	-0.34457332
19	0xbef52f81	-0.47887805
20	0x3ea52646	0.32255763
21	0x3e450bd6	0.19242796
22	0x3e63be5d	0.22240587
23	0xbf939c8b	-1.1532148
24	0xbd3b2ba3	-0.045695912
25	0xbda9d7d1	-0.08293117
26	0x3ec5885d	0.385806
27	0x3ea462ce	0.32106632
28	0xbef0a840	-0.47003365
29	0xbe0f1007	-0.13970958
30	0xbed07280	-0.40712357
31	0x3d89f665	0.06736449
32	0xbeca5e73	-0.39525184
33	0xbef211a5	-0.47279087
34	0x3ea7e01b	0.32788166
35	0xbd0b2c74	-0.03397794
36	0xbe2ee1a1	-0.17078258
37	0xbec0e5bf	-0.37675282
38	0xbf5195ec	-0.8186939
39	0xbd885c5c	-0.06658241
40	0xbec94890	-0.39313173
41	0xbee16709	-0.44023922
42	0xbf07d5f3	-0.53060836
43	0xbe79e71f	-0.24404572
44	0xbdd0e09f	-0.10199093
45	0xbd456ee1	-0.048201445
46	0x3dcd6580	0.10029125
47	0xbc2817a2	-0.010259541
48	0xbf1a35e7	-0.602385
49	0x3cb21fc4	0.021743663
50	0xbe137982	-0.1440182
51	0x3d73e3c0	0.05954337
52	0xbd05808d	-0.0325933
53	0xbf414ab2	-0.755046
54	0x3f180d1e	0.59395015
55	0xbfad5fda	-1.3544877
56	0x3e5457ba	0.2073659
57	0xbec32edb	-0.38121685
58	0xbf133970	-0.5750952
59	0xbcd1ff79	-0.025634514
60	0xbf15e7bb	-0.5855672
61	0x3d7b146d	0.061298776
62	0x3e8377d5	0.25677362
63	0xbf869e82	-1.0517123
64	0xbf09e05c	-0.5385797
65	0xbe7a32c9	-0.24433435
66	0xbf227a5e	-0.6346797
67	0xbedb270a	-0.42803222
68	0xbf439aec	-0.7640827
69	0xbeada54d	-0.33915177
70	0xbeb67f4e	-0.35644
71	0xbe07d800	-0.13265991
72	0x3ec28949	0.37995365
73	0xbd4a2eb3	-0.049360942
74	0xbf073e92	-0.5282985
75	0xbe084a4a	-0.13309589
76	0xbec29956	-0.3800761
77	0x3c588ee1	0.013217659
78	0xbf07ee6a	-0.53098166
79	0xbdda186f	-0.106491916
80	0xbe17077f	-0.14748953
81	0xbe0cc00d	-0.13745137
82	0x3d22131f	0.039569017
83	0x3d27441c	0.04083644
84	0x3e828855	0.25494638
85	0xbee9fb16	-0.45699376
86	0x3d45327a	0.04814384
87	0xbee472a9	-0.4461873
88	0xbf0beb65	-0.5465606
89	0xbc85bbb3	-0.016324854
90	0xbf168705	-0.58799773
91	0xbed3f2a7	-0.41396067
92	0x3e812b32	0.25228268
93	0x3bd0a14a	0.0063668834
94	0x3de34913	0.11097922
95	0xbf2a53aa	-0.6653391
96	0xbf1311ce	-0.5744904
97	0xbed4e69e	-0.41582197
98	0x3e767c85	0.24070938
99	0xbe5b2a97	-0.21402965
100	0xbe3440f6	-0.17602906
101	0x3d3709e9	0.044687185
102	0x3dc9fa13	0.09862151
103	0xbeb4fc04	-0.35348523
104	0xbba4daba	-0.005030957
105	0xbf6f880a	-0.93566954
106	0xbe688ebd	-0.227107
107	0x3d6ffc39	0.058590148
108	0xbe98798b	-0.2978023
109	0xbea72b48	-0.32650208
110	0xbe8d7c86	-0.27634066
111	0xbf0078c0	-0.5018425
112	0xbd529e0d	-0.05142026
113	0xbe3a9f43	-0.18224816
114	0x3a09a94a	0.0005251361
115	0xbef5f13b	-0.48035607
116	0x3ecd4169	0.40088966
117	0xbf09f68f	-0.53891844
118	0x3eb64d93	0.3560606
119	0xbdcca6eb	-0.099927746
120	0xbd8736fd	-0.06602285
121	0xbd861000	-0.065460205
122	0xbecafc4d	-0.39645615
123	0x3e0f7619	0.14009894
124	0x3ee1c04d	0.44092026
125	0xbec7d7a3	-0.39031705
126	0xbea777b8	-0.32708526
127	0x3e82a0a8	0.25513196
128	0xbe3f32e6	-0.1867176
129	0xbf3066e8	-0.6890702
130	0xbede6bc7	-0.43441603
131	0x3ea072e1	0.31337646
132	0x3dd455e0	0.10367942
133	0xbebacadd	-0.36482897
134	0xbd5ee3c4	-0.054416433
135	0xbf177ff8	-0.5917964
136	0xbdb0c7e9	-0.0863188
137	0x3d30d2d2	0.043169804
138	0xbe5ed418	-0.21760595
139	0xbd3e4bf7	-0.046459164
140	0x3e262c9d	0.16227956
141	0xbd610491	-0.054935995
142	0xbde6cf2f	-0.11269986
143	0xbe9b1886	-0.30292147
144	0xbd9a5366	-0.07535438
145	0x3ea9b6a1	0.33147147
146	0xbe0b2434	-0.13588029
147	0xbd1d14cf	-0.038349923
148	0x3d2bf02a	0.041977085
149	0x3f1f4852	0.6221973
150	0xbe72212d	-0.23645468
151	0xbeda200d	-0.42602578
152	0xbf2c70f2	-0.6735984
153	0xbea59e14	-0.32347167
154	0x3b8ffaf3	0.004393929
155	0x3dc27c9d	0.09496424
156	0xbe346955	-0.17618306
157	0x3e05e678	0.13076198
158	0x3e514e27	0.20439969
159	0xbefe0dde	-0.49619955
160	0xbece4b50	-0.40291834
161	0xbef4eb81	-0.47835925
162	0xbdfe4284	-0.124150306
163	0x3ed3b497	0.41348717
164	0xbdd1a4de	-0.10236524
165	0x3de7867e	0.11304949
166	0x3eca3b0c	0.39498174
167	0xbe5dc789	-0.21658148
168	0x3c12272c	0.008920472
169	0x3d0d89d9	0.03455529
170	0x3d3e7766	0.046500586
171	0x3ec6623f	0.3874683
172	0x3d83aa85	0.064290084
173	0xbd766282	-0.060152538
174	0xbf735e81	-0.95066077
175	0xbe53df3d	-0.20690627
176	0xbe58ca1a	-0.21170846
177	0x3dd5ad83	0.10433485
178	0xbf2e9789	-0.68199974
179	0xbed4abc6	-0.41537303
180	0xbeb0a2f6	-0.3449933
181	0xbe2ae293	-0.16687994
182	0xbee08365	-0.43850246
183	0xbdd074c5	-0.10178522
184	0xbecfafc8	-0.40563798
185	0x3ec9d90f	0.39423415
186	0xbd81fbc0	-0.063468456
187	0x3e8b3edc	0.27196395
188	0xbec209a8	-0.37897992
189	0xbea2aa72	-0.31770664
190	0x3eb049d7	0.34431335
191	0x3e9383cf	0.288115
192	0x3e12d96a	0.1434075
193	0x3d8445a0	0.064585924
194	0xbe211c32	-0.15733412
195	0xbeea8e20	-0.45811558
196	0xbedf730a	-0.43642455
197	0xbe3d018a	-0.18457618
198	0xbedd186b	-0.43182692
199	0xbe9dfe52	-0.30858094
200	0x3eeeb594	0.46622908
201	0xbf286ba4	-0.65789247
202	0xbe93478b	-0.2876552
203	0xbd97cf0f	-0.0741254
204	0xbdb0ac41	-0.08626605
205	0x3ddb32a4	0.10703018
206	0x3dd7a59e	0.10529636
207	0xbe073a5d	-0.13205858
208	0xbe4a38e6	-0.19748268
209	0xbcb5986d	-0.022167409
210	0xbf0e8239	-0.55667454
211	0x3d9170bf	0.07101583
212	0xbf354140	-0.7080269
213	0xbd94bcfa	-0.07262607
214	0x3f33eae5	0.70280296
215	0xbe9bdccb	-0.3044189
216	0x3e0ba2f7	0.13636385
217	0xbd75f527	-0.06004825
218	0xbeae0ea3	-0.33995542
219	0xbe9fbf45	-0.31200615
220	0xbdae1ee3	-0.08501985
221	0x3ead9245	0.33900657
222	0xbe81dcfc	-0.2536391
223	0xbf5bb42c	-0.85821795
224	0xbea0b59c	-0.31388557
225	0x3df1658f	0.11786949
226	0xbdbbc7b9	-0.091689534
227	0x3d63fdc7	0.055661943
228	0xbdd68dea	-0.10476287
229	0x3ea82ae0	0.3284521
230	0xbd57548f	-0.052570876
231	0x3db741f5	0.08948127
232	0x3e5550dd	0.20831628
233	0x3e008bed	0.12553377
234	0xbe81cd47	-0.25351927
235	0xbd615cc1	-0.055020098
236	0xbdfb8512	-0.122812405
237	0xbf0bc6dd	-0.54600316
238	0xbed419c7	-0.41425917
239	0xbdbce8cc	-0.0922409
240	0xbe4e7f61	-0.20165779
241	0x3d3af277	0.04564139
242	0xbf14d4c4	-0.58137155
243	0xbf4493b6	-0.7678789
244	0x3f073eaf	0.5283002
245	0x3ddaeb23	0.1068938
246	0xbd9871f4	-0.0744361
247	0xbd7efcb5	-0.06225272
248	0xbebfe742	-0.37481123
249	0xbee2a64f	-0.44267508
250	0xbed69385	-0.41909423
251	0x3d26245d	0.040562022
252	0x3d6450d3	0.055741142
253	0xbefef9b8	-0.49799895
254	0xbedbe1f6	-0.42945832
255	0xbecc07ad	-0.39849606

network.2.weight f4 [256, 256]
0	0x3de109f0	0.109882236
1	0x3d361087	0.044449355
2	0xbe05da65	-0.13071592
3	0x3e42239e	0.189589
4	0x3dda1e5d	0.106503226
5	0x3e87a11d	0.26490107
6	0x3e3a9295	0.18219979
7	0xbe0ef1c8	-0.1395942
8	0x3d8eef63	0.06979253
9	0x3e06f3bd	0.13178916
10	0x3ec22800	0.37921143
11	0xbe172840	-0.14761448
12	0xbc8d54bf	-0.017252324
13	0x3e93b4fd	0.2884902
14	0xbdf57b8b	-0.119864546
15	0x3e27ba9c	0.1637978
16	0x3e01141b	0.12605326
17	0xbd9e9d22	-0.077448145
18	0x3e87d4eb	0.2652963
19	0xbd64f6d2	-0.05589945
20	0x3e34a569	0.17641224
21	0x3d981a3b	0.07426878
22	0x3dbc868c	0.0920535
23	0x3d0dd0ed	0.034623075
24	0x3d50f016	0.051010214
25	0xbdfbeb0a	-0.123006895
26	0xbe14dea4	-0.14538056
27	0x3cddb850	0.027065426
28	0x3e8cb64a	0.27482826
29	0xbe040b6a	-0.12894979
30	0x3f37670a	0.716416
31	0x3dbf5b14	0.09343544
32	0x3d62d9ba	0.05538342
33	0x3d1bf0d7	0.03807148
34	0xbd9f12a7	-0.077672295
35	0x3dcef71c	0.10105726
36	0xbda0da7f	-0.07854175
37	0x3dd35af6	0.10320084
38	0x3d1784c4	0.03699185
39	0x3d8c3e68	0.068478405
40	0xbed1da31	-0.4098678
41	0xbe253889	-0.16134848
42	0x3e3ff657	0.18746315
43	0x3de54f20	0.111967325
44	0x3de9d726	0.114179894
45	0xbd6519a6	-0.055932663
46	0xbe288716	-0.16457781
47	0x3dab878b	0.08375462
48	0xbe939254	-0.28822577
49	0x3e21f597	0.15816341
50	0x3d7dd376	0.061969243
51	0xbcd6b2bf	-0.02620828
52	0x3ddc41ef	0.10754763
53	0x3dade1e6	0.08490352
54	0x3d7f5892	0.062340327
55	0xbed2aca6	-0.41147345
56	0xbce058a4	-0.027386017
57	0x3ebd5f9d	0.3698701
58	0x3c7aaefc	0.015300509
59	0xbe5600e2	-0.20898774
60	0x3e9c64b2	0.30545574
61	0x3df20f34	0.11819306
62	0x3e254111	0.16138102
63	0xbf63b303	-0.88945025
64	0x3e5a373b	0.21310131
65	0x3e3c94c1	0.1841612
66	0xbe53b731	-0.2067535
67	0x3e521701	0.20516588
68	0xbc95dd7c	-0.018294089
69	0x3e5ed8cf	0.21762393
70	0xbe1a52dd	-0.15070672
71	0xbe911a89	-0.28340557
72	0xbe0e0e8d	-0.13872738
73	0xbd347044	-0.044052377
74	0x3e52ce50	0.20586514
75	0xbe46a241	-0.19397832
76	0x3ea6f9bc	0.32612407
77	0x3e309068	0.17242587
78	0xbebaffe4	-0.36523354
79	0x3eadfe3d	0.3398303
80	0xbbd06dbc	-0.0063607376
81	0x3dd9e8ae	0.10640083
82	0x3e992e0a	0.29917938
83	0x3c9377fd	0.01800155
84	0x3da4ca42	0.0804639
85	0xbd9bfb44	-0.076162845
86	0x3ea39cc0	0.31955528
87	0xbd9388f0	-0.07203853
88	0x3e901ea1	0.28148368
89	0x3e08d356	0.13361868
90	0x3df17d82	0.11791517
91	0x3e876db2	0.26450878
92	0x3e03e9a9	0.12882103
93	0x3dc26b9f	0.09493183
94	0x3d8e380d	0.069442846
95	0x3cf54d17	0.029943986
96	0x3f3dbac0	0.7411308
97	0xbe41826c	-0.18897408
98	0x3dd3d9cd	0.103442766
99	0xbec5cb14	-0.386315
100	0xbc0baf07	-0.0085256165
101	0xbdbcb389	-0.09213931
102	0x3e0a08d8	0.13479936
103	0xbadbe9e3	-0.0016778078
104	0x3e06d706	0.13167962
105	0xbd6527b2	-0.05594606
106	0x3e79d24f	0.24396633
107	0x3e574ae7	0.21024667
108	0xbdb1250c	-0.08649644
109	0xbcc7f152	-0.024407063
110	0x3d8d1d57	0.06890362
111	0xbc23c75f	-0.009996264
112	0xbe00168f	-0.12508605
113	0x3e05d14e	0.13068125
114	0x3dd16f64	0.10226324
115	0xbe8d48ca	-0.27594596
116	0xbdfee0b4	-0.124452025
117	0xbeb6fd0d	-0.35739937
118	0xbc8a748b	-0.016901275
119	0x3cd32d42	0.025778417
120	0xbdbe81ca	-0.09302099
121	0x3e3a07c8	0.18167031
122	0x3bf4dd6e	0.0074726855
123	0xbd8812cf	-0.066442125
124	0xbdcb5e70	-0.09930122
125	0x3d890792	0.06690897
126	0xbe881ec1	-0.26585963
127	0x3de7f858	0.11326665
128	0x3e1f1345	0.15534694
129	0xbc5710c6	-0.013126558
130	0xbf144c7b	-0.579292
131	0x3e3c1ee3	0.18371157
132	0xbd1a83aa	-0.03772322
133	0x3e9f728a	0.31142074
134	0xbe704b4f	-0.23466228
135	0xbe92eeae	-0.28697723
136	0x3e903ea6	0.28172797
137	0xbd164e9f	-0.036696073
138	0xbdb3ad84	-0.0877333
139	0x3e0ada79	0.13559903
140	0xbcf57004	-0.02996064
141	0x3e2c6e72	0.16839007
142	0x3e3a6ed7	0.18206345
143	0xbe022be0	-0.1271205
144	0x3b84e588	0.0040556826
145	0x3e29e6e0	0.16591978
146	0x3e183b5b	0.14866392
147	0xbd80c378	-0.06287283
148	0x3de75131	0.11294783
149	0xbc110118	-0.008850358
150	0xbe354727	-0.17702924
151	0xbdd6f155	-0.10495249
152	0x3f63a10c	0.88917613
153	0xbdf43c52	-0.11925568
154	0x3d8711be	0.06595181
155	0x3e29071a	0.16506615
156	0x3e472cbf	0.19450663
157	0x3dfded9a	0.123988345
158	0x3dc87483	0.09787848
159	0xbe5b1903	-0.2139626
160	0x3de2cc44	0.11074117
161	0x3d852d6e	0.06502806
162	0xbe1a9d2a	-0.15099016
163	0xbb645141	-0.003483847
164	0x3ddf3f4d	0.109007455
165	0x3d2f43a1	0.042789105
166	0x3dfd74da	0.12375803
167	0x3ccbfec2	0.024901751
168	0x3e725dd9	0.23668613
169	0xbf0005fc	-0.5000913
170	0x3d501f4f	0.05081111
171	0x3dda2946	0.106524035
172	0xbf26f1b5	-0.65212566
173	0x3e7fece9	0.24992718
174	0xbec2b760	-0.3803053
175	0xbe2ff11e	-0.17181823
176	0x3da41453	0.08011689
177	0xbdbd1651	-0.09232772
178	0x3f0db9b8	0.5536151
179	0xbf30c8a5	-0.6905616
180	0xbddbbf85	-0.10729889
181	0xbeb0e96c	-0.34553087
182	0xbebac428	-0.3647778
183	0x3e94e571	0.290813
184	0x3e0c7c78	0.13719356
185	0xbdd1ee57	-0.10250538
186	0x3d021619	0.031759355
187	0x3ca7c8f2	0.02048156
188	0x3ce586b7	0.028018339
189	0x3e4fbaef	0.20286153
190	0xbdff6b4b	-0.124716364
191	0xbdb7d589	-0.089762755
192	0x3c6901af	0.014221593
193	0xbd826df4	-0.06368628
194	0x3ddb8b9e	0.10719989
195	0x3ea6e27d	0.32594672
196	0x3e02c68f	0.12771057
197	0x3ca6dd09	0.02036907
198	0xbe1297ba	-0.14315692
199	0xbefb6cba	-0.4910639
200	0xbd71b02d	-0.059005905
201	0xbeaf5f73	-0.3425251
202	0xbe217c56	-0.15770087
203	0x3e240897	0.16018902
204	0xbcf3590a	-0.029705543
205	0x3dbbe955	0.09175364
206	0xbe2e0ce7	-0.1699711
207	0xbe3c4ab4	-0.18387872
208	0x3ec8e4f1	0.39237168
209	0x3dba24d2	0.09089054
210	0x3ed41704	0.4142381
211	0xbaf3189e	-0.0018546765
212	0xbf379167	-0.7170624
213	0x3dcb90bd	0.09939716
214	0xbdc61529	-0.09672005
215	0xbe25a662	-0.16176751
216	0xbc84488e	-0.016147878
217	0xbe318e79	-0.17339505
218	0x3e833bf7	0.25631687
219	0x3dd914e9	0.105996914
220	0xbda6be5c	-0.08141777
221	0x3e42f9fd	0.19040675
222	0x3d8a26cb	0.067456804
223	0x3e0af87b	0.1357135
224	0x3e13a0fd	0.14416881
225	0x3d951e36	0.07281153
226	0x3c38f0d4	0.011287887
227	0xbe284329	-0.1643187
228	0xbe9bc9c6	-0.30427378
229	0x3cbbbb58	0.02291648
230	0x3d5ab4d3	0.053395104
231	0xbd0bc2db	-0.034121376
232	0x3e0364db	0.12831442
233	0x3e4d2531	0.20033719
234	0x3ddc5831	0.10759009
235	0x3ed1fc65	0.41012874
236	0x3e0ea075	0.13928397
237	0xbe87e1b2	-0.2653938
238	0x3e0e35cb	0.13887708
239	0x3e34895e	0.17630526
240	0x3e61150a	0.21980682
241	0x3d08ba8e	0.033381037
242	0x3e74c560	0.23903418
243	0x3e9df85d	0.3085355
244	0xbd38d437	-0.04512426
245	0xbe71ebaa	-0.23625055
246	0x3db79972	0.08964814
247	0xbe883836	-0.26605386
248	0xbe0cfde9	-0.13768734
249	0xbd8fe418	-0.07025927
250	0x3d778ef0	0.06043905
251	0xbd3ad6ca	-0.045614995
252	0x3d5309fd	0.051523197
253	0xbd9f3326	-0.07773428
254	0x3d0aa34a	0.03384713
255	0xbd991b0b	-0.07475861

network.2.bias f4 [256]
0	0x3dcaeb55	0.09908167
1	0x3df56ca5	0.11983613
2	0xbf1c8d03	-0.61152667
3	0xbd71eba9	-0.059062634
4	0xbe81d42a	-0.2535718
5	0xbe9e01b6	-0.3086068
6	0xbd9dc826	-0.07704191
7	0x3e7e489c	0.24832386
8	0x3e0e1bb5	0.13877757
9	0x3e1aa3b8	0.15101516
10	0xbc889b85	-0.01667572
11	0xbe841b05	-0.25801864
12	0xbd9efc2a	-0.0776294
13	0xbdcdff26	-0.10058431
14	0xbd9616a5	-0.07328538
15	0xbe8fc94a	-0.2808326
16	0xbd5b740e	-0.053577475
17	0xbe03f6fe	-0.12887189
18	0x3bd787de	0.006577476
19	0xbce01f08	-0.027358547
20	0xbe51b1ef	-0.20478033
21	0xbce9b22d	-0.028527344
22	0xbd5efcef	-0.054440435
23	0xbdbabc2e	-0.09117924
24	0xbd6e08e4	-0.058113948
25	0xbde145c3	-0.10999634
26	0xbd2ac18e	-0.041688494
27	0xbd00f6cf	-0.031485375
28	0x3d9322b6	0.07184355
29	0xbd3236e5	-0.043509383
30	0xbded118c	-0.115756124
31	0xbd015153	-0.031571697
32	0xbe56c558	-0.20973718
33	0x3e42a0d1	0.19006659
34	0xbdfd0220	-0.12353921
35	0x3e4bd2c3	0.19904618
36	0x3cd3cb17	0.025853677
37	0xbd12933f	-0.035784956
38	0xbd69524e	-0.056963257
39	0xbe9972cd	-0.299704
40	0xbc703c85	-0.0146628665
41	0x3e26f4b6	0.16304287
42	0xbd166c1c	-0.036724195
43	0x3ed52a18	0.41633677
44	0xbd6fb152	-0.058518715
45	0xbb243756	-0.0025057397
46	0x3b4bec72	0.0031116274
47	0xbe034c03	-0.12821965
48	0xbe3d0a3b	-0.18460934
49	0xbe2bc4bb	-0.16774265
50	0x3b8e3012	0.0043392265
51	0x3e1cf904	0.15329367
52	0x3b999f9b	0.004688216
53	0xbced72fd	-0.028985495
54	0xbd5143ef	-0.051090177
55	0xbccc90a5	-0.024971316
56	0xbdd7ccc8	-0.10537106
57	0xbd7972ae	-0.060900383
58	0x3ec14411	0.37747243
59	0xbe0b8324	-0.13624245
60	0xbcfca535	-0.030840496
61	0xbda33170	-0.07968414
62	0x3cb55ef3	0.022140002
63	0xbe29291e	-0.16519591
64	0x3c11795e	0.008879034
65	0xbc955b65	-0.018232057
66	0xbe8c78be	-0.2743587
67	0xbe38cbf6	-0.18046555
68	0xbb175888	-0.002309354
69	0x3cb4e007	0.02207948
70	0x3dd1d457	0.10245579
71	0xbdac17e8	-0.08402997
72	0xbea99735	-0.33123174
73	0xbebd2817	-0.3694465
74	0xbd864708	-0.06556517
75	0xbd91d0ea	-0.07119925
76	0xbd9c98e4	-0.07646349
77	0xbc8c6fc4	-0.017143138
78	0xbdab6dbd	-0.0837054
79	0x3e440ca9	0.19145454
80	0x3dc28793	0.09498515
81	0xbe804aab	-0.25056967
82	0xbc8e79e2	-0.017392103
83	0x3e074634	0.13210374
84	0xbe8560f4	-0.26050532
85	0xbc16d104	-0.009205107
86	0xbe0778c3	-0.1322966
87	0xbbe1d062	-0.0068912962
88	0x3e755d40	0.23961353
89	0x3e1e21cf	0.15442584
90	0xbebb93b3	-0.36636123
91	0xbe451e06	-0.19249734
92	0x3e98f332	0.29873043
93	0xbcb4d7ce	-0.02207556
94	0x3a36b96b	0.00069703785
95	0xbc1642c1	-0.009171189
96	0xbd8893f8	-0.06668848
97	0xbdd44bdd	-0.10366032
98	0x3c5ff7c1	0.013669909
99	0xbd0202b7	-0.03174087
100	0xbe875b74	-0.2643696
101	0xbec6bb85	-0.3881494
102	0x3e13a4dc	0.14418358
103	0xbd533bf5	-0.05157085
104	0x3e8600d9	0.26172522
105	0xbe2d6fc7	-0.16937171
106	0xbe21b557	-0.15791832
107	0x3d9a52a9	0.075352974
108	0x3c9e0456	0.019289177
109	0x3d94e144	0.072695285
110	0x3d03f234	0.032213405
111	0x3df1705c	0.11789009
112	0x3d4046eb	0.046942633
113	0x3e54fbb3	0.2079914
114	0xbe34e613	-0.17665891
115	0xbea5bdcf	-0.32371375
116	0xbda4fb99	-0.08055801
117	0x3b06c22d	0.0020562515
118	0x3dc7794a	0.09739931
119	0xbd8d906e	-0.069123134
120	0xbeb085a3	-0.34476957
121	0xbec900c4	-0.39258397
122	0xbc55d996	-0.013052365
123	0xbd6d4c8c	-0.05793433
124	0xbe0279a4	-0.12741715
125	0xbd7a9764	-0.061179534
126	0x3db55583	0.08854201
127	0xbea5ba19	-0.32368544
128	0x3cecc220	0.02890116
129	0xbcbd96d8	-0.023143217
130	0xbede6a17	-0.43440315
131	0xbe909b38	-0.28243423
132	0xbe35da7a	-0.17759123
133	0x3c5aa86f	0.013345822
134	0xbd9c68c4	-0.0763717
135	0xbdc7fe05	-0.09765247
136	0xbd71c9aa	-0.059030212
137	0xbd916bff	-0.07100677
138	0x3d87f7ce	0.06639062
139	0xbd984e76	-0.0743684
140	0xbc92f234	-0.017937757
141	0xbe279612	-0.16365841
142	0xbdc36259	-0.09540243
143	0xbd9093b6	-0.070594236
144	0x3c468103	0.01211572
145	0xbd033fda	-0.032043315
146	0xbdf5e2ae	-0.12006126
147	0xbe204800	-0.15652466
148	0x3dc578f0	0.096422076
149	0xbccb6bf9	-0.024831759
150	0xbdb3b2fb	-0.08774372
151	0x3db31978	0.08745092
152	0xbe3e17f8	-0.18563831
153	0xbdd6f017	-0.10495012
154	0x3e413b68	0.18870318
155	0x3b395c46	0.002828376
156	0xbe677520	-0.22603273
157	0xbdd56c17	-0.10421007
158	0xbe82680e	-0.25470012
159	0xbe81766d	-0.25285664
160	0xbe77610d	-0.24158116
161	0xbd483453	-0.048878025
162	0xbe828ab4	-0.25496447
163	0x3dff4613	0.124645375
164	0xbdd22380	-0.10260677
165	0xbc4c0b95	-0.012453933
166	0xbda2ad37	-0.07943194
167	0xbcb69872	-0.022289488
168	0x3d0fd23c	0.035112604
169	0xbda29350	-0.07938254
170	0xbcd030ce	-0.025413897
171	0xbd8b12dd	-0.06790707
172	0x3d3ca139	0.04605219
173	0xbd97e709	-0.07417113
174	0xbd31fb57	-0.043452587
175	0xbec65d0e	-0.3874287
176	0x3c55b0db	0.013042654
177	0xbcf83350	-0.030297905
178	0x3d887a17	0.06663912
179	0xbe1d6e11	-0.15374018
180	0x3d91e1a4	0.07123116
181	0xbd59c48c	-0.053165957
182	0xbef70f03	-0.4825364
183	0xbbdcf183	-0.0067426576
184	0xbeaa2c2f	-0.33236834
185	0x3d352755	0.044226963
186	0x3d465f57	0.048430767
187	0xbe0d552b	-0.1380202
188	0xbc9a4367	-0.018830968
189	0xbe825674	-0.25456583
190	0xbdc22035	-0.09478799
191	0xbea45328	-0.32094693
192	0xbd3ebd60	-0.04656732
193	0x3e2d896a	0.1694695
194	0xbd74b2e1	-0.059740905
195	0xbd3bb276	-0.04582449
196	0xbe07ff2f	-0.13280939
197	0xbe6806cf	-0.22658847
198	0xbe70ccb9	-0.23515595
199	0x3bda8d6e	0.0066696918
200	0xbd5b9e28	-0.053617626
201	0xbcd04f75	-0.025428513
202	0xbe3bb191	-0.18329455
203	0x3df35f87	0.11883455
204	0xbd188d58	-0.03724417
205	0xbdc26cef	-0.09493434
206	0x3e84ac03	0.25912485
207	0xbcbac374	-0.022798277
208	0xbd1ded76	-0.03855654
209	0xbe63df00	-0.22253036
210	0xbd3d6028	-0.04623428
211	0xbcae2f9e	-0.02126294
212	0xbd22dfed	-0.039764334
213	0xbd5e35cb	-0.05425052
214	0xbe7e813b	-0.24853985
215	0xbc929f1a	-0.017898131
216	0xbdc142fe	-0.09436606
217	0x3ebebd36	0.3725373
218	0x3dea27f8	0.11433405
219	0x3dbad190	0.09122002
220	0xbd3438f5	-0.04399963
221	0x3f10fcea	0.56635916
222	0xbd656798	-0.056006998
223	0x3ced6d1f	0.028982697
224	0x3e4e1d0f	0.20128272
225	0xbeeb7a73	-0.4599186
226	0xbbb2e2cb	-0.0054591647
227	0xbcb02acc	-0.021504782
228	0xbd59b8df	-0.053154822
229	0x3cd710f7	0.026253207
230	0xbbacff97	-0.005279492
231	0xbe9f1a52	-0.31074768
232	0xbd4a58fa	-0.04940126
233	0xbdd5a8cf	-0.10432588
234	0xbe3a0331	-0.1816528
235	0xbcf1679d	-0.029468352
236	0x3e86030a	0.26174194
237	0xbd34a5fb	-0.044103604
238	0x3d58c63e	0.052923433
239	0xbd4a53f6	-0.049396478
240	0xbe58eb41	-0.21183492
241	0x3e9acfd8	0.30236697
242	0x3e5d9f03	0.2164269
243	0xbd889f0d	-0.066709615
244	0xbdc77ae6	-0.09740238
245	0x3e02c388	0.12769902
246	0xbdaad666	-0.083416745
247	0x3c2f1f3f	0.010688602
248	0xbe849d36	-0.25901192
249	0x3d13108c	0.035904452
250	0x3dcd4fb2	0.10024966
251	0xbe420b00	-0.18949509
252	0x3dc28535	0.094980635
253	0xbe21e7b5	-0.15811045
254	0x3a187f4f	0.00058173103
255	0xbd99b57c	-0.075053185

mean.weight f4 [1, 256]
0	0xbf1879b0	-0.5956068
1	0x3f425ff3	0.75927657
2	0xc08c00b1	-4.3750844
3	0xbe5b07ee	-0.21389744
4	0x3f10ba5d	0.5653437
5	0xbf82b6be	-1.0212018
6	0x3b869abb	0.004107801
7	0x3efd4578	0.49467063
8	0x3ffd578d	1.9792343
9	0x3e4c0d78	0.19927013
10	0xbe42810d	-0.18994541
11	0xbfbd4266	-1.4785888
12	0x3b9e1d4c	0.00482527
13	0xbc8f9cbe	-0.017530795
14	0x3dfa318e	0.12216483
15	0xbf6756e3	-0.90366954
16	0xbbd12de9	-0.0063836467
17	0xbe8b7bc6	-0.2724287
18	0xbccb0909	-0.024784582
19	0x3c1f2b64	0.009714935
20	0xbfed2881	-1.8527986
21	0xbf383a7a	-0.7196423
22	0xbc0e393d	-0.008680639
23	0xbfa16541	-1.2609025
24	0x3b94e752	0.004544177
25	0x3cdc577f	0.02689719
26	0x3bbd8a9c	0.005784346
27	0xbc78e578	-0.015191428
28	0xbeff9753	-0.4992014
29	0x3d0fbd2d	0.03509252
30	0xbfcfd54c	-1.6236968
31	0xbf0b8b65	-0.54509574
32	0xbea009cf	-0.31257483
33	0x3ee9b4a5	0.45645633
34	0x3fa03bbf	1.2518233
35	0x3f0ba552	0.54549134
36	0x3e62357e	0.22090718
37	0x3c6e55aa	0.014546791
38	0xbc0b0373	-0.008484709
39	0xbffd201d	-1.9775425
40	0xbe80d85a	-0.25165063
41	0xbf70e46d	-0.9409855
42	0xbfb12bb8	-1.3841467
43	0x3f15557e	0.58333576
44	0xbc784b0b	-0.01515461
45	0xbaf24b8d	-0.0018485651
46	0x3cd82817	0.026386304
47	0xbea4879c	-0.32134712
48	0xc002b98a	-2.0425744
49	0xbfc7aab1	-1.5598966
50	0xbea68e83	-0.32530603
51	0xbfaaa790	-1.3332386
52	0x3fd97473	1.6988662
53	0xbe07d9f3	-0.13266735
54	0xbe1839f2	-0.14865854
55	0xbcd5c6c7	-0.026095761
56	0x3cac02f6	0.020997506
57	0x3ce2151e	0.02759796
58	0x3f35b9d7	0.70986694
59	0x3ea669db	0.32502636
60	0x4097746e	4.7329626
61	0x3cf96e93	0.030448234
62	0xbe9b3168	-0.3031113
63	0xc0322988	-2.7837849
64	0x3e3d5098	0.18487775
65	0x3f95a02f	1.1689509
66	0x3f4ebc33	0.8075592
67	0xbf016201	-0.5054017
68	0xbbbcd1de	-0.005762323
69	0x3ff84927	1.9397324
70	0x3fa980ec	1.3242469
71	0xba743c4c	-0.0009316846
72	0xc074c7d1	-3.8246958
73	0xbe8183e1	-0.25295928
74	0xbc283d37	-0.010268501
75	0x400105c7	2.0159776
76	0x3c7955fb	0.015218253
77	0x3ca8a4aa	0.02058633
78	0xbf5143f9	-0.81744343
79	0x3e9b3ee8	0.3032143
80	0xbf6a57cc	-0.9154022
81	0xbefd18c2	-0.4943295
82	0x3c213406	0.0098390635
83	0xbfc07ef6	-1.5038745
84	0x3ed007c4	0.40630925
85	0xbba08358	-0.00489847
86	0xbb45bc6b	-0.003017212
87	0xbb747692	-0.0037302119
88	0x3f15cd79	0.5851665
89	0x3f469e41	0.77585226
90	0x3f4a498b	0.7901847
91	0x3f43bfec	0.76464725
92	0x3f0fe2a2	0.5620519
93	0x3b354808	0.0027661342
94	0x3ee90454	0.45511115
95	0x3c8a325d	0.016869718
96	0x3cf6c014	0.030120887
97	0x3f54a0ce	0.8305787
98	0x3d1a7076	0.037704907
99	0xbdc19b73	-0.09453478
100	0xbf4a253c	-0.78963065
101	0xbf896150	-1.0732822
102	0xbea5d477	-0.3238866
103	0x3bab5742	0.005228908
104	0x3f4242ac	0.75882983
105	0xbf4e4403	-0.8057253
106	0xc00f2d7c	-2.2371511
107	0xbe80b8c7	-0.25140974
108	0x3c08f1af	0.008358403
109	0x3fe5608c	1.7920089
110	0x3cc959d4	0.024578966
111	0x3d51d83e	0.051231615
112	0x3dbf36ca	0.09336622
113	0x3f6f94e4	0.93586564
114	0xbf76d230	-0.9641447
115	0x4085f467	4.1860843
116	0x3ca677ce	0.0203208
117	0xbcc9762c	-0.024592482
118	0x3ea98788	0.33111215
119	0x3b9c503e	0.004770308
120	0x3fcaa9b4	1.5833039
121	0xbee661df	-0.44996545
122	0x3c328647	0.010896272
123	0x3cc3b021	0.023887696
124	0xc0368277	-2.851713
125	0x3e2e3243	0.17011361
126	0x3faf38cf	1.3689212
127	0xc059fb28	-3.4059544
128	0xbcc8fb00	-0.024533749
129	0x3c1b838c	0.009491812
130	0x3fabd994	1.3425775
131	0xc0b3a9b1	-5.6144643
132	0x3f077af6	0.52922
133	0x3f849b4c	1.0359893
134	0x3d31142e	0.043232135
135	0xbeaa8468	-0.33304143
136	0xbc8d24fb	-0.017229548
137	0x41020f15	8.128682
138	0x3f5f91b6	0.8733171
139	0x3c848c51	0.01618019
140	0xbea14deb	-0.3150476
141	0x3ef2c2be	0.47414201
142	0xbfa7d201	-1.3110963
143	0xbd3b922c	-0.045793697
144	0xb7066e14	-8.012652e-06
145	0xbef7bb3f	-0.48385045
146	0x3f178fda	0.59203875
147	0xbefeec59	-0.49789694
148	0x3d82b751	0.06382621
149	0xc0037858	-2.0542202
150	0xbed810f6	-0.4220044
151	0x3da0253f	0.07819604
152	0xc0201c9a	-2.5017457
153	0xbfc869af	-1.5657252
154	0x3f0d1822	0.5511495
155	0x3b1319d1	0.0022445808
156	0xbe8d6ebd	-0.2762355
157	0xbeec8b29	-0.4619992
158	0xbed5a231	-0.41725305
159	0xbf3e2139	-0.74269444
160	0xc0076cd8	-2.1160183
161	0x3f0a3c0c	0.53997874
162	0xbfd44a37	-1.6585149
163	0x3dd86c93	0.10567584
164	0x3f844df3	1.0336288
165	0x3fa5e77c	1.2961268
166	0x3b6422ea	0.003481085
167	0x3d335f31	0.043791953
168	0xbf1a2b2c	-0.60222125
169	0xbbd01f20	-0.0063513666
170	0x3fa08462	1.25404
171	0x3c2f24ef	0.010689958
172	0x40862ffa	4.1933565
173	0xbb8f0ef9	-0.0043657986
174	0xbd98efe4	-0.074676305
175	0xc0364d41	-2.8484652
176	0xbc839af4	-0.016065098
177	0xbd170541	-0.036870245
178	0x3f3ce9bb	0.73794144
179	0xbf9f01c6	-1.2422416
180	0xbeb17bbd	-0.34664717
181	0xbb9c55cf	-0.0047709714
182	0xc0c364d9	-6.1060605
183	0xbee116e3	-0.43962774
184	0x3fdd0b50	1.7269077
185	0x3ec0977a	0.37615567
186	0x3f4fa6f4	0.81114125
187	0xc0202451	-2.5022166
188	0xbd2783ad	-0.04089706
189	0xbe977471	-0.29581025
190	0xbea65c0c	-0.324921
191	0x40770d82	3.8601995
192	0x3c06b83b	0.008222635
193	0x4038946b	2.8840587
194	0x3cd277bb	0.025691858
195	0xbbb6d91c	-0.0055800807
196	0xbf80be4d	-1.0058075
197	0xc0145f18	-2.318304
198	0xbe043a3e	-0.12912843
199	0x3e86c7ac	0.26324213
200	0xbec7dcbc	-0.39035594
201	0x3db9de99	0.0907566
202	0xbca20055	-0.019775549
203	0x3fa258c9	1.2683345
204	0x3e96b7df	0.29437158
205	0xc01d3c93	-2.4568222
206	0xbeecfa99	-0.4628494
207	0x3bc1fa96	0.0059197647
208	0x3cb342ae	0.021882381
209	0xbf45cb0e	-0.7726296
210	0x3d2cdf56	0.042205177
211	0x3cff36de	0.031154092
212	0xbac68a8f	-0.0015147495
213	0xbf9e9536	-1.2389286
214	0x3e285724	0.16439492
215	0x3cc6506c	0.02420827
216	0x3f80126d	1.0005623
217	0x3f4d6aa6	0.8024086
218	0x3ecbae26	0.39781302
219	0x3fc9d9d8	1.5769606
220	0x3b336f12	0.0027379435
221	0x3e44eb89	0.19230475
222	0x3b31f599	0.0027154444
223	0xbea69b00	-0.3254013
224	0x3f0c1980	0.5472641
225	0xbf5052c6	-0.813763
226	0x3cc95d71	0.02458069
227	0x3d29bbb3	0.04143877
228	0x4020b13f	2.5108182
229	0xbc4485f0	-0.011994824
230	0x4004633a	2.0685563
231	0xbe0deb8c	-0.13859385
232	0xbe60460b	-0.2190172
233	0xbc602192	-0.013679879
234	0x3e976644	0.2957021
235	0x3d1e77fb	0.03868864
236	0x3f3fbb52	0.74895203
237	0x3c8c1fab	0.017104944
238	0xbce253ec	-0.027627908
239	0x3e43ac18	0.19108617
240	0xc076d264	-3.8565912
241	0x3efa55d2	0.488936
242	0x3f0012a0	0.5002842
243	0x3d28046a	0.041019835
244	0x4012415c	2.2852392
245	0xbd0ca7c6	-0.03433969
246	0xbf050a68	-0.51969004
247	0xbab72f29	-0.0013975847
248	0x3e6d77e7	0.2319027
249	0x3f64d01e	0.8938006
250	0xbe8c6bb4	-0.2742592
251	0xbef8ea52	-0.48616272
252	0x4012a29d	2.2911751
253	0xbdff987a	-0.124802545
254	0x3e1b868e	0.15188047
255	0x3d8cffb8	0.06884712

log_std.weight f4 [1, 256]
0	0xbd7a276f	-0.061072763
1	0xbcc82611	-0.024432214
2	0x3e7b3f01	0.24535753
3	0xbd2161a7	-0.03939977
4	0xbea355ec	-0.3190149
5	0xba776be2	-0.0009438378
6	0x3cec1a9a	0.028821278
7	0xbda854ac	-0.08219275
8	0x3e872069	0.26391914
9	0x3bc60a90	0.0060437396
10	0xbf30f5ef	-0.69125265
11	0x3e386058	0.18005502
12	0xbc96b545	-0.018396983
13	0x3c8ce4d6	0.017198961
14	0x3ead9cb7	0.33908626
15	0xbe923514	-0.2855612
16	0x3a038c26	0.0005018137
17	0xbca72d2a	-0.020407278
18	0xbc4fd2f9	-0.012684577
19	0x3c0cad26	0.008586204
20	0xbe0352c5	-0.12824543
21	0x3e25afce	0.16180345
22	0x3d3ecec8	0.04658392
23	0xbc70807f	-0.014679073
24	0x3cc41c13	0.023939168
25	0x3cd3f524	0.025873728
26	0x3b5962a6	0.0033170371
27	0xbd53f287	-0.051744964
28	0xbe893e4f	-0.2680535
29	0xbc463fb7	-0.012100152
30	0x3e02506c	0.12725991
31	0xbc2f7a19	-0.010710263
32	0xbbcef4af	-0.0063157897
33	0xbdbc8f2e	-0.09206997
34	0x3ca1ed83	0.019766575
35	0xbc23a076	-0.009986987
36	0xbb5c8f0e	-0.0033654603
37	0x3cabdc8e	0.020979192
38	0x3c2afd7c	0.010436412
39	0x3d6c5615	0.05769928
40	0xbe6ec705	-0.23318107
41	0xbd6d1e6e	-0.057890348
42	0x3d9c7742	0.07639934
43	0xbcdb63dd	-0.026781017
44	0x3c747604	0.014920715
45	0xbd44bb17	-0.048029985
46	0xbd63d9a1	-0.05562747
47	0xbd2adab2	-0.04171247
48	0xbda1c3d7	-0.078986816
49	0xbde4b219	-0.11166782
50	0x3e04dee0	0.12975645
51	0xbb9b6211	-0.004741915
52	0xbe595e54	-0.2122739
53	0xbf49bb8c	-0.788018
54	0x3d3778b9	0.044792864
55	0xbe89b23f	-0.26893803
56	0xbc0e16d3	-0.008672434
57	0x3c692b23	0.014231476
58	0x3d493062	0.049118407
59	0xbd6e9b20	-0.058253407
60	0xbecd68bf	-0.40118977
61	0x3d26bbdf	0.04070651
62	0x3d894f74	0.067046076
63	0xbddb0f0c	-0.10696229
64	0xbdf111ad	-0.117709495
65	0x3af89b4f	0.0018967184
66	0x3d3f4044	0.046692148
67	0x3ddc80d1	0.10766757
68	0x3c0620f3	0.008186567
69	0x3f90a549	1.1300441
70	0xbc9d8c49	-0.019231932
71	0x3b9052fc	0.0044044238
72	0xbe840144	-0.25782216
73	0xbf2a9843	-0.6663858
74	0x3b8bfbd7	0.004271965
75	0x3e11bf09	0.1423303
76	0x3d36fcc0	0.044674635
77	0x3a115c2d	0.00055450463
78	0x3f16ada2	0.5885869
79	0x3d973de4	0.073848516
80	0x3d11b860	0.035576224
81	0xbdb0ad87	-0.08626848
82	0xbbe2bf04	-0.0069197435
83	0x3dba921c	0.091098994
84	0xbe6dadde	-0.23210856
85	0x3cc3d85d	0.023906881
86	0xbf86a97a	-1.052047
87	0x3c9bb5d4	0.0190076
88	0xbf14ac36	-0.58075273
89	0x3d8c8b8c	0.06862554
90	0xbdb79baa	-0.089652374
91	0x3e6de037	0.23230062
92	0xbea468b7	-0.3211114
93	0xbc46d184	-0.012134913
94	0xbc594bd6	-0.01326271
95	0xbc5accdf	-0.013354509
96	0xb8dba007	-0.00010472541
97	0xbca6b12f	-0.02034816
98	0xbf34c5e1	-0.7061444
99	0xbcded48b	-0.027200958
100	0x3f58ff7a	0.84764826
101	0x3ba7fe56	0.0051267548
102	0xbf74ee07	-0.956757
103	0xbbd37c1f	-0.0064540054
104	0x3e1d4c19	0.1536106
105	0xbe7ff7b4	-0.24996835
106	0x3dddff1e	0.10839675
107	0xbf1506e5	-0.58213645
108	0xbb5e28ad	-0.0033898756
109	0xbda64a9b	-0.081196986
110	0xbfd728f9	-1.6809379
111	0xbf3ccffc	-0.7375486
112	0xbeb51e0f	-0.35374495
113	0x3b8bd1b1	0.0042669405
114	0xbdf8b286	-0.12143426
115	0xbd0dba5a	-0.034601547
116	0x3cce6d03	0.025198465
117	0x3d1a175b	0.03761993
118	0xbf387946	-0.7206005
119	0x3d38c0fb	0.045105916
120	0xbef171a0	-0.47157001
121	0xbcf79a7d	-0.030225033
122	0x3c8f9b78	0.017530188
123	0x3a9deaf8	0.0012048176
124	0xbe7e81ce	-0.24854204
125	0xbf49b896	-0.7879728
126	0x3e2408ef	0.16019033
127	0xbde6f266	-0.112767026
128	0xbfbddcc8	-1.4833002
129	0x3cbe8bfb	0.023260107
130	0x3d3fba5d	0.04680859
131	0xbe93ddbf	-0.28880116
132	0xbeb2d907	-0.34931204
133	0x3b52dc56	0.0032174787
134	0xbd468dc5	-0.048475046
135	0x3d6e0618	0.05811128
136	0x3ca4a062	0.020096008
137	0xbd7f0de2	-0.0622691
138	0x3d0eceee	0.034865312
139	0xbaf6a806	-0.0018818385
140	0xba3887aa	-0.00070392585
141	0xbbd48829	-0.006485958
142	0xbb83b726	-0.0040196357
143	0xbc8be6ca	-0.017077822
144	0xba1477ba	-0.00056635926
145	0xbdac136b	-0.08402141
146	0xbe4a34b1	-0.19746663
147	0x3e5c08d6	0.21487746
148	0xbf050519	-0.51960903
149	0xbd9d9153	-0.07693734
150	0x3da4eaf4	0.08052626
151	0xbf4e0d88	-0.804894
152	0xbcf5b62f	-0.029994098
153	0x3e17b5cb	0.14815442
154	0xbe6edddd	-0.23326822
155	0x3c6abad0	0.014326766
156	0xbfff5fec	-1.9951148
157	0xbc1cb461	-0.00956449
158	0xbe66127c	-0.22467989
159	0x3e2321e0	0.15930891
160	0xbe7520e7	-0.23938332
161	0xbe8f648a	-0.28006393
162	0xbdef311f	-0.11679291
163	0xbe7aa4f1	-0.24476983
164	0x3d1dde00	0.038541794
165	0x3e8cfcda	0.2753666
166	0xbc788a9a	-0.015169764
167	0x3ce5c273	0.028046822
168	0xbe5557f9	-0.2083434
169	0xba69baae	-0.0008916062
170	0xbe41bf5c	-0.18920654
171	0x3d52979f	0.05141413
172	0xbf0c4c9f	-0.54804415
173	0x3d02e09f	0.031952497
174	0xbc73e9d7	-0.014887295
175	0x3eefa6c6	0.46806926
176	0x3c143d43	0.009047809
177	0xbbb9daa9	-0.0056718183
178	0x3db63a8e	0.08897887
179	0xbe3847df	-0.17996167
180	0xbdda8990	-0.10670769
181	0x3b97eab5	0.0046361336
182	0xbe6ccf5c	-0.23125976
183	0xbf41e779	-0.75743824
184	0xbdc16e7e	-0.09444903
185	0xbe001310	-0.12507272
186	0xbdef0e50	-0.11672652
187	0xbda402c9	-0.08008344
188	0x3bfb1202	0.007662059
189	0xbcd423b5	-0.025895933
190	0xbde1ca9e	-0.11024974
191	0x3d6583a0	0.05603373
192	0xbb1ad496	-0.0023625246
193	0xbd3e68c6	-0.04648664
194	0xba4c2624	-0.0007787666
195	0xbbcb4bfa	-0.0062041255
196	0xbd4b58a3	-0.049645077
197	0xbde2dec8	-0.110776484
198	0xbd7b7048	-0.061386377
199	0xbdb4c33f	-0.08826303
200	0x3bfd5c78	0.0077319704
201	0x3d90323a	0.0704083
202	0xbe88c1d0	-0.26710367
203	0x3db3aa17	0.087726764
204	0x3f4b7bc9	0.79485756
205	0x3e177a7c	0.14792818
206	0xbf124495	-0.571359
207	0x3caa897a	0.020817507
208	0xbc946c57	-0.018118067
209	0xbe695281	-0.22785379
210	0xbd465dd1	-0.048429314
211	0x3d0cd6fd	0.034384716
212	0x3ccda216	0.025101703
213	0x3f3097af	0.6898145
214	0x3ed3c2b3	0.4135948
215	0x3cd9a7f0	0.026569337
216	0x3ec80f7f	0.39074323
217	0x3ef199ac	0.47187555
218	0xbf3bf386	-0.7341846
219	0x3e944c14	0.28964293
220	0x3d07b819	0.033134554
221	0xbca9f154	-0.020744957
222	0x3ccddd3a	0.025129903
223	0xbd8e0c84	-0.06935981
224	0x3e87d224	0.26527512
225	0x3e4718b3	0.19443016
226	0x3be1e4bd	0.006893723
227	0xbd867bb1	-0.06566561
228	0x3edad469	0.4274018
229	0xbc936627	-0.017993046
230	0x3d06dcfc	0.03292559
231	0xbf1bc18b	-0.608422
232	0xbf6cb38a	-0.92461455
233	0xbe6ea21b	-0.23304026
234	0xbdaea74c	-0.08528003
235	0xbcf8972c	-0.030345522
236	0xbd0768f0	-0.03305906
237	0x3d331da1	0.04372943
238	0xbed960ba	-0.4245661
239	0x3ea351bd	0.318983
240	0x3ea629f2	0.32453877
241	0x3d49ad36	0.049237452
242	0xbf4204ce	-0.7578858
243	0xbd0bc42c	-0.03412263
244	0xbdef6944	-0.1169
245	0xbf80ddeb	-1.0067724
246	0x3e811e8a	0.25218612
247	0xbda4017b	-0.08008095
248	0x3f8457c4	1.0339284
249	0x3d3c0ae5	0.045908827
250	0xbc214d89	-0.009845146
251	0x3b8d4071	0.0043106605
252	0xbd29bb8e	-0.04143863
253	0xbf01dbd8	-0.5072608
254	0xbd8834f8	-0.06650728
255	0xbd71bda4	-0.059018746
