sacpen6.pth (torch, 276052 bytes, 6 tensors)

network.0.weight f4 [256, 6]
0	0x3f07befa	0.5302578
1	0xbf04e516	-0.5191206
2	0xbe04274e	-0.12905619
3	0x3e6d6137	0.23181616
4	0x3e135540	0.14387989
5	0x3f185138	0.5949893
6	0x3e15097b	0.14554398
7	0x3d39b378	0.04533717
8	0xbfe18c72	-1.7620986
9	0xbe4f8563	-0.20265727
10	0x3eb50c02	0.35360724
11	0xbf078bb8	-0.5294757
12	0x3e031292	0.12800053
13	0x3ef68376	0.48147172
14	0xbf64a133	-0.8930847
15	0xbe7a638c	-0.24452037
16	0x3edac457	0.4272792
17	0xbf404f1d	-0.7512072
18	0x3da0006c	0.078125805
19	0x3d6edbd5	0.058315117
20	0xbfa0fbf0	-1.2576885
21	0x3e4c7143	0.19965081
22	0x3d737cc4	0.059445158
23	0xbf9518de	-1.1648214
24	0x3f03b7c9	0.5145231
25	0x3f3eba3c	0.7450292
26	0x3f07670d	0.5289162
27	0xbef295fe	-0.4738006
28	0xbeab9e46	-0.3351919
29	0xbf20b03f	-0.6276893
30	0xbe4a2a1f	-0.1974263
31	0x3ee0f256	0.43934888
32	0xbf4dcd0e	-0.80391014
33	0xbeb88c8d	-0.36044732
34	0x3f06108a	0.52368987
35	0x3e66932a	0.22517076
36	0x3c9e133e	0.019296285
37	0xbf321022	-0.69555867
38	0xbf3ada48	-0.7298932
39	0x3ee1f3e6	0.44131392
40	0x3f0ab2dd	0.54179174
41	0xbf8ddb81	-1.1082612
42	0xbecd2833	-0.40069732
43	0x3ef43f4a	0.47704536
44	0xbfab7178	-1.3394003
45	0xbe9fa287	-0.31178686
46	0xbe90fa7b	-0.283161
47	0xbf0a934a	-0.54130995
48	0x3de59296	0.112096
49	0xbf7710b8	-0.96509886
50	0xbf25aea5	-0.6471961
51	0xbf53fa16	-0.82803476
52	0x3e4eebb7	0.20207106
53	0xbe30ab07	-0.17252742
54	0xbedb3f28	-0.42821622
55	0xbe13e55a	-0.1444296
56	0x3dde97d8	0.10868806
57	0x3da10ae6	0.07863407
58	0xbf388351	-0.7207537
59	0x3fc8f557	1.5699872
60	0x3df9c88c	0.121964544
61	0xb9b7e830	-0.00035077473
62	0xbec58334	-0.38576663
63	0x3f50c58e	0.81551445
64	0x3dd13e97	0.10217016
65	0xbf891764	-1.0710263
66	0x3f0dddcd	0.55416566
67	0x3f2624aa	0.64899695
68	0x3ef2e04a	0.47436744
69	0xbd9e8671	-0.077404864
70	0xbf1cbbfe	-0.61224353
71	0xbdab8bad	-0.083762504
72	0xbdbfa55a	-0.0935771
73	0x3e687898	0.22702253
74	0xbb1b0836	-0.0023656017
75	0xbdaa2a93	-0.08308902
76	0x3ea503c8	0.32229447
77	0x3fa91849	1.3210536
78	0x3e87de96	0.26537007
79	0xbdfc2904	-0.123125106
80	0xbe9c395c	-0.30512512
81	0x3f2beb32	0.67155755
82	0x3edc670c	0.4304737
83	0xbf1065f4	-0.5640557
84	0x3f666be2	0.90008366
85	0x3e7f7a99	0.24949111
86	0xbe42027e	-0.18946263
87	0xbe98e004	-0.2985841
88	0xbe94b026	-0.2904064
89	0x3ed68505	0.4189836
90	0x3e23af7c	0.1598491
91	0x3d568072	0.05236859
92	0xbf7ba92e	-0.9830502
93	0x3efb5c84	0.4909402
94	0x3d75f109	0.060044322
95	0xbf7f587b	-0.99744385
96	0xbf144013	-0.5791027
97	0x3ebfef6e	0.37487358
98	0xbc95f04c	-0.018303059
99	0xbf049ef2	-0.5180503
100	0xbed0f0eb	-0.40808806
101	0xbeb06d61	-0.3445845
102	0xbf4d7930	-0.8026304
103	0xbe4ed82c	-0.2019965
104	0x3f49b3c7	0.78789943
105	0x3e30b67f	0.17257117
106	0x3f0ac56c	0.5420749
107	0x3e97a4d4	0.2961794
108	0xbee19cb3	-0.44064865
109	0x3e7d5229	0.24738373
110	0x3d65aaa9	0.056070957
111	0xbd835aaf	-0.06413781
112	0xbeb3dd3a	-0.3512972
113	0x3fa8842b	1.3165334
114	0xbeca5308	-0.39516473
115	0xbe8eb3b2	-0.27871472
116	0xbedb97bc	-0.42889202
117	0xbe7c3394	-0.2462905
118	0xbf089f72	-0.53368294
119	0xbf47916a	-0.7795626
120	0xbf1ddbf1	-0.6166373
121	0x3e14e604	0.14540869
122	0x3f1439eb	0.57900876
123	0xbe53aba6	-0.20670947
124	0x3eff44f2	0.4985729
125	0x3edcfb8f	0.43160674
126	0xbdc77347	-0.09738784
127	0x3ea28fb4	0.31750262
128	0xbfa671d5	-1.3003489
129	0x3d111599	0.035420988
130	0xbf1f404c	-0.62207484
131	0x3ef26ea7	0.47350046
132	0xbe720203	-0.2363358
133	0xbdc1393f	-0.09434747
134	0x3f033d9c	0.51265883
135	0xbf45fdb9	-0.77340275
136	0xbe9f489e	-0.3111009
137	0x3ed0b9a2	0.40766627
138	0xbe5369ef	-0.20645879
139	0xbf29c16c	-0.66310763
140	0xbd98c6fd	-0.07459829
141	0xbf82fda3	-1.0233654
142	0xbf48c51b	-0.7842576
143	0x3d2ca725	0.04215159
144	0xbf472f5e	-0.7780665
145	0x3e010603	0.1259995
146	0xbee1584f	-0.44012687
147	0xbe26a6fe	-0.1627464
148	0xbf37018e	-0.7148675
149	0xbedac46e	-0.4272799
150	0xbeaa68c7	-0.33283064
151	0x3d9c8d0a	0.076440886
152	0x3f75d360	0.9602566
153	0xbe8c679f	-0.27422807
154	0xbee63c36	-0.44967812
155	0xbe463c03	-0.1935883
156	0xbee85349	-0.45376042
157	0xbf5b18eb	-0.85584897
158	0xbef87a08	-0.48530602
159	0xbf0105f9	-0.5039974
160	0x3ed11c2b	0.40841803
161	0xbe869660	-0.26286602
162	0x3d47e3e5	0.04880132
163	0x3ebb2e60	0.3655882
164	0x407a3730	3.9096184
165	0x3e9aad1e	0.30210203
166	0xbf6a902e	-0.9162625
167	0x4086344c	4.193884
168	0xbecfe80a	-0.4060672
169	0x3ccfcd6c	0.025366507
170	0x3f6ff487	0.93732494
171	0x3e03d1f9	0.12873067
172	0xbdf4fa85	-0.11961845
173	0xbee3c53e	-0.4448642
174	0x3e4562fb	0.1927604
175	0xbec05114	-0.37561858
176	0x3f9cf31a	1.2261689
177	0x3e51d16a	0.20490041
178	0x3e1582a5	0.14600618
179	0x3eeece67	0.46641847
180	0x3eaf2908	0.34210992
181	0x3ea58f98	0.32336116
182	0xbedf9bfe	-0.436737
183	0xbf081eec	-0.53172183
184	0xbf022978	-0.50844526
185	0x3e82092a	0.25397617
186	0xbdcaa92b	-0.098955475
187	0x3eeabdfb	0.4584807
188	0x3f82ab12	1.0208457
189	0x3a6c1826	0.0009006284
190	0xbf2f91e8	-0.6858201
191	0x3fc45220	1.5337563
192	0x3f0d3c55	0.55170184
193	0x3e07326d	0.1320283
194	0xbf125589	-0.57161766
195	0x3e722ca2	0.23649839
196	0x3ef46638	0.47734237
197	0xbf8cab0b	-1.0989698
198	0x3f15e4fd	0.58552533
199	0x3dcc08ff	0.09962653
200	0x3e82205e	0.2541532
201	0xbe55f7b6	-0.20895275
202	0xbf4e7a9f	-0.80655855
203	0x3eefa495	0.46805254
204	0x3bad1bd4	0.0052828584
205	0xbea609eb	-0.32429442
206	0xbf91532b	-1.1353506
207	0xbee9efde	-0.45690817
208	0x3e858ac7	0.2608244
209	0xbe8a678c	-0.27032125
210	0x3e9c7a0a	0.30561858
211	0x3ebfc7d9	0.3745716
212	0x3f03b072	0.5144111
213	0x3eafb13f	0.34314916
214	0xbf27227f	-0.6528701
215	0xbdf8ca3c	-0.12147948
216	0xbe782e7a	-0.2423648
217	0x3c91a768	0.01778002
218	0x3f11198d	0.5667961
219	0x3ee8f63e	0.45500368
220	0xbf70238a	-0.9380423
221	0x3f9e756d	1.2379586
222	0xbdd2b870	-0.10289085
223	0x3eacb26f	0.33729884
224	0x40351984	2.8296824
225	0x3e3245aa	0.17409387
226	0xbf9703fb	-1.179809
227	0x4007ca80	2.1217346
228	0x3e396920	0.18106508
229	0xbe3637dc	-0.17794746
230	0xbf35eb79	-0.7106243
231	0x3f45d8e7	0.7728409
232	0xbdba82f8	-0.091070116
233	0xbf1a79fc	-0.60342383
234	0x3eb2edf3	0.34947166
235	0xbf0df960	-0.5545864
236	0xbf2ac950	-0.6671343
237	0x3f14ec2b	0.58172864
238	0xbf3cfc1d	-0.73822194
239	0x3e67e9d6	0.22647795
240	0x3d282b89	0.041057143
241	0xbf75197e	-0.95742023
242	0xbe1423c3	-0.14466767
243	0x3c03fac4	0.008055393
244	0x3f24e403	0.6441042
245	0x3cbfbe73	0.023406243
246	0xbe9211ec	-0.28529298
247	0xbea0bf61	-0.3139601
248	0x3f23e639	0.64023167
249	0x3f231b59	0.63713604
250	0xbc9d0d88	-0.019171491
251	0xbf1a47a6	-0.60265577
252	0x3ece14f1	0.40250352
253	0x3eab38d1	0.33441785
254	0xbf20d45c	-0.62824035
255	0xbf385c7e	-0.7201613

network.0.bias f4 [256]
0	0x3ead0c58	0.3379848
1	0xbdb1cbd4	-0.08681455
2	0xbe077140	-0.13226795
3	0xbf102898	-0.5631194
4	0x3ce8a14a	0.028397221
5	0xbd8ed4bd	-0.0697417
6	0xbe5d335a	-0.2160162
7	0xbea73aaa	-0.32661945
8	0xbe110e52	-0.14165619
9	0xbea5dae4	-0.32393563
10	0xbf0e7b6b	-0.5565707
11	0x3d729c0c	0.05923085
12	0x3e953ab0	0.29146338
13	0xbf296591	-0.66170603
14	0xbeb3bac2	-0.35103422
15	0xbf4928b8	-0.78577757
16	0x3ea908c9	0.33014515
17	0xbea87adf	-0.32906243
18	0xbebd980a	-0.3703006
19	0xbeca0f61	-0.39464858
20	0x3e912993	0.2835203
21	0x3df7954e	0.120890245
22	0x3ed5ebdd	0.41781512
23	0xbf840328	-1.0313463
24	0xbd675e5b	-0.05648647
25	0xbcb429b5	-0.021992544
26	0x3ee6c76f	0.4507403
27	0x3ece3de8	0.40281606
28	0xbef2682c	-0.47345102
29	0xbda3e880	-0.0800333
30	0xbed049be	-0.4068126
31	0x3dc6fd99	0.09716339
32	0xbf0beb5f	-0.5465602
33	0xbf053f1a	-0.5204941
34	0x3ed1ebcc	0.4100021
35	0x3bf80a1a	0.0075695636
36	0xbd9a936a	-0.07547648
37	0xbe32e183	-0.17468838
38	0xbf4cc497	-0.7998747
39	0xbdb80a37	-0.08986323
40	0xbefc85db	-0.49320874
41	0xbe943df9	-0.2895353
42	0xbe93bf6d	-0.28856984
43	0xbda60a22	-0.081074014
44	0xbe107e5d	-0.14110704
45	0xbeffcd8d	-0.4996151
46	0x3d2ae4ea	0.041722216
47	0x3ddc4aa3	0.10756423
48	0xbf237893	-0.63855857
49	0x3e579aea	0.21055189
50	0xbd7bb927	-0.061455872
51	0x3d9c854f	0.07642614
52	0x3dcf2291	0.10114015
53	0xbf37a96f	-0.7174291
54	0x3f0f7c54	0.56049085
55	0xbfb4e1ed	-1.4131447
56	0x3e89ebe1	0.26937774
57	0xbe8bd415	-0.27310243
58	0xbf0950ea	-0.5363909
59	0xbd39e961	-0.045388583
60	0xbf273423	-0.6531393
61	0x3dc76d40	0.09737635
62	0x3e3619fd	0.17783351
63	0xbf617adf	-0.8807811
64	0xbf201a1f	-0.6253986
65	0xbe95a087	-0.29224035
66	0xbf2bf903	-0.67176837
67	0xbed922c4	-0.42409337
68	0xbf525e84	-0.8217547
69	0xbec66cc9	-0.3875487
70	0xbeeabf7c	-0.45849216
71	0xbe6dd3ca	-0.23225322
72	0x3eb255b2	0.34831005
73	0xbc0323ff	-0.008004188
74	0xbf0ef39f	-0.55840486
75	0xbdc37899	-0.095444866
76	0xbee36a85	-0.44417205
77	0x3d2d9668	0.042379767
78	0xbf0022a8	-0.5005288
79	0xbdc8619c	-0.097842425
80	0xbdc841a3	-0.09778144
81	0xbe2dae99	-0.16961135
82	0xbd0094a4	-0.031391755
83	0xbc57edd6	-0.013179263
84	0x3eaf8e65	0.34288326
85	0xbee37b40	-0.4442997
86	0x3e632a76	0.22184166
87	0xbed14f8b	-0.40881
88	0xbf40afd4	-0.7526829
89	0x3cb8f15e	0.02257603
90	0xbf53a0f7	-0.8266749
91	0xbee3085c	-0.44342315
92	0x3e99515b	0.29944882
93	0xbc05450a	-0.008134136
94	0x3e1dd54d	0.15413399
95	0xbf4ff6a4	-0.8123572
96	0xbf17a572	-0.59236825
97	0xbeb8b760	-0.36077404
98	0x3e4d3a84	0.20041853
99	0xbe0f7b55	-0.14011891
100	0xbdd180f6	-0.102296755
101	0xbca535b9	-0.020167219
102	0x3db0bdf6	0.08629982
103	0xbeef1e24	-0.46702683
104	0x3e821675	0.25407758
105	0xbf9067f0	-1.1281719
106	0xbec9cd45	-0.3941442
107	0x3d998431	0.07495917
108	0xbe934ad1	-0.28768018
109	0xbeb3c552	-0.3511148
110	0xbec59360	-0.38589
111	0xbecc84f9	-0.399452
112	0xbd40ccfb	-0.047070485
113	0xbe4c6ad4	-0.19962627
114	0x3dae3ffe	0.08508299
115	0xbef1e1c3	-0.47242555
116	0x3ed82ffa	0.42224103
117	0xbf13fd17	-0.5780806
118	0x3ea9ca48	0.3316214
119	0xbe17eab0	-0.1483562
120	0xbd59de64	-0.053190604
121	0xbb14e8ee	-0.0022721845
122	0xbef5754e	-0.4794106
123	0x3db616a0	0.08891034
124	0x3ef25674	0.47331583
125	0xbebb33ad	-0.36562863
126	0xbe9d9e35	-0.30784765
127	0x3e69f3b3	0.2284687
128	0xbdcab8ff	-0.098985665
129	0xbf13ea50	-0.5777941
130	0xbeb935e5	-0.3617393
131	0x3e9ffa00	0.31245422
132	0x3cb5168a	0.022105474
133	0xbeadf5e5	-0.33976665
134	0xbde9b26f	-0.11410987
135	0xbee692fc	-0.45034015
136	0xbe26929a	-0.16266862
137	0x3e0680b7	0.13135038
138	0xbde498ca	-0.11161955
139	0xbda0ad7b	-0.07845589
140	0x3e1bb724	0.15206581
141	0xbe1232de	-0.14277217
142	0xbe7892a3	-0.24274687
143	0xbe3e62dd	-0.18592401
144	0xbdd94806	-0.106094405
145	0x3e8fb53b	0.28067955
146	0xbe4ee428	-0.20204222
147	0xbd4f0c70	-0.05054897
148	0x3dc17af9	0.09447283
149	0x3f0cd53b	0.55012864
150	0xbe9e0155	-0.3086039
151	0xbf03d2e4	-0.5149367
152	0xbf20d5c1	-0.6282616
153	0xbea9ead8	-0.33186984
154	0x3dbef711	0.09324468
155	0x3df4dd5b	0.11956283
156	0xbe50472e	-0.20339653
157	0x3e19921e	0.14997146
158	0x3ea53c2e	0.32272476
159	0xbefe57c2	-0.4967633
160	0xbee8f305	-0.4549791
161	0xbf0e6c74	-0.55634236
162	0xbdc4a100	-0.09601021
163	0x3ed7c0a8	0.42139173
164	0x3cdb0191	0.026734145
165	0x3da6c725	0.081434526
166	0x3eece4ed	0.46268407
167	0xbe55979e	-0.20858619
168	0x3ddb00dc	0.10693523
169	0xbdb4e940	-0.088335514
170	0xbd5ac2d0	-0.053408444
171	0x3ebcab5c	0.36849487
172	0x3dd293e1	0.10282112
173	0xbbbc6fa5	-0.0057506138
174	0xbf61c0a7	-0.8818459
175	0xbeb5e093	-0.355229
176	0xbeddd921	-0.4332972
177	0x3e81638b	0.25271258
178	0xbf49abc1	-0.787777
179	0xbebb2d2f	-0.3655791
180	0xbec49b03	-0.38399515
181	0xbd94fac1	-0.0727439
182	0xbed22460	-0.41043377
183	0xbdc93503	-0.09824564
184	0xbeadae2e	-0.3392195
185	0x3ecae207	0.3962557
186	0x3d02060f	0.03174406
187	0x3e30cae2	0.17264894
188	0xbe89c5b9	-0.26908663
189	0xbe68b120	-0.22723818
190	0x3e7f7ac3	0.24949174
191	0x3ea8129b	0.32826695
192	0x3e24a049	0.16076769
193	0x3d2cc8eb	0.042183798
194	0xbda2214a	-0.07916506
195	0xbed50bb4	-0.4161049
196	0xbef12e91	-0.4710584
197	0xbe61c2cd	-0.22046967
198	0xbe826022	-0.2546397
199	0xbe8958ea	-0.2682565
200	0x3f00a61e	0.50253475
201	0xbf325c58	-0.69672155
202	0xbeb4cda0	-0.3531313
203	0x3c8b4753	0.017001783
204	0xbdfa500e	-0.122223005
205	0x3e396c78	0.18107784
206	0x3d4b4675	0.04962774
207	0xbe13b380	-0.14423943
208	0xbe481c87	-0.19542132
209	0xbb3830d2	-0.002810527
210	0xbf0f638e	-0.56011283
211	0x3d84c7b0	0.064834
212	0xbf3ea881	-0.74475867
213	0xbdc371b0	-0.095431685
214	0x3f3c93b2	0.73662865
215	0xbe1a5844	-0.15072733
216	0x3e3e48d1	0.18582465
217	0x3e127fdc	0.14306587
218	0xbeafe9ed	-0.3435816
219	0xbea3b3be	-0.3197307
220	0xbe067992	-0.13132313
221	0x3e98cbde	0.29843038
222	0xbded0a0b	-0.11574181
223	0xbf5e15b5	-0.8675187
224	0xbe5241e3	-0.20532946
225	0x3e7152c9	0.23566736
226	0xbe54f70e	-0.20797369
227	0x3db00a52	0.085957184
228	0xbe4ac264	-0.19800717
229	0x3e95794d	0.29194108
230	0x3da0e34b	0.07855853
231	0x3dbec3b1	0.09314669
232	0x3e323ec6	0.17406759
233	0x3e05b16c	0.13055962
234	0xbeb52f04	-0.35387433
235	0x3e37873f	0.17922686
236	0xbe5554c3	-0.20833115
237	0xbedb7331	-0.42861322
238	0xbec72427	-0.3889477
239	0xbdd1757e	-0.10227488
240	0xbe0bc4a0	-0.13649225
241	0x3e62bed1	0.22143103
242	0xbf02eb26	-0.5114006
243	0xbf436288	-0.7632222
244	0x3f0a9f03	0.5414888
245	0x3e470943	0.19437127
246	0x3c7cc34a	0.01542742
247	0xbd593698	-0.05303058
248	0xbec674d3	-0.38761005
249	0xbeb28cd1	-0.3487306
250	0xbef43dbb	-0.47703347
251	0x3dcde386	0.10053162
252	0x3d53f84c	0.051750466
253	0xbef5a046	-0.4797384
254	0xbeb50c09	-0.35360745
255	0xbeb88570	-0.36039305

network.2.weight f4 [256, 256]
0	0x3dd23f32	0.1026596
1	0x3cfd9a7f	0.030957459
2	0xbe1cce02	-0.1531296
3	0x3e3d8b16	0.18510088
4	0x3dd48ba3	0.10378196
5	0x3e63bdf2	0.22240427
6	0x3e239413	0.15974455
7	0xbdeffd7d	-0.11718271
8	0x3dee2f63	0.11630132
9	0xbd889a06	-0.06670003
10	0x3eb02633	0.34404144
11	0xbe11b62d	-0.14229651
12	0xbcf87ddd	-0.030333454
13	0x3e226598	0.15859067
14	0xbd251821	-0.040306214
15	0x3e4bde84	0.19909102
16	0x3ded5ba4	0.11589745
17	0xbc39674e	-0.011316134
18	0x3e5bef00	0.2147789
19	0xbaba6b49	-0.0014222647
20	0x3e71ec38	0.23625267
21	0x3d015be3	0.03158177
22	0x3da838e7	0.08213978
23	0xbdab9bbe	-0.08379315
24	0x3d5a56a4	0.053305283
25	0xbdd56ba9	-0.10420925
26	0xbc073ecd	-0.008254719
27	0x3d19a4f3	0.037510823
28	0x3e25dc90	0.16197419
29	0xbdc087a4	-0.094008714
30	0x3f4b4070	0.793952
31	0x3dda9e0b	0.106746756
32	0x3cb5eb0c	0.022206806
33	0x3d440ea2	0.047865517
34	0xbd83188e	-0.06401168
35	0x3db4b725	0.088239945
36	0xbdb87016	-0.09005754
37	0x3dd0a433	0.101875685
38	0x3c078a50	0.008272722
39	0x3c3dc6dd	0.011583057
40	0xbef19ffd	-0.47192374
41	0xbe5e6476	-0.2171801
42	0x3e698f2b	0.2280852
43	0x3e0fdaaa	0.14048257
44	0x3e03a2c2	0.12855056
45	0xbdd140a9	-0.10217411
46	0xbe6244d3	-0.22096567
47	0x3d7b8d78	0.061414212
48	0x3b8cfb19	0.004302394
49	0x3e34c57e	0.17653462
50	0x3d4f13e5	0.050556082
51	0xbc934db7	-0.017981393
52	0x3d94eee0	0.07272124
53	0xbe1b8cd4	-0.1519044
54	0x3da2ad23	0.079431795
55	0xbf468303	-0.7754366
56	0xbbf3d357	-0.007440965
57	0x3ec37f76	0.38183182
58	0x3d442da7	0.0478951
59	0xbe5e9daa	-0.21739832
60	0x3ef20259	0.47267416
61	0x3e11a4bb	0.14222996
62	0x3e18466b	0.14870612
63	0xbf4654f0	-0.77473354
64	0x3e26fdee	0.16307804
65	0x3e4ea8b6	0.20181546
66	0xbeebca70	-0.46052885
67	0x3e16cc65	0.14726408
68	0xbc911b54	-0.017713226
69	0x3e1c4e08	0.15264142
70	0xbdfbaa60	-0.12288356
71	0xbe6fe83d	-0.23428436
72	0xbdeb1f6f	-0.11480605
73	0xbdbf8469	-0.09351427
74	0x3df89d4e	0.121393785
75	0xbe3b85f4	-0.18312818
76	0x3e91e155	0.28492227
77	0x3e074c0b	0.13212602
78	0xbeb1da20	-0.3473673
79	0x3eaef573	0.34171638
80	0xbb24f59e	-0.0025170813
81	0x3c9d946a	0.019235808
82	0x3e9f0aa2	0.310628
83	0x3de0d76b	0.10978588
84	0x3da116da	0.07865687
85	0xbc406ba1	-0.011744411
86	0x3e95d3b2	0.29263073
87	0xbdb919e6	-0.09038143
88	0x3e5a881a	0.21340981
89	0x3dcf6a00	0.1012764
90	0x3dbe2bba	0.09285684
91	0x3e7c0cb8	0.24614227
92	0x3e32cf48	0.17461884
93	0x3dc0db17	0.09416788
94	0x3da43fc4	0.08019975
95	0x3e098d75	0.13432868
96	0x3f435d10	0.7631388
97	0xbe2a3dfd	-0.16625209
98	0x3d51cc68	0.051220328
99	0xbebb947c	-0.36636722
100	0x3d41fb11	0.047358576
101	0xbbaa8a13	-0.005204448
102	0x3dcc7d27	0.099848084
103	0x3c694505	0.014237647
104	0x3e25e248	0.161996
105	0xbb54dcca	-0.0032480233
106	0x3e976c29	0.29574707
107	0x3e455655	0.19271214
108	0xbd569b47	-0.052394178
109	0xbcbf50b7	-0.023353918
110	0x3d978a8d	0.07399473
111	0x3cdf7473	0.027277207
112	0xbe0919a6	-0.1338869
113	0x3dd618f3	0.104539774
114	0x3d9518b1	0.072801
115	0xbe729265	-0.23688658
116	0xbe0330ea	-0.12811628
117	0xbec0991e	-0.3761682
118	0x3cacbc3c	0.02108585
119	0xbdb2ee08	-0.08736807
120	0x3cc9b98f	0.024624614
121	0x3e092eba	0.13396731
122	0x3d094544	0.033513322
123	0xbd6f99be	-0.05849623
124	0xbdd1a977	-0.10237401
125	0x3d6a56ac	0.057211563
126	0xbed079ab	-0.40717825
127	0x3d8d1add	0.068898894
128	0x3dd8d794	0.10587993
129	0x3dd9325d	0.10605309
130	0xbed11e4d	-0.4084343
131	0x3e1749db	0.14774267
132	0xbd071a89	-0.03298429
133	0x3e22e513	0.15907697
134	0xbe8384ca	-0.25687248
135	0xbe8bd2a5	-0.27309147
136	0x3e8540ab	0.260259
137	0xbd210b77	-0.039317574
138	0xbd64c72e	-0.055854015
139	0x3e20e310	0.15711617
140	0xbd035871	-0.032066766
141	0x3e448fce	0.19195482
142	0x3e1c11d5	0.15241177
143	0xbdea777d	-0.11448572
144	0xbca9edad	-0.020743215
145	0x3e383052	0.17987183
146	0x3e54e1c0	0.20789242
147	0xbdea675c	-0.114454955
148	0x3df66997	0.120318584
149	0x3c4815ea	0.012212256
150	0xbe4a47db	-0.19753973
151	0xbb815584	-0.003946962
152	0x3edd454e	0.43216938
153	0xbe39b6bb	-0.18136112
154	0x3d0b3587	0.033986595
155	0x3e3c5e45	0.18395336
156	0x3e3c8e29	0.18413605
157	0x3ddd3123	0.10800388
158	0x3db5350a	0.08848007
159	0xbe8a7df1	-0.2704921
160	0x3dc92485	0.09821419
161	0x3d4cdc92	0.05001504
162	0xbe2a2d25	-0.16618784
163	0x3ca174b6	0.019708972
164	0x3d9ced08	0.076623976
165	0x3baa91a8	0.005205352
166	0x3c945e5d	0.018111402
167	0x3ce0fa96	0.027463239
168	0x3e5cd11a	0.21564141
169	0xbe688b78	-0.22709453
170	0x3d9a5d3d	0.07537315
171	0x3e02caf5	0.12772734
172	0xbf2e521a	-0.6809403
173	0x3e724976	0.23660836
174	0xbed1ffc0	-0.41015434
175	0xbe14b718	-0.1452297
176	0x3dc8a53f	0.09797143
177	0xbdaa5662	-0.083172575
178	0x3f3b6b37	0.7321047
179	0xbf233b1d	-0.63762075
180	0xbde45ed3	-0.11150899
181	0xbea7c5fa	-0.32768232
182	0xbec18794	-0.3779875
183	0x3e966aa4	0.29378235
184	0x3e760f0b	0.24029176
185	0xbd867e84	-0.065671
186	0x3c2b8d00	0.010470629
187	0x3c4c698b	0.012476335
188	0x3d8940d4	0.06701818
189	0x3e5ab8bf	0.21359538
190	0xbdd10450	-0.10205901
191	0xbdc350a2	-0.09536864
192	0x3d1fca7b	0.03901146
193	0xbdacca6b	-0.08437046
194	0x3d7ff132	0.06248588
195	0x3e8a23cb	0.26980433
196	0x3de3c44e	0.111214265
197	0x3d2cede9	0.042219076
198	0xbd922a44	-0.07136968
199	0xbecea06e	-0.40356773
200	0xbdaf5b03	-0.08562281
201	0xbe821e36	-0.25413674
202	0xbe2ce4ad	-0.16884108
203	0x3e211b54	0.15733081
204	0xbd84fb41	-0.064932354
205	0x3da905e4	0.08253077
206	0xbe290658	-0.16506326
207	0xbe5019a7	-0.20322286
208	0x3ecb7a90	0.39741945
209	0x3df305f5	0.118663706
210	0x3eaa7570	0.33292723
211	0xbcab442e	-0.020906534
212	0xbf370737	-0.71495384
213	0x3e05ad3a	0.13054362
214	0xbde5714a	-0.11203249
215	0xbe19f2d8	-0.15034044
216	0xbd1da93b	-0.03849147
217	0xbe0ced79	-0.13762464
218	0x3e170d60	0.14751196
219	0x3d51b5d5	0.0511988
220	0xbd935754	-0.07194391
221	0x3e3dacd1	0.18522955
222	0x3dda4357	0.10657375
223	0x3e53c170	0.2067926
224	0xbd9626bf	-0.07331609
225	0x3d78c357	0.060733166
226	0x3bec3638	0.007208612
227	0xbe08af52	-0.1334813
228	0xbe60d99b	-0.2195801
229	0x3d72a18c	0.059236094
230	0x3c8bbceb	0.017057857
231	0xbcbc3577	-0.022974713
232	0x3dc8ffd8	0.09814423
233	0x3e39ef15	0.18157609
234	0x3d9faecd	0.077970125
235	0x3ed68106	0.41895312
236	0x3e09b188	0.13446629
237	0xbe8715f7	-0.26383945
238	0x3de22f3b	0.11044165
239	0x3e53a7d7	0.20669495
240	0x3e9066c2	0.28203398
241	0x3cf0d9bd	0.0294007
242	0x3e3097d1	0.17245413
243	0x3ea6a209	0.32545498
244	0xbd59c0e0	-0.053162456
245	0xbe8408f5	-0.25788084
246	0x3e07a9f0	0.1324842
247	0xbe0fe6f5	-0.14052947
248	0xbe02ac9a	-0.12761155
249	0x3d2f1967	0.042748835
250	0x3dd1ae5e	0.10238336
251	0xbd96d82a	-0.07365449
252	0x3d958003	0.07299807
253	0xbe04c8cb	-0.12967221
254	0xbc70aab1	-0.0146891335
255	0xbe2053e6	-0.15657005

network.2.bias f4 [256]
0	0x3da680f1	0.08130062
1	0x3da6145d	0.08109353
2	0xbf2740d5	-0.653333
3	0xbd71eba9	-0.059062634
4	0xbe81d42a	-0.2535718
5	0xbec2c3a1	-0.38039878
6	0xbd9dc826	-0.07704191
7	0x3e5b5d98	0.21422422
8	0x3e470679	0.19436063
9	0x3e1aa3b8	0.15101516
10	0xbc889b85	-0.01667572
11	0xbe69a41e	-0.22816512
12	0xbd9efc2a	-0.0776294
13	0xbdcdff26	-0.10058431
14	0xbd35cfd9	-0.044387672
15	0xbea890e3	-0.3292304
16	0xbd5b740e	-0.053577475
17	0xbe03f6fe	-0.12887189
18	0x3bd787de	0.006577476
19	0xbce01f08	-0.027358547
20	0xbe51b1ef	-0.20478033
21	0xbdc2c860	-0.09510875
22	0xbd5efcef	-0.054440435
23	0xbdcdf193	-0.10055842
24	0xbd6e08e4	-0.058113948
25	0xbde145c3	-0.10999634
26	0xbd2ac18e	-0.041688494
27	0xbd00f6cf	-0.031485375
28	0x3da221da	0.07916613
29	0xbd3236e5	-0.043509383
30	0xbe0da39e	-0.13831946
31	0xbd015153	-0.031571697
32	0xbe56c558	-0.20973718
33	0x3e270ed9	0.16314258
34	0xbdfd0220	-0.12353921
35	0x3e369e88	0.17833912
36	0x3d0f519d	0.034989942
37	0xbd12933f	-0.035784956
38	0xbd69524e	-0.056963257
39	0xbe94f5c6	-0.2909376
40	0xbc703c85	-0.0146628665
41	0x3e26f4b6	0.16304287
42	0xbcc7b706	-0.024379265
43	0x3eabc1de	0.33546346
44	0xbd6fb152	-0.058518715
45	0xbb243756	-0.0025057397
46	0x3b4bec72	0.0031116274
47	0xbe19dee4	-0.15026432
48	0xbe5cf4a9	-0.21577705
49	0xbe2bc4bb	-0.16774265
50	0x3cf18393	0.029481685
51	0x3e274b96	0.16337427
52	0x3d3d2746	0.046180032
53	0xbced72fd	-0.028985495
54	0xbd5143ef	-0.051090177
55	0xbccc90a5	-0.024971316
56	0xbdd7ccc8	-0.10537106
57	0xbd7972ae	-0.060900383
58	0x3ed08250	0.4072442
59	0xbe0b8324	-0.13624245
60	0xbd836944	-0.06416562
61	0xbda33170	-0.07968414
62	0x3cefc12b	0.029266914
63	0xbe25b71b	-0.1618313
64	0x3c11795e	0.008879034
65	0x3bf20c50	0.0073867217
66	0xbe89dd4c	-0.2692665
67	0xbe12af95	-0.14324792
68	0xbb175888	-0.002309354
69	0x3c3af0f7	0.01140999
70	0x3def9415	0.11698166
71	0xbdac17e8	-0.08402997
72	0xbea99735	-0.33123174
73	0xbebd2817	-0.3694465
74	0xbd864708	-0.06556517
75	0xbd2a9233	-0.041643333
76	0xbd9c98e4	-0.07646349
77	0xbc8c6fc4	-0.017143138
78	0xbdab6dbd	-0.0837054
79	0x3e363ebc	0.17797369
80	0x3dc8a873	0.09797754
81	0xbe5330a4	-0.20624024
82	0xbc8e79e2	-0.017392103
83	0x3dd7c126	0.10534887
84	0xbe8560f4	-0.26050532
85	0xbc16d104	-0.009205107
86	0xbe0778c3	-0.1322966
87	0xbbe1d062	-0.0068912962
88	0x3e8a6dd9	0.27036932
89	0x3e0d00d0	0.13769841
90	0xbeb4cd5f	-0.35312936
91	0xbe5fe0a5	-0.21863039
92	0x3e98f332	0.29873043
93	0xbcb4d7ce	-0.02207556
94	0xbc7bc44d	-0.015366626
95	0xbc1642c1	-0.009171189
96	0xbd8893f8	-0.06668848
97	0xbd9e73e4	-0.07736948
98	0x3c5ff7c1	0.013669909
99	0xbd0202b7	-0.03174087
100	0xbe875b74	-0.2643696
101	0xbece32ee	-0.4027323
102	0x3e13a4dc	0.14418358
103	0xbd533bf5	-0.05157085
104	0x3ead9b11	0.3390737
105	0xbe2d6fc7	-0.16937171
106	0xbe21b557	-0.15791832
107	0x3d9a52a9	0.075352974
108	0x3c9e0456	0.019289177
109	0x3d09b715	0.033621866
110	0x3d03f234	0.032213405
111	0x3df1705c	0.11789009
112	0x3d4046eb	0.046942633
113	0x3e571320	0.2100339
114	0xbe34e613	-0.17665891
115	0xbebe17b4	-0.3712746
116	0xbda4fb99	-0.08055801
117	0x3b06c22d	0.0020562515
118	0x3dc7794a	0.09739931
119	0xbcacdd34	-0.021101572
120	0xbeb085a3	-0.34476957
121	0xbec6d83a	-0.38836843
122	0xbc55d996	-0.013052365
123	0xbd6d4c8c	-0.05793433
124	0xbe0279a4	-0.12741715
125	0xbd7a9764	-0.061179534
126	0x3d8c9468	0.06864244
127	0xbea5ba19	-0.32368544
128	0x3cecc220	0.02890116
129	0xbcbd96d8	-0.023143217
130	0xbeddf42f	-0.4335036
131	0xbe94abbb	-0.2903727
132	0xbe35da7a	-0.17759123
133	0xbd6194ca	-0.055073537
134	0xbd9c68c4	-0.0763717
135	0xbe242bcd	-0.16032334
136	0xbd71c9aa	-0.059030212
137	0xbd33b43b	-0.043873053
138	0x3da44db6	0.08022635
139	0xbd984e76	-0.0743684
140	0xbc92f234	-0.017937757
141	0xbe2a0c85	-0.16606338
142	0xbdcc47f5	-0.09974662
143	0xbd9093b6	-0.070594236
144	0x3c468103	0.01211572
145	0xbd033fda	-0.032043315
146	0xbd714151	-0.05890018
147	0xbe5c765f	-0.2152953
148	0x3de25f22	0.110533014
149	0x3b4e630d	0.0031492144
150	0xbda9c994	-0.08290401
151	0x3db31978	0.08745092
152	0xbe3e17f8	-0.18563831
153	0xbd6df31e	-0.058093183
154	0x3e413b68	0.18870318
155	0x3b395c46	0.002828376
156	0xbe677520	-0.22603273
157	0xbdbf262c	-0.093334526
158	0xbe82680e	-0.25470012
159	0xbe82bde4	-0.255355
160	0xbe54daed	-0.20786639
161	0xbd483453	-0.048878025
162	0xbe6e11f6	-0.23249039
163	0x3e61c398	0.2204727
164	0xbdd22380	-0.10260677
165	0xbc6eda62	-0.014578434
166	0xbda2ad37	-0.07943194
167	0xbcb69872	-0.022289488
168	0xbb8bb582	-0.004263581
169	0xbda29350	-0.07938254
170	0xbc118d3d	-0.0088837715
171	0xbd8b12dd	-0.06790707
172	0x3d3ca139	0.04605219
173	0xbd97e709	-0.07417113
174	0xbd31fb57	-0.043452587
175	0xbec8ff25	-0.3925716
176	0x3c55b0db	0.013042654
177	0xbcf83350	-0.030297905
178	0x3d9e2014	0.07720962
179	0xbe34f1eb	-0.1767041
180	0x3d81711f	0.06320404
181	0xbd59c48c	-0.053165957
182	0xbef70f03	-0.4825364
183	0xbbdcf183	-0.0067426576
184	0xbebf2754	-0.37334692
185	0x3d352755	0.044226963
186	0x3d465f57	0.048430767
187	0xbe0d552b	-0.1380202
188	0xbc9a4367	-0.018830968
189	0xbe8db941	-0.276804
190	0xbdc22035	-0.09478799
191	0xbea66aee	-0.32503456
192	0xbd3ebd60	-0.04656732
193	0x3e5d6d55	0.21623738
194	0xbd74b2e1	-0.059740905
195	0xbd3bb276	-0.04582449
196	0xbe07ff2f	-0.13280939
197	0xbe6806cf	-0.22658847
198	0xbe70ccb9	-0.23515595
199	0x3bda8d6e	0.0066696918
200	0xbd5b9e28	-0.053617626
201	0xbcd04f75	-0.025428513
202	0xbe3bb191	-0.18329455
203	0x3e042d4e	0.12907907
204	0xbcdcbaad	-0.026944483
205	0xbe01600f	-0.126343
206	0x3e84ac03	0.25912485
207	0xbcbac374	-0.022798277
208	0xbd1ded76	-0.03855654
209	0xbe63df00	-0.22253036
210	0xbd3d6028	-0.04623428
211	0xbcae2f9e	-0.02126294
212	0xbd22dfed	-0.039764334
213	0xbd5e35cb	-0.05425052
214	0xbe7e813b	-0.24853985
215	0xbc929f1a	-0.017898131
216	0xbe0eb635	-0.13936694
217	0x3ebebd36	0.3725373
218	0x3dea27f8	0.11433405
219	0x3d4d695c	0.050149307
220	0xbd3438f5	-0.04399963
221	0x3f0c30b0	0.5476179
222	0xbd656798	-0.056006998
223	0xbc156ef3	-0.009120691
224	0x3e97f1bb	0.29676613
225	0xbefe0d2f	-0.49619433
226	0xbbb2e2cb	-0.0054591647
227	0xbcb02acc	-0.021504782
228	0xbd7ccaea	-0.06171695
229	0x3cd710f7	0.026253207
230	0xbbacff97	-0.005279492
231	0xbe9f1a52	-0.31074768
232	0xbd4a58fa	-0.04940126
233	0xbdd5a8cf	-0.10432588
234	0xbe3a0331	-0.1816528
235	0xbcf1679d	-0.029468352
236	0x3e979dfa	0.29612714
237	0xbd34a5fb	-0.044103604
238	0x3d58c63e	0.052923433
239	0xbd4a53f6	-0.049396478
240	0xbe58eb41	-0.21183492
241	0x3e8c3c7c	0.27389896
242	0x3e5d9f03	0.2164269
243	0xbd889f0d	-0.066709615
244	0xbe1439d8	-0.1447519
245	0x3e02c388	0.12769902
246	0xbd9aaa8d	-0.07552061
247	0x3c2f1f3f	0.010688602
248	0xbe8074cf	-0.25089118
249	0x3c624b67	0.013811923
250	0x3e08bd59	0.1335348
251	0xbe420b00	-0.18949509
252	0x3db04f27	0.08608847
253	0xbe21e7b5	-0.15811045
254	0x3b9c4ea9	0.004770119
255	0xbd99b57c	-0.075053185

mean.weight f4 [1, 256]
0	0xbf09c8aa	-0.53821814
1	0x3f8cb32d	1.099218
2	0xc086f4b7	-4.2173724
3	0xbe5b07ee	-0.21389744
4	0x3f10ba5d	0.5653437
5	0xc00a76ec	-2.1635084
6	0x3b869abb	0.004107801
7	0x3ed39a10	0.41328478
8	0x4039e57b	2.9046314
9	0x3e4c0d78	0.19927013
10	0xbe42810d	-0.18994541
11	0xbfd6814f	-1.6758212
12	0x3b9e1d4c	0.00482527
13	0xbc8f9cbe	-0.017530795
14	0x3e0d9c28	0.138291
15	0xbf93852a	-1.1525013
16	0xbbd12de9	-0.0063836467
17	0xbe8b7bc6	-0.2724287
18	0xbccb0909	-0.024784582
19	0x3c1f2b64	0.009714935
20	0xbfed2881	-1.8527986
21	0xbef9f2a8	-0.48817945
22	0xbc0e393d	-0.008680639
23	0xc015fa10	-2.3433876
24	0x3b94e752	0.004544177
25	0x3cdc577f	0.02689719
26	0x3bbd8a9c	0.005784346
27	0xbc78e578	-0.015191428
28	0xbefc5b72	-0.49288517
29	0x3d0fbd2d	0.03509252
30	0xbfe3b43a	-1.7789376
31	0xbf0b8b65	-0.54509574
32	0xbea009cf	-0.31257483
33	0x3ef06bc5	0.46957222
34	0x3fa03bbf	1.2518233
35	0x3f6a06ce	0.91416633
36	0x3e7e81d8	0.24854219
37	0x3c6e55aa	0.014546791
38	0xbc0b0373	-0.008484709
39	0xc0024626	-2.0355315
40	0xbe80d85a	-0.25165063
41	0xbf70e46d	-0.9409855
42	0xbfbbecbf	-1.4681624
43	0x3f051d9b	0.519983
44	0xbc784b0b	-0.01515461
45	0xbaf24b8d	-0.0018485651
46	0x3cd82817	0.026386304
47	0xbe8bc033	-0.27295074
48	0xc0883b94	-4.2572727
49	0xbfc7aab1	-1.5598966
50	0xbea0308e	-0.31287044
51	0xbfb4cecf	-1.4125613
52	0x3fea5f18	1.831027
53	0xbe07d9f3	-0.13266735
54	0xbe1839f2	-0.14865854
55	0xbcd5c6c7	-0.026095761
56	0x3cac02f6	0.020997506
57	0x3ce2151e	0.02759796
58	0x3f13a5df	0.57674974
59	0x3ea669db	0.32502636
60	0x40980bec	4.7514553
61	0x3cf96e93	0.030448234
62	0xbe86ac4b	-0.26303324
63	0xc0567811	-3.3510783
64	0x3e3d5098	0.18487775
65	0x3f4f23dd	0.809141
66	0x3f970b68	1.1800356
67	0xbf3e12b4	-0.7424729
68	0xbbbcd1de	-0.005762323
69	0x400da5a3	2.2132347
70	0x3fab8780	1.3400726
71	0xba743c4c	-0.0009316846
72	0xc074c7d1	-3.8246958
73	0xbe8183e1	-0.25295928
74	0xbc283d37	-0.010268501
75	0x3fbf1ceb	1.49307
76	0x3c7955fb	0.015218253
77	0x3ca8a4aa	0.02058633
78	0xbf5143f9	-0.81744343
79	0x3ea688f6	0.32526368
80	0xbfb749fe	-1.4319456
81	0xbee2bae9	-0.44283226
82	0x3c213406	0.0098390635
83	0xbfdc6f56	-1.7221477
84	0x3ed007c4	0.40630925
85	0xbba08358	-0.00489847
86	0xbb45bc6b	-0.003017212
87	0xbb747692	-0.0037302119
88	0x3f19b137	0.60036033
89	0x3f5228f7	0.8209376
90	0x3f2c01c3	0.6719019
91	0x3f84c51e	1.0372655
92	0x3f0fe2a2	0.5620519
93	0x3b354808	0.0027661342
94	0x3ed39459	0.41324118
95	0x3c8a325d	0.016869718
96	0x3cf6c014	0.030120887
97	0x3f5539a6	0.8329109
98	0x3d1a7076	0.037704907
99	0xbdc19b73	-0.09453478
100	0xbf4a253c	-0.78963065
101	0xbf83cc3e	-1.0296705
102	0xbea5d477	-0.3238866
103	0x3bab5742	0.005228908
104	0x3fed8aab	1.8557943
105	0xbf4e4403	-0.8057253
106	0xc00f2d7c	-2.2371511
107	0xbe80b8c7	-0.25140974
108	0x3c08f1af	0.008358403
109	0x3fde7422	1.7379191
110	0x3cc959d4	0.024578966
111	0x3d51d83e	0.051231615
112	0x3dbf36ca	0.09336622
113	0x3f93888f	1.1526049
114	0xbf76d230	-0.9641447
115	0x40852404	4.1606464
116	0x3ca677ce	0.0203208
117	0xbcc9762c	-0.024592482
118	0x3ea98788	0.33111215
119	0x3e533504	0.20625693
120	0x3fcaa9b4	1.5833039
121	0xbf7bdde9	-0.98385483
122	0x3c328647	0.010896272
123	0x3cc3b021	0.023887696
124	0xc0368277	-2.851713
125	0x3e2e3243	0.17011361
126	0x3fb34ecc	1.4008422
127	0xc059fb28	-3.4059544
128	0xbcc8fb00	-0.024533749
129	0x3c1b838c	0.009491812
130	0x3f670746	0.90245473
131	0xc0dac138	-6.8360863
132	0x3f077af6	0.52922
133	0x3f561bcf	0.8363618
134	0x3d31142e	0.043232135
135	0xbed1163a	-0.4083727
136	0xbc8d24fb	-0.017229548
137	0x410cb3c6	8.79389
138	0x3f66cfc8	0.901608
139	0x3c848c51	0.01618019
140	0xbea14deb	-0.3150476
141	0x3ef2c2b2	0.47414166
142	0xbf9fc9f6	-1.2483509
143	0xbd3b922c	-0.045793697
144	0xb7066e14	-8.012652e-06
145	0xbef7bb3f	-0.48385045
146	0x3f379ec0	0.7172661
147	0xbed400a0	-0.41406727
148	0x4007b0e7	2.1201723
149	0xc02c0f2c	-2.688426
150	0xbea57e84	-0.32323086
151	0x3da0253f	0.07819604
152	0xc0201c9a	-2.5017457
153	0xbfd65914	-1.6745934
154	0x3f0d1822	0.5511495
155	0x3b1319d1	0.0022445808
156	0xbe8d6ebd	-0.2762355
157	0xbec6bafb	-0.3881453
158	0xbed5a231	-0.41725305
159	0xbf45da17	-0.77285904
160	0xbfd99751	-1.6999303
161	0x3f0a3c0c	0.53997874
162	0xbfcdf13d	-1.6089245
163	0x3e0544cf	0.1301453
164	0x3f844df3	1.0336288
165	0x3fb77106	1.4331367
166	0x3b6422ea	0.003481085
167	0x3d335f31	0.043791953
168	0xbfacc1f1	-1.3496686
169	0xbbd01f20	-0.0063513666
170	0x3f9f5d70	1.245039
171	0x3c2f24ef	0.010689958
172	0x40862ffa	4.1933565
173	0xbb8f0ef9	-0.0043657986
174	0xbd98efe4	-0.074676305
175	0xc038e40b	-2.8889186
176	0xbc839af4	-0.016065098
177	0xbd170541	-0.036870245
178	0x3f2922a8	0.66068506
179	0xbfc05b03	-1.5027775
180	0xbea83035	-0.3284928
181	0xbb9c55cf	-0.0047709714
182	0xc0c364d9	-6.1060605
183	0xbee116e3	-0.43962774
184	0x3fe26c85	1.7689368
185	0x3ec0977a	0.37615567
186	0x3f4fa6f4	0.81114125
187	0xc0202451	-2.5022166
188	0xbd2783ad	-0.04089706
189	0xbeac42f3	-0.33644828
190	0xbea65c0c	-0.324921
191	0x407252d6	3.786306
192	0x3c06b83b	0.008222635
193	0x40a83e0c	5.257574
194	0x3cd277bb	0.025691858
195	0xbbb6d91c	-0.0055800807
196	0xbf80be4d	-1.0058075
197	0xc0145f18	-2.318304
198	0xbe043a3e	-0.12912843
199	0x3e86c7ac	0.26324213
200	0xbec7dcbc	-0.39035594
201	0x3db9de99	0.0907566
202	0xbca20055	-0.019775549
203	0x3fa6258d	1.298021
204	0x3e513376	0.20429787
205	0xc04ec7b5	-3.2309391
206	0xbeecfa99	-0.4628494
207	0x3bc1fa96	0.0059197647
208	0x3cb342ae	0.021882381
209	0xbf45cb0e	-0.7726296
210	0x3d2cdf56	0.042205177
211	0x3cff36de	0.031154092
212	0xbac68a8f	-0.0015147495
213	0xbf9e9536	-1.2389286
214	0x3e285724	0.16439492
215	0x3cc6506c	0.02420827
216	0x3f833dd8	1.0253248
217	0x3f4d6aa6	0.8024086
218	0x3ecbae26	0.39781302
219	0x4009283e	2.1430812
220	0x3b336f12	0.0027379435
221	0x3dec3f54	0.115355164
222	0x3b31f599	0.0027154444
223	0xbef8e08a	-0.4860881
224	0x3fb48f65	1.410626
225	0xbf86ddf7	-1.0536488
226	0x3cc95d71	0.02458069
227	0x3d29bbb3	0.04143877
228	0x4020c47e	2.511993
229	0xbc4485f0	-0.011994824
230	0x4004633a	2.0685563
231	0xbe0deb8c	-0.13859385
232	0xbe60460b	-0.2190172
233	0xbc602192	-0.013679879
234	0x3e976644	0.2957021
235	0x3d1e77fb	0.03868864
236	0x3f78efb9	0.9724079
237	0x3c8c1fab	0.017104944
238	0xbce253ec	-0.027627908
239	0x3e43ac18	0.19108617
240	0xc076d264	-3.8565912
241	0x3f0a2f61	0.53978544
242	0x3f0012a0	0.5002842
243	0x3d28046a	0.041019835
244	0x4010464a	2.25429
245	0xbd0ca7c6	-0.03433969
246	0xbf095ed5	-0.5366033
247	0xbab72f29	-0.0013975847
248	0x3ea0e413	0.31424007
249	0x3f6c037e	0.9219283
250	0xbe8975f0	-0.26847792
251	0xbef8ea52	-0.48616272
252	0x402b97cf	2.6811407
253	0xbdff987a	-0.124802545
254	0x3e2d6991	0.16934802
255	0x3d8cffb8	0.06884712

log_std.weight f4 [1, 256]
0	0xbd8103c0	-0.062995434
1	0x3d1d0dd9	0.038343284
2	0x3eae7bcb	0.34078822
3	0xbd2161a7	-0.03939977
4	0xbea355ec	-0.3190149
5	0xbe963e13	-0.29344234
6	0x3cec1a9a	0.028821278
7	0xbcde32ba	-0.027123798
8	0xbe365d6b	-0.17809074
9	0x3bc60a90	0.0060437396
10	0xbf30f5ef	-0.69125265
11	0x3e974e8a	0.29552108
12	0xbc96b545	-0.018396983
13	0x3c8ce4d6	0.017198961
14	0x3ef937e4	0.48675454
15	0xbe0c1353	-0.13679247
16	0x3a038c26	0.0005018137
17	0xbca72d2a	-0.020407278
18	0xbc4fd2f9	-0.012684577
19	0x3c0cad26	0.008586204
20	0xbe0352c5	-0.12824543
21	0x3e252623	0.16127829
22	0x3d3ecec8	0.04658392
23	0xb94bb891	-0.00019428345
24	0x3cc41c13	0.023939168
25	0x3cd3f524	0.025873728
26	0x3b5962a6	0.0033170371
27	0xbd53f287	-0.051744964
28	0xbf4a6c8f	-0.790719
29	0xbc463fb7	-0.012100152
30	0xbeb11616	-0.34587163
31	0xbc2f7a19	-0.010710263
32	0xbbcef4af	-0.0063157897
33	0xbc596be5	-0.013270353
34	0x3ca1ed83	0.019766575
35	0xbdf6b3c1	-0.12046004
36	0xbc2af11d	-0.010433462
37	0x3cabdc8e	0.020979192
38	0x3c2afd7c	0.010436412
39	0xbe7ddffc	-0.24792475
40	0xbe6ec705	-0.23318107
41	0xbd6d1e6e	-0.057890348
42	0x3d356f24	0.044295445
43	0x3d73ec5b	0.059551578
44	0x3c747604	0.014920715
45	0xbd44bb17	-0.048029985
46	0xbd63d9a1	-0.05562747
47	0xbd3c1976	-0.04592272
48	0xbde91799	-0.11381454
49	0xbde4b219	-0.11166782
50	0x3cb93fb9	0.022613393
51	0xbe32fd38	-0.17479408
52	0xbd601cb2	-0.054714866
53	0xbf49bb8c	-0.788018
54	0x3d3778b9	0.044792864
55	0xbe89b23f	-0.26893803
56	0xbc0e16d3	-0.008672434
57	0x3c692b23	0.014231476
58	0xbdfef064	-0.124481946
59	0xbd6e9b20	-0.058253407
60	0xbe89d997	-0.2692382
61	0x3d26bbdf	0.04070651
62	0x3d892271	0.06696022
63	0xbe26ee04	-0.16301733
64	0xbdf111ad	-0.117709495
65	0xbd1fddb2	-0.039029785
66	0xbddaadb2	-0.10677661
67	0x3b137c40	0.0022504479
68	0x3c0620f3	0.008186567
69	0x3f8aecbb	1.0853494
70	0xbd9ffdd6	-0.07812087
71	0x3b9052fc	0.0044044238
72	0xbe840144	-0.25782216
73	0xbf2a9843	-0.6663858
74	0x3b8bfbd7	0.004271965
75	0xbd80bbfa	-0.06285854
76	0x3d36fcc0	0.044674635
77	0x3a115c2d	0.00055450463
78	0x3f16ada2	0.5885869
79	0x3dc2bcc8	0.095086634
80	0xbcb543b5	-0.022127012
81	0xbd695fdf	-0.056976195
82	0xbbe2bf04	-0.0069197435
83	0xbce876a9	-0.028376894
84	0xbe6dadde	-0.23210856
85	0x3cc3d85d	0.023906881
86	0xbf86a97a	-1.052047
87	0x3c9bb5d4	0.0190076
88	0xbf02f940	-0.51161575
89	0xbdd1f6af	-0.10252129
90	0xbd04daa5	-0.03243508
91	0xbe16c590	-0.14723802
92	0xbea468b7	-0.3211114
93	0xbc46d184	-0.012134913
94	0x3b922fd2	0.004461267
95	0xbc5accdf	-0.013354509
96	0xb8dba007	-0.00010472541
97	0x3d3b5ecd	0.045744706
98	0xbf34c5e1	-0.7061444
99	0xbcded48b	-0.027200958
100	0x3f58ff7a	0.84764826
101	0xbd7aba43	-0.06121279
102	0xbf74ee07	-0.956757
103	0xbbd37c1f	-0.0064540054
104	0x3e4573c6	0.19282445
105	0xbe7ff7b4	-0.24996835
106	0x3dddff1e	0.10839675
107	0xbf1506e5	-0.58213645
108	0xbb5e28ad	-0.0033898756
109	0xbc3dc4a9	-0.011582532
110	0xbfd728f9	-1.6809379
111	0xbf3ccffc	-0.7375486
112	0xbeb51e0f	-0.35374495
113	0xbe288089	-0.16455282
114	0xbdf8b286	-0.12143426
115	0xbd19fb0e	-0.03759294
116	0x3cce6d03	0.025198465
117	0x3d1a175b	0.03761993
118	0xbf387946	-0.7206005
119	0x3f648275	0.8926156
120	0xbef171a0	-0.47157001
121	0x3ead13f1	0.33804277
122	0x3c8f9b78	0.017530188
123	0x3a9deaf8	0.0012048176
124	0xbe7e81ce	-0.24854204
125	0xbf49b896	-0.7879728
126	0x3e7ee814	0.24893218
127	0xbde6f266	-0.112767026
128	0xbfbddcc8	-1.4833002
129	0x3cbe8bfb	0.023260107
130	0xbd972cd5	-0.07381598
131	0xbeabcfe0	-0.33557034
132	0xbeb2d907	-0.34931204
133	0xbce11572	-0.027476046
134	0xbd468dc5	-0.048475046
135	0x3d5038e2	0.050835498
136	0x3ca4a062	0.020096008
137	0xbdda37de	-0.10655187
138	0xbc89cb6e	-0.016820636
139	0xbaf6a806	-0.0018818385
140	0xba3887aa	-0.00070392585
141	0xbbd041dc	-0.0063555073
142	0xbcc07504	-0.023493297
143	0xbc8be6ca	-0.017077822
144	0xba1477ba	-0.00056635926
145	0xbdac136b	-0.08402141
146	0xbd232131	-0.039826576
147	0x3ed9f4a3	0.42569456
148	0xbecdc98a	-0.40192825
149	0xbcf43440	-0.029810071
150	0x3d0367e3	0.032081496
151	0xbf4e0d88	-0.804894
152	0xbcf5b62f	-0.029994098
153	0x3e0b5582	0.13606837
154	0xbe6edddd	-0.23326822
155	0x3c6abad0	0.014326766
156	0xbfff5fec	-1.9951148
157	0x3e16c4fd	0.14723583
158	0xbe66127c	-0.22467989
159	0x3cbd7e25	0.02313144
160	0x3e6cb04c	0.23114127
161	0xbe8f648a	-0.28006393
162	0xbe4323ec	-0.19056672
163	0xbef11e0f	-0.47093245
164	0x3d1dde00	0.038541794
165	0xbeb921b7	-0.36158535
166	0xbc788a9a	-0.015169764
167	0x3ce5c273	0.028046822
168	0xbdd172a1	-0.10226942
169	0xba69baae	-0.0008916062
170	0xbc2d093f	-0.0105612865
171	0x3d52979f	0.05141413
172	0xbf0c4c9f	-0.54804415
173	0x3d02e09f	0.031952497
174	0xbc73e9d7	-0.014887295
175	0x3efa9774	0.48943675
176	0x3c143d43	0.009047809
177	0xbbb9daa9	-0.0056718183
178	0x3cdac348	0.026704445
179	0xbdde0186	-0.10840134
180	0xbe443a07	-0.1916276
181	0x3b97eab5	0.0046361336
182	0xbe6ccf5c	-0.23125976
183	0xbf41e779	-0.75743824
184	0x3e198301	0.1499138
185	0xbe001310	-0.12507272
186	0xbdef0e50	-0.11672652
187	0xbda402c9	-0.08008344
188	0x3bfb1202	0.007662059
189	0x3d3e9072	0.046524473
190	0xbde1ca9e	-0.11024974
191	0x3eaa778c	0.33294332
192	0xbb1ad496	-0.0023625246
193	0xbedb797c	-0.42866123
194	0xba4c2624	-0.0007787666
195	0xbbcb4bfa	-0.0062041255
196	0xbd4b58a3	-0.049645077
197	0xbde2dec8	-0.110776484
198	0xbd7b7048	-0.061386377
199	0xbdb4c33f	-0.08826303
200	0x3bfd5c78	0.0077319704
201	0x3d90323a	0.0704083
202	0xbe88c1d0	-0.26710367
203	0x3e2bbdde	0.16771647
204	0x3f5600ce	0.8359498
205	0x3e2f7745	0.17135341
206	0xbf124495	-0.571359
207	0x3caa897a	0.020817507
208	0xbc946c57	-0.018118067
209	0xbe695281	-0.22785379
210	0xbd465dd1	-0.048429314
211	0x3d0cd6fd	0.034384716
212	0x3ccda216	0.025101703
213	0x3f3097af	0.6898145
214	0x3ed3c2b3	0.4135948
215	0x3cd9a7f0	0.026569337
216	0x3ebe62f8	0.37184882
217	0x3ef199ac	0.47187555
218	0xbf3bf386	-0.7341846
219	0xbe857b1a	-0.26070482
220	0x3d07b819	0.033134554
221	0xbd2e96fe	-0.042624466
222	0x3ccddd3a	0.025129903
223	0xbd870324	-0.06592396
224	0x3c526da0	0.012843519
225	0xbd366da4	-0.044538155
226	0x3be1e4bd	0.006893723
227	0xbd867bb1	-0.06566561
228	0x3e39f275	0.18158896
229	0xbc936627	-0.017993046
230	0x3d06dcfc	0.03292559
231	0xbf1bc18b	-0.608422
232	0xbf6cb38a	-0.92461455
233	0xbe6ea21b	-0.23304026
234	0xbdaea74c	-0.08528003
235	0xbcf8972c	-0.030345522
236	0x3dee00d3	0.11621251
237	0x3d331da1	0.04372943
238	0xbed960ba	-0.4245661
239	0x3ea351bd	0.318983
240	0x3ea629f2	0.32453877
241	0xbc3cc767	-0.011522151
242	0xbf4204ce	-0.7578858
243	0xbd0bc42c	-0.03412263
244	0xbdd3ee38	-0.10348171
245	0xbf80ddeb	-1.0067724
246	0x3e17e5fe	0.14833829
247	0xbda4017b	-0.08008095
248	0x3f709539	0.93977696
249	0x3d0bc78d	0.034125853
250	0x3c0cce74	0.008594144
251	0x3b8d4071	0.0043106605
252	0x3b9523f9	0.0045514074
253	0xbf01dbd8	-0.5072608
254	0xbd39b750	-0.045340836
255	0xbd71bda4	-0.059018746
