sacpen7.pth (torch, 276052 bytes, 6 tensors)

network.0.weight f4 [256, 6]
000000 93 e6 ec 3e c8 b6 10 bf 19 91 15 be 93 9e 1e 3e
       0.46269664 -0.565289 -0.14606132 0.15490179
000010 9f d5 59 3e 8e a8 ea 3e 4d 91 8d 3e 58 90 80 3d
       0.21272896 0.45831722 0.27649918 0.062775314
000020 83 73 d6 bf 01 14 8d be 31 00 c2 3e a7 31 e0 be
       -1.6754001 -0.27554324 0.3789077 -0.43787882
000030 56 d5 70 3e 81 ba ce 3e 46 0a 8e bf 88 ab 46 be
       0.23518881 0.40376666 -1.1096885 -0.19401371
000040 ef c3 a4 3e d7 75 13 bf 5c 3b 24 3e 92 dc 38 3c
       0.32180735 -0.57601684 0.16038269 0.011283057
000050 f6 bb a9 bf 21 ca 83 3e c5 9a 40 3e 7b e9 8c bf
       -1.3260486 0.2574015 0.1880904 -1.1008753
000060 b2 20 1d 3f aa 16 13 3f 17 1e ed 3e 03 78 1a bf
       0.61378014 0.5745646 0.4631202 -0.60339373
000070 f2 1a a0 be c8 87 2c bf 55 73 41 be 5e 39 dd 3e
       -0.31270558 -0.67394686 -0.18891652 0.4320783
000080 63 9f 5a bf f6 25 d5 be 96 b1 00 3f f7 4b 2a 3e
       -0.85399455 -0.41630524 0.50270975 0.16630541
000090 aa d0 d4 3d 93 fc c8 be a6 b1 72 bf f4 7f 05 3f
       0.10391362 -0.392552 -0.9480232 0.52148366
0000a0 5d aa 18 3f 41 2a 86 bf 90 23 f3 be 49 6b 00 3f
       0.59634954 -1.0481645 -0.4748807 0.50163704
0000b0 51 eb b0 bf ac ae a6 be 32 46 a4 be fa 82 9f be
       -1.3821813 -0.3255514 -0.32084805 -0.31154615
0000c0 50 1b 8a 3d 94 5f 91 bf 10 82 b2 be cd 87 58 bf
       0.06743491 -1.1357293 -0.34864855 -0.84582216
0000d0 bb 56 d3 3d e8 75 b4 bd 91 90 d4 be 8f 82 37 3d
       0.10319277 -0.08811551 -0.41516545 0.044802245
0000e0 b9 6e be 3b d7 7e af 3d 49 3a 36 bf f3 43 c4 3f
       0.005811539 0.08569115 -0.71182686 1.5333236
0000f0 2e c9 8e 3e c7 a0 18 bd 85 8a e9 be f4 61 5b 3f
       0.27887863 -0.037262704 -0.45613495 0.8569634
000100 f0 42 b6 3c 9d 3f 87 bf b4 ed 35 3f 34 27 12 3f
       0.022248715 -1.0566288 0.7106583 0.5709107
000110 ef 4c ee 3e 7a fa c7 bd 96 7a 14 bf e0 e4 88 be
       0.4654307 -0.097645715 -0.5799955 -0.26737118
000120 98 b2 8d bd 24 22 6c 3e f5 56 17 3e a8 73 1c 3d
       -0.0691883 0.23059899 0.14779265 0.038196236
000130 bf b2 a1 3e 8c a0 ab 3f a0 98 82 3e 32 ef f3 bd
       0.31581685 1.340837 0.2550707 -0.11910857
000140 57 03 78 be 83 ff 22 3f d9 16 a5 3e b1 1d 44 bf
       -0.24220024 0.6367113 0.32243994 -0.76607805
000150 27 fd 50 3f 94 d3 a2 3e b1 e8 e4 bd 3c 17 a1 be
       0.8163628 0.31802046 -0.11177195 -0.3146304
000160 ed e2 dd be 8c a6 8c 3e 43 6f b3 3c d1 3d 53 bc
       -0.43337193 0.27470815 0.02190364 -0.012893156
000170 87 7f 80 bf 53 20 f3 3e 57 ec 11 3d 62 94 95 bf
       -1.0038918 0.474856 0.035625782 -1.1685908
000180 84 d6 15 bf 5d c2 8e 3e 46 5f 21 bc b8 64 f6 be
       -0.5853045 0.27882662 -0.009849375 -0.48123717
000190 68 eb d5 be fc cb d4 be f6 87 45 bf 12 05 eb bc
       -0.41781163 -0.41561878 -0.77160585 -0.028688941
0001a0 fd 3f 61 3f cd 77 11 3d 60 7a 09 3f 96 5a 46 3e
       0.87988263 0.03551464 0.53702354 0.19370493
0001b0 43 1d 20 bf 49 15 d5 3e 78 c2 03 be 86 8f 98 be
       -0.6254465 0.41617802 -0.12867153 -0.29797
0001c0 ff 04 5d be 7a f1 a3 3f 08 ac 0c bf c3 e5 09 be
       -0.21583937 1.2808068 -0.5495 -0.13466553
0001d0 97 3e ea bd e0 6f b0 be 5b 16 ce be 2a 80 6e bf
       -0.11437719 -0.34460354 -0.4025143 -0.9316431
0001e0 48 bb 18 bf f0 da df 3d d1 d9 16 3f e6 83 55 be
       -0.5966077 0.10930431 0.5892611 -0.20851097
0001f0 f5 8d fc 3e 80 37 da 3e 51 c2 97 bd f0 de 9c 3e
       0.49327055 0.42620468 -0.0741011 0.30638838
000200 c5 12 a4 bf 50 03 24 3e 2a 7c 1d bf 65 37 dc 3e
       -1.2818228 0.16016889 -0.61517584 0.43011013
000210 74 79 19 be 6f be 24 3d 0b 2a 23 3f 95 ed 17 bf
       -0.14987737 0.040220674 0.6373603 -0.59346896
000220 1a 5d 0c be 24 d1 22 3f f6 6e 09 be bb 12 24 bf
       -0.1370739 0.63600373 -0.13421234 -0.6409108
000230 61 19 65 bd 79 eb 8c bf 52 ce 34 bf e5 9d eb bd
       -0.055932406 -1.100936 -0.7062732 -0.11504725
000240 11 98 1c bf 5c 10 8d 3d 6a c9 12 bf 07 8a cd bd
       -0.61169535 0.06887886 -0.57338583 -0.10036092
000250 b7 21 6d bf 3b 72 ce be 25 8f 95 be 29 85 51 3d
       -0.9262957 -0.40321526 -0.29210773 0.051152382
000260 19 a7 79 3f 14 7a c5 be 49 ab c9 be a2 f1 ae bd
       0.97520596 -0.385697 -0.39388493 -0.085421816
000270 3a 15 1e bf af 72 58 bf f6 e4 a3 be 08 ee d0 be
       -0.6175114 -0.84549993 -0.3201062 -0.40806603
000280 45 f0 25 3f ef 1f 6d be 0e f6 85 3d ce d9 b4 3e
       0.6481975 -0.23156713 0.06541072 0.35322422
000290 81 04 80 40 b2 32 9b 3e 92 91 4b bf 5a f8 84 40
       4.00055 0.30312115 -0.79519 4.1553164
0002a0 8b 74 e0 be b8 05 d3 bd ae 07 43 3f e8 66 48 3e
       -0.43838915 -0.10303825 0.76183593 0.19570506
0002b0 0f d2 28 be 9a 9a 32 bf 85 c6 0c 3d b6 13 d8 be
       -0.16486381 -0.69767153 0.03436901 -0.42202538
0002c0 aa eb 9e 3f 56 d9 d6 3d 9f eb c8 3d 78 3d 07 3f
       1.2415669 0.10490672 0.09810566 0.5282817
0002d0 53 35 90 3e e5 99 c7 3e d5 6e 9a be c4 23 e5 be
       0.28165683 0.389846 -0.30162683 -0.4475385
0002e0 a3 8d f9 be e6 60 8d 3d c6 44 53 be 08 0c af 3e
       -0.48740873 0.069032475 -0.20631704 0.34188867
0002f0 e2 0c 87 3f a1 54 fc bd a3 a2 33 bf 14 8c c5 3f
       1.0550807 -0.12320829 -0.7017004 1.5433373
000300 6a 5f 07 3f ef b1 78 bd 45 e3 4a bf d5 5c b7 3e
       0.52879965 -0.060716566 -0.79253036 0.35813013
000310 65 21 e2 3e 67 ad 8c bf 29 18 57 3f 0e fa 33 3e
       0.44166103 -1.0990418 0.8402124 0.17575857
000320 bf af dc 3e df 6b 8a be 59 27 0b bf 63 46 df 3e
       0.43102834 -0.27035424 -0.54356915 0.43608388
000330 35 bb d7 bc 47 2e 0b bf 1f ef 9b bf 37 eb dc be
       -0.026334384 -0.5436749 -1.2182349 -0.43148205
000340 c7 b5 a2 3e db f2 63 be d6 f3 27 3e a9 b6 a9 3e
       0.3177931 -0.22260611 0.1640161 0.3314717
000350 1f 9e 08 3f 3c 62 b0 3e fa 4b 4f bf 29 63 94 be
       0.53366274 0.34449947 -0.80975306 -0.28981903
000360 48 5b 77 bd 60 23 11 3e 2e ec f9 3e 49 c0 d2 3e
       -0.060389787 0.1417365 0.48813003 0.41162327
000370 e7 79 6f bf 5e 72 9c 3f ee b7 7b bd c5 87 2e 3e
       -0.93545383 1.2222402 -0.061454706 0.1704398
000380 ed 58 31 40 f6 cb aa 3e 6f c2 91 bf d1 67 10 40
       2.7710526 0.33358735 -1.1387461 2.2563365
000390 21 21 41 3e 6f de ed be d1 01 08 bf 6b 09 5a 3f
       0.18860294 -0.46458766 -0.5312777 0.8517062
0003a0 b0 c9 26 be 94 e9 0a be 88 96 cc 3e 58 7c 02 bf
       -0.16287875 -0.13565665 0.39958596 -0.50970984
0003b0 9b 11 26 bf 8c ba d4 3e b6 14 4f bf 05 38 c4 3e
       -0.64870614 0.41548574 -0.8089098 0.3832399
0003c0 d0 8b 2d 3d 59 74 78 bf f9 71 44 bb 70 a5 ac be
       0.042369664 -0.9705253 -0.002997516 -0.3371997
0003d0 57 25 2b 3f 2b af dd bd c0 bc 14 bd ed fb 97 be
       0.6685385 -0.10824426 -0.03631282 -0.29684392
0003e0 86 9a 45 3f 8d fe 16 3f d4 d7 86 3d 7f 10 2d bf
       0.7718891 0.58982164 0.06584135 -0.67603296
0003f0 48 b9 d9 3e 3e 6b 28 3f 9c a5 22 bf c2 10 23 bf
       0.4252417 0.6578864 -0.6353395 -0.63697445

network.0.bias f4 [256]
000000 d9 9e a6 3e dc a3 8f be 37 c3 32 be bc b5 11 bf
       0.32543066 -0.28054702 -0.17457281 -0.5691793
000010 68 d9 23 3d 78 52 36 be 02 c4 aa be cd de dd be
       0.040002257 -0.17804897 -0.33352667 -0.43334046
000020 cf 0e d4 be a1 31 ab be 39 35 dd be d0 9f 7d bd
       -0.41417548 -0.334363 -0.43204668 -0.061919987
000030 d3 8a 77 3e 8a 21 34 bf 70 f5 b4 be 5e 22 28 bf
       0.24174051 -0.70363677 -0.35343504 -0.6567744
000040 6e a5 95 3e 44 09 73 be 6c 1a d4 be c8 14 81 be
       0.29227775 -0.23734003 -0.41426408 -0.25211167
000050 fa 05 82 3e 12 54 0e 3d c4 9b fd 3e 64 d0 83 bf
       0.25395185 0.034748144 0.49532902 -1.0297971
000060 ba f7 2b bd ea 04 b9 bd 8c 84 d7 3e cb 7b b8 3e
       -0.041984297 -0.090341404 0.42093313 0.36031947
000070 7e 88 27 bf 44 89 07 be 01 a9 f4 be 8f 92 23 3d
       -0.65442646 -0.13235956 -0.4778519 0.03993469
000080 dd 15 ed be f7 71 9d be 34 c3 86 3e 53 bc 18 be
       -0.46305743 -0.3075101 0.26320803 -0.1491559
000090 9d 51 31 be 0e ff 19 be 17 10 52 bf 16 bf 56 bb
       -0.17316289 -0.15038702 -0.820558 -0.0032767705
0000a0 c4 f4 96 be f4 77 ac be f8 38 83 be cb 95 9b 3c
       -0.29483616 -0.33685267 -0.256294 0.018992325
0000b0 a9 97 e2 be 32 8f df be 78 1f 1d bd cc d1 a5 3d
       -0.44256333 -0.43663937 -0.03836009 0.08096656
0000c0 0c d9 10 bf 63 5e 61 3e be da d4 3d dd 0b 9b 3d
       -0.5658119 0.22008662 0.10393284 0.07570622
0000d0 78 1f 09 bd d5 d4 34 bf 50 b8 ef 3e 0f ae a8 bf
       -0.033477277 -0.70637256 0.46820307 -1.3178118
0000e0 db a7 86 3e e0 8d 88 be ce 2c 05 bf 69 a5 06 3c
       0.2629994 -0.26670742 -0.5202149 0.008218148
0000f0 09 45 39 bf 78 dd 11 3e 39 f3 fb 3d a9 28 57 bf
       -0.72370964 0.1424464 0.123022504 -0.8404642
000100 6d 4b 31 bf 7b a0 ad be 27 04 09 bf a8 71 e0 be
       -0.69255716 -0.339115 -0.5352196 -0.43836713
000110 69 c9 41 bf bf b1 cf be 70 b6 01 bf f0 09 ef bd
       -0.7569795 -0.40565297 -0.50669 -0.11671817
000120 e0 0d db 3e 3b 65 2f 3e 33 18 d5 be f7 47 b2 bc
       0.42784023 0.1712846 -0.41620025 -0.021762831
000130 db b8 e2 be 8a 60 30 be 1d 04 fa be 49 f7 13 be
       -0.4428166 -0.17224327 -0.48831263 -0.144498
000140 7b a6 a5 3c 59 c3 81 be 99 63 e6 3c 94 5b 78 bd
       0.020220986 -0.2534435 0.028123664 -0.06063421
000150 77 03 a2 3e b9 4c e9 be 7c 0d bb 3c 38 d2 b9 be
       0.31643268 -0.45566347 0.022833578 -0.36293197
000160 a0 fb 49 bf e1 43 0d 3e 0e c2 63 bf 24 97 ff be
       -0.78899574 0.13795425 -0.8896798 -0.4992
000170 b0 4a be 3e 41 e7 20 3e a3 27 74 3e ba 68 47 bf
       0.37166357 0.15713216 0.23843245 -0.77894175
000180 bc cb 25 bf fc 01 b3 be 2b 87 00 3e 92 88 2d bd
       -0.64764 -0.3496245 0.12551562 -0.04236657
000190 fc a7 a3 3c ea 67 16 3d c8 a4 47 3e af 6b fa be
       0.019977562 0.036720194 0.19496453 -0.4891028
0001a0 9f ba ba 3e 33 38 99 bf 55 63 e6 be bb d3 09 3d
       0.36470506 -1.1970276 -0.4499766 0.033649188
0001b0 91 fd 6d be 77 10 c0 be d7 2c 9b be d6 21 a7 be
       -0.23241259 -0.37512562 -0.30307648 -0.32643002
0001c0 26 3c 28 3d 24 27 7c be 75 89 53 3d b3 e8 af be
       0.041072987 -0.24624306 0.05164476 -0.34357223
0001d0 78 17 c9 3e 81 f1 3d bf 10 2d cd 3e ec f5 77 be
       0.39275718 -0.7419663 0.40073442 -0.24214906
0001e0 a5 f9 c0 bd 1f e0 9b bd 74 64 99 be b5 21 9d 3d
       -0.09422616 -0.07611107 -0.29959452 0.07672445
0001f0 75 71 10 3f e1 db 88 be d9 dc 89 be 5b 8c 99 3e
       0.5642312 -0.26730254 -0.26926306 0.29989895
000200 26 ab 21 bd 98 5b 1f bf ce 38 db be 15 8b bd 3e
       -0.03946986 -0.62249136 -0.42816776 0.37020174
000210 d7 d9 b2 bc eb 0f 95 be e3 13 0e be 8d 29 d9 be
       -0.02183239 -0.29113707 -0.13874774 -0.42414513
000220 34 0d 6a be f5 c9 52 3e 0d ec 21 bd 66 1c 1b be
       -0.22856599 0.20584853 -0.039531756 -0.15147552
000230 81 e3 0c 3e f2 18 17 be 4b 84 bf bd 92 3e 2c be
       0.13758661 -0.1475561 -0.09351405 -0.16820744
000240 27 77 05 be dc d6 85 3e e4 d0 ff bd 0a a3 33 bb
       -0.13033734 0.26140487 -0.124910146 -0.0027410411
000250 24 97 75 3e a1 ce 19 3f 48 b6 5f 3d eb d8 22 be
       0.23983437 0.60080916 0.054617196 -0.1590306
000260 63 a6 30 bf 96 b6 89 be 94 d4 bb bd 5c 5e c3 3d
       -0.69003886 -0.26897115 -0.091714054 0.09539482
000270 f3 34 9f be 33 a1 c1 3d 30 58 b1 3e 02 d5 e6 be
       -0.31095085 0.094545744 0.34637594 -0.45084387
000280 79 c8 ea be de fb 05 bf 99 03 09 be f6 02 d6 3e
       -0.45856073 -0.52337444 -0.13380279 0.41799134
000290 6e 8d 12 3e df 0c 09 3e 01 22 12 3f 8f 8d 58 be
       0.14311764 0.13383816 0.57083136 -0.2114775
0002a0 6d 34 da 3d 33 ad 41 3e e1 35 2e be 62 16 ab 3e
       0.10654531 0.18913727 -0.1701274 0.33415514
0002b0 d0 ed cf 3d 22 57 d7 3d 5d cb 82 bf 56 c7 c1 be
       0.10152781 0.10514666 -1.0218312 -0.37847394
0002c0 1d 78 8d be d8 ed bd 3e 7d a3 56 bf 69 fa b9 be
       -0.27630702 0.37095523 -0.83843213 -0.3632386
0002d0 4b 56 f8 be fd 57 64 be 3b 9c ec be e2 d1 97 bd
       -0.48503336 -0.2229919 -0.46212944 -0.07413079
0002e0 0a 23 d1 be f5 7a 84 3e 35 cd 81 3d 02 1b 79 3e
       -0.40847045 0.2587506 0.06337968 0.24326709
0002f0 a3 07 90 be fb 03 64 be 24 23 14 3e 35 6d c6 3e
       -0.28130826 -0.22267143 0.1446653 0.38755193
000300 40 42 26 3e 85 31 97 3c ed e6 1f be cc f2 f0 be
       0.1623621 0.01845623 -0.15615435 -0.4706024
000310 2a de f9 be cd cd 4b be 6a 10 8d bd d1 47 b7 bd
       -0.4880231 -0.19902726 -0.06887896 -0.08949245
000320 6f 65 11 3f da 06 61 bf 1c e9 cf be 77 00 89 3d
       0.567954 -0.8790108 -0.40607536 0.06689542
000330 12 13 16 be c0 56 08 3e 37 96 0a be 83 7e 07 be
       -0.14655712 0.13314342 -0.13533865 -0.13231854
000340 d9 a9 13 be b1 08 26 be 1a 75 18 bf c8 76 87 bc
       -0.1442026 -0.16214253 -0.5955368 -0.016536132
000350 fa 67 44 bf df 73 b8 bd af 77 33 3f 0c 0b c0 be
       -0.76721156 -0.09006476 0.701045 -0.37508428
000360 1e d2 30 3e 39 43 95 3d 26 9b e0 be a4 62 96 be
       0.17267653 0.07288212 -0.4386837 -0.29372132
000370 35 d5 4f be 84 af e0 3e 65 3d 8f bd 9e 30 81 bf
       -0.20296176 0.43883908 -0.06994132 -1.0092962
000380 4c aa 32 be ea 6d 03 3e bf f4 b2 be 2b d3 57 3e
       -0.17447776 0.12834898 -0.3495235 0.21076648
000390 de 53 a7 bc 98 18 85 3e 75 c2 02 3d 2c 7e 81 bd
       -0.020425733 0.25995326 0.03192373 -0.063228935
0003a0 a3 91 28 3e ed e3 85 3e 50 f0 03 be 76 86 a5 3e
       0.16461806 0.26150456 -0.1288464 0.32329148
0003b0 73 39 63 be d8 8d d0 be b4 17 97 be 12 21 18 be
       -0.22189884 -0.40733218 -0.29510272 -0.14856365
0003c0 10 cf 63 be de 63 eb 3d 83 9a f6 be 6e 56 40 bf
       -0.22246957 0.114936575 -0.48164758 -0.7513188
0003d0 9e a1 09 3f 0b df b0 3e d9 e7 3a bd ec 3e e5 3d
       0.53762233 0.34545168 -0.045631263 0.11193642
0003e0 29 17 da be c3 e0 c4 be 12 50 b2 be e3 02 b9 bc
       -0.42595795 -0.3845273 -0.34826714 -0.022584384
0003f0 53 30 db 3d a6 eb 0a bf 80 d5 f6 be 97 cb c8 be
       0.107025765 -0.5426582 -0.48209763 -0.39217827

network.2.weight f4 [256, 256]
000000 59 1a 42 3d 4e b7 b6 3c 2a 03 13 be e3 57 18 3e
       0.04738841 0.022304203 -0.14356676 0.14877276
000010 70 aa 90 3d d6 ca 2d 3e ff 96 63 3e 63 5b 3f be
       0.070637584 0.16971907 0.22225569 -0.18687205
000020 15 ca ce 3d 0c 94 47 bd be 47 a1 3e 47 3c 21 be
       0.10097138 -0.048725173 0.31500047 -0.1574565
000030 3e af 0e bb 25 94 80 3e c4 be 01 3c f8 24 e6 3d
       -0.0021771933 0.25113025 0.007919017 0.1123752
000040 28 95 28 3d 8e 9c ee 3b 6f 9a 85 3e 70 6d 19 be
       0.04115787 0.0072818464 0.26094386 -0.14983153
000050 54 94 67 3e e1 55 cc 3c f6 7e df 3d 3b a3 eb 3d
       0.22615176 0.024943294 0.10912888 0.11505743
000060 58 63 60 bc c7 fd f4 bd 8c 45 28 3d a4 6e 31 3d
       -0.01369556 -0.11962467 0.04108195 0.043318406
000070 01 c0 1b 3e fb 70 f4 bd e4 9d 2a 3f d5 6d 00 3e
       0.15209962 -0.11935612 0.6664717 0.12541898
000080 a2 8e ec 3b e6 ad e4 3d 10 7f 15 bd c1 59 71 3c
       0.0072191516 0.11165981 -0.03649813 0.014730872
000090 6f df eb bd ac a4 08 3e 7d 42 1f 3b c4 0c 4e bd
       -0.11517226 0.13344067 0.0024301105 -0.050305143
0000a0 90 10 fd be 97 26 3a be 7a b3 76 3e e8 4b c8 3d
       -0.494267 -0.18178783 0.24091902 0.09780103
0000b0 8f 85 12 3e 15 8d d1 bd 2a 84 44 be 0f 78 c5 3c
       0.14308761 -0.102319874 -0.19191042 0.0241051
0000c0 50 41 38 3e ec 87 2c 3e d6 07 d7 3d 5b cd 34 bd
       0.17993665 0.16848725 0.104995415 -0.044141155
0000d0 48 29 03 3d 76 73 cf bd d6 f1 e8 3d c9 67 f2 be
       0.03202179 -0.10129444 0.113742515 -0.47344807
0000e0 98 2e e8 3c 57 d2 bc 3e 34 51 c5 3d 07 3f 40 be
       0.02834253 0.36879227 0.09634629 -0.18774043
0000f0 d6 91 a6 3e 44 72 3d 3e 49 f9 c0 3d 03 58 40 bf
       0.3253314 0.1850062 0.09422547 -0.75134295
000100 27 3f f6 3d 89 7d da 3d 88 3f 89 bd b1 45 99 3d
       0.12023764 0.10668475 -0.06701571 0.07483996
000110 89 4e 1b bd e2 c0 d1 3d 26 e5 6b be cc 75 84 be
       -0.037916694 0.102418676 -0.23036632 -0.25871122
000120 34 b7 84 bd 5f 67 ea bd 31 1b 85 3d 18 88 24 be
       -0.06480256 -0.11445498 0.06499327 -0.1606754
000130 9e 30 a7 3e 04 7d c4 3d a3 09 d4 be d1 1c d8 3e
       0.3265428 0.09594157 -0.41413602 0.42209485
000140 64 a7 9f bd 16 5a 54 bd eb 8c a0 3e e8 7e 6c 3d
       -0.07795599 -0.051843725 0.31357512 0.057738215
000150 80 40 ac 3d d1 ec 35 bd 1b 27 b5 3e 2f dd af 3d
       0.0841074 -0.0444153 0.35381398 0.08587109
000160 9b 44 7b 3e f3 92 05 3e 84 83 98 3d f1 ed 02 3e
       0.2453789 0.13044338 0.074469596 0.1278608
000170 6a 33 58 3e e4 0d cf 3d c5 1e 09 3e 32 ea 9a 3d
       0.21113363 0.10110071 0.13390644 0.075642005
000180 72 4c 4b 3f 04 f8 50 be bd 59 1a 3d b0 6f 63 be
       0.7941352 -0.2040711 0.037683237 -0.22210574
000190 08 ef a3 3d 27 a7 fe 3d 83 4c 47 3e fb 52 9f 3b
       0.08004576 0.124342255 0.1946278 0.004862187
0001a0 7c d2 40 3e 7b 38 af bd c5 70 56 3e 9d 68 55 3e
       0.18830293 -0.08555695 0.20941456 0.20840688
0001b0 fe ad 61 bd 0d 0c 7a bd 5c 1c 07 3e 93 7d c4 3d
       -0.055097573 -0.06104665 0.13194412 0.09594264
0001c0 02 49 8b bd 63 17 82 3d 81 42 33 bc 5e 21 83 be
       -0.068010345 0.06352117 -0.010941149 -0.25611395
0001d0 67 ee da bd 05 d6 a1 be b0 8d 9f 3c 95 ac a1 bd
       -0.10690003 -0.31608596 0.019476742 -0.078942455
0001e0 dc a8 24 bd 06 b9 d6 3d c1 e3 15 bc da 82 cd 3b
       -0.0402001 0.10484509 -0.009148539 0.0062717022
0001f0 24 f5 8b bd 8d 53 d5 3c 61 ee 85 be 9f 03 73 3d
       -0.06833866 0.026040817 -0.2615843 0.059329625
000200 58 45 23 3c e5 5b e3 3d 7b 4f 4a be 9b be ed 3d
       0.009965263 0.11101512 -0.19756882 0.11608621
000210 8e 29 1c bd f8 29 42 3e e9 b9 90 be cf 8b 5c be
       -0.038125567 0.18961322 -0.28266838 -0.21537708
000220 07 c4 91 3e 77 e6 26 bd ce b9 d0 bd 95 37 f8 3d
       0.2846987 -0.040747132 -0.101916894 0.121199764
000230 6a 57 34 bd 98 f9 40 3e be b5 74 3e 6e 36 12 be
       -0.044028677 0.18845212 0.23897454 -0.14278576
000240 d2 cb e2 bd 61 5d 09 3e 8a 27 66 3e 56 46 aa 3a
       -0.11074032 0.13414527 0.2247602 0.0012990932
000250 9c 88 b1 3d dc 7a d2 3d 75 19 57 be 47 37 d0 3d
       0.08668634 0.1027734 -0.21005805 0.10166793
000260 8e 40 11 3f c5 0b 05 be 87 fc 37 3d 00 9f 43 3e
       0.5673913 -0.12992771 0.044918563 0.19103622
000270 f1 eb 57 3e ad 25 04 3e eb c9 db 3d ac c7 48 3d
       0.21086098 0.12904997 0.10731872 0.049018547
000280 fc 75 83 3d c6 ab 5e 3c f1 05 fe bd a8 32 83 3c
       0.06418988 0.013590759 -0.12403477 0.016015366
000290 37 e7 8b 3d 7a b2 c0 bc 65 a6 4b 3d c2 91 83 3d
       0.0683121 -0.023522604 0.049719233 0.064242855
0002a0 88 d0 71 3e e5 be 55 be 2f db ce 3d 09 7c 04 3e
       0.23614705 -0.20873602 0.101004 0.1293794
0002b0 9a a1 25 bf 40 a5 82 3e be 3d da be 36 da 85 3d
       -0.6469971 0.255167 -0.4262523 0.06535761
0002c0 e1 6b d7 3d 54 62 c1 bd cb 3b 25 3f 5a 92 21 bf
       0.10518623 -0.09442583 0.6454436 -0.6311394
0002d0 c9 7c a0 bd b6 4c e2 be 6e a1 bd be 65 23 81 3e
       -0.07836301 -0.4419915 -0.37037224 0.25222316
0002e0 b5 f1 6f 3e 50 24 d6 bc 64 c1 79 3d 0d be 79 3d
       0.23432048 -0.026140362 0.060975447 0.060972262
0002f0 f3 dd 9b 3d ed c4 5c 3e 00 68 5c bd f1 f6 b4 bd
       0.07610693 0.21559496 -0.05381012 -0.08836163
000300 61 ef 1b 3d a7 7c 1d be b2 ce b1 3d 2d e7 87 3e
       0.038070086 -0.15379582 0.08682002 0.2654356
000310 ee f9 1d 3e 62 09 e9 3c 51 89 97 bd 82 f9 8e be
       0.15427372 0.028446857 -0.07399238 -0.27924734
000320 8b 00 16 be 81 07 f0 be 02 51 68 be 2d 5e 33 3e
       -0.14648645 -0.46880725 -0.22687152 0.17516394
000330 16 2d 45 bd cd 08 17 3d 90 1b 7a bd 9f 78 61 be
       -0.0481387 0.036873627 -0.061061442 -0.2201867
000340 50 9d b3 3e f7 5c c9 3d 1f 04 d1 3e 4c cd e9 bd
       0.35080957 0.09832185 0.40823457 -0.114161104
000350 21 b8 55 bf b3 c9 e1 3d ac d0 ad bd 63 a7 e1 bd
       -0.83484083 0.11024799 -0.084870666 -0.110182546
000360 40 37 ac bd a6 17 8f bd ea b0 54 be f8 34 8f 3d
       -0.084089756 -0.069869325 -0.20770612 0.06992525
000370 fe 6a 48 bd 5e 17 41 3e ca b7 ba 3d b0 9b 48 bd
       -0.04893016 0.1885657 0.09117086 -0.0489766
000380 94 bb 0c be 1e e0 ae 3d 1f ab 7e bd 87 05 db bd
       -0.1374343 0.08538841 -0.062174913 -0.10694414
000390 a6 6a 8b be d1 cf ec 3c 83 5d 04 3c 78 cc 15 bd
       -0.27229804 0.028907688 0.008078936 -0.03657195
0003a0 17 11 73 3d cd b8 5f 3e 4a d7 64 3d 18 cf d0 3e
       0.05934247 0.2184784 0.05586938 0.40783
0003b0 2e 61 27 3e 25 da 66 be c0 bf 3f 3d e8 57 5c 3e
       0.16345665 -0.22544153 0.046813726 0.21517909
0003c0 84 8d b5 3e 6a ee a8 3d d0 fd e9 3d e6 a1 9d 3e
       0.3545953 0.08248599 0.11425364 0.3078758
0003d0 ac 9f d5 bc 7c a9 76 be b5 85 4a 3e 65 b5 fe bd
       -0.026077114 -0.2408809 0.19777568 -0.12436942
0003e0 04 9e cc bd 97 a3 a7 3d 65 60 ab 3d a5 4f 99 bd
       -0.099910766 0.08185499 0.08367995 -0.07485894
0003f0 21 b4 d9 3d 7f 36 16 be 4a 03 a4 3d 68 45 46 be
       0.1063006 -0.14669226 0.0800844 -0.19362414

network.2.bias f4 [256]
000000 bc ad ab 3d 09 e9 de 3c e6 f3 2c bf a9 eb 71 bd
       0.083827466 0.02721073 -0.6755966 -0.059062634
000010 2a d4 81 be d9 10 e4 be 26 c8 9d bd fb d8 45 3e
       -0.2535718 -0.44544104 -0.07704191 0.19321053
000020 f8 d9 f7 3d b8 a3 1a 3e 85 9b 88 bc d3 8e 5a be
       0.12102121 0.15101516 -0.01667572 -0.21343546
000030 2a fc 9e bd 26 ff cd bd 3e 1f 96 bd 77 94 a1 be
       -0.0776294 -0.10058431 -0.07330178 -0.31558582
000040 0e 74 5b bd fe f6 03 be de 87 d7 3b 08 1f e0 bc
       -0.053577475 -0.12887189 0.006577476 -0.027358547
000050 ef b1 51 be 60 c8 c2 bd ef fc 5e bd d2 6c b1 bd
       -0.20478033 -0.09510875 -0.054440435 -0.08663334
000060 e4 08 6e bd c3 45 e1 bd 8e c1 2a bd cf f6 00 bd
       -0.058113948 -0.10999634 -0.041688494 -0.031485375
000070 ad c8 c3 3d e5 36 32 bd b0 8c 2d be 53 51 01 bd
       0.0955976 -0.043509383 -0.169482 -0.031571697
000080 58 c5 56 be 8d 68 13 3e 20 02 fd bd af 98 c2 3d
       -0.20973718 0.14395352 -0.12353921 0.09501778
000090 fb 27 f3 b9 3f 93 12 bd 4e 52 69 bd 9a d0 93 be
       -0.0004637836 -0.035784956 -0.056963257 -0.28870088
0000a0 85 3c 70 bc b6 f4 26 3e be 35 bb bc 32 51 b6 3e
       -0.0146628665 0.16304287 -0.022852775 0.35608822
0000b0 52 b1 6f bd 56 37 24 bb 72 ec 4b 3b 9e d1 04 be
       -0.058518715 -0.0025057397 0.0031116274 -0.12970588
0000c0 2b 2e 6c be bb c4 2b be 87 4a 01 3d ce ad 35 3e
       -0.23064487 -0.16774265 0.031565215 0.17742082
0000d0 36 28 a3 3d fd 72 ed bc ef 43 51 bd a5 90 cc bc
       0.07966654 -0.028985495 -0.051090177 -0.024971316
0000e0 c8 cc d7 bd ae 72 79 bd 03 da b1 3e 24 83 0b be
       -0.10537106 -0.060900383 0.34736642 -0.13624245
0000f0 51 25 84 bd 70 31 a3 bd 6c 91 5e 3d e9 49 28 be
       -0.0645243 -0.07968414 0.054337904 -0.16434444
000100 5e 79 11 3c 72 17 c5 bb 05 2d ac be 89 ca 8a bd
       0.008879034 -0.006014758 -0.33628097 -0.06776912
000110 88 58 17 bb ce 3f f4 bc 7b 73 af 3d e8 17 ac bd
       -0.002309354 -0.02981558 0.08566948 -0.08402997
000120 35 97 a9 be 17 28 bd be 08 47 86 bd 80 a6 95 bd
       -0.33123174 -0.3694465 -0.06556517 -0.07307148
000130 e4 98 9c bd c4 6f 8c bc bd 6d ab bd b5 82 3f 3e
       -0.07646349 -0.017143138 -0.0837054 0.18702205
000140 05 c6 bc 3d 55 ea 33 be e2 79 8e bc cf 50 db 3d
       0.09217457 -0.1756986 -0.017392103 0.107087724
000150 f4 60 85 be 04 d1 16 bc c3 78 07 be 62 d0 e1 bb
       -0.26050532 -0.009205107 -0.1322966 -0.0068912962
000160 5d cd 7e 3e d8 4a 05 3e 98 75 de be f1 6b 5f be
       0.24883027 0.13016832 -0.43449092 -0.2181852
000170 32 f3 98 3e ce d7 b4 bc 45 15 21 bd c1 42 16 bc
       0.29873043 -0.02207556 -0.039326925 -0.009171189
000180 f8 93 88 bd 9c 4a d1 bd c1 f7 5f 3c b7 02 02 bd
       -0.06668848 -0.10219309 0.013669909 -0.03174087
000190 74 5b 87 be 6a d9 db be dc a4 13 3e f5 3b 53 bd
       -0.2643696 -0.4293931 0.14418358 -0.05157085
0001a0 7e 2f 78 3e c7 6f 2d be 57 b5 21 be a9 52 9a 3d
       0.24236867 -0.16937171 -0.15791832 0.075352974
0001b0 56 04 9e 3c e7 c2 82 3d 34 f2 03 3d 5c 70 f1 3d
       0.019289177 0.06384831 0.032213405 0.11789009
0001c0 eb 46 40 3d 12 54 50 3e 13 e6 34 be b4 17 be be
       0.046942633 0.2034457 -0.17665891 -0.3712746
0001d0 99 fb a4 bd 2d c2 06 3b 4a 79 c7 3d c8 ac 34 bd
       -0.08055801 0.0020562515 0.09739931 -0.04411009
0001e0 a3 85 b0 be 4f 9c d3 be 96 d9 55 bc 8c 4c 6d bd
       -0.34476957 -0.41330191 -0.013052365 -0.05793433
0001f0 a4 79 02 be 64 97 7a bd e9 90 87 3a 19 ba a5 be
       -0.12741715 -0.061179534 0.0010342869 -0.32368544
000200 20 c2 ec 3c d8 96 bd bc f0 cf c3 be 04 6d 9a be
       0.02890116 -0.023143217 -0.3824458 -0.30161297
000210 7a da 35 be c3 42 b9 ba c4 68 9c bd e9 a9 20 be
       -0.17759123 -0.0014134276 -0.0763717 -0.15689816
000220 aa c9 71 bd 37 5d 78 bd a1 f6 85 3d 76 4e 98 bd
       -0.059030212 -0.06063577 0.06541181 -0.0743684
000230 34 f2 92 bc 85 0c 2a be 5d b2 bd bd b6 93 90 bd
       -0.017937757 -0.16606338 -0.09262536 -0.070594236
000240 03 81 46 3c da 3f 03 bd ef f7 00 bd c7 86 30 be
       0.01211572 -0.032043315 -0.031486448 -0.17238913
000250 e0 4a de 3d 22 78 09 bd bd 61 31 bd 78 19 b3 3d
       0.10854125 -0.033561833 -0.0433061 0.08745092
000260 f8 17 3e be 87 a8 7d bd 68 3b 41 3e 46 5c 39 3b
       -0.18563831 -0.0619283 0.18870318 0.002828376
000270 20 75 67 be 51 6d 85 bd 0e 68 82 be f4 5e 8c be
       -0.22603273 -0.06514991 -0.25470012 -0.27416193
000280 81 b0 16 be 53 34 48 bd 33 e1 6f be 70 11 82 3e
       -0.14715768 -0.048878025 -0.2342575 0.2540393
000290 80 23 d2 bd 75 f6 cd 3c 37 ad a2 bd 72 98 b6 bc
       -0.10260677 0.025141934 -0.07943194 -0.022289488
0002a0 5e c8 37 bd 50 93 a2 bd aa ff c8 bc dd 12 8b bd
       -0.04486882 -0.07938254 -0.024535973 -0.06790707
0002b0 39 a1 3c 3d 09 e7 97 bd 57 fb 31 bd 25 ff c8 be
       0.04605219 -0.07417113 -0.043452587 -0.3925716
0002c0 db b0 55 3c 50 33 f8 bc 40 69 56 3d 8b 28 25 be
       0.013042654 -0.030297905 0.052346468 -0.16128747
0002d0 94 6c 8b bc 8c c4 59 bd 03 0f f7 be 83 f1 dc bb
       -0.017019548 -0.053165957 -0.4825364 -0.0067426576
0002e0 27 27 cd be 55 27 35 3d 57 5f 46 3d 2b 55 0d be
       -0.40068933 0.044226963 0.048430767 -0.1380202
0002f0 67 43 9a bc d2 18 73 be 35 20 c2 bd ee 6a a6 be
       -0.018830968 -0.23739937 -0.09478799 -0.32503456
000300 60 bd 3e bd 66 a4 28 3e e1 b2 74 bd 76 b2 3b bd
       -0.04656732 0.16468963 -0.059740905 -0.04582449
000310 2f ff 07 be cf 06 68 be b9 cc 70 be 6e 8d da 3b
       -0.13280939 -0.22658847 -0.23515595 0.0066696918
000320 28 9e 5b bd 75 4f d0 bc 91 b1 3b be 7a 2b bc 3d
       -0.053617626 -0.025428513 -0.18329455 0.0918798
000330 dc c5 69 bd d9 03 1b be 03 ac 84 3e 74 c3 ba bc
       -0.05707346 -0.15138187 0.25912485 -0.022798277
000340 76 ed 1d bd 00 df 63 be 28 60 3d bd 9e 2f ae bc
       -0.03855654 -0.22253036 -0.04623428 -0.02126294
000350 ed df 22 bd cb 35 5e bd 3b 81 7e be 1a 9f 92 bc
       -0.039764334 -0.05425052 -0.24853985 -0.017898131
000360 e5 81 fb bd 36 bd be 3e f8 27 ea 3d 03 7e 72 bc
       -0.12280635 0.3725373 0.11433405 -0.014800551
000370 f5 38 34 bd b5 e0 fc 3e 98 67 65 bd c1 86 29 bd
       -0.04399963 0.49390188 -0.056006998 -0.041388277
000380 85 44 8d 3e c6 58 fd be cb e2 b2 bb cc 2a b0 bc
       0.2759134 -0.4948179 -0.0054591647 -0.021504782
000390 ea ca 7c bd f7 10 d7 3c 97 ff ac bb 52 1a 9f be
       -0.06171695 0.026253207 -0.005279492 -0.31074768
0003a0 fa 58 4a bd cf a8 d5 bd 31 03 3a be 9d 67 f1 bc
       -0.04940126 -0.10432588 -0.1816528 -0.029468352
0003b0 0f e9 9f 3e fb a5 34 bd 3e c6 58 3d f6 53 4a bd
       0.31232497 -0.044103604 0.052923433 -0.049396478
0003c0 41 eb 58 be 22 97 72 3e 03 9f 5d 3e 0d 9f 88 bd
       -0.21183492 0.23690465 0.2164269 -0.066709615
0003d0 bc 30 23 be 88 c3 02 3e 73 a0 b1 bd 3f 1f 2f 3c
       -0.1593656 0.12769902 -0.086731814 0.010688602
0003e0 df 21 86 be 03 a5 e0 3b f2 b0 08 3e 00 0b 42 be
       -0.26197717 0.0068556084 0.1334875 -0.18949509
0003f0 7f 31 a2 3d b5 e7 21 be 8c d3 f2 ba 7c b5 99 bd
       0.07919597 -0.15811045 -0.0018526181 -0.075053185

mean.weight f4 [1, 256]
000000 74 ff 03 bf bd cf be 3f 64 59 86 c0 ee 07 5b be
       -0.51561666 1.4907147 -4.198412 -0.21389744
000010 5d ba 10 3f 37 79 07 c0 bb 9a 86 3b 89 b2 be 3e
       0.5653437 -2.1167734 0.004107801 0.37245587
000020 0e dd 30 40 78 0d 4c 3e 0d 81 42 be 7f ff cb bf
       2.763492 0.19927013 -0.18994541 -1.5937346
000030 4c 1d 9e 3b be 9c 8f bc 40 ec f2 3d c6 38 c5 bf
       0.00482527 -0.017530795 0.11861467 -1.5407951
000040 e9 2d d1 bb c6 7b 8b be 09 09 cb bc 64 2b 1f 3c
       -0.0063836467 -0.2724287 -0.024784582 0.009714935
000050 81 28 ed bf a8 f2 f9 be 3d 39 0e bc f6 4a 66 c0
       -1.8527986 -0.48817945 -0.008680639 -3.5983253
000060 52 e7 94 3b 7f 57 dc 3c 9c 8a bd 3b 78 e5 78 bc
       0.004544177 0.02689719 0.005784346 -0.015191428
000070 9c 8c 97 be 2d bd 0f 3d 6f 30 ca bf 65 8b 0b bf
       -0.29599464 0.03509252 -1.5796031 -0.54509574
000080 cf 09 a0 be e0 21 d4 3e bf 3b a0 3f 7a ec 91 3f
       -0.31257483 0.41432095 1.2518233 1.1400292
000090 00 49 95 3e aa 55 6e 3c 73 03 0b bc 2e 41 14 c0
       0.29157257 0.014546791 -0.008484709 -2.3164783
0000a0 5a d8 80 be 6d e4 70 bf 43 86 ea bf ae f2 e1 3e
       -0.25165063 -0.9409855 -1.8322223 0.44130462
0000b0 0b 4b 78 bc 8d 4b f2 ba 17 28 d8 3c 0f bd 83 be
       -0.01515461 -0.0018485651 0.026386304 -0.25730178
0000c0 6f df 86 c0 b1 aa c7 bf 94 17 8a be ae 85 e0 bf
       -4.2147746 -1.5598966 -0.26971114 -1.7540796
0000d0 18 ef 40 40 f3 d9 07 be f2 39 18 be c7 c6 d5 bc
       3.0145931 -0.13266735 -0.14865854 -0.026095761
0000e0 f6 02 ac 3c 1e 15 e2 3c 13 53 47 3f db 69 a6 3e
       0.020997506 0.02759796 0.77861136 0.32502636
0000f0 f4 f4 96 40 93 6e f9 3c 17 9d 72 be d5 be 6e c0
       4.7174015 0.030448234 -0.23692738 -3.7303975
000100 98 50 3d 3e a7 3d 34 3f df 51 99 3f ac 7a 68 bf
       0.18487775 0.70406574 1.197811 -0.9081218
000110 de d1 bc bb a6 00 0d 40 27 3d 1f 40 4c 3c 74 ba
       -0.005762323 2.2031646 2.4881074 -0.0009316846
000120 d1 c7 74 c0 e1 83 81 be 37 3d 28 bc 0f bc ab 3f
       -3.8246958 -0.25295928 -0.010268501 1.3416766
000130 fb 55 79 3c aa a4 a8 3c f9 43 51 bf 4f b6 be 3e
       0.015218253 0.02058633 -0.81744343 0.37248465
000140 cb 8d a2 bf ab a1 93 be 06 34 21 3c 36 34 cf bf
       -1.2699522 -0.2883428 0.0098390635 -1.6187809
000150 c4 07 d0 3e 58 83 a0 bb 6b bc 45 bb 92 76 74 bb
       0.40630925 -0.00489847 -0.003017212 -0.0037302119
000160 77 87 02 3f 35 64 1a 3f dd d0 41 3f 63 71 19 3f
       0.5098795 0.60309154 0.75709325 0.5993864
000170 a2 e2 0f 3f 08 48 35 3b 35 3c de 3e 5d 32 8a 3c
       0.5620519 0.0027661342 0.4340531 0.016869718
000180 14 c0 f6 3c 49 a7 29 3f 76 70 1a 3d 73 9b c1 bd
       0.030120887 0.6627088 0.037704907 -0.09453478
000190 3c 25 4a bf 13 b3 69 bf 77 d4 a5 be 42 57 ab 3b
       -0.78963065 -0.9128887 -0.3238866 0.005228908
0001a0 33 e9 01 40 03 44 4e bf 7c 2d 0f c0 c7 b8 80 be
       2.0298584 -0.8057253 -2.2371511 -0.25140974
0001b0 af f1 08 3c ce 11 dc 3f d4 59 c9 3c 3e d8 51 3d
       0.008358403 1.7192934 0.024578966 0.051231615
0001c0 ca 36 bf 3d d5 c5 b5 3f 30 d2 76 bf 04 24 85 40
       0.09336622 1.4200999 -0.9641447 4.1606464
0001d0 ce 77 a6 3c 2c 76 c9 bc 88 87 a9 3e 0c 8f 9a 3e
       0.0203208 -0.024592482 0.33111215 0.3018726
0001e0 b4 a9 ca 3f 25 3a 92 bf 47 86 32 3c 21 b0 c3 3c
       1.5833039 -1.1423994 0.010896272 0.023887696
0001f0 77 82 36 c0 43 32 2e 3e 79 89 a3 3f 28 fb 59 c0
       -2.851713 0.17011361 1.2776328 -3.4059544
000200 00 fb c8 bc 8c 83 1b 3c 73 90 11 3f b4 fb e6 c0
       -0.024533749 0.009491812 0.56861037 -7.2182255
000210 f6 7a 07 3f 17 9b 87 3f 2e 14 31 3d 01 58 be be
       0.52922 1.0594205 0.043232135 -0.37176517
000220 fb 24 8d bc fa 36 0d 41 8b 04 7c 3f 51 8c 84 3c
       -0.017229548 8.825922 0.9844443 0.01618019
000230 eb 4d a1 be b2 c2 f2 3e 0f b8 8d bf 2c 92 3b bd
       -0.3150476 0.47414166 -1.1071795 -0.045793697
000240 14 6e 06 b7 3f bb f7 be 99 96 47 3f 0a 33 1b bf
       -8.012652e-06 -0.48385045 0.7796417 -0.60624754
000250 dd af 32 40 64 b2 37 c0 62 f7 e5 be 3f 25 a0 3d
       2.7919838 -2.870263 -0.449153 0.07819604
000260 9a 1c 20 c0 b4 ae 9c bf 22 18 0d 3f d1 19 13 3b
       -2.5017457 -1.2240815 0.5511495 0.0022445808
000270 bd 6e 8d be 4b 35 81 be 31 a2 d5 be e3 55 49 bf
       -0.2762355 -0.25235972 -0.41725305 -0.7864668
000280 ea a1 19 c0 0c 3c 0a 3f fb 0b d1 bf 25 4e ab bb
       -2.4005075 0.53997874 -1.6331781 -0.0052278214
000290 f3 4d 84 3f 20 98 db 3f ea 22 64 3b 31 5f 33 3d
       1.0336288 1.71558 0.003481085 0.043791953
0002a0 1d 6c bf bf 20 1f d0 bb 60 30 a9 3f ef 24 2f 3c
       -1.4954869 -0.0063513666 1.3217888 0.010689958
0002b0 fa 2f 86 40 f9 0e 8f bb e4 ef 98 bd 0b e4 38 c0
       4.1933565 -0.0043657986 -0.074676305 -2.8889186
0002c0 f4 9a 83 bc 41 05 17 bd 78 84 40 3f c7 57 bc bf
       -0.016065098 -0.036870245 0.7520213 -1.4714288
0002d0 9b 94 2c be cf 55 9c bb d9 64 c3 c0 e3 16 e1 be
       -0.16853563 -0.0047709714 -6.1060605 -0.43962774
0002e0 f9 f6 dd 3f 7a 97 c0 3e f4 a6 4f 3f 51 24 20 c0
       1.7340995 0.37615567 0.81114125 -2.5022166
0002f0 ad 83 27 bd ab ee ba bd 0c 5c a6 be d6 52 72 40
       -0.04089706 -0.091275536 -0.324921 3.786306
000300 3b b8 06 3c 9b bb a4 40 bb 77 d2 3c 1c d9 b6 bb
       0.008222635 5.147901 0.025691858 -0.0055800807
000310 4d be 80 bf 18 5f 14 c0 3e 3a 04 be ac c7 86 3e
       -1.0058075 -2.318304 -0.12912843 0.26324213
000320 bc dc c7 be 99 de b9 3d 55 00 a2 bc 32 97 c9 3f
       -0.39035594 0.0907566 -0.019775549 1.5749266
000330 8b 28 44 3e 70 62 8f c0 99 fa ec be 96 fa c1 3b
       0.19156091 -4.4807663 -0.4628494 0.0059197647
000340 ae 42 b3 3c 0e cb 45 bf 56 df 2c 3d de 36 ff 3c
       0.021882381 -0.7726296 0.042205177 0.031154092
000350 8f 8a c6 ba 36 95 9e bf 24 57 28 3e 6c 50 c6 3c
       -0.0015147495 -1.2389286 0.16439492 0.02420827
000360 42 52 4a 3f a6 6a 4d 3f 26 ae cb 3e d5 d9 0f 40
       0.79031765 0.8024086 0.39781302 2.2476704
000370 12 6f 33 3b 5a d7 5f 3e 99 f5 31 3b 24 97 13 bf
       0.0027379435 0.21859494 0.0027154444 -0.576525
000380 60 e1 ad 3f 76 3c 81 bf 71 5d c9 3c b3 bb 29 3d
       1.3584404 -1.0096576 0.02458069 0.04143877
000390 7e c4 20 40 f0 85 44 bc 3a 63 04 40 8c eb 0d be
       2.511993 -0.011994824 2.0685563 -0.13859385
0003a0 0b 46 60 be 92 21 60 bc 44 66 97 3e fb 77 1e 3d
       -0.2190172 -0.013679879 0.2957021 0.03868864
0003b0 f2 8f 67 3f ab 1f 8c 3c ec 53 e2 bc 18 ac 43 3e
       0.9045402 0.017104944 -0.027627908 0.19108617
0003c0 64 d2 76 c0 10 08 58 3f a0 12 00 3f 6a 04 28 3d
       -3.8565912 0.843873 0.5002842 0.041019835
0003d0 f3 8e 0f 40 c6 a7 0c bd 35 6e 0f bf 29 2f b7 ba
       2.2431 -0.03433969 -0.5602754 -0.0013975847
0003e0 59 fc 21 3f 44 81 5e 3f 35 85 09 bf 52 ea f8 be
       0.63275677 0.86915994 -0.5371888 -0.48616272
0003f0 27 09 3c 40 7a 98 ff bd 2c 0c 1f 3e b8 ff 8c 3d
       2.9380586 -0.124802545 0.15531987 0.06884712

log_std.weight f4 [1, 256]
000000 02 e2 b4 bd 11 a7 f1 3e e3 d3 8e 3e a7 61 21 bd
       -0.0883217 0.47197774 0.27896032 -0.03939977
000010 ec 55 a3 be 32 01 93 be 9a 1a ec 3c e3 4f 81 bc
       -0.3190149 -0.2871185 0.028821278 -0.015785163
000020 4a 77 d4 3d 90 0a c6 3b ef f5 30 bf 49 b1 2f 3e
       0.10374315 0.0060437396 -0.69125265 0.17157473
000030 45 b5 96 bc d6 e4 8c 3c da 7c 13 3f fd dc 5a bd
       -0.018396983 0.017198961 0.57612383 -0.053433407
000040 26 8c 03 3a 2a 2d a7 bc f9 d2 4f bc 26 ad 0c 3c
       0.0005018137 -0.020407278 -0.012684577 0.008586204
000050 c5 52 03 be 23 26 25 3e c8 ce 3e 3d dc 79 7f bd
       -0.12824543 0.16127829 0.04658392 -0.062372074
000060 13 1c c4 3c 24 f5 d3 3c a6 62 59 3b 87 f2 53 bd
       0.023939168 0.025873728 0.0033170371 -0.051744964
000070 07 a0 4a bf b7 3f 46 bc 13 e1 fb 3e 19 7a 2f bc
       -0.7915043 -0.012100152 0.49195156 -0.010710263
000080 af f4 ce bb d4 23 13 bd 83 ed a1 3c 74 1a df bd
       -0.0063157897 -0.03592284 0.019766575 -0.108937174
000090 bc 64 26 bd 8e dc ab 3c 7c fd 2a 3c dd 53 80 bd
       -0.04062341 0.020979192 0.010436412 -0.06265996
0000a0 05 c7 6e be 6e 1e 6d bd 23 5f f8 3e 82 30 3c 3c
       -0.23318107 -0.057890348 0.48510084 0.011486175
0000b0 04 76 74 3c 17 bb 44 bd a1 d9 63 bd 4e 28 03 bd
       0.014920715 -0.048029985 -0.05562747 -0.03202086
0000c0 df 24 4d 3e 19 b2 e4 bd 3f 56 95 3d 06 77 c5 3d
       0.20033596 -0.11166782 0.07291841 0.096418425
0000d0 c3 f9 64 3e 8c bb 49 bf b9 78 37 3d 3f b2 89 be
       0.22360902 -0.788018 0.044792864 -0.26893803
0000e0 d3 16 0e bc 23 2b 69 3c e4 90 9d bd 20 9b 6e bd
       -0.008672434 0.014231476 -0.07693651 -0.058253407
0000f0 b6 fb 6c be df bb 26 3d f7 f5 30 3c 36 0f 9c be
       -0.23142895 0.04070651 0.01080083 -0.30480355
000100 ad 11 f1 bd 15 be 5a bb 21 12 a8 3d 8b 51 58 bd
       -0.117709495 -0.0033377458 0.08206583 -0.05281214
000110 f3 20 06 3c b5 a7 86 3f 47 66 18 be fc 52 90 3b
       0.008186567 1.051993 -0.14882766 0.0044044238
000120 44 01 84 be 43 98 2a bf d7 fb 8b 3b f6 e7 5e 3e
       -0.25782216 -0.6663858 0.004271965 0.21768174
000130 c0 fc 36 3d 2d 5c 11 3a a2 ad 16 3f 50 9b c6 bd
       0.044674635 0.00055450463 0.5885869 -0.09697592
000140 2f a2 1b bd 20 c9 37 3d 04 bf e2 bb cb 38 83 bd
       -0.037996467 0.044869542 -0.0069197435 -0.06407317
000150 de ad 6d be 5d d8 c3 3c 7a a9 86 bf d4 b5 9b 3c
       -0.23210856 0.023906881 -1.052047 0.0190076
000160 9b 74 09 bf bb f6 06 3c 5c 0f ec bc ad c3 d1 bd
       -0.5369355 0.008237536 -0.028815918 -0.102424
000170 b7 68 a4 be 84 d1 46 bc 68 e1 f6 3b df cc 5a bc
       -0.3211114 -0.012134913 0.0075341947 -0.013354509
000180 07 a0 db b8 60 04 6a bd e1 c5 34 bf 8b d4 de bc
       -0.00010472541 -0.05713308 -0.7061444 -0.027200958
000190 7a ff 58 3f 89 85 11 3d 07 ee 74 bf 1f 7c d3 bb
       0.84764826 0.03552774 -0.956757 -0.0064540054
0001a0 24 96 dd 3e b4 f7 7f be 1e ff dd 3d e5 06 15 bf
       0.4327861 -0.24996835 0.10839675 -0.58213645
0001b0 ad 28 5e bb 8e a7 92 bc f9 28 d7 bf fc cf 3c bf
       -0.0033898756 -0.017902162 -1.6809379 -0.7375486
0001c0 0f 1e b5 be 0c f6 52 be 86 b2 f8 bd 0e fb 19 bd
       -0.35374495 -0.20601672 -0.12143426 -0.03759294
0001d0 03 6d ce 3c 5b 17 1a 3d 46 79 38 bf 9b a3 8d 3f
       0.025198465 0.03761993 -0.7206005 1.1065553
0001e0 a0 71 f1 be fc 00 7a 3d 78 9b 8f 3c f8 ea 9d 3a
       -0.47157001 0.061036095 0.017530188 0.0012048176
0001f0 ce 81 7e be 96 b8 49 bf 0e b0 13 3f 66 f2 e6 bd
       -0.24854204 -0.7879728 0.57690513 -0.112767026
000200 c8 dc bd bf fb 8b be 3c 8b 58 51 be 1e a8 af be
       -1.4833002 0.023260107 -0.20443933 -0.3430795
000210 07 d9 b2 be eb a0 05 be c5 8d 46 bd e1 5f 6c bc
       -0.34931204 -0.13049667 -0.048475046 -0.014427156
000220 62 a0 a4 3c 3f 13 09 3e 6c 28 ad bd 06 a8 f6 ba
       0.020096008 0.13386248 -0.084549755 -0.0018818385
000230 aa 87 38 ba dc 41 d0 bb 10 4e 3a be ca e6 8b bc
       -0.00070392585 -0.0063555073 -0.18193841 -0.017077822
000240 ba 77 14 ba 6b 13 ac bd 7e 83 e0 3d 0d 20 6f bc
       -0.00056635926 -0.08402141 0.1096258 -0.014595044
000250 e7 8f b9 be 4e 34 e0 bd a3 63 46 3c 88 0d 4e bf
       -0.362426 -0.10947476 0.012108716 -0.804894
000260 2f b6 f5 bc fc 2f cc 3e dd dd 6e be d0 ba 6a 3c
       -0.029994098 0.3988036 -0.23326822 0.014326766
000270 ec 5f ff bf 8d 17 7f 3c 7c 12 66 be 0c 99 cb 3d
       -1.9951148 0.01556958 -0.22467989 0.09941301
000280 f4 9d 1c 3e 8a 64 8f be df e0 c4 bd 67 1b 00 bf
       0.1529463 -0.28006393 -0.09613203 -0.5004181
000290 00 de 1d 3d a4 74 38 be 9a 8a 78 bc 73 c2 e5 3c
       0.038541794 -0.18013245 -0.015169764 0.028046822
0002a0 60 23 f0 3d ae ba 69 ba 27 5b 9b be 9f 97 52 3d
       0.11725497 -0.0008916062 -0.3034298 0.05141413
0002b0 9f 4c 0c bf 9f e0 02 3d d7 e9 73 bc 74 97 fa 3e
       -0.54804415 0.031952497 -0.014887295 0.48943675
0002c0 43 3d 14 3c a9 da b9 bb ad ba 9a bd fe 21 ad be
       0.009047809 -0.0056718183 -0.07555137 -0.33814996
0002d0 08 1d 76 3c b5 ea 97 3b 5c cf 6c be 79 e7 41 bf
       0.01502157 0.0046361336 -0.23125976 -0.75743824
0002e0 cd e4 f2 3d 10 13 00 be 50 0e ef bd c9 02 a4 bd
       0.118600465 -0.12507272 -0.11672652 -0.08008344
0002f0 02 12 fb 3b 8e 60 8e 3d 9e ca e1 bd 8c 77 aa 3e
       0.007662059 0.0695201 -0.11024974 0.33294332
000300 96 d4 1a bb c1 8b da be 24 26 4c ba fa 4b cb bb
       -0.0023625246 -0.4268475 -0.0007787666 -0.0062041255
000310 a3 58 4b bd c8 de e2 bd 48 70 7b bd 3f c3 b4 bd
       -0.049645077 -0.110776484 -0.061386377 -0.08826303
000320 78 5c fd 3b 3a 32 90 3d d0 c1 88 be 8f 1f 82 3e
       0.0077319704 0.0704083 -0.26710367 0.25414702
000330 f7 c4 41 3f 62 c8 6d 3e 95 44 12 bf 7a 89 aa 3c
       0.7569117 0.23220971 -0.571359 0.020817507
000340 57 6c 94 bc 81 52 69 be d1 5d 46 bd fd d6 0c 3d
       -0.018118067 -0.22785379 -0.048429314 0.034384716
000350 16 a2 cd 3c af 97 30 3f b3 c2 d3 3e f0 a7 d9 3c
       0.025101703 0.6898145 0.4135948 0.026569337
000360 9b d8 07 3e ac 99 f1 3e 86 f3 3b bf 59 b6 97 3d
       0.13266222 0.47187555 -0.7341846 0.07407827
000370 19 b8 07 3d 6a ed a1 bc 3a dd cd 3c 25 ad 0e 3e
       0.033134554 -0.019766528 0.025129903 0.13933237
000380 66 c3 d2 3c 4a 6b 5e 3d bd e4 e1 3b b1 7b 86 bd
       0.025727939 0.054301538 0.006893723 -0.06566561
000390 75 f2 39 3e 27 66 93 bc fc dc 06 3d 8b c1 1b bf
       0.18158896 -0.017993046 0.03292559 -0.608422
0003a0 8a b3 6c bf 1b a2 6e be 4c a7 ae bd 2c 97 f8 bc
       -0.92461455 -0.23304026 -0.08528003 -0.030345522
0003b0 f1 a1 54 3e a1 1d 33 3d ba 60 d9 be bd 51 a3 3e
       0.207649 0.04372943 -0.4245661 0.318983
0003c0 f2 29 a6 3e 72 4d b3 3d ce 04 42 bf 2c c4 0b bd
       0.32453877 0.08755006 -0.7578858 -0.03412263
0003d0 77 58 9b bd eb dd 80 bf 1e 55 ed 3d 7b 01 a4 bd
       -0.07585233 -1.0067724 0.115885004 -0.08008095
0003e0 03 0e f1 3d 9f e3 d0 bc 93 58 3c be 71 40 8d 3b
       0.11770251 -0.025499163 -0.18393163 0.0043106605
0003f0 4e 27 76 3d d8 db 01 bf da e2 6b bd a4 bd 71 bd
       0.060096078 -0.5072608 -0.05758939 -0.059018746
