sacpen4.pth (torch, 276052 bytes, 6 tensors)

network.0.weight f4 [256, 6]
0	0x3e851f41	0.26000407
1	0xbf2bbb7f	-0.6708297
2	0x3e0f4843	0.1399241
3	0x3e41df71	0.18932892
4	0x3da3ba3d	0.079945065
5	0x3f1e4ad4	0.6183293
6	0xbd4e2a00	-0.050333023
7	0x3b9cd16e	0.004785708
8	0xbfdc7be5	-1.722531
9	0xbe47efda	-0.1952509
10	0x3ed8d787	0.42351934
11	0xbf081710	-0.5316019
12	0x3da47758	0.080305755
13	0x3f0ffac3	0.56242007
14	0xbf64b292	-0.89334977
15	0xbe60edfe	-0.21965787
16	0x3e9d6c7f	0.30746838
17	0xbf47f1d2	-0.78103364
18	0xbd951f33	-0.072813414
19	0x3bdee324	0.0068019796
20	0xbf9b6e06	-1.2142951
21	0x3e72e4a3	0.2372003
22	0x3dc77683	0.09739401
23	0xbf87a179	-1.0596153
24	0x3f0cf006	0.55053747
25	0x3f254eef	0.6457357
26	0x3f1c0760	0.60948753
27	0xbece1f71	-0.40258363
28	0xbea570b6	-0.32312554
29	0xbf2fbaed	-0.686446
30	0xbe1e7916	-0.15475878
31	0x3f11784f	0.568242
32	0xbf368090	-0.7128992
33	0xbebe9ac4	-0.37227452
34	0x3eb021a2	0.3440066
35	0x3f0a47ee	0.54016006
36	0x3de786ac	0.113049835
37	0xbf2fb88f	-0.6864099
38	0xbf1da66c	-0.61582065
39	0x3ea5ce9e	0.323842
40	0x3f3f0d2c	0.74629474
41	0xbf7f4d34	-0.9972718
42	0xbeb86093	-0.3601118
43	0x3f033c92	0.512643
44	0xbf988dbe	-1.1918256
45	0xbeb00d17	-0.34384987
46	0xbe97cc71	-0.29648164
47	0xbf2529bf	-0.64516824
48	0x3ea86128	0.32886624
49	0xbfaa48e6	-1.3303497
50	0xbeddfd15	-0.4335715
51	0xbf33ddd9	-0.7026039
52	0xbdbc996a	-0.09208949
53	0x3db01ff5	0.08599845
54	0xbf6e358f	-0.93050474
55	0xbd49b287	-0.049242523
56	0xbdabc585	-0.08387283
57	0xbdb3655e	-0.08759569
58	0xbf3a4c2e	-0.7277249
59	0x3fa51d15	1.28995
60	0x3ad26b66	0.0016053736
61	0xbe2a7a9f	-0.16648339
62	0xbea70721	-0.32622626
63	0x3f539d44	0.82661843
64	0x3dc1dbe0	0.09465766
65	0xbf6c930d	-0.9241188
66	0x3e8ca455	0.27469125
67	0x3f055c0e	0.5209359
68	0x3f238341	0.6387215
69	0xbda48999	-0.08034057
70	0xbf0a988c	-0.5413902
71	0x3ea6d878	0.32587028
72	0xbe9989b3	-0.2998787
73	0x3e0c23d1	0.13685538
74	0xbe985aaf	-0.29756686
75	0xbd7dff59	-0.062011097
76	0x3f2b8461	0.6699887
77	0x3f897362	1.0738337
78	0x3e53270a	0.20620361
79	0xbe8886eb	-0.26665434
80	0xbec13119	-0.3773277
81	0x3f110af9	0.5665737
82	0x3f03e6d6	0.515241
83	0xbf25117c	-0.64479804
84	0x3f453878	0.7703929
85	0x3ebeff19	0.37304
86	0xbf05f72b	-0.52330273
87	0xbed688e7	-0.41901323
88	0xbee6885b	-0.45025906
89	0x3ebd7beb	0.37008604
90	0x3e4f4b9f	0.20243691
91	0x3c2b8b6b	0.010470252
92	0xbf9a38dc	-1.2048602
93	0x3e8aa4ff	0.27079007
94	0xbd587cab	-0.052853268
95	0xbf5857e9	-0.8450914
96	0xbf05172e	-0.51988494
97	0x3ecd53f6	0.4010312
98	0x3e48869a	0.19582596
99	0xbf00c685	-0.50302917
100	0xbf170274	-0.5898812
101	0xbebf5d48	-0.37375855
102	0xbf4cfd06	-0.80073583
103	0xbe7490d0	-0.23883367
104	0x3f2ba3c9	0.6704679
105	0x3dd5f284	0.10446647
106	0x3efc094d	0.49225846
107	0x3ee5380a	0.44769317
108	0xbf27624b	-0.6538436
109	0x3e2f48bf	0.17117594
110	0x3e8ebb79	0.27877405
111	0x3e68e6bf	0.22744273
112	0xbea0d103	-0.31409463
113	0x3f90aac7	1.1302117
114	0xbea04a28	-0.31306577
115	0xbe4f1714	-0.20223647
116	0xbea85933	-0.32880554
117	0xbdc36b7c	-0.095419854
118	0xbeda5f69	-0.42650917
119	0xbf774a97	-0.9659819
120	0xbf4493e0	-0.7678814
121	0x3e2ce2c0	0.16883373
122	0x3ef14d7d	0.4712943
123	0xbeac0de8	-0.3360436
124	0x3f0d9a7b	0.55313843
125	0x3e9af974	0.30268443
126	0xbd9a111e	-0.07522796
127	0x3e83e6fb	0.25762162
128	0xbfa28699	-1.2697326
129	0x3d58ea84	0.052958027
130	0xbf2e939e	-0.68193996
131	0x3f1b4148	0.60646486
132	0xbecd9654	-0.40153754
133	0xbdfd94e0	-0.12381911
134	0x3ebe0ca2	0.37119013
135	0xbf57c3e9	-0.8428331
136	0xbe3ce858	-0.18448007
137	0x3f1c9d44	0.6117747
138	0xbe71ca0d	-0.23612233
139	0xbf922a4a	-1.1419156
140	0xbd588794	-0.052863672
141	0xbf6e147b	-0.93
142	0xbf087f72	-0.53319466
143	0xbe43ae90	-0.19109559
144	0xbf1ac16c	-0.6045139
145	0x3ea9732b	0.3309568
146	0xbe9bb4f6	-0.304115
147	0xbe80498d	-0.25056115
148	0xbf345a06	-0.70449865
149	0xbebfb4c6	-0.37442607
150	0xbe9aabe3	-0.30209264
151	0xbd879fdb	-0.06622287
152	0x3f74d45b	0.9563653
153	0xbe682dc6	-0.22673711
154	0xbf1c06b9	-0.6094776
155	0xbe206b01	-0.15665819
156	0xbe85e979	-0.26154688
157	0xbf974885	-1.1819006
158	0xbf0f287c	-0.5592115
159	0xbf090f82	-0.5353929
160	0x3e9d171c	0.30681694
161	0xbc975214	-0.018471755
162	0x3deccb63	0.115622304
163	0x3e4825b0	0.19545627
164	0x4064bcd5	3.5740254
165	0x3e47a21e	0.19495437
166	0xbf8af984	-1.0857396
167	0x4094c15a	4.6486025
168	0xbea7ffbe	-0.32812303
169	0xbc17b363	-0.009259078
170	0x3f6e6587	0.9312367
171	0x3d1966c7	0.03745153
172	0xbe20dc1c	-0.15708965
173	0xbf06fee8	-0.52732706
174	0x3d921d53	0.071344994
175	0xbe7a1cb9	-0.2442502
176	0x3f85de79	1.0458518
177	0x3e7ef3c3	0.24897675
178	0xbccc5910	-0.024944812
179	0x3f52a01e	0.8227557
180	0x3ee4a1f1	0.446548
181	0x3e88ac7e	0.266941
182	0xbec4f1e1	-0.3846579
183	0xbf0b84c3	-0.54499453
184	0xbee81e62	-0.4533568
185	0x3dde0b1f	0.10841965
186	0xbe950d45	-0.29111686
187	0x3ec59a50	0.38594294
188	0x3f9416b3	1.1569427
189	0x3d3ae837	0.045631614
190	0xbf2152da	-0.63017046
191	0x3fa363ec	1.2764869
192	0x3eca6e25	0.3953716
193	0x3ec0f45f	0.3768644
194	0xbf009186	-0.5022205
195	0xbd3361fd	-0.04379462
196	0x3eab27c8	0.33428788
197	0xbfb1c4aa	-1.3888142
198	0x3edf0015	0.4355475
199	0x3e8aaca7	0.27084848
200	0x3dcabc52	0.098992005
201	0xbddd8aff	-0.10817527
202	0xbf84255d	-1.0323902
203	0x3ec01fdd	0.3752431
204	0xbdc46727	-0.09589987
205	0xbe8e7853	-0.27826175
206	0xbf837d59	-1.0272628
207	0xbee9bae7	-0.45650408
208	0x3ec5c9db	0.38630566
209	0xbe2a6629	-0.16640534
210	0x3e81c308	0.2534411
211	0x3e6bc91c	0.23025936
212	0x3ea21b4d	0.31661454
213	0x3e994c8e	0.2994122
214	0xbf431987	-0.76210827
215	0xbe8fd0cf	-0.28088996
216	0xbeaf5999	-0.34248045
217	0xbda92702	-0.08259393
218	0x3f332b0d	0.69987565
219	0x3edf5540	0.43619728
220	0xbf80714b	-1.0034574
221	0x3f7ae123	0.9799978
222	0xbebb838f	-0.3662381
223	0x3ef3652a	0.4753812
224	0x403b66f5	2.928159
225	0x3e902aa1	0.28157523
226	0xbf8b42b2	-1.0879729
227	0x3fff1d40	1.9930801
228	0x3e1bac03	0.15202336
229	0x3db214e3	0.0869539
230	0xbeaf1022	-0.34191996
231	0x3f45a43e	0.7720374
232	0x3db83fd5	0.0899655
233	0xbf767ac9	-0.96281105
234	0x3ed6d526	0.41959494
235	0xbecaa135	-0.39576116
236	0xbf3e9137	-0.7444033
237	0x3f0b3d7f	0.5439071
238	0xbf4e038e	-0.80474174
239	0x3e9d9bfb	0.30783066
240	0xbe74ea47	-0.23917495
241	0xbf7ae22d	-0.98001367
242	0x3dae6ca3	0.085168146
243	0xbb74ae2e	-0.0037335264
244	0x3f34ea08	0.70669603
245	0x3d37608f	0.04476982
246	0xbeca98bb	-0.3956965
247	0xbe8717e6	-0.2638542
248	0x3e95209f	0.2912645
249	0x3ef92e38	0.48668075
250	0xbe867a0d	-0.26264992
251	0xbf30d829	-0.69079834
252	0x3f1a31e7	0.60232395
253	0x3e54f911	0.20798136
254	0xbeae11c4	-0.3399793
255	0xbee10fd2	-0.43957382

network.0.bias f4 [256]
0	0x3e1fdd75	0.15611823
1	0xbdbdfb4c	-0.09276447
2	0xbd49fd8d	-0.04931407
3	0xbf26ad5a	-0.65108263
4	0x3d1f397d	0.038873184
5	0xbc4318de	-0.011907784
6	0xbe4dca84	-0.20096785
7	0xbeaf8d8d	-0.34287682
8	0xbe72c576	-0.23708138
9	0xbe6cfacb	-0.23142545
10	0xbf11f4f0	-0.5701437
11	0x3d4efe71	0.050535623
12	0x3dc127ca	0.09431417
13	0xbf237131	-0.6384459
14	0xbea6ed8c	-0.3260311
15	0xbf1de38c	-0.61675334
16	0x3e078784	0.13235289
17	0xbdb938c4	-0.0904403
18	0xbea768a5	-0.32697025
19	0xbeaa342a	-0.33242923
20	0x3e3d13e4	0.18464619
21	0x3e023231	0.12714459
22	0x3eab525e	0.3346128
23	0xbf8cb56c	-1.0992866
24	0xbc076479	-0.008263701
25	0xbdd7f282	-0.105443016
26	0x3e203d01	0.15648271
27	0x3e8f550b	0.2799457
28	0xbedfe308	-0.437279
29	0xbe0a835c	-0.13526672
30	0xbea54a58	-0.32283282
31	0xbc99d087	-0.018776191
32	0xbe8da5f8	-0.27665687
33	0xbeddf3d0	-0.43350077
34	0x3e78e681	0.2430668
35	0xbd8e9bab	-0.06963285
36	0xbe064a8b	-0.13114373
37	0xbe8aef3b	-0.27135643
38	0xbf43448f	-0.7627649
39	0xbd4f2797	-0.050574865
40	0xbeaad991	-0.33369115
41	0xbecbf569	-0.3983567
42	0xbf0de973	-0.5543434
43	0xbeb76eb4	-0.35826647
44	0xbdd650a9	-0.104646035
45	0xbce09620	-0.027415335
46	0x3d3bf3df	0.04588687
47	0xbd98d2e1	-0.07462097
48	0xbf02a067	-0.51026005
49	0xbe41e475	-0.18934806
50	0xbe30c79b	-0.17263643
51	0xbdf05489	-0.11734874
52	0xbda940dd	-0.08264325
53	0xbf4c5fd6	-0.79833734
54	0x3ef78057	0.48340103
55	0xbf98ba7e	-1.1931913
56	0x3d51cb2b	0.051219147
57	0xbeaf5e19	-0.34251478
58	0xbeeae2f3	-0.45876274
59	0xbea7c76c	-0.32769334
60	0xbf093840	-0.53601456
61	0x3e1bd84a	0.15219226
62	0x3e0fd500	0.14046097
63	0xbf66b2bd	-0.9011648
64	0xbeebb94d	-0.4603981
65	0xbe5c524c	-0.21515769
66	0xbf27b4a3	-0.65510005
67	0xbef9b5b4	-0.4877144
68	0xbf2d03ea	-0.675841
69	0xbead198e	-0.3380856
70	0xbea56410	-0.32302904
71	0xbe5f2fd1	-0.21795584
72	0x3e7662e1	0.24061157
73	0x3c347927	0.011015213
74	0xbeeb1b5d	-0.45919314
75	0xbe47b81c	-0.19503826
76	0xbec53012	-0.38513237
77	0xbeb56a08	-0.35432458
78	0xbed1c950	-0.40973902
79	0xbe7c90e4	-0.24664646
80	0xbe47d870	-0.19516158
81	0xbe3c573a	-0.1839265
82	0x3c76732d	0.0150421085
83	0x3d1aef6e	0.037825994
84	0x3e6cff79	0.2314433
85	0xbef6e64e	-0.48222584
86	0x3e8b1adf	0.2716894
87	0xbf00aeee	-0.5026692
88	0xbf26ae93	-0.6511013
89	0xbdd71d02	-0.1050358
90	0xbf0aa308	-0.54155016
91	0xbeb77145	-0.35828605
92	0x3e5de69e	0.21670005
93	0xbd432ff9	-0.047653172
94	0x3e52afb1	0.20574833
95	0xbf2b5015	-0.6691907
96	0xbf2eec62	-0.6832944
97	0xbdffd98f	-0.12492668
98	0x3e636054	0.22204715
99	0xbd92d21c	-0.071689814
100	0xbe916e09	-0.28404263
101	0xbd31e03b	-0.043426733
102	0x3d9ff753	0.07810845
103	0xbe98df50	-0.29857874
104	0x3e340fda	0.17584172
105	0xbf5b2aa7	-0.8561196
106	0xbe6fd33f	-0.23420428
107	0xbe199d54	-0.15001422
108	0xbe5ce836	-0.21572956
109	0xbe8c723e	-0.2743091
110	0xbe575f7a	-0.21032515
111	0xbee5ee9d	-0.4490861
112	0xbde96438	-0.11396068
113	0xbe371edd	-0.17882867
114	0xbdd935ae	-0.10605942
115	0xbecc758a	-0.39933425
116	0x3eb5c0bc	0.35498607
117	0xbefc3a95	-0.49263445
118	0x3ea69d65	0.32541957
119	0xbda706eb	-0.081556164
120	0xbdabc951	-0.083880074
121	0xbe3d34f9	-0.18477239
122	0xbed74136	-0.4204194
123	0x3dcf7b09	0.10130889
124	0x3ea0f2c6	0.3143522
125	0xbedb4685	-0.4282724
126	0xbe381d9c	-0.17980045
127	0x3e613b32	0.21995237
128	0xbe318fac	-0.17339963
129	0xbf3082df	-0.68949693
130	0xbe734630	-0.23757243
131	0x3e07e91e	0.13272521
132	0x3e0e6c5e	0.13908526
133	0xbee29661	-0.44255355
134	0xbd835710	-0.0641309
135	0xbf30e98d	-0.6910637
136	0xbe467220	-0.19379473
137	0xbe30e2b9	-0.17273988
138	0xbe81d3f7	-0.2535703
139	0xbd026456	-0.03183397
140	0x3e241de4	0.16027027
141	0xbd21d2e8	-0.039507776
142	0xbe12f07a	-0.14349547
143	0xbeb4036a	-0.35158855
144	0xbdf37aca	-0.118886545
145	0x3e9a21ff	0.30104062
146	0xbe554155	-0.20825703
147	0x3d1cda60	0.038294196
148	0xbd90584a	-0.0704809
149	0x3f1a3e8c	0.6025169
150	0xbe75c932	-0.24002531
151	0xbe3801fe	-0.1796951
152	0xbeb804bc	-0.35941112
153	0xbed719c4	-0.42011845
154	0xbe1e932c	-0.15485829
155	0x3df0e859	0.11763067
156	0xbddcb186	-0.107760474
157	0x3e1f791f	0.15573548
158	0x3e5987ee	0.2124326
159	0xbf0ff8e0	-0.5623913
160	0xbee377f6	-0.4442746
161	0xbefaf00b	-0.49011263
162	0xbe04918f	-0.12946151
163	0x3ec8aa6d	0.39192525
164	0xbe9ce253	-0.30641422
165	0x3dca25e5	0.09870509
166	0x3ecd19b3	0.4005867
167	0xbe567f63	-0.20947032
168	0xbcc65240	-0.024209142
169	0x3dd368f1	0.1032275
170	0xbd535b15	-0.051600534
171	0x3ea078cc	0.3134216
172	0xbd6a01da	-0.057130672
173	0xbd6f3a64	-0.058405295
174	0xbf83371e	-1.0251195
175	0xbe517248	-0.20453751
176	0xbe125cc9	-0.14293207
177	0x3e8814e5	0.2657844
178	0xbf031fbc	-0.512203
179	0xbeef6b85	-0.46761718
180	0xbeb4763d	-0.3524646
181	0xbeb20d8a	-0.34775954
182	0xbedcdf00	-0.43138885
183	0xbc83cac9	-0.016087906
184	0xbeacb8c1	-0.33734706
185	0x3ebfad49	0.37436894
186	0xbe12762a	-0.14302889
187	0x3ea5a78e	0.32354397
188	0xbe8c9cb9	-0.2746332
189	0xbeb68d89	-0.35654858
190	0x3e2010bd	0.15631385
191	0x3bd29ace	0.0064271456
192	0xbd30a9af	-0.043130573
193	0xbdc7cc23	-0.09755733
194	0x3cda0861	0.026615323
195	0xbf1f50ac	-0.6223247
196	0xbeb7cb0c	-0.358971
197	0xbe893451	-0.26797727
198	0xbee66c48	-0.45004487
199	0xbeb3f910	-0.35150957
200	0x3ea719d7	0.32636902
201	0xbf498356	-0.7871603
202	0xbe0f7fe0	-0.14013624
203	0xbde86488	-0.113473
204	0xbe041f37	-0.12902533
205	0x3d545824	0.05184187
206	0xbdf77848	-0.12083489
207	0xbcf22428	-0.029558256
208	0xbe055083	-0.13018994
209	0xbd124ebb	-0.035719614
210	0xbf0bca43	-0.546055
211	0x3d9caf30	0.07650602
212	0xbf22e8e9	-0.6363664
213	0xbd36736d	-0.044543672
214	0x3f04e8eb	0.51917905
215	0xbde3b5e6	-0.11118679
216	0x3d615008	0.055007964
217	0xbe1cf0cc	-0.15326232
218	0xbea548e1	-0.32282165
219	0xbe98f581	-0.29874805
220	0xbe3469f4	-0.17618543
221	0x3ebadaa8	0.36494946
222	0xbec96475	-0.39334455
223	0xbf703a49	-0.93838936
224	0xbe898c0e	-0.26864666
225	0xbb18418f	-0.0023232435
226	0xbd2ccc49	-0.04218701
227	0x3d06aa56	0.03287729
228	0xbd4e6099	-0.05038509
229	0x3e9ca475	0.3059422
230	0x3c3511e3	0.011051628
231	0x3cf394be	0.029734012
232	0x3e31a741	0.17348959
233	0x3d056a26	0.032571934
234	0xbe01b680	-0.12667274
235	0xbe3d11d1	-0.18463828
236	0xbe6095f1	-0.21932198
237	0xbef52abe	-0.47884172
238	0xbeebedde	-0.46079916
239	0xbe008ff4	-0.12554914
240	0xbe7e5928	-0.24838698
241	0x3d973057	0.07382267
242	0xbeefad9c	-0.4681214
243	0xbf3e05f3	-0.7422783
244	0x3ec6e149	0.38843754
245	0x3df22baa	0.118247345
246	0x3c910960	0.017704666
247	0xbdc6e511	-0.0971166
248	0xbefbcebb	-0.4918116
249	0xbec276f8	-0.3798139
250	0xbe51a128	-0.20471632
251	0xbc10ad33	-0.008830356
252	0x3d6a6d55	0.057233173
253	0xbec154d4	-0.3776003
254	0xbef48574	-0.47758067
255	0xbeccf3f2	-0.40029866

network.2.weight f4 [256, 256]
0	0x3df7712c	0.12082133
1	0x3d3f4988	0.046700984
2	0xbe21ee57	-0.15813576
3	0x3e2d8709	0.16946043
4	0x3daa0c0f	0.08303081
5	0x3e8a4253	0.27003726
6	0x3dd2690a	0.10273941
7	0xbdd63c80	-0.10460758
8	0x3d35c774	0.044379666
9	0x3d434b79	0.0476794
10	0x3ec7ed79	0.39048365
11	0xbe1a6875	-0.1507891
12	0xbd87dd37	-0.0663399
13	0x3e9ff0b8	0.3123834
14	0xbe08ee37	-0.13372122
15	0x3dfef504	0.12449077
16	0x3e1829b9	0.14859666
17	0xbdc9be40	-0.098507404
18	0x3e78fe29	0.24315704
19	0x3cb17925	0.021664212
20	0x3e301a67	0.17197572
21	0x3db9dc77	0.090752535
22	0x3e438ad8	0.19095933
23	0xbe6049d8	-0.21903169
24	0x3e00af9f	0.12566994
25	0xbe4af124	-0.1981855
26	0xbdb0e658	-0.086376846
27	0x3baaf9b7	0.0052177566
28	0x3e91d470	0.2848239
29	0xbe26681c	-0.16250652
30	0x3f3e5b07	0.74357647
31	0x3da5f707	0.08103757
32	0x3ba79205	0.0051138424
33	0x3d242797	0.04007682
34	0xbd66f94b	-0.056390088
35	0x3dcfac5f	0.10140299
36	0xbc4e1bf8	-0.01257991
37	0x3c1c8a87	0.009554512
38	0xbb5bd174	-0.0033541592
39	0x3dbd5fd8	0.09246796
40	0xbec89036	-0.39172524
41	0xbe31e7e3	-0.17373614
42	0x3e0c4f74	0.13702184
43	0x3de88221	0.11352945
44	0x3df8e5b9	0.12153191
45	0xbe18ef56	-0.1493505
46	0xbe023bb5	-0.12718089
47	0x3dc72c0c	0.09725198
48	0xbe9222de	-0.28542227
49	0x3df6c9ea	0.12050231
50	0x3d4f090c	0.050545737
51	0xbd845cd0	-0.06463015
52	0x3d959dad	0.07305465
53	0x3e10399e	0.14084479
54	0x3e0695e9	0.13143124
55	0xbd9de53c	-0.077097386
56	0x3ca434a9	0.020044642
57	0x3ec8d8d8	0.3922794
58	0x3c0ca66d	0.008584601
59	0xbe6ee61e	-0.2332997
60	0x3ea476d3	0.32121906
61	0x3e29078f	0.1650679
62	0x3e2c4b53	0.16825609
63	0xbf0a21ad	-0.53957635
64	0x3e27caba	0.16385928
65	0x3e4a6a0d	0.19767018
66	0xbde1490f	-0.11000263
67	0x3e408737	0.1880158
68	0xbd8f77db	-0.070052825
69	0x3e55a0c0	0.20862103
70	0xbe22df70	-0.15905547
71	0xbe9f795c	-0.31147277
72	0xbdb20f3d	-0.08694313
73	0x3cb6ef88	0.022331014
74	0x3e6e1379	0.23249616
75	0xbe4a77c0	-0.19772243
76	0x3e481fe8	0.19543421
77	0x3e000c71	0.12504746
78	0xbeab3d73	-0.3344532
79	0x3eae400d	0.34033242
80	0xbd0318f1	-0.032006208
81	0x3dcab0f6	0.09897034
82	0x3ea122f9	0.31471995
83	0xbd0ceba2	-0.034404404
84	0x3d75cd54	0.06001027
85	0xbd6e9e4f	-0.058256444
86	0x3eb3c772	0.35113102
87	0xbd6c5c72	-0.05770535
88	0x3e9041be	0.28175157
89	0x3e210c15	0.15727265
90	0x3e3bd75d	0.18343873
91	0x3e4d81a3	0.20068984
92	0x3e436ccd	0.19084473
93	0x3df45064	0.11929396
94	0x3db82b68	0.08992654
95	0xbd903b4e	-0.070425615
96	0x3f0e2609	0.5552679
97	0xbe5f6eb4	-0.21819574
98	0x3dcd2a30	0.10017812
99	0xbed68833	-0.41900787
100	0x3d10aeb3	0.035322856
101	0x3ca53a58	0.020169422
102	0x3e14f565	0.14546736
103	0xbc005dfe	-0.0078349095
104	0x3e57d4d7	0.21077286
105	0x3d20c2e1	0.03924835
106	0x3e7b6fc8	0.2455436
107	0x3e56b00b	0.20965593
108	0xbdcd5c6e	-0.10027395
109	0x3ce924af	0.028459875
110	0x3ddbfe99	0.1074192
111	0xbbb30d64	-0.005464243
112	0xbe289dd0	-0.1646645
113	0x3e1ef674	0.15523702
114	0x3e14939c	0.14509434
115	0xbeac97a2	-0.33709437
116	0xbe02df98	-0.12780607
117	0xbeb4d972	-0.35322148
118	0xbcd3d7fd	-0.025859827
119	0x3d913a79	0.07091231
120	0xbc500654	-0.012696821
121	0x3e450397	0.1923965
122	0xbcf9180d	-0.030406976
123	0xbd45f327	-0.04832759
124	0xbd367e07	-0.044553783
125	0x3d9692d7	0.07352226
126	0xbe1529d0	-0.14566731
127	0x3e4073d2	0.18794182
128	0x3e52e1a8	0.20593894
129	0xbc468d35	-0.012118627
130	0xbf06aa39	-0.5260349
131	0x3e6d28e9	0.23160137
132	0xbd32ab87	-0.043620612
133	0x3e1922f7	0.14954744
134	0xbe4f78a2	-0.20260862
135	0xbe8019f3	-0.25019798
136	0x3e99f1b2	0.3006721
137	0x3c2e9de2	0.010657759
138	0xbdf9b9fe	-0.12193678
139	0x3db4b20e	0.08823024
140	0xbd8cd318	-0.068762004
141	0x3dfc31cf	0.12314188
142	0x3e4a3716	0.19747576
143	0xbe4be799	-0.19912566
144	0x3bb34a1d	0.0054714815
145	0x3e2e1963	0.17001872
146	0x3e31335c	0.17304748
147	0xbcdae214	-0.02671913
148	0x3e7f55b3	0.24935035
149	0x3d1a36c7	0.037649896
150	0xbe406980	-0.18790245
151	0x3cf14e05	0.029456148
152	0x3f0c6709	0.5484472
153	0xbdac7043	-0.0841985
154	0x3dd8fbcc	0.105949014
155	0x3e1f0fd2	0.15533379
156	0x3e3b4d12	0.18291119
157	0x3de1bec4	0.11022714
158	0x3dc3ba25	0.095569886
159	0xbda5a235	-0.08087579
160	0x3dd44044	0.1036382
161	0x3daba60c	0.0838128
162	0xbdfc7296	-0.12326543
163	0x3cbb6c29	0.022878723
164	0x3dcf5111	0.10122884
165	0x3d63412c	0.055482075
166	0x3e17a340	0.14808369
167	0xbcd0f8bc	-0.02550923
168	0x3e828002	0.25488287
169	0xbef506ee	-0.4785685
170	0x3d045065	0.032303233
171	0x3dadfbeb	0.08495315
172	0xbf1f332c	-0.6218746
173	0x3e99fad1	0.3007417
174	0xbf1001f8	-0.56253004
175	0xbe05f83c	-0.13082975
176	0x3d7ef7a4	0.062247887
177	0xbd231ab4	-0.039820388
178	0x3f04167d	0.51596814
179	0xbf3c19e0	-0.7347698
180	0xbe0f6877	-0.14004694
181	0xbecfadbc	-0.40562236
182	0xbeb025a9	-0.34403732
183	0x3e564598	0.20924985
184	0x3db136cc	0.0865303
185	0xbc73d90f	-0.014883294
186	0x3d98b890	0.074570775
187	0x3d1f9df6	0.038969003
188	0x3bc90af9	0.0061353412
189	0x3e3e4d31	0.18584134
190	0xbdb78542	-0.08960964
191	0xbd221f85	-0.03958084
192	0xbd232d1e	-0.03983795
193	0xbd8a2efc	-0.06747243
194	0x3df8e586	0.12153153
195	0x3ebc1c49	0.3674033
196	0x3dd5ed28	0.104456246
197	0xbd27bb4e	-0.040950112
198	0xbe3e3601	-0.18575288
199	0xbe8b9b4c	-0.2726692
200	0xbd2f4f8e	-0.04280048
201	0xbe673a61	-0.22580864
202	0xbd9b014a	-0.07568605
203	0x3e1e6a1d	0.15470167
204	0x3c80a610	0.015704185
205	0x3e0ca34a	0.13734165
206	0xbe1d8b35	-0.15385135
207	0xbe436f57	-0.19085442
208	0x3ecfb182	0.40565115
209	0x3e25dc93	0.16197424
210	0x3ec3f5aa	0.38273364
211	0x3d330a37	0.043710914
212	0xbf2eb3a1	-0.6824284
213	0x3dbcdded	0.092220165
214	0xbd754992	-0.059884615
215	0xbe132ffd	-0.14373775
216	0x3cd88526	0.026430678
217	0xbe5b81fa	-0.21436301
218	0x3e2f0922	0.17093328
219	0x3d3d3d52	0.046201058
220	0xbd3332fb	-0.04374979
221	0x3e32bd65	0.17455061
222	0x3d87e8e7	0.066362195
223	0xbf02cf50	-0.51097584
224	0x3dbc02f8	0.09180254
225	0x3dd43847	0.103622966
226	0x3d9b9029	0.07595856
227	0xbe4f82c6	-0.2026473
228	0xbe5a77b6	-0.21334729
229	0x3d6971a0	0.056993127
230	0x3e2d7ff4	0.16943341
231	0xbd9f71e9	-0.077853985
232	0x3e08b3d6	0.13349852
233	0x3e62b9bb	0.22141163
234	0x3d29c038	0.04144308
235	0x3ecab094	0.39587843
236	0x3e0274cd	0.12739868
237	0xbe923e04	-0.2856294
238	0x3de02eeb	0.10946449
239	0x3e27b6b9	0.16378297
240	0x3e47b041	0.1950083
241	0x3d820d40	0.063501835
242	0x3e488862	0.19583276
243	0x3e648800	0.22317505
244	0xbbf216c4	-0.007387968
245	0xbe7d2c2e	-0.24723884
246	0x3e0c89ad	0.13724394
247	0xbe03e19c	-0.12879032
248	0xbe0a1932	-0.13486174
249	0xbd32c859	-0.043648098
250	0xbb0a3bf0	-0.0021092854
251	0xbcac16a7	-0.021006895
252	0x3d5f9270	0.054583013
253	0xbe04a184	-0.12952238
254	0x3da37451	0.0798117
255	0x3caea34d	0.021318102

network.2.bias f4 [256]
0	0x3de96cbc	0.113976926
1	0x3dc50303	0.09619715
2	0xbf145575	-0.579429
3	0xbd71eba9	-0.059062634
4	0xbe81d42a	-0.2535718
5	0xbe920426	-0.2851879
6	0xbd9dc826	-0.07704191
7	0x3e52db13	0.20591383
8	0x3e350fed	0.17681856
9	0x3e1aa3b8	0.15101516
10	0xbc889b85	-0.01667572
11	0xbe4f1ad5	-0.2022508
12	0xbd9efc2a	-0.0776294
13	0xbdcdff26	-0.10058431
14	0xbd789f5a	-0.060698844
15	0xbe62c8fd	-0.22146983
16	0xbd5b740e	-0.053577475
17	0xbe03f6fe	-0.12887189
18	0x3bd787de	0.006577476
19	0xbce01f08	-0.027358547
20	0xbe51b1ef	-0.20478033
21	0xbdae782e	-0.08519016
22	0xbd5efcef	-0.054440435
23	0xbd8cbd71	-0.068720706
24	0xbd6e08e4	-0.058113948
25	0xbde145c3	-0.10999634
26	0xbd2ac18e	-0.041688494
27	0xbd00f6cf	-0.031485375
28	0x3d6fbd35	0.05853005
29	0xbd3236e5	-0.043509383
30	0xbe0210ae	-0.12701675
31	0xbd015153	-0.031571697
32	0xbe56c558	-0.20973718
33	0x3e453c4c	0.19261283
34	0xbde29464	-0.110634595
35	0x3e03fc14	0.12889129
36	0x3b85fc61	0.004088924
37	0xbd12933f	-0.035784956
38	0xbd69524e	-0.056963257
39	0xbe6c5c76	-0.23082146
40	0xbc703c85	-0.0146628665
41	0x3e26f4b6	0.16304287
42	0xbd141c6b	-0.036159914
43	0x3ec4d6d1	0.38445142
44	0xbd6fb152	-0.058518715
45	0xbb243756	-0.0025057397
46	0x3b4bec72	0.0031116274
47	0xbda238e7	-0.079210095
48	0xbe4b5110	-0.19855142
49	0xbe2bc4bb	-0.16774265
50	0x3b92b2b0	0.0044768676
51	0x3dcf5d02	0.10125162
52	0x3cfeda73	0.031110024
53	0xbced72fd	-0.028985495
54	0xbd5143ef	-0.051090177
55	0xbccc90a5	-0.024971316
56	0xbdd7ccc8	-0.10537106
57	0xbd7972ae	-0.060900383
58	0x3eb0c50e	0.3452534
59	0xbe0b8324	-0.13624245
60	0xbd975db1	-0.07390917
61	0xbda33170	-0.07968414
62	0x3d82265a	0.06354971
63	0xbddd99e8	-0.10820371
64	0x3c11795e	0.008879034
65	0x3bbe9e6e	0.005817226
66	0xbe9bd406	-0.304352
67	0xbe619baf	-0.22032045
68	0xbb175888	-0.002309354
69	0x3d37ad29	0.044842873
70	0x3da82a3a	0.08211179
71	0xbdac17e8	-0.08402997
72	0xbea99735	-0.33123174
73	0xbebd2817	-0.3694465
74	0xbd864708	-0.06556517
75	0xbd87ece2	-0.06636979
76	0xbd9c98e4	-0.07646349
77	0xbc8c6fc4	-0.017143138
78	0xbdab6dbd	-0.0837054
79	0x3e1b45ef	0.15163396
80	0x3d0f31a8	0.034959465
81	0xbe9d0148	-0.3066504
82	0xbc8e79e2	-0.017392103
83	0x3e0afd1b	0.13573115
84	0xbe8560f4	-0.26050532
85	0xbc16d104	-0.009205107
86	0xbe0778c3	-0.1322966
87	0xbbe1d062	-0.0068912962
88	0x3e58ce4b	0.21172445
89	0x3e126b5d	0.14298768
90	0xbe8e8e6c	-0.27843034
91	0xbe6c2127	-0.23059522
92	0x3e98f332	0.29873043
93	0xbcb4d7ce	-0.02207556
94	0x3cd7bd3c	0.026335351
95	0xbc1642c1	-0.009171189
96	0xbd8893f8	-0.06668848
97	0xbda20eab	-0.07912954
98	0x3c5ff7c1	0.013669909
99	0xbd0202b7	-0.03174087
100	0xbe875b74	-0.2643696
101	0xbebf3c59	-0.3735073
102	0x3e13a4dc	0.14418358
103	0xbd533bf5	-0.05157085
104	0x3e47fb89	0.19529547
105	0xbe2d6fc7	-0.16937171
106	0xbe01544d	-0.12629814
107	0x3d9a52a9	0.075352974
108	0x3c9e0456	0.019289177
109	0x3df10c6c	0.117699474
110	0x3d03f234	0.032213405
111	0x3df1705c	0.11789009
112	0x3d4046eb	0.046942633
113	0x3e4cf815	0.20016511
114	0xbe34e613	-0.17665891
115	0xbe9e3436	-0.3089921
116	0xbda4fb99	-0.08055801
117	0x3b06c22d	0.0020562515
118	0x3dc7794a	0.09739931
119	0xbd89f22e	-0.06735645
120	0xbeb085a3	-0.34476957
121	0xbea83561	-0.32853225
122	0xbc55d996	-0.013052365
123	0xbd6d4c8c	-0.05793433
124	0xbe0279a4	-0.12741715
125	0xbd7a9764	-0.061179534
126	0x3d2d1ff4	0.0422668
127	0xbea5ba19	-0.32368544
128	0x3cecc220	0.02890116
129	0xbcbd96d8	-0.023143217
130	0xbea6a7e4	-0.32549965
131	0xbe75446e	-0.23951885
132	0xbe35da7a	-0.17759123
133	0xbe44b293	-0.19208746
134	0xbd9c68c4	-0.0763717
135	0xbdaeb0cc	-0.08529815
136	0xbd71c9aa	-0.059030212
137	0xbca8c11c	-0.020599894
138	0x3d430139	0.047608588
139	0xbd984e76	-0.0743684
140	0xbc92f234	-0.017937757
141	0xbe20c6c0	-0.15700817
142	0xbda2b039	-0.07943768
143	0xbd9093b6	-0.070594236
144	0x3c468103	0.01211572
145	0xbd033fda	-0.032043315
146	0xbdddef61	-0.108366735
147	0xbe15157c	-0.14558977
148	0x3e231dea	0.1592938
149	0x3d505e9b	0.050871473
150	0xbd926cd7	-0.07149666
151	0x3db31978	0.08745092
152	0xbe3e17f8	-0.18563831
153	0xbdc69a41	-0.0969739
154	0x3e413b68	0.18870318
155	0x3b395c46	0.002828376
156	0xbe677520	-0.22603273
157	0xbe290481	-0.16505624
158	0xbe82680e	-0.25470012
159	0xbe831526	-0.25602072
160	0xbe514f6e	-0.20440456
161	0xbd483453	-0.048878025
162	0xbe9f69bb	-0.31135353
163	0x3e2e6f75	0.17034705
164	0xbdd22380	-0.10260677
165	0x3dc6667f	0.09687518
166	0xbda2ad37	-0.07943194
167	0xbcb69872	-0.022289488
168	0x3d89d4c6	0.067300364
169	0xbda29350	-0.07938254
170	0xbc84633b	-0.016160598
171	0xbd8b12dd	-0.06790707
172	0x3d3ca139	0.04605219
173	0xbd97e709	-0.07417113
174	0xbd31fb57	-0.043452587
175	0xbec21b65	-0.37911525
176	0x3c55b0db	0.013042654
177	0xbcf83350	-0.030297905
178	0x3d9ca613	0.07648864
179	0xbe1466aa	-0.14492288
180	0x3d6832c8	0.056689054
181	0xbd59c48c	-0.053165957
182	0xbef70f03	-0.4825364
183	0xbbdcf183	-0.0067426576
184	0xbeb438e3	-0.3519965
185	0x3d352755	0.044226963
186	0x3d465f57	0.048430767
187	0xbe0d552b	-0.1380202
188	0xbc9a4367	-0.018830968
189	0xbe8ca98f	-0.27473113
190	0xbdc22035	-0.09478799
191	0xbe9beb4c	-0.30452955
192	0xbd3ebd60	-0.04656732
193	0x3e476a23	0.19474082
194	0xbd74b2e1	-0.059740905
195	0xbd3bb276	-0.04582449
196	0xbe07ff2f	-0.13280939
197	0xbe6806cf	-0.22658847
198	0xbe70ccb9	-0.23515595
199	0x3bda8d6e	0.0066696918
200	0xbd5b9e28	-0.053617626
201	0xbcd04f75	-0.025428513
202	0xbe3bb191	-0.18329455
203	0x3e0e108d	0.13873501
204	0xbcb19c0e	-0.021680858
205	0xbd94161b	-0.07230779
206	0x3e84ac03	0.25912485
207	0xbcbac374	-0.022798277
208	0xbd1ded76	-0.03855654
209	0xbe63df00	-0.22253036
210	0xbd3d6028	-0.04623428
211	0xbcae2f9e	-0.02126294
212	0xbd22dfed	-0.039764334
213	0xbd5e35cb	-0.05425052
214	0xbe7e813b	-0.24853985
215	0xbc929f1a	-0.017898131
216	0xbdb3e05c	-0.087830275
217	0x3ebebd36	0.3725373
218	0x3dea27f8	0.11433405
219	0x3dc03a2c	0.093860954
220	0xbd3438f5	-0.04399963
221	0x3f0d82b5	0.5527757
222	0xbd656798	-0.056006998
223	0x3d6ee571	0.05832428
224	0x3e523648	0.20528519
225	0xbede2332	-0.43386227
226	0xbbb2e2cb	-0.0054591647
227	0xbcb02acc	-0.021504782
228	0xbd4e3a99	-0.05034885
229	0x3cd710f7	0.026253207
230	0xbbacff97	-0.005279492
231	0xbe9f1a52	-0.31074768
232	0xbd4a58fa	-0.04940126
233	0xbdd5a8cf	-0.10432588
234	0xbe3a0331	-0.1816528
235	0xbcf1679d	-0.029468352
236	0x3e6a0d88	0.22856724
237	0xbd34a5fb	-0.044103604
238	0x3d58c63e	0.052923433
239	0xbd4a53f6	-0.049396478
240	0xbe58eb41	-0.21183492
241	0x3e84cc96	0.25937337
242	0x3e5d9f03	0.2164269
243	0xbd889f0d	-0.066709615
244	0xbd9c8c91	-0.076439984
245	0x3e02c388	0.12769902
246	0xbda9114f	-0.082552545
247	0x3c2f1f3f	0.010688602
248	0xbea3804b	-0.31933817
249	0x3cf24b86	0.029577028
250	0x3e13fda3	0.14452223
251	0xbe420b00	-0.18949509
252	0x3e8e1745	0.27752128
253	0xbe21e7b5	-0.15811045
254	0xbcde3c61	-0.0271284
255	0xbd99b57c	-0.075053185

mean.weight f4 [1, 256]
0	0xbf180b28	-0.59392023
1	0x3f13196b	0.5746066
2	0xc08cdb7c	-4.4017925
3	0xbe5b07ee	-0.21389744
4	0x3f10ba5d	0.5653437
5	0xbf7c8a36	-0.98648393
6	0x3b869abb	0.004107801
7	0x3f1494fb	0.58039826
8	0x3f879853	1.0593361
9	0x3e4c0d78	0.19927013
10	0xbe42810d	-0.18994541
11	0xbfb724b8	-1.4308081
12	0x3b9e1d4c	0.00482527
13	0xbc8f9cbe	-0.017530795
14	0x3e2c5313	0.16828565
15	0xbfb33af8	-1.4002371
16	0xbbd12de9	-0.0063836467
17	0xbe8b7bc6	-0.2724287
18	0xbccb0909	-0.024784582
19	0x3c1f2b64	0.009714935
20	0xbfed2881	-1.8527986
21	0xbf0926f9	-0.5357509
22	0xbc0e393d	-0.008680639
23	0xbec3338a	-0.3812526
24	0x3b94e752	0.004544177
25	0x3cdc577f	0.02689719
26	0x3bbd8a9c	0.005784346
27	0xbc78e578	-0.015191428
28	0xbf029f38	-0.510242
29	0x3d0fbd2d	0.03509252
30	0xbf3e900f	-0.74438566
31	0xbf0b8b65	-0.54509574
32	0xbea009cf	-0.31257483
33	0x3f15af6e	0.5847081
34	0x3fa107d9	1.258052
35	0x3f005dde	0.5014323
36	0x3e567295	0.20942147
37	0x3c6e55aa	0.014546791
38	0xbc0b0373	-0.008484709
39	0xbf86ad84	-1.0521703
40	0xbe80d85a	-0.25165063
41	0xbf70e46d	-0.9409855
42	0xbf956cb2	-1.1673796
43	0x3f44a4ef	0.7681417
44	0xbc784b0b	-0.01515461
45	0xbaf24b8d	-0.0018485651
46	0x3cd82817	0.026386304
47	0xbea3321d	-0.3187417
48	0xbfa456f6	-1.2839038
49	0xbfc7aab1	-1.5598966
50	0xbebb93fc	-0.3663634
51	0xbfb46c73	-1.4095596
52	0x400b0caf	2.1726491
53	0xbe07d9f3	-0.13266735
54	0xbe1839f2	-0.14865854
55	0xbcd5c6c7	-0.026095761
56	0x3cac02f6	0.020997506
57	0x3ce2151e	0.02759796
58	0x3f0ff292	0.5622951
59	0x3ea669db	0.32502636
60	0x40912a2a	4.536397
61	0x3cf96e93	0.030448234
62	0xbe8a9153	-0.27064
63	0xc011e459	-2.2795622
64	0x3e3d5098	0.18487775
65	0x3f477706	0.7791599
66	0x3f42b5cf	0.7605867
67	0xbef88ec3	-0.4854642
68	0xbbbcd1de	-0.005762323
69	0x3ff88e9b	1.941852
70	0x3f844213	1.0332664
71	0xba743c4c	-0.0009316846
72	0xc074c7d1	-3.8246958
73	0xbe8183e1	-0.25295928
74	0xbc283d37	-0.010268501
75	0x3ffb94dc	1.9654803
76	0x3c7955fb	0.015218253
77	0x3ca8a4aa	0.02058633
78	0xbf5143f9	-0.81744343
79	0x3e98ef88	0.29870248
80	0xbf8d99ce	-1.1062562
81	0xbed175ac	-0.4091009
82	0x3c213406	0.0098390635
83	0xbfb3c5f0	-1.4044781
84	0x3ed007c4	0.40630925
85	0xbba08358	-0.00489847
86	0xbb45bc6b	-0.003017212
87	0xbb747692	-0.0037302119
88	0x3f0a05eb	0.5391528
89	0x3f7bd3dd	0.9837015
90	0x3f3b2824	0.73108125
91	0x3e9a6024	0.30151474
92	0x3f0fe2a2	0.5620519
93	0x3b354808	0.0027661342
94	0x3f037268	0.51346445
95	0x3c8a325d	0.016869718
96	0x3cf6c014	0.030120887
97	0x3f2505e9	0.64462143
98	0x3d1a7076	0.037704907
99	0xbdc19b73	-0.09453478
100	0xbf4a253c	-0.78963065
101	0xbf82889c	-1.019794
102	0xbea5d477	-0.3238866
103	0x3bab5742	0.005228908
104	0x3f45fba3	0.7733709
105	0xbf4e4403	-0.8057253
106	0xc010eb4c	-2.2643614
107	0xbe80b8c7	-0.25140974
108	0x3c08f1af	0.008358403
109	0x3ff2c9be	1.8967817
110	0x3cc959d4	0.024578966
111	0x3d51d83e	0.051231615
112	0x3dbf36ca	0.09336622
113	0x3f548b0d	0.83024675
114	0xbf76d230	-0.9641447
115	0x40688251	3.632954
116	0x3ca677ce	0.0203208
117	0xbcc9762c	-0.024592482
118	0x3ea98788	0.33111215
119	0x3c016da5	0.007899676
120	0x3fcaa9b4	1.5833039
121	0xbefa452e	-0.48880905
122	0x3c328647	0.010896272
123	0x3cc3b021	0.023887696
124	0xc0368277	-2.851713
125	0x3e2e3243	0.17011361
126	0x3fc6fd97	1.554614
127	0xc059fb28	-3.4059544
128	0xbcc8fb00	-0.024533749
129	0x3c1b838c	0.009491812
130	0x3f91d6d0	1.139368
131	0xc09535eb	-4.662832
132	0x3f077af6	0.52922
133	0x3f831353	1.0240272
134	0x3d31142e	0.043232135
135	0xbed98bf5	-0.4248959
136	0xbc8d24fb	-0.017229548
137	0x40e14e88	7.0408363
138	0x3f65d94d	0.897847
139	0x3c848c51	0.01618019
140	0xbea14deb	-0.3150476
141	0x3ef2c2be	0.47414201
142	0xbf9a2e00	-1.2045288
143	0xbd3b922c	-0.045793697
144	0xb7066e14	-8.012652e-06
145	0xbef7bb3f	-0.48385045
146	0x3f006d03	0.5016634
147	0xbf1df249	-0.6169782
148	0x3e23bfd3	0.15991144
149	0xbf827190	-1.0190907
150	0xbeccd97f	-0.40009686
151	0x3da0253f	0.07819604
152	0xc0201c9a	-2.5017457
153	0xbfaf783e	-1.370857
154	0x3f0d1822	0.5511495
155	0x3b1319d1	0.0022445808
156	0xbe8d6ebd	-0.2762355
157	0xbeefc6e4	-0.4683143
158	0xbed5a231	-0.41725305
159	0xbf57ad46	-0.8424877
160	0xbffe89a8	-1.9885759
161	0x3f0a3c0c	0.53997874
162	0xbfded92e	-1.7410028
163	0x3e14a897	0.14517437
164	0x3f844df3	1.0336288
165	0x3fc9f809	1.5778819
166	0x3b6422ea	0.003481085
167	0x3d335f31	0.043791953
168	0xbf45b3c9	-0.77227455
169	0xbbd01f20	-0.0063513666
170	0x3fb64ba1	1.424183
171	0x3c2f24ef	0.010689958
172	0x40862ffa	4.1933565
173	0xbb8f0ef9	-0.0043657986
174	0xbd98efe4	-0.074676305
175	0xc03384a2	-2.8049703
176	0xbc839af4	-0.016065098
177	0xbd170541	-0.036870245
178	0x3f47ff83	0.78124255
179	0xbf98a229	-1.1924487
180	0xbebed7a4	-0.37273896
181	0xbb9c55cf	-0.0047709714
182	0xc0c364d9	-6.1060605
183	0xbee116e3	-0.43962774
184	0x3fbac616	1.4591701
185	0x3ec0977a	0.37615567
186	0x3f4fa6f4	0.81114125
187	0xc0202451	-2.5022166
188	0xbd2783ad	-0.04089706
189	0xbe9be3fc	-0.30447376
190	0xbea65c0c	-0.324921
191	0x403f3203	2.9874275
192	0x3c06b83b	0.008222635
193	0x3fac178d	1.3444687
194	0x3cd277bb	0.025691858
195	0xbbb6d91c	-0.0055800807
196	0xbf80be4d	-1.0058075
197	0xc0145f18	-2.318304
198	0xbe043a3e	-0.12912843
199	0x3e86c7ac	0.26324213
200	0xbec7dcbc	-0.39035594
201	0x3db9de99	0.0907566
202	0xbca20055	-0.019775549
203	0x3fb07d27	1.3788193
204	0x3ee3cd3a	0.44492513
205	0xbf2c0e8f	-0.67209715
206	0xbeecfa99	-0.4628494
207	0x3bc1fa96	0.0059197647
208	0x3cb342ae	0.021882381
209	0xbf45cb0e	-0.7726296
210	0x3d2cdf56	0.042205177
211	0x3cff36de	0.031154092
212	0xbac68a8f	-0.0015147495
213	0xbf9e9536	-1.2389286
214	0x3e285724	0.16439492
215	0x3cc6506c	0.02420827
216	0x3f06d729	0.5267206
217	0x3f4d6aa6	0.8024086
218	0x3ecbae26	0.39781302
219	0x3fcb2f6e	1.5873849
220	0x3b336f12	0.0027379435
221	0x3e33fab4	0.17576104
222	0x3b31f599	0.0027154444
223	0xbe7e6bb9	-0.2484578
224	0x3f05ae04	0.5221865
225	0xbf8145f5	-1.0099474
226	0x3cc95d71	0.02458069
227	0x3d29bbb3	0.04143877
228	0x4020fd42	2.5154576
229	0xbc4485f0	-0.011994824
230	0x4004633a	2.0685563
231	0xbe0deb8c	-0.13859385
232	0xbe60460b	-0.2190172
233	0xbc602192	-0.013679879
234	0x3e976644	0.2957021
235	0x3d1e77fb	0.03868864
236	0x3f44c265	0.7685912
237	0x3c8c1fab	0.017104944
238	0xbce253ec	-0.027627908
239	0x3e43ac18	0.19108617
240	0xc076d264	-3.8565912
241	0x3f07b762	0.53014195
242	0x3f0012a0	0.5002842
243	0x3d28046a	0.041019835
244	0x3fcce091	1.6006032
245	0xbd0ca7c6	-0.03433969
246	0xbefb3fa5	-0.49071994
247	0xbab72f29	-0.0013975847
248	0x3e4a76bd	0.19771858
249	0x3f7e1010	0.9924326
250	0xbe840ea5	-0.25792423
251	0xbef8ea52	-0.48616272
252	0x3f95fbfa	1.1717522
253	0xbdff987a	-0.124802545
254	0x3e592d10	0.21208596
255	0x3d8cffb8	0.06884712

log_std.weight f4 [1, 256]
0	0xbde4d861	-0.111740835
1	0x3dd22898	0.10261649
2	0x3e0f62ee	0.14002582
3	0xbd2161a7	-0.03939977
4	0xbea355ec	-0.3190149
5	0x3e74e8e5	0.23916967
6	0x3cec1a9a	0.028821278
7	0xbde99026	-0.11404447
8	0x3ea00f17	0.31261513
9	0x3bc60a90	0.0060437396
10	0xbf30f5ef	-0.69125265
11	0xbdfe513e	-0.124178395
12	0xbc96b545	-0.018396983
13	0x3c8ce4d6	0.017198961
14	0x3e8b809a	0.27246553
15	0xbce18e4b	-0.02753367
16	0x3a038c26	0.0005018137
17	0xbca72d2a	-0.020407278
18	0xbc4fd2f9	-0.012684577
19	0x3c0cad26	0.008586204
20	0xbe0352c5	-0.12824543
21	0x3e3bb006	0.18328866
22	0x3d3ecec8	0.04658392
23	0xbdfe1762	-0.12406804
24	0x3cc41c13	0.023939168
25	0x3cd3f524	0.025873728
26	0x3b5962a6	0.0033170371
27	0xbd53f287	-0.051744964
28	0xbf3a30d2	-0.72730744
29	0xbc463fb7	-0.012100152
30	0x3e0f0580	0.13966942
31	0xbc2f7a19	-0.010710263
32	0xbbcef4af	-0.0063157897
33	0x3ce4ab9c	0.027913861
34	0x3cd29b9b	0.025708964
35	0x3d9d574c	0.07682666
36	0xbc23ade0	-0.0099901855
37	0x3cabdc8e	0.020979192
38	0x3c2afd7c	0.010436412
39	0xbe29c3c8	-0.16578591
40	0xbe6ec705	-0.23318107
41	0xbd6d1e6e	-0.057890348
42	0x3ed4a975	0.41535535
43	0xbe08a88f	-0.1334555
44	0x3c747604	0.014920715
45	0xbd44bb17	-0.048029985
46	0xbd63d9a1	-0.05562747
47	0xbc063b0c	-0.008192789
48	0xbc04fe8c	-0.008117329
49	0xbde4b219	-0.11166782
50	0x3e91f44a	0.2850669
51	0x3d4c6a93	0.049906325
52	0xbe1206e7	-0.14260446
53	0xbf49bb8c	-0.788018
54	0x3d3778b9	0.044792864
55	0xbe89b23f	-0.26893803
56	0xbc0e16d3	-0.008672434
57	0x3c692b23	0.014231476
58	0x3d3abae7	0.0455884
59	0xbd6e9b20	-0.058253407
60	0xbe9ee473	-0.31033668
61	0x3d26bbdf	0.04070651
62	0x3d04309f	0.03227293
63	0xbe951eff	-0.2912521
64	0xbdf111ad	-0.117709495
65	0x3c93b58a	0.0180309
66	0x3db6bcdb	0.0892274
67	0xbb83a560	-0.004017517
68	0x3c0620f3	0.008186567
69	0x3f92d309	1.1470653
70	0x3e38eba9	0.18058647
71	0x3b9052fc	0.0044044238
72	0xbe840144	-0.25782216
73	0xbf2a9843	-0.6663858
74	0x3b8bfbd7	0.004271965
75	0x3e92c176	0.28663224
76	0x3d36fcc0	0.044674635
77	0x3a115c2d	0.00055450463
78	0x3f16ada2	0.5885869
79	0x3d90f7d3	0.07078519
80	0xbe29f96f	-0.16599058
81	0xbed3b61c	-0.41349876
82	0xbbe2bf04	-0.0069197435
83	0x3e285abd	0.16440864
84	0xbe6dadde	-0.23210856
85	0x3cc3d85d	0.023906881
86	0xbf86a97a	-1.052047
87	0x3c9bb5d4	0.0190076
88	0xbe9af09b	-0.30261692
89	0xbd4bebe8	-0.049785525
90	0xbda778d1	-0.08177341
91	0x3effebce	0.49984592
92	0xbea468b7	-0.3211114
93	0xbc46d184	-0.012134913
94	0x3c950995	0.018193046
95	0xbc5accdf	-0.013354509
96	0xb8dba007	-0.00010472541
97	0x3e549085	0.20758255
98	0xbf34c5e1	-0.7061444
99	0xbcded48b	-0.027200958
100	0x3f58ff7a	0.84764826
101	0xbd608df0	-0.054822862
102	0xbf74ee07	-0.956757
103	0xbbd37c1f	-0.0064540054
104	0x3ee31b8b	0.4435695
105	0xbe7ff7b4	-0.24996835
106	0x3dc13737	0.094343595
107	0xbf1506e5	-0.58213645
108	0xbb5e28ad	-0.0033898756
109	0xbe9be58c	-0.30448568
110	0xbfd728f9	-1.6809379
111	0xbf3ccffc	-0.7375486
112	0xbeb51e0f	-0.35374495
113	0xbcd34299	-0.025788592
114	0xbdf8b286	-0.12143426
115	0x3c2676fb	0.010160203
116	0x3cce6d03	0.025198465
117	0x3d1a175b	0.03761993
118	0xbf387946	-0.7206005
119	0x3d4084ad	0.04700153
120	0xbef171a0	-0.47157001
121	0x3d84dd45	0.06487516
122	0x3c8f9b78	0.017530188
123	0x3a9deaf8	0.0012048176
124	0xbe7e81ce	-0.24854204
125	0xbf49b896	-0.7879728
126	0x3f0d56bc	0.5521047
127	0xbde6f266	-0.112767026
128	0xbfbddcc8	-1.4833002
129	0x3cbe8bfb	0.023260107
130	0x3c3e7184	0.011623744
131	0xbe9ed374	-0.310207
132	0xbeb2d907	-0.34931204
133	0x3db68e36	0.08913843
134	0xbd468dc5	-0.048475046
135	0x3db7fda9	0.08983929
136	0x3ca4a062	0.020096008
137	0xbea9eac4	-0.33186924
138	0x3d88793c	0.066637486
139	0xbaf6a806	-0.0018818385
140	0xba3887aa	-0.00070392585
141	0xbbdda493	-0.0067640035
142	0x39f34b72	0.00046404783
143	0xbc8be6ca	-0.017077822
144	0xba1477ba	-0.00056635926
145	0xbdac136b	-0.08402141
146	0xbe19d13f	-0.15021227
147	0x3e2e24a7	0.1700617
148	0xbe889a0b	-0.26680025
149	0xbd2e4833	-0.042549323
150	0x3c97b9d5	0.018521229
151	0xbf4e0d88	-0.804894
152	0xbcf5b62f	-0.029994098
153	0x3e320dce	0.17388079
154	0xbe6edddd	-0.23326822
155	0x3c6abad0	0.014326766
156	0xbfff5fec	-1.9951148
157	0x3e51c130	0.20483851
158	0xbe66127c	-0.22467989
159	0x3dba8181	0.09106732
160	0xbda0bcd3	-0.07848515
161	0xbe8f648a	-0.28006393
162	0x3da1d6b8	0.079022825
163	0xbd46e679	-0.04855964
164	0x3d1dde00	0.038541794
165	0x3dc8e9a2	0.09810187
166	0xbc788a9a	-0.015169764
167	0x3ce5c273	0.028046822
168	0xbeb5eb53	-0.355311
169	0xba69baae	-0.0008916062
170	0x3e6e6092	0.23279026
171	0x3d52979f	0.05141413
172	0xbf0c4c9f	-0.54804415
173	0x3d02e09f	0.031952497
174	0xbc73e9d7	-0.014887295
175	0x3ef49c38	0.47775435
176	0x3c143d43	0.009047809
177	0xbbb9daa9	-0.0056718183
178	0x3d934713	0.07191291
179	0xbdc9cd34	-0.098535925
180	0xbd1a1395	-0.03761633
181	0x3b97eab5	0.0046361336
182	0xbe6ccf5c	-0.23125976
183	0xbf41e779	-0.75743824
184	0x3d41de57	0.04733118
185	0xbe001310	-0.12507272
186	0xbdef0e50	-0.11672652
187	0xbda402c9	-0.08008344
188	0x3bfb1202	0.007662059
189	0xbd09a192	-0.03360135
190	0xbde1ca9e	-0.11024974
191	0x3d63881a	0.05554972
192	0xbb1ad496	-0.0023625246
193	0x3f19a5a4	0.6001837
194	0xba4c2624	-0.0007787666
195	0xbbcb4bfa	-0.0062041255
196	0xbd4b58a3	-0.049645077
197	0xbde2dec8	-0.110776484
198	0xbd7b7048	-0.061386377
199	0xbdb4c33f	-0.08826303
200	0x3bfd5c78	0.0077319704
201	0x3d90323a	0.0704083
202	0xbe88c1d0	-0.26710367
203	0xbd03ca56	-0.032175384
204	0x3f856e94	1.0424371
205	0x3cb141eb	0.021637877
206	0xbf124495	-0.571359
207	0x3caa897a	0.020817507
208	0xbc946c57	-0.018118067
209	0xbe695281	-0.22785379
210	0xbd465dd1	-0.048429314
211	0x3d0cd6fd	0.034384716
212	0x3ccda216	0.025101703
213	0x3f3097af	0.6898145
214	0x3ed3c2b3	0.4135948
215	0x3cd9a7f0	0.026569337
216	0xbd4c8f3e	-0.049941294
217	0x3ef199ac	0.47187555
218	0xbf3bf386	-0.7341846
219	0x3e04bb76	0.12962136
220	0x3d07b819	0.033134554
221	0x3a854a68	0.001016927
222	0x3ccddd3a	0.025129903
223	0x3b3f3411	0.002917532
224	0xbcecce2a	-0.0289069
225	0xbd61b309	-0.05510238
226	0x3be1e4bd	0.006893723
227	0xbd867bb1	-0.06566561
228	0x3edac825	0.42730823
229	0xbc936627	-0.017993046
230	0x3d06dcfc	0.03292559
231	0xbf1bc18b	-0.608422
232	0xbf6cb38a	-0.92461455
233	0xbe6ea21b	-0.23304026
234	0xbdaea74c	-0.08528003
235	0xbcf8972c	-0.030345522
236	0x3dc0c6b6	0.09412901
237	0x3d331da1	0.04372943
238	0xbed960ba	-0.4245661
239	0x3ea351bd	0.318983
240	0x3ea629f2	0.32453877
241	0x3db946db	0.09046718
242	0xbf4204ce	-0.7578858
243	0xbd0bc42c	-0.03412263
244	0xbdc0254a	-0.09382112
245	0xbf80ddeb	-1.0067724
246	0x3edb6227	0.42848322
247	0xbda4017b	-0.08008095
248	0x3f9e2580	1.2355194
249	0xbce87407	-0.028375639
250	0xbdc4abea	-0.096031025
251	0x3b8d4071	0.0043106605
252	0xbe354c46	-0.17704877
253	0xbf01dbd8	-0.5072608
254	0xbd2eb53a	-0.0426533
255	0xbd71bda4	-0.059018746
