sacpen2.pth (torch, 276052 bytes, 6 tensors)

network.0.weight f4 [256, 6]
0.09351702 -0.6276134 0.270062 -0.038585562 0.31229022 0.72475183 -0.077806875 0.110454135
-1.879828 -0.1491309 0.20871496 -0.21130563 -0.017941449 0.5897175 -0.9232286 -0.16395727
0.18243027 -0.6408709 0.018328406 0.02777648 -1.1532123 0.26509926 0.23342603 -0.9462161
0.6612628 0.5036231 0.45833373 -0.44276637 -0.44906136 -0.57377946 -0.14367351 0.5755657
-0.6093771 -0.11898601 0.22715771 0.6945236 -0.02865727 -0.4971305 -0.74517703 0.26657325
0.7661469 -1.0350364 -0.5658539 0.45998275 -1.1165272 -0.18867254 -0.28770787 -0.6159484
0.26020315 -1.1667643 -0.14510638 -0.6835338 0.37695324 -0.19820762 -0.8491506 0.15799467
-0.0015980772 0.1955487 -0.8205647 1.1697851 -0.08428851 -0.36157203 -0.50251824 0.78914934
-0.0149127375 -0.78689224 0.096922986 0.37599593 0.5664074 0.07657339 -0.6116576 0.4143693
-0.18961248 0.032339826 -0.38933176 -0.043251563 0.747057 1.0740975 0.22361767 -0.46604812
-0.500092 0.46852514 0.63290805 -0.59997374 0.69268197 0.2767455 -0.73449033 -0.3241396
-0.44742426 0.3472712 0.08804806 -0.0058942586 -1.1302245 0.39538357 0.03607998 -0.81461006
-0.35515478 0.4214972 0.48108596 -0.33363795 -0.63041586 -0.15906493 -0.8303084 0.105637826
0.83085763 0.06797307 0.4907884 0.4975166 -0.53828156 0.387501 0.15252273 0.069851585
-0.30825272 1.1937747 -0.44751385 0.12082935 -0.2733619 -0.056303658 -0.74021953 -0.93903345
-0.9000218 0.10177797 0.39986134 -0.37076694 0.28516576 0.16423386 -0.2667032 0.1761565
-1.0317237 0.22756508 -0.5090451 0.9395671 -0.38291168 0.051187046 0.5189829 -0.8936587
-0.058718912 0.6178019 -0.3161115 -1.060456 0.32144287 -1.1837971 -0.5903999 -0.023552645
-0.6916718 0.15496275 -0.22934675 -0.1272695 -0.98441017 -0.2497001 -0.583587 0.106136516
0.5547998 0.029800637 -0.6501428 -0.27472007 -0.26641253 -0.86752343 -0.66662127 -0.46854886
-0.14324158 0.33724582 0.06915594 -0.046476584 3.4795263 0.19367869 -0.9931289 4.944275
-0.35858738 -0.094699 0.88318986 0.15985416 -0.09956058 -0.48176813 0.04928277 -0.27239874
1.1196983 0.22874576 -0.08972364 0.75274074 0.35132942 0.26433557 -0.26528826 -0.38690874
-0.44855022 -0.07008662 -0.30475408 0.26154676 1.1567552 0.28264266 -0.8214662 0.988637
0.38629663 0.4223125 -0.2691882 -0.024396988 0.22078744 -1.2710656 0.084922746 0.32611385
-0.1931095 -0.10592618 -1.2566026 0.29101068 -0.33044866 -0.31268874 -0.8987657 -0.43309653
0.14136657 -0.08077934 0.1864695 -0.050006874 0.16942888 0.14188062 -0.9849955 -0.44601816
-0.47013488 -0.12464944 0.8201471 0.3838034 -1.0689414 0.94639015 -0.31862223 0.33369353
2.7583246 0.50579464 -1.2345215 2.2595782 0.18483469 0.046897583 -0.49656296 0.6722266
0.0016284022 -1.1367341 0.35676268 -0.3549521 -0.7451977 0.40526885 -0.8114057 0.4364939
-0.27121374 -1.3630288 0.22489446 -0.00390111 0.47224975 -0.021764591 -0.46015087 -0.17899716
0.0927741 0.5463611 -0.5011153 -0.49898866 0.6699633 0.25706294 -0.33507228 -0.41325882
00000000: da85 bf3d 46ab 20bf 9145 8a3e e50b 1ebd
00000010: 81e4 9f3e 5689 393f 3659 9fbd c735 e23d
00000020: 349e f0bf c5b5 18be 60b9 553e 8160 58be
00000030: f2f9 92bc baf7 163f b658 6cbf 6ae4 27be
00000040: 00cf 3a3e 1e10 24bf 7425 963c 808b e33c
00000050: 769c 93bf 17bb 873e 3c07 6f3e 383b 72bf
00000060: 8548 293f 72ed 003f b8aa ea3e 46b2 e2be
00000070: 5feb e5be 36e3 12bf 261f 13be 4658 133f
00000080: 2300 1cbf f0ae f3bd 089c 683e 4ccc 313f
00000090: a7c2 eabc e487 febe ecc3 3ebf 4a7c 883e
000000a0: 3422 443f 137c 84bf cddb 10bf dc82 eb3e
000000b0: 5dea 8ebf 6033 41be 724e 93be cbae 1dbf
000000c0: 5939 853e 8858 95bf c496 14be 12fc 2ebf
000000d0: 0400 c13e f0f6 4abe ef61 59bf 5bc9 213e
000000e0: 9376 d1ba eb3d 483e 8710 52bf 85bb 953f
000000f0: 749f acbd f81f b9be 09a5 00bf b105 4a3f
00000100: 8e54 74bc c571 49bf 8f7f c63d 8a82 c03e
00000110: 1300 113f 82d2 9c3d 9895 1cbf 3628 d43e
00000120: c629 42be c476 043d 7e56 c7be 8d28 31bd
00000130: 213f 3f3f 077c 893f 08fc 643e dc9d eebe
00000140: 0806 00bf 87e2 ef3e 4306 223f e197 19bf
00000150: 9b53 313f 96b1 8d3e 8f07 3cbf a0f5 a5be
00000160: cb14 e5be 88cd b13e 8b52 b43d a024 c1bb
00000170: 32ab 90bf b76f ca3e 9ac8 133d 498a 50bf
00000180: d9d6 b5be 7bce d73e e650 f63e 98d2 aabe
00000190: ef62 21bf ebe1 22be 178f 54bf a558 d83d
000001a0: 16b3 543f 7735 8b3d 9e48 fb3e 7fba fe3e
000001b0: d2cc 09bf 8866 c63e eb2e 1c3e 590e 8f3d
000001c0: 4dd3 9dbe 9ccd 983f 8920 e5be 6175 f73d
000001d0: 17f6 8bbe aa9e 66bd 077f 3dbf 7f64 70bf
000001e0: d467 66bf f870 d03d a0ba cc3e 2ad5 bdbe
000001f0: 3f01 923e ec2c 283e 528d 88be 5f62 343e
00000200: 860f 84bf d206 693e c850 02bf 7887 703f
00000210: 000d c4be 82a9 513d 10dc 043f d1c6 64bf
00000220: 3e83 70bd 4428 1e3f 5ed9 a1be 06bd 87bf
00000230: 2994 a43e aa86 97bf 7324 17bf 7af1 c0bc
00000240: 6711 31bf 8eae 1e3e e0d9 6abe f052 02be
00000250: 4e02 7cbf 62b1 7fbe f565 15bf 1a5e d93d
00000260: 5c07 0e3f 7720 f43c c26f 26bf 1ca8 8cbe
00000270: 3967 88be 0416 5ebf b1a7 2abf a3e5 efbe
00000280: ecad 12be 7cab ac3e a1a1 8d3d 3b5e 3ebd
00000290: 8fb0 5e40 b553 463e b23d 7ebf 8037 9e40
000002a0: c498 b7be 8df1 c1bd bb18 623f cfb0 233e
000002b0: 6be6 cbbd 50aa f6be bbdc 493d d977 8bbe
000002c0: 4652 8f3f 543c 6a3e 07c1 b7bd 9eb3 403f
000002d0: 73e1 b33e fe56 873e ddd3 87be e718 c6be
000002e0: 60a8 e5be 9389 8fbd ba08 9cbe 75e9 853e
000002f0: 8e10 943f 8ab6 903e 9c4b 52bf 5017 7d3f
00000300: acc8 c53e 5839 d83e 09d3 89be 31dc c7bc
00000310: 1a16 623e 47b2 a2bf faeb ad3d 65f8 a63e
00000320: 7fbe 45be d3ef d8bd 5bd8 a0bf 5aff 943e
00000330: 9130 a9be bd18 a0be 8215 66bf d4be ddbe
00000340: 66c2 103e a36f a5bd dcf1 3e3e 02d4 4cbd
00000350: c47e 2d3e 2749 113e aa28 7cbf 7e5c e4be
00000360: 85b5 f0be 3548 ffbd 29f5 513f e181 c43e
00000370: 12d3 88bf a046 723f 7422 a3be e1d9 aa3e
00000380: 6488 3040 c27b 013f cd04 9ebf ee9c 1040
00000390: 4e45 3d3e ae17 403d 803d febe 0b17 2c3f
000003a0: 1c70 d53a 8180 91bf 99a9 b63e 48bc b5be
000003b0: 47c5 3ebf 667f cf3e 49b8 4fbf 217c df3e
000003c0: 87dc 8abe ba77 aebf bc4a 663e c4a9 7fbb
000003d0: b8ca f13e a84b b2bc e598 ebbe 084b 37be
000003e0: 5900 be3d 52de 0b3f 1849 00bf 717b ffbe
000003f0: b782 2b3f c19d 833e 988e abbe a996 d3be

network.0.bias f4 [256]
0.15047266 -0.20426619 -0.19221371 -0.6163614 -0.096421845 -0.12553602 -0.06686784 -0.33275092
-0.5506167 -0.34489048 -0.40477312 -0.122987285 0.01704114 -0.617362 -0.40435705 -0.5867103
0.020866686 -0.15891053 -0.33899754 -0.24920535 0.02506884 0.07667686 0.3567327 -0.75863403
0.025847092 -0.037634403 0.06664906 0.016043024 -0.42916054 -0.17372893 -0.523002 -0.17984731
-0.43486503 -0.30379903 0.044987008 -0.14229836 0.10259252 -0.43997678 -0.59102154 -0.14938655
-0.41353646 -0.49305665 -0.4476846 -0.35741487 -0.17935844 -0.08221352 0.06155589 -0.07995672
-0.29511985 -0.35037544 -0.15538593 -0.19946942 -0.0076830513 -0.63271856 0.23914923 -0.7069898
0.02534461 -0.37323663 -0.41426548 -0.4541072 -0.23213865 0.12485254 0.09767525 -0.62226385
-0.36248276 0.009963972 -0.62484604 -0.4447524 -0.62359977 -0.31293806 -0.4353415 -0.24910519
0.30274162 0.06789912 -0.37133735 -0.14709724 -0.4610626 -0.32335487 -0.60453296 -0.20336777
-0.1323995 -0.22955291 0.063856766 -0.10932152 0.08932879 -0.45393002 -0.1767442 -0.1739726
-0.39769346 -0.12981226 -0.64172226 -0.4178663 0.004393433 -0.050989237 0.0774424 -0.5492155
-0.40172455 0.07016355 0.10924275 -0.059902076 -0.2652683 -0.36159667 0.013710236 -0.24444011
-0.03744403 -0.6732672 -0.24617745 -0.09940621 -0.33486485 -0.17628106 -0.21736404 -0.35043776
-0.2296054 -0.2779766 -0.27470967 -0.3131366 0.34918502 -0.3965387 0.19680984 -0.12209039
-0.058960754 -0.26312068 -0.29602394 -0.094790734 0.2853011 -0.2841872 -0.1987109 0.0911031
-0.36445606 -0.6155964 -0.17891787 0.12410284 0.03955428 -0.39264554 -0.23086636 -0.62276775
-0.5665257 -0.3635556 -0.5132983 -0.09341178 0.036192767 -0.20030214 -0.38033208 -0.31229553
-0.070880115 0.19023466 -0.28005442 -0.119173504 -0.11007006 0.62036955 -0.10591707 -0.27828422
-0.28904763 -0.48008078 -0.22661258 0.13385525 -0.2668074 -0.016652286 0.012487162 -0.41986138
-0.45365742 -0.42308587 -0.19231625 0.39220354 -0.24473831 -0.049944736 0.077242985 0.07776424
0.03520783 -0.0065880553 -0.06669409 0.15025821 -0.08753806 -0.2770751 -1.0171409 0.06204267
0.050630797 0.066010006 -0.28662735 -0.53689367 -0.33686522 -0.25019407 -0.51717186 0.031839237
-0.12248293 0.50394315 -0.085744485 -0.030750945 -0.3490781 -0.38946033 0.15048465 -0.105460905
-0.018234476 -0.12756024 -0.10076217 -0.41112062 -0.28634778 -0.29852492 -0.43703124 -0.32662374
0.2448036 -0.3950479 0.08791362 -0.16676709 0.044431392 0.11350649 0.0063953293 0.005793918
-0.20396774 -0.006386215 -0.5240458 -0.01400289 -0.32429814 -0.11750845 0.39674094 -0.23392957
0.013929022 -0.19805062 -0.11081366 -0.14869654 -0.24444197 0.40587428 -0.49802116 -0.6005836
-0.29185465 0.017889466 -0.038318723 0.025671411 0.01240153 0.29465494 -0.13794021 -0.079253055
0.073377505 -0.016717603 -0.33611357 -0.16084982 -0.11521816 -0.34433994 -0.41568804 -0.2547889
-0.46198714 0.1362999 -0.3144773 -0.52878654 0.06335223 0.18716025 -0.08921962 -0.11687331
-0.32972524 -0.24590565 -0.2033127 0.039979864 -0.1253715 -0.2605591 -0.46259803 -0.08675747
00000000: 8115 1a3e 282b 51be acd3 44be dcc9 1dbf
00000010: d178 c5bd 848c 00be 02f2 88bd 545e aabe
00000020: 37f5 0cbf 7c95 b0be 6c3e cfbe c2e0 fbbd
00000030: dc99 8b3c 700b 1ebf e307 cfbe a532 16bf
00000040: 9df0 aa3c 71b9 22be 1691 adbe b02f 7fbe
00000050: 2b5d cd3c c208 9d3d aba5 b63e d735 42bf
00000060: 48bd d33c 8826 1abd 4d7f 883d a96c 833c
00000070: eeba dbbe ffe5 31be 76e3 05bf e529 38be
00000080: a1a6 debe 8c8b 9bbe 4c44 383d a9b6 11be
00000090: 071c d23d a344 e1be 304d 17bf caf8 18be
000000a0: 0dbb d3be ec71 fcbe ea36 e5be 15ff b6be
000000b0: bda9 37be 905f a8bd 0722 7c3d 59c0 a3bd
000000c0: f319 97be 6964 b3be 7d1d 1fbe b641 4cbe
000000d0: 1bc2 fbbb d8f9 21bf 89e3 743e 49fd 34bf
000000e0: 809f cf3c df18 bfbe 9b1a d4be bd80 e8be
000000f0: c1b5 6dbe b0b2 ff3d f609 c83d af4c 1fbf
00000100: 5797 b9be ed3f 233c e9f5 1fbf 96b6 e3be
00000110: 3ca4 1fbf 6b39 a0be 15e5 debe 6e15 7fbe
00000120: f300 9b3e b20e 8b3d ee1f bebe a9a0 16be
00000130: 6610 ecbe c58e a5be acc2 1abf a43f 50be
00000140: bc93 07be eb0f 6bbe 56c7 823d f6e3 dfbd
00000150: 03f2 b63d 8469 e8be 6efc 34be e025 32be
00000160: 7a9e cbbe 81ed 04be e947 24bf 92f2 d5be
00000170: caf6 8f3b 17da 50bd 1f9a 9e3d 6399 0cbf
00000180: d7ae cdbe e8b1 8f3d aaba df3d e15b 75bd
00000190: 3fd1 87be 3323 b9be e6a0 603c 824e 7abe
000001a0: e95e 19bd 3d5b 2cbf f115 7cbe 7c95 cbbd
000001b0: 6873 abbe 0683 34be ae94 5ebe 946c b3be
000001c0: ae1d 6bbe f352 8ebe bfa6 8cbe 7153 a0be
000001d0: 61c8 b23e 1f07 cbbe 8588 493e 870a fabd
000001e0: d580 71bd c1b7 86be 7390 97be a521 c2bd
000001f0: fc12 923e fc80 91be df7a 4bbe 4394 ba3d
00000200: fc99 babe ba97 1dbf 3f36 37be a129 fe3d
00000210: ab03 223d d608 c9be 3b68 6cbe b56d 1fbf
00000220: d407 11bf f623 babe 8467 03bf ad4e bfbd
00000230: de3e 143d 011c 4dbe e3ba c2be 33e5 9fbe
00000240: 9829 91bd e0cc 423e 4b63 8fbe 3d11 f4bd
00000250: 696c e1bd 8ad0 1e3f 0ceb d8bd 457b 8ebe
00000260: 0dfe 93be 26cd f5be 210d 68be 5a11 093e
00000270: fb9a 88be 606a 88bc f496 4c3c 12f8 d6be
00000280: c945 e8be b69e d8be 8dee 44be e7ce c83e
00000290: ae9c 7abe da92 4cbd 9231 9e3d dc42 9f3d
000002a0: 1636 103d 9de0 d7bb e996 88bd 4add 193e
000002b0: 2847 b3bd cadc 8dbe ac31 82bf 7420 7e3d
000002c0: 3d62 4f3d 4130 873d d2c0 92be dd71 09bf
000002d0: 9979 acbe 7019 80be 6065 04bf dc69 023d
000002e0: 55d8 fabd 6b02 013f ce9a afbd 68e9 fbbc
000002f0: 5dba b2be 5867 c7be a618 1a3e e3fb d7bd
00000300: 7860 95bc 279f 02be 665c cebd 677e d2be
00000310: 2d9c 92be 42d8 98be 8fc2 dfbe 3a3b a7be
00000320: cbad 7a3e b843 cabe 0e0c b43d fec4 2abe
00000330: b1fd 353d 1776 e83d e98f d13b e8da bd3b
00000340: ebdc 50be 7443 d1bb de27 06bf 616c 65bc
00000350: 680a a6be 45a8 f0bd a121 cb3e 3c8b 6fbe
00000360: 8d36 643c c8cd 4abe 46f2 e2bd e843 18be
00000370: ff4e 7abe c1ce cf3e a1fc febe d9bf 19bf
00000380: f96d 95be ee8c 923c 18f4 1cbd da4c d23c
00000390: c92f 4b3c 03dd 963e 3340 0dbe 6d4f a2bd
000003a0: f246 963d 5bf3 88bc 1417 acbe d1b5 24be
000003b0: 80f7 ebbd 534d b0be 10d5 d4be b173 82be
000003c0: 9489 ecbe 3392 0b3e 2b03 a1be 8e5e 07bf
000003d0: d0be 813d f0a6 3f3e c7b8 b6bd 465b efbd
000003e0: bfd1 a8be b1ce 7bbe 3431 50be edc1 233d
000003f0: 6361 00be 0168 85be a6d9 ecbe e7ad b1bd

network.2.weight f4 [256, 256]
0.18212166 0.052080777 -0.112721086 0.20303914 0.16428266 0.2196039 0.021517837 -0.1573818
-0.015227327 -0.01485063 0.31090748 -0.166617 -0.04021981 0.41046116 -0.08502663 0.14289585
0.11158051 -0.19241154 0.28689277 -0.17242792 -0.048035767 0.053972676 0.0579317 -0.18026334
0.05469903 -0.22222942 -0.025532624 0.006973254 -0.014414553 -0.07164251 0.9041668 0.05629714
0.08095014 -0.007451649 -0.02290365 0.1439973 -0.004644906 0.0117417155 -0.11989596 0.13488975
-0.6239159 -0.03390669 0.20080693 0.23357332 0.071781315 -0.035491418 -0.19315933 0.104633965
-0.12416782 0.12127821 0.017202199 -0.12993643 0.064650856 0.11837142 0.077089876 -0.17765279
-0.0040746783 0.4425496 0.05479066 -0.10953734 0.36147416 0.21998161 0.10073798 -0.5687446
0.14600033 0.11776306 -0.087299086 0.23257533 -0.049850028 0.11108209 -0.057059817 -0.34046566
-0.0709728 -0.04570841 0.12256452 -0.23322858 0.065386064 0.2026502 -0.47611314 0.4247304
-0.055990733 0.10912829 0.33051816 -0.09720539 0.088100955 -0.10172682 0.33541998 0.071836896
0.24407321 0.17922775 0.2881682 0.10779625 0.0038449513 0.101196215 0.035137985 0.089425996
0.43706885 -0.20620155 0.06505395 -0.1233584 0.013492995 0.12371533 0.11801395 -0.086843334
-0.12349724 -0.0077162487 0.24674281 0.05184765 0.07732293 0.02230056 0.122060955 -0.049176652
-0.11657851 0.010823849 0.2238426 -0.16842912 -0.10711717 -0.37195453 0.03104891 0.043462675
-0.00914125 -0.10332274 -0.11233693 -0.039455198 0.05173504 0.089885786 0.06178712 0.1359376
0.18160452 -0.038276367 -0.28818113 0.22148271 -0.06783795 0.15045011 -0.11577519 -0.24431786
0.19810942 -0.17902969 -0.14130867 0.008316534 0.008156224 0.20249426 0.22215599 -0.16710342
0.022088433 0.15060833 0.15294464 -0.010345217 0.08918803 0.07096883 -0.123849995 0.18259725
0.16040586 -0.025971882 0.14136283 0.14117081 0.17343953 0.07475912 0.086358525 -0.10224177
0.06780528 0.06150522 -0.010310619 0.008633325 0.15078554 0.044735916 0.11478599 0.0049256324
0.21476452 -0.7036763 0.017095147 0.06697952 -0.4727679 0.3278135 -0.5579357 -0.24645706
0.053407937 -0.08402133 0.33638045 -0.6838909 -0.11043136 -0.06226125 -0.27961418 -0.07257585
0.18949142 0.04089551 0.042591203 0.05069165 0.041490793 0.18146615 -0.047845334 -0.04624403
-0.15308511 -0.07956854 0.10878754 0.19359809 0.08074427 -0.03911672 -0.19572979 -0.58994776
0.018854145 -0.27577174 -0.25415432 0.12878646 0.072071485 0.14921424 -0.07558037 -0.23919863
0.25265998 0.044389576 0.19093136 -0.026186531 -0.39669487 -0.023158558 -0.0049570417 -0.03729066
0.057842072 -0.17180026 0.11388068 0.13683136 0.03628147 0.06746597 0.043168824 -1.1141785
-0.14804856 0.0073717562 0.061195556 -0.17120498 -0.19449265 0.15583488 0.069078125 -0.09973998
0.10661464 0.23369007 0.072125 0.0844252 0.25859094 -0.34649467 0.14011328 0.20133388
0.2233984 0.016497517 0.160131 0.2699403 0.06765554 -0.23021957 0.07373992 -0.26207608
-0.121925384 -0.08974589 0.11672457 -0.0071857614 -0.018319989 -0.047673624 -0.018087305 -0.08371039
00000000: 1a7e 3a3e a752 553d 50da e6bd 7ee9 4f3e
00000010: b739 283e d8df 603e 2d46 b03c b228 21be
00000020: 0a7c 79bc 0f50 73bc 442f 9f3e a69d 2abe
00000030: 87bd 24bd f727 d23e 7122 aebd 4a53 123e
00000040: 5384 e43d 8807 45be 9ce3 923e f290 30be
00000050: 27c1 44bd 7412 5d3d ca49 6d3d f496 38be
00000060: 170c 603d 1c90 63be cb29 d1bc e57f e43b
00000070: 042b 6cbc 4fb9 92bd 7a77 673f d497 663d
00000080: 30c9 a53d f62c f4bb 6fa0 bbbc 0774 133e
00000090: 4c34 98bb 5360 403c 038c f5bd 8a20 0a3e
000000a0: f4b8 1fbf bee1 0abd 55a0 4d3e d82d 6f3e
000000b0: 1502 933d 735f 11bd 8fcb 45be 554a d63d
000000c0: b34b febd b660 f83d a0eb 8c3c 0e0e 05be
000000d0: ab67 843d b76c f23d 4ce1 9d3d 9dea 35be
000000e0: e184 85bb dc95 e23e 2c6c 603d 1d55 e0bd
000000f0: 2413 b93e dc42 613e b74f ce3d 3f99 11bf
00000100: 1c81 153e c22d f13d ddc9 b2bd 3a28 6e3e
00000110: 8b2f 4cbd 027f e33d 8eb7 69bd 8451 aebe
00000120: 305a 91bd be38 3bbd 1b03 fb3d 79d3 6ebe
00000130: 21e9 853d 8983 4f3e 1ac5 f3be 4376 d93e
00000140: 8a56 65bd a77e df3d ad39 a93e 9f13 c7bd
00000150: 466e b43d 2756 d0bd 2bbc ab3e 391f 933d
00000160: 54ee 793e 7b87 373e c88a 933e 48c4 dc3d
00000170: 94fb 7b3b f63f cf3d d9ec 0f3d fa24 b73d
00000180: 7dc7 df3e 8026 53be 013b 853d 54a3 fcbd
00000190: b911 5d3c 775e fd3d 4cb1 f13d ebda b1bd
000001a0: 1fec fcbd 96d8 fcbb 26aa 7c3e 345e 543d
000001b0: 7c5b 9e3d aaaf b63c 18fb f93d 756d 49bd
000001c0: b7c0 eebd 8356 313c ff36 653e af78 2cbe
000001d0: 3f60 dbbd d370 bebe 495a fe3c eb05 323d
000001e0: 2ec5 15bc df9a d3bd e810 e6bd c69b 21bd
000001f0: 1fe8 533d 0a16 b83d 7e14 7d3d 3a33 0b3e
00000200: 89f6 393e aec7 1cbd 7a8c 93be 5dcc 623e
00000210: a0ee 8abd 980f 1a3e 8b1b edbd 762e 7abe
00000220: 32dd 4a3e 8f53 37be 38b3 10be 1242 083c
00000230: afa1 053c a85a 4f3e dc7c 633e 291d 2bbe
00000240: cdf2 b43c 1239 1a3e 859d 1c3e fc7e 29bc
00000250: 37a8 b63d 1b58 913d 11a5 fdbd c6fa 3a3e
00000260: 6f41 243e fcc2 d4bc 6bc1 103e 158f 103e
00000270: 229a 313e 4f1b 993d bddc b03d 2264 d1bd
00000280: 7fdd 8a3d e6ec 7b3d dfed 28bc ca72 0d3c
00000290: 8667 1a3e 023d 373d eb14 eb3d 3367 a13b
000002a0: 3beb 5b3e 2124 34bf 1f0b 8c3c 8f2c 893d
000002b0: a20e f2be 2cd7 a73e e0d4 0ebf 3d5f 7cbe
000002c0: 48c2 5a3d 6013 acbd 0f3a ac3e 7913 2fbf
000002d0: d629 e2bd a705 7fbd 9729 8fbe a6a2 94bd
000002e0: 0a0a 423e 0d82 273d 1d74 2e3d 0ca2 4f3d
000002f0: 40f2 293d 43d2 393e 78f9 43bd 616a 3dbd
00000300: 58c2 1cbe d5f4 a2bd 00cc de3d 943e 463e
00000310: 405d a53d db38 20bd 646d 48be d106 17bf
00000320: 0274 9a3c f431 8dbe 8420 82be 99e0 033e
00000330: 379a 933d 9ecb 183e e2c9 9abd 7cf0 74be
00000340: a65c 813e d8d1 353d 8383 433e 2385 d6bc
00000350: 971b cbbe 04b7 bdbc ae6e a2bb 17be 18bd
00000360: cfeb 6c3d 68ec 2fbe 463a e93d 851d 0c3e
00000370: e19b 143d 992b 8a3d cbd1 303d 679d 8ebf
00000380: 0b9a 17be c68e f13b 31a8 7a3d 5c50 2fbe
00000390: 1529 47be 2e93 1f3e d578 8d3d 7a44 ccbd
000003a0: c758 da3d 734c 6f3e 46b6 933d 1fe7 ac3d
000003b0: 0866 843e c067 b1be db79 0f3e 782a 4e3e
000003c0: 8dc2 643e cd25 873c 62f9 233e 9d35 8a3e
000003d0: fd8e 8a3d aebe 6bbe f504 973d d62e 86be
000003e0: 04b4 f9bd b1cc b7bd 4b0d ef3d 8976 ebbb
000003f0: cd13 96bc 6b45 43bd d42b 94bc 5a70 abbd

network.2.bias f4 [256]
0.09916845 0.12482134 -0.5594349 -0.059062634 -0.22635724 -0.26098916 -0.07449949 0.2064828
0.11809933 0.15101516 -0.01667572 -0.18433124 -0.0776294 -0.10058431 -0.09539727 -0.2520035
-0.053577475 -0.12887189 0.006577476 -0.027358547 -0.16280113 -0.09337441 -0.054440435 -0.006535808
-0.058113948 -0.10999634 -0.038775533 -0.031485375 0.018735776 -0.04066898 -0.124321975 -0.031571697
-0.20973718 0.30086446 -0.07934209 0.18607794 0.05375028 -0.035784956 -0.056963257 -0.14702041
-0.0146628665 0.23496841 -0.13616213 0.35546005 -0.058518715 -0.0025057397 0.0031116274 -0.1247027
-0.23872712 -0.16774265 0.061518967 0.09103128 -0.037168927 -0.028985495 -0.051090177 -0.024971316
-0.10537106 -0.060900383 0.3974019 -0.13624245 -0.007607426 -0.07653527 8.980917e-05 -0.12506284
0.008879034 -0.016988384 -0.3234602 -0.21229379 -0.002309354 0.08694778 0.1386533 -0.08402997
-0.33123174 -0.3694465 -0.06556517 -0.05559492 -0.07646349 -0.017143138 -0.0837054 0.08421617
0.056639306 -0.14688866 -0.017392103 0.096106686 -0.23094735 -0.009205107 -0.1322966 -0.0068912962
0.14169216 -0.0996589 -0.28411996 -0.26598427 0.29873043 -0.02207556 0.114065185 -0.009171189
-0.06668848 -0.06556583 0.013669909 -0.03174087 -0.2643696 -0.2552771 0.14418358 -0.05157085
0.23967522 -0.16937171 -0.37397015 0.075352974 0.019289177 0.25124946 0.032213405 0.11789009
0.046942633 0.20783342 -0.17665891 -0.2587708 -0.08055801 0.0020562515 0.09739931 -0.06735645
-0.34476957 -0.40138963 -0.013052365 -0.05793433 -0.12741715 -0.061179534 -0.011118832 -0.28395593
0.02890116 -0.023143217 -0.26122105 -0.24802424 -0.17759123 -0.14392039 -0.0763717 -0.05082887
-0.059030212 -0.1980211 -0.03099159 -0.0743684 -0.017937757 -0.14716159 -0.020495513 -0.070594236
0.01211572 -0.032043315 -0.1486485 -0.35562673 0.0682515 0.0790635 -0.13311051 0.08745092
-0.14975284 -0.22117074 0.18870318 0.002828376 -0.22603273 -0.106701024 -0.25470012 -0.18042421
-0.09804028 -0.048878025 -0.34544247 -4.1819705e-05 -0.10260677 0.1858557 -0.07943194 -0.022289488
-0.03111611 -0.07938254 -0.060751542 -0.06790707 0.09603895 -0.07417113 -0.043452587 -0.29838637
0.013042654 -0.030297905 0.007719643 -0.15255645 -0.0041143103 -0.053165957 -0.47733188 -0.0067426576
-0.36747432 0.044226963 0.09676621 -0.1380202 -0.018830968 -0.27708623 -0.09478799 -0.23031114
-0.04656732 0.18253653 -0.059740905 -0.04582449 -0.13280939 -0.19155586 -0.23515595 0.0066696918
-0.053617626 -0.025428513 -0.18329455 0.17900886 -0.022257598 -0.07862623 0.25912485 -0.022798277
-0.03855654 -0.22253036 -0.04623428 -0.02126294 -0.039764334 -0.05425052 -0.24853985 -0.017898131
-0.12192472 0.36277914 0.11433405 0.036019906 -0.04399963 0.5217655 -0.056006998 0.06323916
0.30292466 -0.57661504 -0.0054591647 -0.021504782 0.035073318 0.026253207 0.083091766 -0.31074768
-0.04940126 -0.10432588 -0.1816528 -0.029468352 0.17794573 -0.044103604 0.052923433 -0.049396478
-0.21183492 0.27949825 0.2164269 -0.066709615 -0.033360943 0.12769902 -0.07855499 0.010688602
-0.26392904 -0.0053527593 0.17926851 -0.18949509 0.118917145 -0.15811045 -0.0691819 -0.075053185
00000000: d418 cb3d 55a2 ff3d 2037 0fbf a9eb 71bd
00000010: 31ca 67be 5fa0 85be 3093 98bd 3a70 533e
00000020: 10de f13d b8a3 1a3e 859b 88bc 54c1 3cbe
00000030: 2afc 9ebd 26ff cdbd a55f c3bd 9a06 81be
00000040: 0e74 5bbd fef6 03be de87 d73b 081f e0bc
00000050: 57b5 26be 153b bfbd effc 5ebd 552a d6bb
00000060: e408 6ebd c345 e1bd 18d3 1ebd cff6 00bd
00000070: c57b 993c 8494 26bd 859c febd 5351 01bd
00000080: 58c5 56be e80a 9a3e 1b7e a2bd 378b 3e3e
00000090: 4129 5c3d 3f93 12bd 4e52 69bd 858c 16be
000000a0: 853c 70bc 8f9b 703e 166e 0bbe dcfe b53e
000000b0: 52b1 6fbd 5637 24bb 72ec 4b3b 2164 ffbd
000000c0: e274 74be bbc4 2bbe 50fb 7b3d 9c6e ba3d
000000d0: 723e 18bd fd72 edbc ef43 51bd a590 ccbc
000000e0: c8cc d7bd ae72 79bd 4378 cb3e 2483 0bbe
000000f0: b747 f9bb 86be 9cbd ee57 bc38 7910 00be
00000100: 5e79 113c 392b 8bbc 939c a5be 8b63 59be
00000110: 8858 17bb ad11 b23d 21fb 0d3e e817 acbd
00000120: 3597 a9be 1728 bdbe 0847 86bd 80b7 63bd
00000130: e498 9cbd c46f 8cbc bd6d abbd 8779 ac3d
00000140: 9efe 673d fb69 16be e279 8ebc 95d3 c43d
00000150: 767d 6cbe 04d1 16bc c378 07be 62d0 e1bb
00000160: c017 113e f719 ccbd 2c78 91be 172f 88be
00000170: 32f3 983e ced7 b4bc 029b e93d c142 16bc
00000180: f893 88bd 6147 86bd c1f7 5f3c b702 02bd
00000190: 745b 87be aeb3 82be dca4 133e f53b 53bd
000001a0: 6c6d 753e c76f 2dbe 0479 bfbe a952 9a3d
000001b0: 5604 9e3c c5a3 803e 34f2 033d 5c70 f13d
000001c0: eb46 403d 49d2 543e 13e6 34be 9b7d 84be
000001d0: 99fb a4bd 2dc2 063b 4a79 c73d 2ef2 89bd
000001e0: a385 b0be f182 cdbe 96d9 55bc 8c4c 6dbd
000001f0: a479 02be 6497 7abd c32b 36bc ac62 91be
00000200: 20c2 ec3c d896 bdbc c4be 85be 11fa 7dbe
00000210: 7ada 35be de5f 13be c468 9cbd ef31 50bd
00000220: aac9 71bd 0bc6 4abe 13e2 fdbc 764e 98bd
00000230: 34f2 92bc 87b1 16be 35e6 a7bc b693 90bd
00000240: 0381 463c da3f 03bd 5037 18be b514 b6be
00000250: 71c7 8b3d 0bec a13d 1f4e 08be 7819 b33d
00000260: cf58 19be 957a 62be 683b 413e 465c 393b
00000270: 2075 67be 1186 dabd 0e68 82be 20c1 38be
00000280: 58c9 c8bd 5334 48bd d6dd b0be 9167 2fb8
00000290: 8023 d2bd f550 3e3e 37ad a2bd 7298 b6bc
000002a0: 36e7 febc 5093 a2bd 9cd6 78bd dd12 8bbd
000002b0: 12b0 c43d 09e7 97bd 57fb 31bd 19c6 98be
000002c0: dbb0 553c 5033 f8bc 0ff5 fc3b c237 1cbe
000002d0: 56d1 86bb 8cc4 59bd d864 f4be 83f1 dcbb
000002e0: 9825 bcbe 5527 353d 5d2d c63d 2b55 0dbe
000002f0: 6743 9abc 3fde 8dbe 3520 c2bd afd6 6bbe
00000300: 60bd 3ebd dbea 3a3e e1b2 74bd 76b2 3bbd
00000310: 2fff 07be 3827 44be b9cc 70be 6e8d da3b
00000320: 289e 5bbd 754f d0bc 91b1 3bbe 194e 373e
00000330: 9155 b6bc ca06 a1bd 03ac 843e 74c3 babc
00000340: 76ed 1dbd 00df 63be 2860 3dbd 9e2f aebc
00000350: eddf 22bd cb35 5ebd 3b81 7ebe 1a9f 92bc
00000360: abb3 f9bd 30be b93e f827 ea3d 9c89 133d
00000370: f538 34bd 6c92 053f 9867 65bd 8883 813d
00000380: f118 9b3e 0b9d 13bf cbe2 b2bb cc2a b0bc
00000390: 0aa9 0f3d f710 d73c 042c aa3d 521a 9fbe
000003a0: fa58 4abd cfa8 d5bd 3103 3abe 9d67 f1bc
000003b0: 6837 363e fba5 34bd 3ec6 583d f653 4abd
000003c0: 41eb 58be 651a 8f3e 039f 5d3e 0d9f 88bd
000003d0: 7ca5 08bd 88c3 023e 70e1 a0bd 3f1f 2f3c
000003e0: b521 87be 3366 afbb 2a92 373e 000b 42be
000003f0: d58a f33d b5e7 21be 3daf 8dbd 7cb5 99bd

mean.weight f4 [1, 256]
-0.6212412 0.45274705 -4.4161286 -0.21389744 0.34846142 -0.50359845 0.004317436 0.9002189
0.4487432 0.19927013 -0.18994541 -1.1456503 0.00482527 -0.017530795 0.025906438 -1.3840802
-0.0063836467 -0.2724287 -0.024784582 0.009714935 -1.890512 -0.43192917 -0.008680639 -0.020097844
0.004544177 0.02689719 0.008836507 -0.015191428 -0.34380427 0.035106856 -0.75923413 -0.54509574
-0.31257483 0.83605546 1.1212988 0.41022864 0.23378748 0.014546791 -0.008484709 -0.5782909
-0.25165063 -0.38530755 -1.3075694 0.50317943 -0.01515461 -0.0018485651 0.026386304 -0.3468716
-0.7642473 -1.5598966 -0.4022184 -1.7136476 1.7814003 -0.13266735 -0.14865854 -0.026095761
0.020997506 0.02759796 0.21876417 0.32502636 1.5400673 0.030491237 -0.34333295 -1.8880188
0.18487775 0.5736941 0.01246218 -0.27696842 -0.005762323 1.6660981 0.8178574 -0.0009316846
-3.8246958 -0.25295928 -0.010268501 0.9369511 0.015218253 0.02058633 -0.81744343 0.22488394
-0.9279406 -0.72558826 0.0098390635 -1.2783778 0.43831906 -0.00489847 -0.003017212 -0.0037302119
0.34027892 0.89788944 0.59039164 -0.43231514 0.5620519 0.0027661342 0.56891483 0.016869718
0.030120887 0.5221538 0.037704907 -0.09453478 -0.78963065 -1.3337778 -0.3238866 0.005228908
0.29007354 -0.8057253 -0.8827413 -0.25140974 0.008358403 1.2821734 0.024578966 0.051231615
0.09336622 0.75543076 -0.9641447 3.1930292 0.0203208 -0.024592482 0.33111215 0.007899676
1.5833039 -0.41436416 0.010896272 0.023887696 -2.851713 0.17011361 1.0178657 -3.3613033
-0.024533749 0.009491812 0.6237847 -3.121519 0.52922 1.1390002 0.043232135 -0.12966667
-0.017229548 5.87466 0.009141719 0.01618019 -0.3150476 0.47413686 -1.0893627 -0.045793697
-8.012652e-06 -0.48385045 0.38303536 -0.38308278 0.07616599 -0.67810684 -0.23615488 0.07819604
-2.5287874 -1.1820716 0.5511495 0.0022445808 -0.2762355 -0.57326263 -0.41725305 -0.8612552
-1.1359096 0.53997874 -1.0895231 0.1319182 1.0336288 0.86901504 0.003481085 0.043791953
-0.62130624 -0.0063513666 0.40296268 0.010689958 4.1918807 -0.0043657986 -0.074676305 -3.69504
-0.016065098 -0.036870245 0.9229245 -1.2102787 -0.30209634 -0.0047709714 -6.111301 -0.43962774
1.4729482 0.37615567 0.91162366 -2.5022166 -0.04089706 -0.02294488 -0.324921 2.0526817
0.008222635 0.7165986 0.025691858 -0.0055800807 -1.0058075 -2.350582 -0.12912843 0.26324213
-0.39035594 0.0907566 -0.019775549 0.98037094 0.27214357 -0.7455039 -0.4628494 0.0059197647
0.021882381 -0.7726296 0.042205177 0.031154092 -0.0015147495 -1.2389286 0.16439492 0.02420827
0.74987924 0.5033914 0.39781302 1.2368145 0.0027379435 0.15397729 0.0027154444 -0.1410969
0.5591216 -0.92968637 0.02458069 0.04143877 3.0447364 -0.011994824 2.1597593 -0.13859385
-0.2190172 -0.013679879 0.2957021 0.03868864 0.30516493 0.017104944 -0.027627908 0.19108617
-3.8565912 0.45492336 0.5002842 0.041019835 0.5746334 -0.03433969 -0.23548394 -0.0013975847
-0.020693624 0.94693637 -0.238814 -0.48616272 0.80612826 -0.124802545 0.24112795 0.06884712
00000000: aa09 1fbf 76ce e73e ed50 8dc0 ee07 5bbe
00000010: 8969 b23e d4eb 00bf 4779 8d3b bf74 663f
00000020: abc1 e53e 780d 4c3e 0d81 42be aba4 92bf
00000030: 4c1d 9e3b be9c 8fbc bd39 d43c 8a29 b1bf
00000040: e92d d1bb c67b 8bbe 0909 cbbc 642b 1f3c
00000050: 4cfc f1bf d225 ddbe 3d39 0ebc 3ca4 a4bc
00000060: 52e7 943b 7f57 dc3c ffc6 103c 78e5 78bc
00000070: 1d07 b0be 35cc 0f3d 2b5d 42bf 658b 0bbf
00000080: cf09 a0be bb07 563f b886 8f3f 7d09 d23e
00000090: fc65 6f3e aa55 6e3c 7303 0bbc df0a 14bf
000000a0: 5ad8 80be 0847 c5be 6f5e a7bf 5ed0 003f
000000b0: 0b4b 78bc 8d4b f2ba 1728 d83c 2899 b1be
000000c0: b6a5 43bf b1aa c7bf 92ef cdbe ce58 dbbf
000000d0: ed04 e43f f3d9 07be f239 18be c7c6 d5bc
000000e0: f602 ac3c 1e15 e23c b703 603e db69 a63e
000000f0: ed20 c53f c2c8 f93c 56c9 afbe 9aaa f1bf
00000100: 9850 3d3e 9edd 123f 2c2e 4c3c cece 8dbe
00000110: ded1 bcbb b442 d53f 1a5f 513f 4c3c 74ba
00000120: d1c7 74c0 e183 81be 373d 28bc 07dc 6f3f
00000130: fb55 793c aaa4 a83c f943 51bf fa47 663e
00000140: 848d 6dbf 27c0 39bf 0634 213c e2a1 a3bf
00000150: 5b6b e03e 5883 a0bb 6bbc 45bb 9276 74bb
00000160: 0a39 ae3e 15dc 653f e823 173f 6958 ddbe
00000170: a2e2 0f3f 0848 353b 67a4 113f 5d32 8a3c
00000180: 14c0 f63c dfab 053f 7670 1a3d 739b c1bd
00000190: 3c25 4abf 3bb9 aabf 77d4 a5be 4257 ab3b
000001a0: 8584 943e 0344 4ebf 55fb 61bf c7b8 80be
000001b0: aff1 083c 421e a43f d459 c93c 3ed8 513d
000001c0: ca36 bf3d e963 413f 30d2 76bf 975a 4c40
000001d0: ce77 a63c 2c76 c9bc 8887 a93e a56d 013c
000001e0: b4a9 ca3f 8a27 d4be 4786 323c 21b0 c33c
000001f0: 7782 36c0 4332 2e3e 6c49 823f 981f 57c0
00000200: 00fb c8bc 8c83 1b3c 5bb0 1f3f f8c6 47c0
00000210: f67a 073f c2ca 913f 2e14 313d 57c7 04be
00000220: fb24 8dbc 37fd bb40 26c7 153c 518c 843c
00000230: eb4d a1be 11c2 f23e 3d70 8bbf 2c92 3bbd
00000240: 146e 06b7 3fbb f7be 361d c43e 6d23 c4be
00000250: eafc 9b3d 6998 2dbf 96d2 71be 3f25 a03d
00000260: a7d7 21c0 1f4e 97bf 2218 0d3f d119 133b
00000270: bd6e 8dbe 57c1 12bf 31a2 d5be 397b 5cbf
00000280: 7c65 91bf 0c3c 0a3f 7e75 8bbf 9115 073e
00000290: f34d 843f c577 5e3f ea22 643b 315f 333d
000002a0: ed0d 1fbf 201f d0bb 2051 ce3e ef24 2f3c
000002b0: e323 8640 f90e 8fbb e4ef 98bd 897b 6cc0
000002c0: f49a 83bc 4105 17bd c844 6c3f 6aea 9abf
000002d0: 5fac 9abe cf55 9cbb c78f c3c0 e316 e1be
000002e0: 9189 bc3f 7a97 c03e 2b60 693f 5124 20c0
000002f0: ad83 27bd e7f6 bbbc 0c5c a6be 235f 0340
00000300: 3bb8 063c 0173 373f bb77 d23c 1cd9 b6bb
00000310: 4dbe 80bf ef6f 16c0 3e3a 04be acc7 863e
00000320: bcdc c7be 99de b93d 5500 a2bc 97f9 7a3f
00000330: 6756 8b3e 58d9 3ebf 99fa ecbe 96fa c13b
00000340: ae42 b33c 0ecb 45bf 56df 2c3d de36 ff3c
00000350: 8f8a c6ba 3695 9ebf 2457 283e 6c50 c63c
00000360: 16f8 3f3f 42de 003f 26ae cb3e f04f 9e3f
00000370: 126f 333b 39ac 1d3e 99f5 313b b57b 10be
00000380: 9822 0f3f edff 6dbf 715d c93c b3bb 293d
00000390: f6dc 4240 f085 44bc 7f39 0a40 8ceb 0dbe
000003a0: 0b46 60be 9221 60bc 4466 973e fb77 1e3d
000003b0: 943e 9c3e ab1f 8c3c ec53 e2bc 18ac 433e
000003c0: 64d2 76c0 b7eb e83e a012 003f 6a04 283d
000003d0: 2d1b 133f c6a7 0cbd b422 71be 292f b7ba
000003e0: ad85 a9bc 6c6a 723f a88b 74be 52ea f8be
000003f0: 6c5e 4e3f 7a98 ffbd 3fea 763e b8ff 8c3d

log_std.weight f4 [1, 256]
-0.10632712 0.062052913 0.1817656 -0.03939977 -0.25092164 0.17808576 0.03320748 0.15665533
0.10624303 0.0060437396 -0.69125265 -0.11612453 -0.018396983 0.017198961 -0.0024349678 0.16195805
0.0005018137 -0.020407278 -0.012684577 0.008586204 -0.15158786 -0.34808302 0.04658392 -0.4147611
0.023939168 0.025873728 0.00072481093 -0.051744964 -0.579057 -0.012103277 -0.11145964 -0.010710263
-0.0063157897 -0.013259838 0.546435 -0.048070077 -0.013969301 0.020979192 0.010436412 -0.2547467
-0.23318107 -0.7618719 -0.021089185 0.004867412 0.014920715 -0.048029985 -0.05562747 -0.009960443
0.073996924 -0.11166782 -0.14676599 0.24651024 0.8116228 -0.788018 0.044792864 -0.26893803
-0.008672434 0.014231476 0.06526388 -0.058253407 0.3268801 0.04070676 0.0066615227 0.4605559
-0.117709495 -0.025907673 0.41833845 0.06949333 0.008186567 0.4403126 0.49884418 0.0044044238
-0.25782216 -0.6663858 0.004271965 0.78750277 0.044674635 0.00055450463 0.5885869 0.037129696
0.29831767 0.30281276 -0.0069197435 -0.03460929 -0.23583393 0.023906881 -1.052047 0.0190076
-0.13043262 -0.0747742 0.05151174 0.040727157 -0.3211114 -0.012134913 0.02148281 -0.013354509
-0.00010472541 -0.25652438 -0.7061444 -0.027200958 0.84764826 -0.07768875 -0.956757 -0.0064540054
-0.115421526 -0.24996835 0.16991843 -0.58213645 -0.0033898756 -0.026108885 -1.6809379 -0.7375486
-0.35374495 0.3281082 -0.12143426 0.2774327 0.025198465 0.03761993 -0.7206005 0.04700153
-0.47157001 0.18364513 0.017530188 0.0012048176 -0.24854204 -0.7879728 0.5631736 -0.096194305
-1.4833002 0.023260107 -0.13860318 -0.35648772 -0.34931204 -0.25136858 -0.048475046 0.07778917
0.020096008 -0.39413434 0.0059435903 -0.0018818385 -0.00070392585 -0.008930697 -0.13744581 -0.017077822
-0.00056635926 -0.08402141 -0.043709368 0.36750594 -0.42962345 -0.078430906 0.028279655 -0.804894
-0.062009532 0.40054148 -0.23326822 0.014326766 -1.9951148 0.8267852 -0.22467989 -0.022630164
1.0901524 -0.28006393 0.09733147 0.025459541 0.038541794 0.018216014 -0.015169764 0.028046822
-0.16136037 -0.0008916062 0.1408241 0.05141413 -0.6029298 0.031952497 -0.014887295 0.20371196
0.009047809 -0.0056718183 0.27505505 0.07030045 0.12091054 0.0046361336 -0.23524787 -0.75743824
-0.15254053 -0.12507272 -0.13118015 -0.08008344 0.007662059 -0.19564933 -0.11024974 0.068871334
-0.0023625246 0.7293959 -0.0007787666 -0.0062041255 -0.049645077 -0.12637216 -0.061386377 -0.08826303
0.0077319704 0.0704083 -0.26710367 0.55362886 0.99261844 0.11255802 -0.571359 0.020817507
-0.018118067 -0.22785379 -0.048429314 0.034384716 0.025101703 0.6898145 0.4135948 0.026569337
0.44447196 0.42808017 -0.7341846 0.5927946 0.033134554 0.045434374 0.025129903 0.0471142
-0.0542467 0.23792295 0.006893723 -0.06566561 -0.19025077 -0.017993046 -0.101366796 -0.608422
-0.92461455 -0.23304026 -0.08528003 -0.030345522 0.766473 0.04372943 -0.4245661 0.318983
0.32453877 0.10819494 -0.7578858 -0.03412263 -0.11117794 -1.0067724 0.58511174 -0.08008095
1.6112256 0.3630098 0.21238941 0.0043106605 0.03642735 -0.5072608 0.02852733 -0.059018746
00000000: 08c2 d9bd 322b 7e3d c320 3a3e a761 21bd
00000010: cd78 80be 1d5c 363e 9104 083d 416a 203e
00000020: f295 d93d 900a c63b eff5 30bf b3d2 edbd
00000030: 45b5 96bc d6e4 8c3c fb93 1fbb 55d8 253e
00000040: 268c 033a 2a2d a7bc f9d2 4fbc 26ad 0c3c
00000050: d939 1bbe f037 b2be c8ce 3e3d 915b d4be
00000060: 131c c43c 24f5 d33c 3d01 3e3a 87f2 53bd
00000070: 143d 14bf d34c 46bc f444 e4bd 197a 2fbc
00000080: aff4 cebb cb3f 59bc 2ae3 0b3f 21e5 44bd
00000090: 7fdf 64bc 8edc ab3c 7cfd 2a3c 296e 82be
000000a0: 05c7 6ebe 090a 43bf 3ac3 acbc d07e 9f3b
000000b0: 0476 743c 17bb 44bd a1d9 63bd 2031 23bc
000000c0: b38b 973d 19b2 e4bd d349 16be 2e6d 7c3e
000000d0: 83c6 4f3f 8cbb 49bf b978 373d 3fb2 89be
000000e0: d316 0ebc 232b 693c 12a9 853d 209b 6ebd
000000f0: d45c a73e 22bc 263d e748 da3b fccd eb3e
00000100: ad11 f1bd 543c d4bc 7530 d63e 8552 8e3d
00000110: f320 063c a770 e13e 8168 ff3e fc52 903b
00000120: 4401 84be 4398 2abf d7fb 8b3b c899 493f
00000130: c0fc 363d 2d5c 113a a2ad 163f 4f15 183d
00000140: 18bd 983e 460a 9b3e 04bf e2bb 79c2 0dbd
00000150: 737e 71be 5dd8 c33c 7aa9 86bf d4b5 9b3c
00000160: 2190 05be 3723 99bd f9fd 523d 85d1 263d
00000170: b768 a4be 84d1 46bc b8fc af3c dfcc 5abc
00000180: 07a0 dbb8 2a57 83be e1c5 34bf 8bd4 debc
00000190: 7aff 583f 481b 9fbd 07ee 74bf 1f7c d3bb
000001a0: 1f62 ecbd b4f7 7fbe 19ff 2d3e e506 15bf
000001b0: ad28 5ebb 4de2 d5bc f928 d7bf fccf 3cbf
000001c0: 0f1e b5be ccfd a73e 86b2 f8bd a90b 8e3e
000001d0: 036d ce3c 5b17 1a3d 4679 38bf ad84 403d
000001e0: a071 f1be 780d 3c3e 789b 8f3c f8ea 9d3a
000001f0: ce81 7ebe 96b8 49bf 252c 103f 8501 c5bd
00000200: c8dc bdbf fb8b be3c feed 0dbe 8f85 b6be
00000210: 07d9 b2be 62b3 80be c58d 46bd ee4f 9f3d
00000220: 62a0 a43c facb c9be 73c2 c23b 06a8 f6ba
00000230: aa87 38ba 0f52 12bc 98be 0cbe cae6 8bbc
00000240: ba77 14ba 6b13 acbd 9808 33bd bd29 bc3e
00000250: 9bf7 dbbe 62a0 a0bd bcaa e73c 880d 4ebf
00000260: b5fd 7dbd c613 cd3e dddd 6ebe d0ba 6a3c
00000270: ec5f ffbf 32a8 533f 7c12 66be e562 b9bc
00000280: 1d8a 8b3f 8a64 8fbe b955 c73d 8790 d03c
00000290: 00de 1d3d c039 953c 9a8a 78bc 73c2 e53c
000002a0: a73b 25be aeba 69ba 3134 103e 9f97 523d
000002b0: 9b59 1abf 9fe0 023d d7e9 73bc de99 503e
000002c0: 433d 143c a9da b9bb 04d4 8c3e aff9 8f3d
000002d0: f29f f73d b5ea 973b d1e4 70be 79e7 41bf
000002e0: 9633 1cbe 1013 00be 1754 06be c902 a4bd
000002f0: 0212 fb3b 4c58 48be 9eca e1bd 6a0c 8d3d
00000300: 96d4 1abb b1b9 3a3f 2426 4cba fa4b cbbb
00000310: a358 4bbd b467 01be 4870 7bbd 3fc3 b4bd
00000320: 785c fd3b 3a32 903d d0c1 88be 9fba 0d3f
00000330: 3e1c 7e3f d284 e63d 9544 12bf 7a89 aa3c
00000340: 576c 94bc 8152 69be d15d 46bd fdd6 0c3d
00000350: 16a2 cd3c af97 303f b3c2 d33e f0a7 d93c
00000360: d491 e33e 532d db3e 86f3 3bbf 63c1 173f
00000370: 19b8 073d 6519 3a3d 3add cd3c d2fa 403d
00000380: ca31 5ebd 13a2 733e bde4 e13b b17b 86bd
00000390: 19d1 42be 2766 93bc 6599 cfbd 8bc1 1bbf
000003a0: 8ab3 6cbf 1ba2 6ebe 4ca7 aebd 2c97 f8bc
000003b0: 9337 443f a11d 333d ba60 d9be bd51 a33e
000003c0: f229 a63e 4f95 dd3d ce04 42bf 2cc4 0bbd
000003d0: 43b1 e3bd ebdd 80bf e2c9 153f 7b01 a4bd
000003e0: a43c ce3f 6cdc b93e 9c7c 593e 7140 8d3b
000003f0: d834 153d d8db 01bf 26b2 e93c a4bd 71bd
