sacpen3.pth (torch, 276052 bytes, 6 tensors)

network.0.weight f4 [256, 6]
00000000: b748 683e 8e31 27bf 134b a43e cdc0 c03d
00000010: cac9 a53d 0c27 423f ba45 41be d295 543d
00000020: cc70 e0bf 50dc 16be e666 ac3e a97f d4be
00000030: d75c 093e acf3 fe3e a45c 78bf a58d 5abe
00000040: 6a62 633e 2d82 45bf 8615 213c 251f 843c
00000050: 92de 9dbf 2834 773e 7bda e23d a25c 7dbf
00000060: b418 203f 7f5f f03e 7923 293f c3c7 f8be
00000070: 460b aabe cfba 22bf 0497 ffbd c4bf 163f
00000080: d046 0fbf d14a a8be b80f e33e aa84 0e3f
00000090: f9da 843c 1e10 f9be 5894 22bf b82a ad3e
000000a0: c9af 593f 6b47 84bf ee29 b3be 614c e03e
000000b0: 1488 a5bf 5d26 a5be a9a1 9cbe 28b6 06bf
000000c0: 552a 563e 91bf bdbf 99a5 93be 8200 24bf
000000d0: 650d 14ba ad47 093d 9e39 62bf ffd8 d9bc
000000e0: b30f 0fbe 0020 c33d fec8 51bf 1c9a 9f3f
000000f0: bc29 82bd e7c2 62be ed6e eebe e633 493f
00000100: c417 02bb 03d0 4abf 0626 533e 4c19 d63e
00000110: adac 163f 58ce d0bb 4f48 1fbf 0880 eb3e
00000120: a32c 74be 406a c63d 5fea 96be 6dbf 32bb
00000130: 6b9c 483f f7d1 863f dee2 a43e fcec a9be
00000140: 7d49 76be c81c e73e 2a48 303f f680 1cbf
00000150: 0acd 3d3f 9f72 8c3e e3c9 00bf f1f4 babe
00000160: a424 00bf 6be8 ee3e 5d4b 673d 03b6 303c
00000170: 9bbe 95bf 8446 4e3e b96c d8bd 4f41 49bf
00000180: 1be5 f3be a499 e13e b4e8 2a3e 11c5 1ebf
00000190: 9060 00bf 9e0e a5be 3eb4 4cbf b8df b6bd
000001a0: 32c4 683f e1de 3d3e 83e9 f33e c841 083f
000001b0: 91c0 23bf 97f4 943e d456 863e a389 9a3e
000001c0: a1db a2be d97a 8f3f 699f d4be 24d9 2dbe
000001d0: 1c35 70be 73c2 1a3e 5c8d 22bf cb1a 5dbf
000001e0: 5508 4cbf 7f91 223e 0f8d fe3e b840 cbbe
000001f0: d753 0b3f 85f0 2b3e 3123 ffbd e41e 9c3e
00000200: 2208 98bf 3b9a 2d3d 0bd0 14bf bb7a 383f
00000210: 1a4d 03bf 3756 90bd 1c0d a03e f70e 62bf
00000220: 9539 25be 9ddb 163f 0a15 7ebe 0a6d 90bf
00000230: 07f5 273e c92e 79bf 722d 0ebf 6ea3 10be
00000240: 80d3 1ebf 313c cb3e a614 9abe cee8 88be
00000250: 4f97 42bf a0b5 dbbe fb36 ddbe 34b2 be3d
00000260: 463e 5c3f 5413 acbd 9370 2cbf 01e5 a2be
00000270: 1657 c9be feff 77bf 9534 3abf 3e23 1dbf
00000280: a7ff 523e c5e4 2a3c 0c4b 153e 70d0 993d
00000290: 9da7 6340 8862 853e 6c06 7cbf 55de 9840
000002a0: 1433 b5be 1efd 2f3d cd88 723f ea85 f2bb
000002b0: fc99 6ebe 9a44 04bf 9eeb 463d f060 15be
000002c0: b2ed 863f 8ca9 4c3e 6b9d 66be 04a5 473f
000002d0: 3c31 d43e 4490 c43e d323 3ebe 2148 06bf
000002e0: 6e40 9ebe 7ee3 f63b 2b6f 65be fa0e 8a3e
000002f0: dac3 983f a421 823e 98bc 4ebf 9ffc 803f
00000300: de85 9d3e b510 ac3e 49ec 0abf 1e15 21bd
00000310: 6c4c 9f3e e495 afbf 42e4 ce3e 4cef c93e
00000320: 7475 f33b a3cf 12be 7038 81bf 2d0a 7c3e
00000330: 45c3 03be 0a55 c0be 37f4 76bf e190 e8be
00000340: c229 8f3e e01d c3bd ee63 713e a414 2e3e
00000350: 73fc 843e 1a50 973e 937a 57bf 1973 7fbe
00000360: 0ddd 8abe c8dd 4fbe 23ea 633f 0faf 9e3e
00000370: 0c0d 84bf 26c1 693f c866 cdbe 33ab fd3e
00000380: 8b94 3540 26fd 853e b16c 8bbf 0e38 0940
00000390: d362 613e ca03 8e3d 600a 01bf 94ab 4f3f
000003a0: 303b 0d3e fbe3 52bf b92b bd3e 16e8 f9be
000003b0: 318c 3bbf ecf8 0a3f 7506 3abf b65c c33e
000003c0: 0d24 ebbe 86bd 9abf 76c8 32bc 4a81 493c
000003d0: 9537 153f 0627 80bd d636 01bf 02cb 1dbe
000003e0: ad4a 263e 0727 193f 9da0 b4be 8fcd 27bf
000003f0: fa29 123f 5d65 903e 9708 74be 09b3 f4be
0.22683989 -0.6530999 0.32088527 0.09411774 0.08095129 0.7584083 -0.18874255 0.051900692
-1.7534423 -0.1473248 0.33672255 -0.41503647 0.13414322 0.49795282 -0.9701636 -0.21343096
0.2220551 -0.7715176 0.009831792 0.016128132 -1.2333548 0.2414099 0.11076828 -0.9896947
0.62537694 0.46947858 0.6606975 -0.48589906 -0.33211726 -0.635663 -0.12479976 0.5888636
-0.55967426 -0.3286958 0.4434793 0.5567118 0.016217696 -0.4864511 -0.63507605 0.33821654
0.8503385 -1.0334295 -0.34992927 0.43808272 -1.2932153 -0.3225583 -0.30592087 -0.526217
0.20914586 -1.4824086 -0.28837278 -0.64063275 -0.0005647748 0.03351562 -0.88369167 -0.02659273
-0.13970833 0.09527588 -0.81947315 1.2468905 -0.063556165 -0.22144662 -0.46569005 0.78594816
-0.0019850591 -0.7922365 0.20619974 0.41816175 0.5885723 -0.0063722543 -0.6221971 0.45996118
-0.23845153 0.09688234 -0.29475686 -0.0027274743 0.78363675 1.0532826 0.32204336 -0.33188617
-0.24051471 0.45139146 0.68860114 -0.6113428 0.7414099 0.274312 -0.50308055 -0.36515
-0.5005591 0.46661696 0.056468356 0.0107855825 -1.1698793 0.20144087 -0.10567612 -0.7861528
-0.4763573 0.4406253 0.16690332 -0.6201945 -0.5014734 -0.32237715 -0.7996253 -0.0892939
0.9092437 0.18542053 0.47639093 0.53225374 -0.6396571 0.29092857 0.2623812 0.30183133
-0.3180819 1.1209365 -0.4152787 -0.16977364 -0.2345776 0.15113239 -0.6349695 -0.8636901
-0.79700214 0.15875815 0.49716994 -0.39697814 0.54424804 0.1679097 -0.12457884 0.30492318
-1.1877482 0.042383414 -0.5812995 0.7206227 -0.5128952 -0.07047694 0.31260002 -0.88304085
-0.16135247 0.58928853 -0.24812713 -1.1283276 0.16402064 -0.97337013 -0.55538094 -0.14124843
-0.62041473 0.3969436 -0.30093879 -0.26740116 -0.7601213 -0.42912006 -0.4320601 0.09311333
0.8603252 -0.08402124 -0.67359275 -0.3181534 -0.39324254 -0.9687499 -0.72736484 -0.613819
0.20605336 0.0104305195 0.1457941 0.075104594 3.5571053 0.26051736 -0.984473 4.77714
-0.35390532 0.042966 0.9473999 -0.0074012177 -0.23300928 -0.5166718 0.048564546 -0.1458776
1.0541289 0.19986552 -0.22520988 0.7798617 0.41443813 0.38391316 -0.18568353 -0.5245381
-0.3090853 0.0075344434 -0.22405688 0.2696455 1.1934769 0.2541629 -0.8075652 1.0077094
0.30766195 0.33606496 -0.5426679 -0.03932678 0.31112993 -1.3717618 0.40408522 0.39440382
0.007429773 -0.1433702 -1.0095348 0.24613257 -0.12867458 -0.3756488 -0.9646639 -0.45423034
0.27961546 -0.095271826 0.23573276 0.17000061 0.25973853 0.295533 -0.8417141 -0.2494625
-0.27121773 -0.20299447 0.8902914 0.30992934 -1.0316482 0.91310346 -0.40117478 0.49544677
2.8371913 0.261697 -1.0892545 2.1440463 0.22010355 0.069343165 -0.50406456 0.8112118
0.1379211 -0.8237912 0.3694742 -0.4880988 -0.7326079 0.54286075 -0.726661 0.3815667
-0.45925942 -1.2089088 -0.010912051 0.012298891 0.58287936 -0.06257443 -0.504743 -0.15409473
0.16239424 0.59825176 -0.35278788 -0.6554803 0.570953 0.28202334 -0.23831402 -0.47792843

network.0.bias f4 [256]
00000000: 3290 ed3d 980b 53be 5432 bdbd 7475 2abf
00000010: 9012 d1bc bc6e 8dbc a312 edbd d55c 80be
00000020: 0c68 b8be f973 dfbe 3db7 1bbf dcde 853c
00000030: 2f79 8f3d 9f3f 12bf ce81 adbe 1cbf 22bf
00000040: aad0 f23d bd3d 1ebe 7015 cabe 18b7 98be
00000050: 9d33 f33d de1f 203e 37ed b13e 8085 83bf
00000060: 9422 cdbb aaa9 29be a9b3 953e 8ce7 393e
00000070: 43ad b9be b075 61be 664f cabe 38f2 c0bd
00000080: 45f2 99be 7b8b 19bf 2b83 043e 30a7 00be
00000090: 5c56 01be ef17 bcbe 0349 2abf 7349 91bd
000000a0: 28d7 66be 8cbf aebe 8f65 02bf 673f a4be
000000b0: 32c1 f5bd 940f 7f3d d118 943b 3624 ddbd
000000c0: 30fa e2be c2ae c5be 999c 63be 932c 41be
000000d0: 418c 78bd 0fb9 48bf 9d2b c13e 0bd1 85bf
000000e0: 66cd 22bd 391f 82be 2a80 c6be 7dc9 b0be
000000f0: 1667 c2be 8420 153e efa9 283e 5cdc 39bf
00000100: 1a2f 04bf d664 49be d755 33bf df8a ebbe
00000110: 23a9 29bf e1db b3be c693 f0be bf3f 85be
00000120: d91b 6e3e a211 2abd 8b01 d3be 8b60 40be
00000130: 4901 d0be 7b25 a0be 063b ccbe e656 8cbe
00000140: 2cce 20be 18a5 39be 4472 b03d 09ed 513e
00000150: d438 3a3e 1f7d d5be cc8e 613e e3cb fdbe
00000160: fb17 ffbe c089 e2bd d9b7 07bf 6d2d a9be
00000170: b9c3 b43d c536 7abd 18c9 973d 80ba 23bf
00000180: a7b9 0abf d1c5 8abd db03 373e d0a3 7ebd
00000190: 2d99 67be 71d9 dcbd ac07 aa3d 6d2c 82be
000001a0: c261 bf3d f9dd 2fbf c3cf 97be 23d8 16be
000001b0: 1462 72be f1dc 3ebe f9e7 18be 542a c7be
000001c0: bdf5 d1bd bc43 abbe 774f dabd 044f bfbe
000001d0: 5606 ac3e edcf 08bf 0184 a83e b7e2 5ebe
000001e0: 7a29 90bd e484 36bd acbe e0be 7522 8d3d
000001f0: e754 523e 2c84 cfbe 560d 85be 8bb1 af3d
00000200: 1e89 a2be a23a 2bbf 26fe 8bbe 47c5 433e
00000210: 5b3c 183e abb2 e6be a548 4dbe a9d2 46bf
00000220: 6165 a7be 312b 47be ca8f f1be 834b fabd
00000230: 509c 243e e575 00be de1d 85be 6ec7 98be
00000240: f63f aebd a047 823e 4d8e 71be 1503 1cbe
00000250: bb81 b1bd 6b9b 103f eb70 95be 7de5 2fbe
00000260: 3e16 e9be bdf9 fdbe 5805 40be b07a 593e
00000270: 4484 5bbe ee34 cc3d 5920 573e 7da9 09bf
00000280: 1abb e4be 6cc1 d5be e71f 98be 7c3c 973e
00000290: 0eec 7bbe e238 7d3d 6115 c53e c868 14be
000002a0: acf2 d0bd 9fc8 9f3d 34c9 b8bd 80a5 883e
000002b0: 50ef c3bd c4c6 5fbd 6c64 88bf 2de6 b5bd
000002c0: 5e7c d6bd 1a17 1d3e 5d5b eebe 8bc5 dfbe
000002d0: c9fe b2be 2a2b dbbe 87b5 d4be 9201 e73c
000002e0: 1dd6 78be 46e8 cc3e 88f3 4bbe 8582 6b3e
000002f0: 6a10 87be 90be c1be 4dd7 ef3d c5d6 bbbd
00000300: 6b17 a4bd f2a7 9ebc cb9c e2bd e09e 1ebf
00000310: d4e8 d6be de6b 85be 43a0 d9be 4c4c debe
00000320: 80be a43e 09c7 17bf 7347 ad3b 710d 3abe
00000330: 5b2a 38bd b769 b03d 4bb4 08be 0cba 8c3c
00000340: c055 c8bd 990d 03be 534b 0dbf ff61 a23d
00000350: 36c1 0dbf 3387 1abe 3534 003f 6c42 12be
00000360: ba91 e03d 0cc2 fcbd c43a 83be 23ef 13be
00000370: 814d 5abe 02e8 d43e f36b d5be 9c28 48bf
00000380: f580 9abe 2050 0c3c 73fb 2ebd c5bc 3e3d
00000390: ae51 0abd 720f 693e 5c9f 0bbb e0e5 d73c
000003a0: 59d3 fe3d e94b 423d d2fa a0be b38a 7cbe
000003b0: 990e 84be 877e cbbe 476b dfbe b1f5 5ebe
000003c0: 3ffc 3dbe c498 8f3d e2de dbbe 2e98 4fbf
000003d0: 7c02 793e 1b89 fe3d 8b69 a83d 690f 2bbd
000003e0: 2db7 b0be e16f 6fbe fdd5 44be e5b9 5c3d
000003f0: d825 7fbd 0306 a4be 9a12 02bf c5c1 5ebe
0.11599769 -0.20609891 -0.09238115 -0.6658547 -0.025521547 -0.017264716 -0.1157582 -0.25070825
-0.3601688 -0.43643168 -0.60826474 0.01634162 0.07005536 -0.5712833 -0.33888096 -0.6357286
0.11856206 -0.15453239 -0.3946948 -0.2982719 0.11875079 0.15637156 0.34751293 -1.0275116
-0.0062602255 -0.16568628 0.29238632 0.18154734 -0.36265 -0.2201755 -0.395137 -0.094211996
-0.3006765 -0.59978455 0.12940662 -0.12563777 -0.126306 -0.3673701 -0.6651766 -0.070940875
-0.22543013 -0.34130514 -0.50936216 -0.32079622 -0.1199974 0.062270716 0.00451956 -0.10797922
-0.44331503 -0.38609892 -0.22227706 -0.1886466 -0.06068063 -0.78407377 0.37728587 -1.045442
-0.039746664 -0.25414446 -0.38769656 -0.34528723 -0.37969273 0.14563185 0.16471075 -0.72601867
-0.5163437 -0.19667372 -0.70052856 -0.46004388 -0.6627371 -0.35128692 -0.46987742 -0.26025197
0.2325281 -0.041520722 -0.41212115 -0.18786828 -0.4062598 -0.31278595 -0.3988878 -0.27410048
-0.15703648 -0.18129385 0.086155444 0.20500578 0.1818574 -0.41697022 0.22027129 -0.49569616
-0.49822983 -0.1106143 -0.53014904 -0.3304247 0.08826394 -0.06108739 0.074114025 -0.6395645
-0.54189533 -0.06776012 0.17872564 -0.062167943 -0.22617026 -0.10783661 0.083022445 -0.2542452
0.09344818 -0.6869808 -0.29650697 -0.14730887 -0.23670226 -0.1863897 -0.1493224 -0.3889948
-0.10251949 -0.33450115 -0.10659688 -0.37364972 0.33598584 -0.5344227 0.3291321 -0.21766172
-0.07039161 -0.044560328 -0.4389547 0.06891338 0.205402 -0.40530527 -0.25986737 0.085787855
-0.31745237 -0.6688634 -0.27342337 0.19118224 0.14866774 -0.45058188 -0.20047243 -0.7766519
-0.32694533 -0.1945007 -0.47180015 -0.12221434 0.16075253 -0.12544973 -0.2599935 -0.29839653
-0.08508293 0.2544527 -0.2358944 -0.1523555 -0.08667322 0.5648715 -0.29187712 -0.17177387
-0.45524782 -0.49604598 -0.18752038 0.21238208 -0.21437174 0.09971033 0.21008433 -0.53774244
-0.44673997 -0.41749132 -0.2971184 0.29538333 -0.24601766 0.061821826 0.38492873 -0.14493096
-0.10202536 0.07801937 -0.090227515 0.26688766 -0.095671296 -0.054632917 -1.0655646 -0.08881793
-0.1047294 0.15340844 -0.4655408 -0.437054 -0.3496001 -0.4280637 -0.41544744 0.028198991
-0.24300428 0.4002096 -0.19917119 0.22999008 -0.2637971 -0.378407 0.11710987 -0.091718234
-0.08012279 -0.019367192 -0.11065062 -0.61961174 -0.4197451 -0.2605886 -0.42505082 -0.43417585
0.3217659 -0.5928808 0.0052880584 -0.1816919 -0.04496227 0.086139135 -0.13350026 0.017178558
-0.097819805 -0.12798156 -0.5519306 0.079288475 -0.5537294 -0.15090637 0.5007966 -0.1428315
0.10965295 -0.12341699 -0.25630772 -0.14446692 -0.21318628 0.41583258 -0.4168392 -0.78186965
-0.3017651 0.008564025 -0.04272027 0.046566743 -0.033769302 0.22759798 -0.0021304702 0.02635473
0.12442655 0.047435675 -0.3144136 -0.24662285 -0.25792387 -0.3974497 -0.43636534 -0.21773411
-0.18553255 0.070115596 -0.42943484 -0.8109158 0.24317354 0.124284945 0.08223256 -0.041762743
-0.34514752 -0.23382522 -0.19222255 0.05388822 -0.06229195 -0.32035837 -0.50809634 -0.21753605

network.2.weight f4 [256, 256]
00000000: 97a5 1a3e c24a e5bb 1a86 32be 44a0 303e
00000010: 9d0a 873d 6ab4 863e cf50 4d3d 983b fcbd
00000020: bf0d 883d 5655 c53c 2ea5 ce3e 4201 1bbe
00000030: 4e93 51bd 60bf a73e 7aa5 12be 8e28 ae3d
00000040: 57bd 423e 5183 1cbe db4d c53e 1c38 77bd
00000050: 97c4 153e 32e9 bc3d eb4d 0f3e 941c 35bd
00000060: db9a fc3d b924 8abe 245b 09bd 54c1 efbb
00000070: ca98 9f3e c1b9 edbd b952 443f 58b5 883d
00000080: 0c2c 2dbc d4c1 583c 7bae 39bd 786a 1e3e
00000090: 180c 073d 3347 8e3c 0474 08bd 3cf8 1f3e
000000a0: 5ce6 10bf 5982 abbc 8734 d73d 2fad 113e
000000b0: b41b eb3d 67b8 90bd 1549 36be d473 d43d
000000c0: af44 29be ae6c be3d 71f3 513d 468d c7bd
000000d0: 8659 783d 9de0 2e3e a7c1 df3d fe6d 3cbe
000000e0: f465 033d e69f d83e 26fd 723c 8a54 51be
000000f0: 7a46 973e 2b72 5d3e 86bb 3c3e 8672 09bf
00000100: 78d2 053e 9251 c53d 22e9 eabd 4c36 7e3e
00000110: dd42 c9bd 5761 583e 97fe 5cbe 20b2 b5be
00000120: 705f a3bd 508a e9bc 5002 7f3e 18d2 62be
00000130: 7010 7c3d 36b9 373e da56 a6be 2ae2 a03e
00000140: dba5 12bd caaa b73d f903 ab3e f125 b7bd
00000150: 4c7b 733d 93ad 7fbc 614a b93e b228 eebc
00000160: 4f6d 8f3e 4201 333e 340c 543e 08d4 673e
00000170: 71d7 313e 5b9b 5e3d 42fb 123d 67b0 12be
00000180: aca7 d43e 6e68 46be aef4 2d3d c05a 9bbe
00000190: 0104 993c 1295 ca3d 4b50 e93d 370d a6bd
000001a0: b0e2 3b3e 3ff3 b43b 621a 893e 13cd 043e
000001b0: 27db cabc a934 fd3c 8ea0 e33d 74ae 71bc
000001c0: 74bc 05be 99ef 883d 8df8 283e 5532 84be
000001d0: 5900 aebd a27c cdbe fae8 69bc 5e9b d23d
000001e0: cdbd 093c a204 083e afce 183d d386 1bbd
000001f0: 77e4 0cbd 5f0e 553d 4fcd 2cbe f190 683e
00000200: 87ff 643e 30d5 d2bd 3c6c d7be 5e46 623e
00000210: 8759 a5bd 8ed8 d13d 2497 2abe 3a15 6abe
00000220: ecef 993e ea6d 8b3d f069 01be def6 ef3d
00000230: 0f98 73bd 9da2 1f3e 16f0 463e c3c6 5ebe
00000240: a4c2 513d 0aee 1b3e 35cc 093e 9ea5 b2bc
00000250: ed99 1c3e 50c6 643d 9ed2 cfbe 89f0 43bd
00000260: ac37 9f3e 6a3b 24bd 049a e93d 1f22 0d3e
00000270: 3969 2b3e a7d2 a53d 7990 963d 196d c0bd
00000280: a309 7c3d a3fb a03d 8413 69bd a6ac 683d
00000290: 8084 f63d 833d b43c a1e6 0c3e 82f3 473d
000002a0: 9b28 923e 8f4f 05bf 5c06 843c 255b b63d
000002b0: 53ce 16bf 7bc8 993e 734f eebe 5630 4abe
000002c0: 0b48 983d c57b cabc 51d6 ee3e 163c 1fbf
000002d0: 28b0 10be 0ab9 70be 4c46 b2be 02de 2d3e
000002e0: fa32 f23d 970f ac3c 3bcc 8e3d e3ac 503d
000002f0: c786 93bb 5cce 203e 76a8 d9bd d74d dfbd
00000300: e9ec cfbd c859 b3bd 1784 db3d eb8e bd3e
00000310: 5b35 c13d b663 3fbd f520 e7bd 12e2 cabe
00000320: e713 9a3c c1d4 babe 28b4 8dbd 6610 103e
00000330: e071 403d 8b11 013e 97f2 90bd 827d 3bbe
00000340: 0232 a23e de8e 333e 018d 4b3e 0328 8b3d
00000350: 42f0 33bf b238 793c 7423 75bc 455c 6fbe
00000360: c248 0a3d c8d0 02be b480 54bd 0a6b 993d
00000370: c55f aabd 5b36 ff3d 6ce1 683d 433b 1abf
00000380: 4108 89bd 6de1 2d3e 35dd ff3c ede8 4ebe
00000390: 576a 24be a046 183e 5f1d fd3d 2ce2 a7bd
000003a0: cbfe d53d b673 6d3e 0bcd d33d 6e8c 633e
000003b0: 6fde 3f3e b538 afbe f119 e73d 0c94 2b3e
000003c0: 3f2d 1c3e 22f1 833d 7f95 513e c742 4e3e
000003d0: 9656 d23c 30dd 51be 5e53 223e a6dc d5bd
000003e0: 2e9d 9abd e139 4fbd 4fd0 7a3d e945 1abd
000003f0: ebfb d13a bcdf 2fbd fe28 b43d 46ee abbd
0.1510223 -0.006997437 -0.17433968 0.17248636 0.06593821 0.2630952 0.050125893 -0.12316054
0.06643247 0.024088543 0.40360397 -0.15137199 -0.05116587 0.32763195 -0.14320937 0.08503829
0.1901754 -0.15284468 0.38535962 -0.060356244 0.14625774 0.09224166 0.13994567 -0.044216707
0.12334224 -0.26981142 -0.033534184 -0.0073167477 0.31171256 -0.11607695 0.76688725 0.066752136
-0.010569584 0.013229806 -0.045332413 0.15470302 0.032970518 0.017367935 -0.033313766 0.15622038
-0.566015 -0.020936178 0.10508066 0.1422622 0.11479893 -0.07066422 -0.17801316 0.10373655
-0.16530107 0.09298073 0.051257554 -0.09743743 0.06063225 0.1707787 0.10925608 -0.18401334
0.032079652 0.42309493 0.014830863 -0.20442405 0.29545957 0.21625583 0.1843091 -0.53690374
0.13068569 0.09634699 -0.11470248 0.248254 -0.09827206 0.21130882 -0.21581493 -0.3548746
-0.07977188 -0.028508335 0.24903226 -0.22150457 0.061539114 0.17941746 -0.32488137 0.3142255
-0.035802703 0.08968122 0.33401468 -0.089427836 0.059443757 -0.015605348 0.3618956 -0.02907214
0.28013083 0.17480949 0.2070778 0.22639477 0.1736734 0.054347377 0.03588415 -0.14325105
0.41534173 -0.19375774 0.042469673 -0.30342674 0.018678667 0.09891714 0.11392268 -0.08107989
0.18348193 0.0055221613 0.2677794 0.12968855 -0.024762703 0.0309089 0.11114608 -0.0147510655
-0.1306017 0.066863246 0.16501065 -0.2581965 -0.0849616 -0.4013415 -0.014276737 0.1028354
0.008407068 0.13283017 0.037306484 -0.037970375 -0.03439757 0.05201566 -0.16875194 0.22711541
0.22363101 -0.102945685 -0.42074764 0.22097155 -0.080737166 0.10246383 -0.16659218 -0.2285966
0.30065858 0.06808074 -0.12638068 0.11717008 -0.059471186 0.15589376 0.19427523 -0.21755509
0.051211014 0.15227523 0.13456805 -0.021807488 0.15293093 0.055853188 -0.40590376 -0.047836814
0.31097162 -0.040095724 0.11406329 0.13782547 0.16739358 0.08096819 0.07351775 -0.09395809
0.061532628 0.07860496 -0.056903377 0.056805275 0.12036991 0.022001987 0.13759853 0.04881621
0.28546605 -0.5207452 0.016116314 0.08904103 -0.58908576 0.30035767 -0.4654499 -0.19745001
0.07435616 -0.024717221 0.46647885 -0.6220106 -0.14129698 -0.23508087 -0.34819257 0.1697922
0.11826129 0.021003528 0.069725476 0.050946128 -0.0045021507 0.1570372 -0.106278345 -0.10903519
-0.10152609 -0.08757359 0.107185535 0.370231 0.09434005 -0.04672595 -0.11285583 -0.39625603
0.018808318 -0.36490443 -0.06919128 0.14068756 0.0469836 0.12604348 -0.0707752 -0.18309596
0.31678778 0.17534968 0.19878007 0.06794741 -0.7028848 0.015211271 -0.014962066 -0.23375042
0.033760794 -0.12774956 -0.051880553 0.07491119 -0.08319048 0.12461539 0.056855604 -0.60246676
-0.066910274 0.16980524 0.03123341 -0.20206042 -0.1605619 0.14870691 0.12359118 -0.08197436
0.104489885 0.23188671 0.10341843 0.22221538 0.18737195 -0.34222952 0.11284245 0.16755694
0.15251635 0.06442477 0.20467184 0.20142661 0.025676053 -0.20494533 0.15852115 -0.10442476
-0.07549511 -0.050592307 0.061233815 -0.037664328 0.0016020512 -0.04293798 0.08796881 -0.083950564

network.2.bias f4 [256]
00000000: fbc1 ee3d e5d9 cd3d 1c4e 10bf a9eb 71bd
00000010: 7272 77be d336 8fbe 26c8 9dbd d59d 693e
00000020: 4c99 1c3e b8a3 1a3e 859b 88bc 15d5 4abe
00000030: 2afc 9ebd 26ff cdbd b1cd 9cbd d693 7cbe
00000040: 0e74 5bbd fef6 03be de87 d73b 081f e0bc
00000050: efb1 51be 30a2 f1bd effc 5ebd 3fc9 a7bd
00000060: e408 6ebd c345 e1bd 8ec1 2abd cff6 00bd
00000070: 6086 683d 8494 26bd 0a8c 48be 5351 01bd
00000080: 58c5 56be b6ac 7d3e 8b55 efbd 7721 193e
00000090: c399 fa3d 3f93 12bd 4e52 69bd 1d91 dcbd
000000a0: 853c 70bc b6f4 263e 06db 10bd c109 b73e
000000b0: 52b1 6fbd 5637 24bb 72ec 4b3b f928 c4bd
000000c0: 0767 3bbe bbc4 2bbe 5ea0 953b 3ec0 9d3d
000000d0: 46df 97bc fd72 edbc ef43 51bd a590 ccbc
000000e0: c8cc d7bd ae72 79bd b5ca c23e 2483 0bbe
000000f0: d7d1 b9bd 7031 a3bd 06fc d43c 527e f6bd
00000100: 5e79 113c de72 743d c5ee 7bbe 0b3b 6fbe
00000110: 8858 17bb 408a 583d f6ef d33d e817 acbd
00000120: 3597 a9be 1728 bdbe 0847 86bd b5c6 9dbd
00000130: e498 9cbd c46f 8cbc bd6d abbd 8a10 323e
00000140: a94d 473d 2617 8bbe e279 8ebc 3c99 543d
00000150: f460 85be 04d1 16bc c378 07be 62d0 e1bb
00000160: a5db 473e d844 283d 4257 bbbe 34e8 6fbe
00000170: 32f3 983e ced7 b4bc 5c98 5f3d c142 16bc
00000180: f893 88bd 221c 8bbc c1f7 5f3c b702 02bd
00000190: 745b 87be b592 bebe dca4 133e f53b 53bd
000001a0: 4a4f 2f3e c76f 2dbe 2127 88be a952 9a3d
000001b0: 5604 9e3c 3c5b 393e 34f2 033d 5c70 f13d
000001c0: eb46 403d b512 533e 13e6 34be e778 8bbe
000001d0: 99fb a4bd 2dc2 063b 4a79 c73d 2ef2 89bd
000001e0: a385 b0be 1020 c9be 96d9 55bc 8c4c 6dbd
000001f0: a479 02be 6497 7abd 3659 99bc 19ba a5be
00000200: 20c2 ec3c d896 bdbc 4c30 a5be 58d7 69be
00000210: 7ada 35be c0b5 21be c468 9cbd 67ec 36bd
00000220: aac9 71bd 2ac9 01be db94 153d 764e 98bd
00000230: 34f2 92bc c0c6 20be 0dfe 2abd b693 90bd
00000240: 0381 463c da3f 03bd f169 f1bd b424 68be
00000250: 6c18 c63d 31ed 383d fc7d 08be 7819 b33d
00000260: f817 3ebe 957a 62be 683b 413e 465c 393b
00000270: 2075 67be 69c2 29be 0e68 82be 1228 69be
00000280: aaf6 0dbe 5334 48bd 9dce cdbe 3443 2c3e
00000290: 8023 d2bd 9458 113e 37ad a2bd 7298 b6bc
000002a0: 5690 cb3c 5093 a2bd bd93 023c dd12 8bbd
000002b0: 39a1 3c3d 09e7 97bd 57fb 31bd 51cf 9ebe
000002c0: dbb0 553c 5033 f8bc f58d 573d 2209 54be
000002d0: 01da 9a3c 8cc4 59bd 030f f7be 83f1 dcbb
000002e0: 8a81 ebbe 5527 353d 575f 463d 2b55 0dbe
000002f0: 6743 9abc c4e5 95be 3520 c2bd 4ceb 9bbe
00000300: 60bd 3ebd f128 463e e1b2 74bd 76b2 3bbd
00000310: 2fff 07be cf06 68be b9cc 70be 6e8d da3b
00000320: 289e 5bbd 754f d0bc 91b1 3bbe 9fbe 2a3e
00000330: 1914 6dbd 6ae5 98bd 03ac 843e 74c3 babc
00000340: 76ed 1dbd 00df 63be 2860 3dbd 9e2f aebc
00000350: eddf 22bd cb35 5ebd 3b81 7ebe 1a9f 92bc
00000360: cf29 96bd 8f08 ce3e f827 ea3d 97e4 8f3d
00000370: f538 34bd aed7 053f 9867 65bd 1d91 7f3d
00000380: 4836 523e 368f 04bf cbe2 b2bb cc2a b0bc
00000390: f010 47bd f710 d73c 97ff acbb 521a 9fbe
000003a0: fa58 4abd cfa8 d5bd 3103 3abe 9d67 f1bc
000003b0: 1a24 583e fba5 34bd 3ec6 583d f653 4abd
000003c0: 41eb 58be d6f8 903e 039f 5d3e 0d9f 88bd
000003d0: dd2f 50bd 88c3 023e 73f5 b2bd 3f1f 2f3c
000003e0: d179 a7be 0aaa da3c 20d0 453e 000b 42be
000003f0: 3300 693e b5e7 21be 35d0 96bd 7cb5 99bd
0.116580926 0.10051326 -0.56369185 -0.059062634 -0.24164751 -0.27971515 -0.07704191 0.22814114
0.15292853 0.15101516 -0.01667572 -0.19807847 -0.0776294 -0.10058431 -0.0765642 -0.2466577
-0.053577475 -0.12887189 0.006577476 -0.027358547 -0.20478033 -0.11798513 -0.054440435 -0.081926815
-0.058113948 -0.10999634 -0.041688494 -0.031485375 0.056768775 -0.04066898 -0.1958467 -0.031571697
-0.20973718 0.24772915 -0.11686238 0.14954172 0.12236359 -0.035784956 -0.056963257 -0.10769866
-0.0146628665 0.16304287 -0.035365127 0.3574963 -0.058518715 -0.0025057397 0.0031116274 -0.095781274
-0.1830102 -0.16774265 0.0045662364 0.07702683 -0.018539082 -0.028985495 -0.051090177 -0.024971316
-0.10537106 -0.060900383 0.38045278 -0.13624245 -0.09073227 -0.07968414 0.02599908 -0.120358124
0.008879034 0.05967986 -0.24602802 -0.23362367 -0.002309354 0.05286622 0.10348503 -0.08402997
-0.33123174 -0.3694465 -0.06556517 -0.07703916 -0.07646349 -0.017143138 -0.0837054 0.17389122
0.048658047 -0.27166098 -0.017392103 0.05190395 -0.26050532 -0.009205107 -0.1322966 -0.0068912962
0.19517381 0.04108128 -0.3659001 -0.23428422 0.29873043 -0.02207556 0.05458866 -0.009171189
-0.06668848 -0.016981188 0.013669909 -0.03174087 -0.2643696 -0.37221304 0.14418358 -0.05157085
0.1712009 -0.16937171 -0.26592353 0.075352974 0.019289177 0.1810121 0.032213405 0.11789009
0.046942633 0.20612605 -0.17665891 -0.2724068 -0.08055801 0.0020562515 0.09739931 -0.06735645
-0.34476957 -0.39282274 -0.013052365 -0.05793433 -0.12741715 -0.061179534 -0.018719297 -0.32368544
0.02890116 -0.023143217 -0.3226341 -0.22836053 -0.17759123 -0.15791988 -0.0763717 -0.044659045
-0.059030212 -0.12674394 0.036518913 -0.0743684 -0.017937757 -0.15700817 -0.041746188 -0.070594236
0.01211572 -0.032043315 -0.11787785 -0.22670251 0.09672627 0.04514808 -0.13329309 0.08745092
-0.18563831 -0.22117074 0.18870318 0.002828376 -0.22603273 -0.16578068 -0.25470012 -0.22769192
-0.13863626 -0.048878025 -0.40196696 0.16822511 -0.10260677 0.14193946 -0.07943194 -0.022289488
0.024849098 -0.07938254 0.007969794 -0.06790707 0.04605219 -0.07417113 -0.043452587 -0.31017545
0.013042654 -0.030297905 0.052625615 -0.20706609 0.01890278 -0.053165957 -0.4825364 -0.0067426576
-0.45997268 0.044226963 0.048430767 -0.1380202 -0.018830968 -0.2927686 -0.09478799 -0.30452955
-0.04656732 0.19351555 -0.059740905 -0.04582449 -0.13280939 -0.22658847 -0.23515595 0.0066696918
-0.053617626 -0.025428513 -0.18329455 0.16674279 -0.057880495 -0.07465632 0.25912485 -0.022798277
-0.03855654 -0.22253036 -0.04623428 -0.02126294 -0.039764334 -0.05425052 -0.24853985 -0.017898131
-0.07332193 0.40240905 0.11433405 0.07026022 -0.04399963 0.52282226 -0.056006998 0.06239425
0.20528519 -0.5178102 -0.0054591647 -0.021504782 -0.048600137 0.026253207 -0.005279492 -0.31074768
-0.04940126 -0.10432588 -0.1816528 -0.029468352 0.21107522 -0.044103604 0.052923433 -0.049396478
-0.21183492 0.28314847 0.2164269 -0.066709615 -0.050826896 0.12769902 -0.08738222 0.010688602
-0.32710126 0.026692409 0.19317675 -0.18949509 0.22753982 -0.15811045 -0.07363931 -0.075053185

mean.weight f4 [1, 256]
00000000: acc5 11bf 7530 c23e b0fa 8cc0 ee07 5bbe
00000010: e160 0c3f f4e4 50bf bb9a 863b 36aa 423f
00000020: 995d 7d3f 780d 4c3e 0d81 42be 7463 9dbf
00000030: 4c1d 9e3b be9c 8fbc ffcf 363e c5a5 aabf
00000040: e92d d1bb c67b 8bbe 0909 cbbc 642b 1f3c
00000050: 8128 edbf 8a1e 95be 3d39 0ebc 8e20 4cbe
00000060: 52e7 943b 7f57 dc3c 9c8a bd3b 78e5 78bc
00000070: 7d03 d7be 35cc 0f3d 8f08 47bf 658b 0bbf
00000080: cf09 a0be 3159 303f 2253 9e3f ea73 f53e
00000090: 0933 563e aa55 6e3c 7303 0bbc 3dab 4abf
000000a0: 5ad8 80be 6de4 70bf 56e9 95bf a4d9 353f
000000b0: 0b4b 78bc 8d4b f2ba 1728 d83c bc3e bdbe
000000c0: 9a2b 88bf b1aa c7bf 2abe bfbe 4866 c3bf
000000d0: e1a8 0340 f3d9 07be f239 18be c7c6 d5bc
000000e0: f602 ac3c 1e15 e23c 982c 063f db69 a63e
000000f0: 7aef 3940 936e f93c 7f72 87be 72ce 08c0
00000100: 9850 3d3e da6a 0b3f 2fc8 803e f274 02bf
00000110: ded1 bcbb e320 dc3f 93e3 a43f 4c3c 74ba
00000120: d1c7 74c0 e183 81be 373d 28bc 8258 0140
00000130: fb55 793c aaa4 a83c f943 51bf 8c6d 9e3e
00000140: e405 41bf 9385 41bf 0634 213c 388a abbf
00000150: c407 d03e 5883 a0bb 6bbc 45bb 9276 74bb
00000160: 5e0c fc3e 6b75 353f 3405 3e3f 9eed c43c
00000170: a2e2 0f3f 0848 353b ca70 dc3e 5d32 8a3c
00000180: 14c0 f63c fcc6 0c3f 7670 1a3d 739b c1bd
00000190: 3c25 4abf b08a a6bf 77d4 a5be 4257 ab3b
000001a0: c5a1 273f 0344 4ebf 3cac 29bf c7b8 80be
000001b0: aff1 083c dd23 553f d459 c93c 3ed8 513d
000001c0: ca36 bf3d 8b16 903f 30d2 76bf 7817 5540
000001d0: ce77 a63c 2c76 c9bc 8887 a93e a56d 013c
000001e0: b4a9 ca3f fbe7 1ebf 4786 323c 21b0 c33c
000001f0: 7782 36c0 4332 2e3e a220 6c3f 28fb 59c0
00000200: 00fb c8bc 8c83 1b3c 2b93 543f 9712 87c0
00000210: f67a 073f be5e 9b3f 2e14 313d 6750 c0be
00000220: fb24 8dbc 0a32 cc40 bc33 403f 518c 843c
00000230: eb4d a1be bec2 f23e ce5a a0bf 2c92 3bbd
00000240: 146e 06b7 3fbb f7be 26be ca3e 4b74 18bf
00000250: d451 1d3e 7d32 52bf 7386 c4be 3f25 a03d
00000260: 9a1c 20c0 1f4e 97bf 2218 0d3f d119 133b
00000270: bd6e 8dbe 67cb 2fbf 31a2 d5be 4c05 51bf
00000280: fa02 e6bf 0c3c 0a3f 4702 a4bf 382a 253e
00000290: f34d 843f cc4c 8b3f ea22 643b 315f 333d
000002a0: b09d 75bf 201f d0bb b47b 913f ef24 2f3c
000002b0: fa2f 8640 f90e 8fbb e4ef 98bd 746c 7fc0
000002c0: f49a 83bc 4105 17bd a08d 4f3f d982 a6bf
000002d0: 6b30 babe cf55 9cbb d964 c3c0 e316 e1be
000002e0: cd01 dc3f 7a97 c03e f4a6 4f3f 5124 20c0
000002f0: ad83 27bd 732b 61be 0c5c a6be 0332 3f40
00000300: 3bb8 063c 6d49 6b3f bb77 d23c 1cd9 b6bb
00000310: 4dbe 80bf 185f 14c0 3e3a 04be acc7 863e
00000320: bcdc c7be 99de b93d 5500 a2bc 8e3a b53f
00000330: cd6d fe3e c7ac 20bf 99fa ecbe 96fa c13b
00000340: ae42 b33c 0ecb 45bf 56df 2c3d de36 ff3c
00000350: 8f8a c6ba 3695 9ebf 2457 283e 6c50 c63c
00000360: 1ea8 353f e12e 773f 26ae cb3e d369 b73f
00000370: 126f 333b 6f0e e23d 99f5 313b bd8a 8ebe
00000380: 04ae 053f f64f 96bf 715d c93c b3bb 293d
00000390: f454 3e40 f085 44bc 3a63 0440 8ceb 0dbe
000003a0: 0b46 60be 9221 60bc 4466 973e fb77 1e3d
000003b0: feec 263f ab1f 8c3c ec53 e2bc 18ac 433e
000003c0: 64d2 76c0 9237 f83e a012 003f 6a04 283d
000003d0: 4cdc 373f c6a7 0cbd 28bc 9dbe 292f b7ba
000003e0: fe9c 04be 7eec 793f fdc1 b1be 52ea f8be
000003f0: fdac 963f 7a98 ffbd 75fd 803e b8ff 8c3d
-0.5694225 0.37927595 -4.4056015 -0.21389744 0.54835325 -0.81599355 0.004107801 0.7604097
0.98970944 0.19927013 -0.18994541 -1.2295976 0.00482527 -0.017530795 0.17852782 -1.3331839
-0.0063836467 -0.2724287 -0.024784582 0.009714935 -1.8527986 -0.29124862 -0.008680639 -0.19934294
0.004544177 0.02689719 0.005784346 -0.015191428 -0.4199485 0.035106856 -0.77747434 -0.54509574
-0.31257483 0.68886095 1.236912 0.47939998 0.20917906 0.014546791 -0.008484709 -0.7916754
-0.25165063 -0.9409855 -1.1711833 0.7103522 -0.01515461 -0.0018485651 0.026386304 -0.36961925
-1.0638306 -1.5598966 -0.3744977 -1.5265589 2.0571826 -0.13266735 -0.14865854 -0.026095761
0.020997506 0.02759796 0.52411795 0.32502636 2.9052415 0.030448234 -0.2645454 -2.1376004
0.18487775 0.5445992 0.25152728 -0.50959694 -0.005762323 1.7197536 1.288195 -0.0009316846
-3.8246958 -0.25295928 -0.010268501 2.021027 0.015218253 0.02058633 -0.81744343 0.30942953
-0.75399613 -0.75594443 0.0098390635 -1.3401556 0.40630925 -0.00489847 -0.003017212 -0.0037302119
0.49228185 0.7088229 0.7422669 0.024039086 0.5620519 0.0027661342 0.430548 0.016869718
0.030120887 0.54991126 0.037704907 -0.09453478 -0.78963065 -1.3011074 -0.3238866 0.005228908
0.65481216 -0.8057253 -0.66278434 -0.25140974 0.008358403 0.8325785 0.024578966 0.051231615
0.09336622 1.125688 -0.9641447 3.3295574 0.0203208 -0.024592482 0.33111215 0.007899676
1.5833039 -0.62072724 0.010896272 0.023887696 -2.851713 0.17011361 0.92237294 -3.4059544
-0.024533749 0.009491812 0.8303706 -4.2210193 0.52922 1.2138288 0.043232135 -0.37561342
-0.017229548 6.3811083 0.7507894 0.01618019 -0.3150476 0.47414201 -1.2527711 -0.045793697
-8.012652e-06 -0.48385045 0.39598197 -0.5955245 0.15363246 -0.8210829 -0.38383827 0.07819604
-2.5017457 -1.1820716 0.5511495 0.0022445808 -0.2762355 -0.6866974 -0.41725305 -0.8164871
-1.7969658 0.53997874 -1.2813195 0.16129386 1.0336288 1.0882812 0.003481085 0.043791953
-0.9594374 -0.0063513666 1.1365876 0.010689958 4.1933565 -0.0043657986 -0.074676305 -3.9909945
-0.016065098 -0.036870245 0.8107548 -1.3008682 -0.36365065 -0.0047709714 -6.1060605 -0.43962774
1.718805 0.37615567 0.81114125 -2.5022166 -0.04089706 -0.21989231 -0.324921 2.9874275
0.008222635 0.91908914 0.025691858 -0.0055800807 -1.0058075 -2.318304 -0.12912843 0.26324213
-0.39035594 0.0907566 -0.019775549 1.4158494 0.49693146 -0.6276364 -0.4628494 0.0059197647
0.021882381 -0.7726296 0.042205177 0.031154092 -0.0015147495 -1.2389286 0.16439492 0.02420827
0.7095965 0.96555907 0.39781302 1.432917 0.0027379435 0.11037909 0.0027154444 -0.27840224
0.5221865 -1.1743152 0.02458069 0.04143877 2.9739351 -0.011994824 2.0685563 -0.13859385
-0.2190172 -0.013679879 0.2957021 0.03868864 0.6520537 0.017104944 -0.027627908 0.19108617
-3.8565912 0.48479897 0.5002842 0.041019835 0.7182052 -0.03433969 -0.30807614 -0.0013975847
-0.12950513 0.97626483 -0.34718314 -0.48616272 1.1771542 -0.124802545 0.25193372 0.06884712

log_std.weight f4 [1, 256]
00000000: ce03 fdbd 7b17 aa3c ad2a 1d3e a761 21bd
00000010: f4b5 aabe 835d 4b3d 9a1a ec3c 6fc0 34ba
00000020: 0122 c33d 900a c63b eff5 30bf f5a7 acbc
00000030: 45b5 96bc d6e4 8c3c 0c61 573e dfd9 1a3c
00000040: 268c 033a 2a2d a7bc f9d2 4fbc 26ad 0c3c
00000050: c552 03be 96ce 83be c8ce 3e3d 895e 78be
00000060: 131c c43c 24f5 d33c a662 593b 87f2 53bd
00000070: d0bd 89bf d34c 46bc d677 20bd 197a 2fbc
00000080: aff4 cebb f5c6 08bb 7bdf d23d 81fc 563d
00000090: 2d95 69bc 8edc ab3c 7cfd 2a3c 967c 9cbe
000000a0: 05c7 6ebe 6e1e 6dbd 2360 ba3e 9c82 41be
000000b0: 0476 743c 17bb 44bd a1d9 63bd 982c ecb9
000000c0: c97f 873d 19b2 e4bd 79ac dc3c 8632 a6bc
000000d0: e240 45bc 8cbb 49bf b978 373d 3fb2 89be
000000e0: d316 0ebc 232b 693c b46e 263d 209b 6ebd
000000f0: 046f ea3c dfbb 263d a5b4 6c3c cd22 71be
00000100: ad11 f1bd 762a d3bc 921c 3c3e b362 693c
00000110: f320 063c 1d83 eb3e a103 8a3d fc52 903b
00000120: 4401 84be 4398 2abf d7fb 8b3b 26e0 d53e
00000130: c0fc 363d 2d5c 113a a2ad 163f fdb0 423e
00000140: 37f2 3d3d 3f84 f83c 04bf e2bb f3e9 f9bd
00000150: dead 6dbe 5dd8 c33c 7aa9 86bf d4b5 9b3c
00000160: af8c a5be 2084 4cbd 70a3 bcbc 823b 073f
00000170: b768 a4be 84d1 46bc 8345 f339 dfcc 5abc
00000180: 07a0 dbb8 4a92 2fbe e1c5 34bf 8bd4 debc
00000190: 7aff 583f 3bf8 92bd 07ee 74bf 1f7c d3bb
000001a0: 8a13 813c b4f7 7fbe 2439 083e e506 15bf
000001b0: ad28 5ebb 2e54 84be f928 d7bf fccf 3cbf
000001c0: 0f1e b5be d62e 893e 86b2 f8bd c636 c8bd
000001d0: 036d ce3c 5b17 1a3d 4679 38bf ad84 403d
000001e0: a071 f1be 95f2 c53d 789b 8f3c f8ea 9d3a
000001f0: ce81 7ebe 96b8 49bf a58b 863e 66f2 e6bd
00000200: c8dc bdbf fb8b be3c 814c 1dbe e9ee d9bd
00000210: 07d9 b2be c9db 58bc c58d 46bd b81a dc3d
00000220: 62a0 a43c 1226 2bbe 383a dc3e 06a8 f6ba
00000230: aa87 38ba 93a4 ddbb 7a95 6f3d cae6 8bbc
00000240: ba77 14ba 6b13 acbd 14a5 14be a649 373e
00000250: dd47 39be 5a4e 8c3c 5ad8 9abd 880d 4ebf
00000260: 2fb6 f5bc c613 cd3e dddd 6ebe d0ba 6a3c
00000270: ec5f ffbf c223 213d 7c12 66be 826d 0b3d
00000280: e6e6 a0be 8a64 8fbe 6436 843e 0942 83bc
00000290: 00de 1d3d 9d7f 803c 9a8a 78bc 73c2 e53c
000002a0: b7d2 86bd aeba 69ba c241 08bd 9f97 523d
000002b0: 9f4c 0cbf 9fe0 023d d7e9 73bc 373a df3d
000002c0: 433d 143c a9da b9bb f386 2a3d a8bc 4cbd
000002d0: 49a1 d13c b5ea 973b 5ccf 6cbe 79e7 41bf
000002e0: 05d9 f43c 1013 00be 500e efbd c902 a4bd
000002f0: 0212 fb3b 4fd8 cabc 9eca e1bd 1a88 633d
00000300: 96d4 1abb c49e ce3e 2426 4cba fa4b cbbb
00000310: a358 4bbd c8de e2bd 4870 7bbd 3fc3 b4bd
00000320: 785c fd3b 3a32 903d d0c1 88be cde4 fd3d
00000330: 2ead 4a3f 3a64 b1bb 9544 12bf 7a89 aa3c
00000340: 576c 94bc 8152 69be d15d 46bd fdd6 0c3d
00000350: 16a2 cd3c af97 303f b3c2 d33e f0a7 d93c
00000360: 6add c03d 728c a53e 86f3 3bbf 6675 013e
00000370: 19b8 073d 2570 0d3d 3add cd3c c6b3 81bc
00000380: 2ace ecbc 555b b03e bde4 e13b b17b 86bd
00000390: 03ea 983e 2766 93bc fcdc 063d 8bc1 1bbf
000003a0: 8ab3 6cbf 1ba2 6ebe 4ca7 aebd 2c97 f8bc
000003b0: 12ac dd3d a11d 333d ba60 d9be bd51 a33e
000003c0: f229 a63e 3d8a cd37 ce04 42bf 2cc4 0bbd
000003d0: 52f0 12bc ebdd 80bf 8bdf 1a3f 7b01 a4bd
000003e0: 6136 b83f 2a09 4e3d bee0 a13c 7140 8d3b
000003f0: 681e e7bc d8db 01bf c77d b33c a4bd 71bd
-0.12354241 0.02076315 0.15348311 -0.03939977 -0.33341944 0.049649727 0.028821278 -0.000689513
0.0952797 0.0060437396 -0.69125265 -0.021076182 -0.018396983 0.017198961 0.21033114 0.009451359
0.0005018137 -0.020407278 -0.012684577 0.008586204 -0.12824543 -0.2574355 0.04658392 -0.24254812
0.023939168 0.025873728 0.0033170371 -0.051744964 -1.0761051 -0.012103277 -0.039176784 -0.010710263
-0.0063157897 -0.002087054 0.10296532 0.0524869 -0.014256758 0.020979192 0.010436412 -0.30563802
-0.23318107 -0.057890348 0.36401471 -0.1889748 0.014920715 -0.048029985 -0.05562747 -0.00045046653
0.0661617 -0.11166782 0.02693771 -0.020287763 -0.012039395 -0.788018 0.044792864 -0.26893803
-0.008672434 0.014231476 0.04063292 -0.058253407 0.02861739 0.04070651 0.014447366 -0.23548432
-0.117709495 -0.025777083 0.18370274 0.014244723 0.008186567 0.4599847 0.067389734 0.0044044238
-0.25782216 -0.6663858 0.004271965 0.41772574 0.044674635 0.00055450463 0.5885869 0.19012828
0.046373572 0.030336497 -0.0069197435 -0.122028254 -0.23210856 0.023906881 -1.052047 0.0190076
-0.32333896 -0.04993069 -0.023027152 0.52825177 -0.3211114 -0.012134913 0.00046400362 -0.013354509
-0.00010472541 -0.17145649 -0.7061444 -0.027200958 0.84764826 -0.071762525 -0.956757 -0.0064540054
0.015756387 -0.24996835 0.13303047 -0.58213645 -0.0033898756 -0.25845474 -1.6809379 -0.7375486
-0.35374495 0.26793545 -0.12143426 -0.09776072 0.025198465 0.03761993 -0.7206005 0.04700153
-0.47157001 0.096654095 0.017530188 0.0012048176 -0.24854204 -0.7879728 0.26278415 -0.112767026
-1.4833002 0.023260107 -0.15361215 -0.106412716 -0.34931204 -0.013235995 -0.048475046 0.10747284
0.020096008 -0.16713741 0.43013167 -0.0018818385 -0.00070392585 -0.0067640035 0.05849216 -0.017077822
-0.00056635926 -0.08402141 -0.14516097 0.17899188 -0.1809382 0.017127205 -0.07560797 -0.804894
-0.029994098 0.40054148 -0.23326822 0.014326766 -1.9951148 0.039340742 -0.22467989 0.03403998
-0.31426162 -0.28006393 0.25822747 -0.016022699 0.038541794 0.01568585 -0.015169764 0.028046822
-0.065831594 -0.0008916062 -0.033265837 0.05141413 -0.54804415 0.031952497 -0.014887295 0.108997755
0.009047809 -0.0056718183 0.041632604 -0.049984604 0.025589602 0.0046361336 -0.23125976 -0.75743824
0.02988864 -0.12507272 -0.11672652 -0.08008344 0.007662059 -0.024761347 -0.11024974 0.05554972
-0.0023625246 0.40355504 -0.0007787666 -0.0062041255 -0.049645077 -0.110776484 -0.061386377 -0.08826303
0.0077319704 0.0704083 -0.26710367 0.12397156 0.791705 -0.0054135593 -0.571359 0.020817507
-0.018118067 -0.22785379 -0.048429314 0.034384716 0.025101703 0.6898145 0.4135948 0.026569337
0.094172314 0.32333714 -0.7341846 0.1264244 0.033134554 0.034530777 0.025129903 -0.015832793
-0.0289069 0.3444468 0.006893723 -0.06566561 0.29866037 -0.017993046 0.03292559 -0.608422
-0.92461455 -0.23304026 -0.08528003 -0.030345522 0.108238354 0.04372943 -0.4245661 0.318983
0.32453877 2.4502277e-05 -0.7578858 -0.03412263 -0.00896843 -1.0067724 0.6049735 -0.08008095
1.4391595 0.05030171 0.019760486 0.0043106605 -0.028212741 -0.5072608 0.021910561 -0.059018746
