traininig1/sac_pendulum_critic.pth (torch, 549426 bytes, 10 tensors)

q1.0.weight f4 [256, 7]
-0.1588743 -0.31517074 -0.8655959 0.63780826 0.3207817 -0.9229329 -0.044457268 -0.48696166
-0.07248785 1.3646257 0.50782746 -0.6113674 1.704231 0.22596012 0.077883825 0.30779758
0.12347986 -0.6674354 0.22733638 0.92706895 -0.30360398 -0.08289521 0.01513761 1.3829823
-0.7936008 0.10197523 1.2781492 0.028090648 0.029718556 0.06054412 1.8469242 0.63329273
-0.35364476 1.7429955 0.2403146 0.458208 0.18044889 -0.6182902 -0.15582702 0.71797234
-0.18713726 0.48402277 0.39894596 -0.3938197 -0.5743828 0.29749313 1.1384876 -0.112362064
0.108913176 -0.23162316 0.35970223 0.42856106 -0.13211057 -0.8876219 -0.24013439 -0.39748803
0.77810127 -0.009197352 -0.40377071 -0.63722783 0.40220252 -0.24388905 0.08897413 -0.07650616
-0.4967314 0.7401764 -1.6865444 -0.11907015 0.97219366 -0.3774343 0.026312307 0.23438323
0.9384117 -0.57044345 -0.105933435 -0.35047767 -1.0654142 -0.66928935 -0.4429114 -0.00043253606
-0.38008526 1.1962372 0.47453654 -0.43640292 -0.14024703 -1.0062432 -0.18850163 0.37687752
0.50776106 -0.053593382 0.11102043 0.33936623 0.5740461 0.31264815 0.2576334 -0.056480702
-0.1384298 -0.016184185 0.03571573 0.5031097 0.28489658 -0.0975091 -1.1637834 1.5330509
0.32515064 -0.5571746 0.5994958 -0.74510014 -0.52867115 -0.97917503 0.49377686 -0.41867015
0.046524722 0.029592518 0.12713833 0.45936394 -0.2557732 1.447666 -0.0855927 0.5567617
-0.18825139 -1.0347645 0.3221149 0.5587148 -0.27924046 -0.113819316 -0.15336405 -0.9886363
0.33175653 -0.48591554 -0.13758361 0.4099943 0.4596541 -0.8157662 0.224202 -0.07403982
-0.19403592 -0.20941573 -0.32290542 -0.32660776 -0.102992676 0.013985476 -1.3649558 -0.6180482
0.48760384 0.6981301 0.044239827 -0.49379328 0.1556399 -0.76814127 -0.58676755 0.5833144
0.832752 -0.31294277 -0.2500231 -0.44060475 2.0251777 -0.18945439 0.056489147 1.1322181
0.3905801 0.5443674 -0.5471251 0.35094163 -0.15534672 0.7248196 -0.69092923 0.027186729
0.06516463 0.59089375 0.029873788 0.15224409 0.27985877 -0.7812069 0.24323286 0.2055447
-0.36453894 -1.3326572 -0.30762 1.11746 -0.016134312 0.51687205 0.2355818 -0.46056762
-0.9203079 -0.40377054 0.037067793 -0.14507091 -0.26102692 0.43051854 0.17167716 -0.3403252
-0.33654645 -0.39069813 0.63406307 0.05078131 0.019290982 -0.111887544 -0.55464244 -0.5806064
-0.04570707 -0.55524194 0.16916971 0.15819147 0.44387934 0.4996392 0.07733626 -0.8597905
1.4298476 0.12491139 -0.041289244 0.18233149 -0.6170811 -1.0498649 -0.20544726 -0.7335683
1.3398618 0.532047 -1.141917 0.30618995 -0.78759456 0.033983417 0.91646254 0.47354218
-0.089446835 -0.68445766 0.04595392 0.024283908 -0.8976754 0.23777391 -0.36705127 0.07591119
-0.2216907 -2.139776 -0.5049741 -0.14009702 0.18057497 -0.3338134 0.09526622 0.04050716
0.56687105 0.4422185 0.10540056 1.2238855 0.23939764 -0.3253041 -1.1679276 -0.11292854
-0.34482515 0.7042617 -0.32087967 0.11112307 0.1719741 -0.05947944 -0.9869733 0.58212864
00000000: f2af 22be 0f5e a1be b197 5dbf 6747 233f
00000010: 803d a43e 5545 6cbf d318 36bd 0a53 f9be
00000020: 8374 94bd 0eac ae3f fb00 023f 9382 1cbf
00000030: 3e24 da3f 1762 673e 8e81 9f3d a597 9d3e
00000040: 02e3 fc3d 0cdd 2abf deca 683e 6454 6d3f
00000050: fb71 9bbe f7c4 a9bd bd03 783c 9005 b13f
00000060: 6c29 4bbf 64d8 d03d 659a a33f 5c1e e63c
00000070: 5474 f33c 1cfd 773d 0368 ec3f 791f 223f
00000080: ed10 b5be 7a1a df3f 0815 763e 3d9a ea3e
00000090: 98c7 383e 4448 1ebf 1e91 1fbe 09cd 373f
000000a0: e9a0 3fbe d5d1 f73e a542 cc3e bca2 c9be
000000b0: c00a 13bf 0551 983e f6b9 913f 151e e6bd
000000c0: df0d df3d 9f2e 6dbe e42a b83e 5b6c db3e
000000d0: fe47 07be 303b 63bf cae5 75be 8d83 cbbe
000000e0: a531 473f 7eb0 16bc 09bb cebe 5d21 23bf
000000f0: 7ded cd3e 0dbe 79be 1238 b63d 43af 9cbd
00000100: 9453 febe 337c 3d3f b0e0 d7bf 0ddb f3bd
00000110: afe1 783f 123f c1be e88c d73c 2802 703e
00000120: c03b 703f 9508 12bf a1f3 d8bd cf71 b3be
00000130: 7e5f 88bf 8c56 2bbf 48c5 e2be 02c6 e2b9
00000140: 899a c2be 4d1e 993f 74f6 f23e 3470 dfbe
00000150: eb9c 0fbe 94cc 80bf 9206 41be 17f6 c03e
00000160: a1fc 013f bc84 5bbd ae5e e33d 69c1 ad3e
00000170: aff4 123f 6b13 a03e 86e8 833e 4f58 67bd
00000180: 8bc0 0dbe b294 84bc a84a 123d cccb 003f
00000190: f7dd 913e dab2 c7bd dbf6 94bf 033b c43f
000001a0: 257a a63e ffa2 0ebf 8f78 193f e2be 3ebf
000001b0: fe56 07bf 37ab 7abf 52d0 fc3e ef5b d6be
000001c0: b590 3e3d 026c f23c 8d30 023e c031 eb3e
000001d0: b4f4 82be 1f4d b93f 3a4b afbd ef87 0e3f
000001e0: f9c4 40be 2a73 84bf 3fec a43e ef07 0f3f
000001f0: 9bf8 8ebe 1a1a e9bd 770b 1dbe 4517 7dbf
00000200: fedb a93e ecc9 f8be b8e2 0cbe c6ea d13e
00000210: c857 eb3e 0ed6 50bf 3695 653e 30a2 97bd
00000220: 5ab1 46be 1471 56be dc53 a5be 2239 a7be
00000230: d3ed d2bd 5723 653c dfb6 aebf 6838 1ebf
00000240: 36a7 f93e a7b8 323f d234 353d 79d2 fcbe
00000250: 1160 1f3e e8a4 44bf 6636 16bf 1854 153f
00000260: 3c2f 553f 093a a0be 0703 80be f296 e1be
00000270: 839c 0140 5500 42be 2a61 673d 86ec 903f
00000280: 1dfa c73e a95b 0b3f 6410 0cbf 9fae b33e
00000290: 3613 1fbe c78d 393f bde0 30bf b4b6 de3c
000002a0: 0975 853d d044 173f e0b9 f43c e0e5 1b3e
000002b0: a649 8f3e 2dfd 47bf 0912 793e 4f7a 523e
000002c0: d9a4 babe 8394 aabf 5e80 9dbe ee08 8f3f
000002d0: 1b2c 84bc ba51 043f 5b3c 713e 85cf ebbe
000002e0: 4c99 6bbf 03bb cebe 66d4 173d 788d 14be
000002f0: 52a5 85be ed6c dc3e 23cc 2f3e 1b3f aebe
00000300: d14f acbe 9609 c8be f551 223f 1000 503d
00000310: 1f08 9e3c 4c25 e5bd 0cfd 0dbf 9fa2 14bf
00000320: 5637 3bbd 5624 0ebf d33a 2d3e f2fc 213e
00000330: 2744 e33e b6d0 ff3e 7962 9e3d 3b1b 5cbf
00000340: 3f05 b73f 8bd1 ff3d e91e 29bd 1bb5 3a3e
00000350: 07f9 1dbf f961 86bf c460 52be 22cb 3bbf
00000360: 9780 ab3f 3b34 083f 562a 92bf eec4 9c3e
00000370: cc9f 49bf 3232 0b3d 4a9d 6a3f 1f74 f23e
00000380: e72f b7bd 9e38 2fbf 2d3a 3c3d 0cef c63c
00000390: 0ece 65bf 017b 733e 25ee bbbe 5377 9b3d
000003a0: e302 63be 17f2 08c0 fc45 01bf 9875 0fbe
000003b0: a5e8 383e 97e9 aabe f01a c33d d6ea 253d
000003c0: 761e 113f 776a e23e 40dc d73d 48a8 9c3f
000003d0: a824 753e 428e a6be a77e 95bf 1447 e7bd
000003e0: ec8c b0be 7f4a 343f 574a a4be 7e94 e33d
000003f0: fa19 303e b7a0 73bd 48aa 7cbf 6206 153f

q1.0.bias f4 [256]
-0.31153074 -0.5023471 0.42819533 -0.031434737 -0.5350222 0.054090526 -0.021683991 0.36060807
-0.6060175 0.3187739 0.43319958 0.13957168 -0.4022741 0.4793131 0.15423627 -0.15861836
0.43834385 0.19375767 0.38962793 -0.5678291 0.64033866 0.020058319 0.24334438 -0.07985839
-0.13765708 0.38349652 -0.17847274 0.07326715 0.075499564 -0.08271013 0.19994585 -0.08070082
-0.6512515 0.57267046 -0.41941777 -0.11254331 -0.69881076 0.54184157 0.16363852 0.10611742
0.23527518 -0.21307293 0.44225603 0.10912574 0.00020380653 0.48406002 -0.6717157 0.019275982
0.6514472 0.4438877 -0.41118804 0.4265939 0.068601444 -0.32523692 -0.12109746 0.408146
0.11504713 -0.19044605 0.48177138 -0.3934539 0.071858495 -0.050809428 0.34926656 -0.008973278
0.18351571 -0.36017206 0.5164246 0.12203359 -0.31909132 -0.4300446 -0.75031734 -0.18593816
0.29879907 0.14055666 -0.21914035 0.6298554 0.3193029 -0.1387584 -0.17787734 -0.0052277767
0.29071364 -0.2734534 -0.6965291 0.5283884 -0.85057425 0.30396885 0.26346907 0.1497043
-0.24733756 -0.41479972 0.15048517 0.4430082 0.081789374 0.12124075 -0.36062226 0.15945943
0.22169259 -0.002724132 -0.25472823 0.27628952 -0.21027395 0.24474983 0.18579316 0.0123283705
0.03331469 0.035038393 -0.75357723 0.4260326 -0.35758415 0.4190362 0.13043076 0.25502717
0.11554928 -0.2765966 -0.14122915 0.14473604 -0.48489445 -0.07701415 0.058062054 -0.16960804
-0.41564295 0.17625634 0.38229063 -0.74974173 0.0817526 0.16551477 0.48670882 0.69875765
0.10581528 0.17500903 -0.90692127 -0.25464183 0.47719583 -0.3469136 0.009857475 -0.42326587
0.10513065 0.12911946 -0.35906345 -0.37594333 0.17948224 -0.28899702 0.71047264 0.50943923
-0.16219617 -0.09030143 0.31591213 0.026366862 0.4279278 0.58919215 -0.78124386 -0.33119807
0.22855261 -0.6347203 0.70139515 0.4722887 0.44115242 0.1851453 0.07820316 -0.103009194
-0.05710438 -0.3314862 -0.38688022 0.0017763906 -0.50503165 0.24119483 0.31621262 0.38659996
0.19362396 0.22584133 0.35978836 0.2955398 -0.07155796 0.83195853 -0.42527428 -0.13085482
-0.09034662 0.32790425 0.020044183 -0.35269797 -0.20671993 -0.39432943 0.19911556 0.43290052
0.4153083 0.12533239 0.4182902 0.3702362 0.2608898 -0.05579884 -0.5315335 -0.15428129
-0.27495143 0.5693752 0.3820478 0.43314585 -0.8514478 -0.4996239 0.4242369 -0.39562285
-0.066776566 -0.15444407 0.12829758 0.30979648 0.39705497 0.44026744 0.31392106 -0.035664465
0.50933045 0.3125601 0.012692629 -0.32987002 0.14963354 0.20561178 0.04791318 -0.69808793
0.03471948 0.3650181 -0.043799672 0.6061676 0.4821694 -0.014256484 0.12354009 -0.5342573
0.31483844 0.005688431 0.37676522 0.14354636 0.16959585 -0.11842801 0.12266731 -0.63405776
-0.0629534 0.46294647 0.05538573 0.23389247 0.191461 0.033365633 -0.2663245 -0.15046322
0.5179258 0.41333163 0.15422578 -0.164317 -0.2292241 -0.09127315 -0.47627518 0.41936478
-0.54236746 0.3928359 0.33222073 -0.67542446 -0.40268517 -0.21066236 -0.26624942 -0.38846883
00000000: f580 9fbe d299 00bf 6b3c db3e b6c1 00bd
00000010: 37f7 08bf 078e 5d3d a0a2 b1bc 9fa1 b83e
00000020: f623 1bbf 5536 a33e 56cc dd3e e1eb 0e3e
00000030: dff6 cdbe 8768 f53e 1df0 1d3e da6c 22be
00000040: 9b6e e03e 6968 463e 507d c73e 3f5d 11bf
00000050: 3ced 233f 5851 a43c 452f 793e cc8c a3bd
00000060: faf5 0cbe a859 c43e 8fc1 36be 160d 963d
00000070: 849f 9a3d ee63 a9bd 9bbe 4c3e 7946 a5bd
00000080: 6bb8 26bf 889a 123f edbd d6be 1b7d e6bd
00000090: 43e5 32bf 21b6 0a3f db90 273e 1754 d93d
000000a0: faeb 703e ca2f 5abe 626f e23e 517d df3d
000000b0: e6b4 5539 b7d6 f73e 8ff5 2bbf aae8 9d3c
000000c0: 3ec5 263f 4045 e33e 3d87 d2be 846a da3e
000000d0: ea7e 8c3d 7485 a6be f201 f8bd 83f8 d03e
000000e0: d49d eb3d 4a04 43be bdaa f63e ca72 c9be
000000f0: 8c2a 933d 8c1d 50bd 11d3 b23e a804 13bc
00000100: 8beb 3b3e 7968 b8be 6734 043f bfec f93d
00000110: f05f a3be ce2e dcbe cc14 40bf 9366 3ebe
00000120: 31fc 983e 16ee 0f3e 5466 60be 343e 213f
00000130: ab7b a33e af16 0ebe 7a25 36be c54d abbb
00000140: 6bd8 943e 1602 8cbe bb4f 32bf 7644 073f
00000150: 3cbf 59bf cea1 9b3e 6be5 863e 164c 193e
00000160: 0f46 7dbe a160 d4be c918 1a3e f9d1 e23e
00000170: 3081 a73d 124d f83d 7ba3 b8be 5549 233e
00000180: 6203 633e 5a87 32bb bd6b 82be d275 8d3e
00000190: 0e52 57be b39f 7a3e 9040 3e3e effc 493c
000001a0: fc74 083d 6b84 0f3d 70ea 40bf f220 da3e
000001b0: 4515 b7be ea8b d63e a48f 053e ec92 823e
000001c0: 1aa5 ec3d 129e 8dbe 609e 10be af35 143e
000001d0: 1644 f8be 98b9 9dbd 7ad2 6d3d bbad 2dbe
000001e0: 27cf d4be 8b7c 343e 99bb c33e 13ef 3fbf
000001f0: e86d a73d b47c 293e e631 f93e c8e1 323f
00000200: aeb5 d83d 9135 333e fe2b 68bf 6a60 82be
00000210: 0353 f43e a99e b1be 3f81 213c 4eb6 d8be
00000220: bd4e d73d e437 043e 2ad7 b7be a57b c0be
00000230: 31ca 373e 6bf7 93be 89e1 353f 9c6a 023f
00000240: c116 26be f5ef b8bd 3cbf a13e 51ff d73c
00000250: 5a19 db3e 4cd5 163f 99ff 47bf cb92 a9be
00000260: b209 6a3e 087d 22bf a28e 333f d3cf f13e
00000270: bbde e13e bb96 3d3e fa28 a03d 7cf6 d2bd
00000280: 48e6 69bd 8fb8 a9be 2a15 c6be c7d5 e83a
00000290: c149 01bf c7fb 763e 9fe6 a13e 6ef0 c53e
000002a0: 5c45 463e f342 673e 2e36 b83e fe50 973e
000002b0: fb8c 92bd 3cfb 543f 8dbd d9be cefe 05be
000002c0: a607 b9bd 11e3 a73e b333 a43c d494 b4be
000002d0: 64ae 53be 8ce5 c9be f3e4 4b3e 23a5 dd3e
000002e0: 4aa3 d43e 2257 003e 222a d63e 998f bd3e
000002f0: 5993 853e 538d 64bd 9412 08bf eafb 1dbe
00000300: 6fc6 8cbe 93c2 113f c59b c33e 4bc5 dd3e
00000310: 7cf8 59bf b4ce ffbe 9435 d93e 148f cabe
00000320: 27c2 88bd 9626 1ebe 7160 033e a59d 9e3e
00000330: ca4a cb3e bc6a e13e 43ba a03e e714 12bd
00000340: 7b63 023f e107 a03e bff4 4f3c b9e4 a8be
00000350: 8939 193e e58b 523e 9c40 443d e4b5 32bf
00000360: 0336 0e3d a7e3 ba3e 4967 33bd cd2d 1b3f
00000370: e8de f63e 0794 69bc 9602 fd3d 16c5 08bf
00000380: 8132 a13e 0566 ba3b 5fe7 c03e d1fd 123e
00000390: 89aa 2d3e 628a f2bd 0039 fb3d 9c51 22bf
000003a0: b6ed 80bd 5207 ed3e 26dc 623d 8281 6f3e
000003b0: 5a0e 443e 67aa 083d af5b 88be 0813 1abe
000003c0: c996 043f 34a0 d33e 5ded 1d3e b742 28be
000003d0: b9b9 6abe 6bed babd 57da f3be fbb6 d63e
000003e0: 98d8 0abf c921 c93e d618 aa3e 9ee8 2cbf
000003f0: c02c cebe e0b7 57be d851 88be 63e5 c6be

q1.2.weight f4 [256, 256]
-0.23547272 0.90259486 0.12646607 0.2774214 0.06460526 0.07187087 0.027905928 -0.18844043
0.1973819 0.061841972 0.12383092 -0.2300906 -0.034805175 0.6242537 -0.11143025 -0.107370414
0.05778255 0.16400374 -0.011862057 0.18860766 0.3062342 0.3231785 0.22895825 0.1316617
0.30252737 0.1429579 0.17866312 0.33933842 0.06762647 -0.21541291 0.06257343 0.14483614
-0.5109782 0.1446263 0.423746 -0.25007388 0.4170039 0.27726725 0.12020603 0.2841166
0.2600259 0.08431446 0.09494615 0.23305841 -0.3643864 0.23470266 0.09213946 0.5042972
0.123389184 0.11968347 0.058781277 0.16625561 0.39406142 0.22287565 0.08730779 0.07255619
0.45120656 0.017086143 0.19205001 0.037087407 -0.18288372 0.26297328 0.40618134 -0.26467285
-0.0560986 0.059223212 0.27489176 0.10564516 -0.07778098 0.3577329 -0.094672345 0.09389469
0.080117956 0.10061571 0.16328846 0.58144426 0.17416427 0.30094498 0.40706426 -0.21834697
0.18674098 0.022478985 0.24954824 0.16411868 -1.1726916 0.3710979 -0.243844 0.40763068
0.23047566 -0.7564986 -0.118510716 0.38820904 0.5005387 0.23585983 -0.037002604 -0.20265597
0.018997984 -0.1022954 -0.15629856 0.06016303 0.13264433 -0.20015223 -0.060708333 0.020545548
0.41345003 -0.061234657 -0.14170529 0.051263828 0.028589472 0.08630187 0.17186114 0.20053644
0.28260374 -0.23852926 0.7374165 0.119354255 0.56906664 -0.0043550176 0.008373024 -0.55738163
0.1242702 -0.19630943 0.18380743 -0.04625336 -0.04288514 0.14051308 0.0054874164 0.3967314
0.18785053 0.2962215 0.085433565 -0.30573058 0.050489996 0.20113242 0.4823545 -0.22283548
0.12794557 0.23084174 -0.1733228 0.026858116 0.21192479 -0.27091074 0.24214071 0.06951929
0.025243558 -0.04893676 0.04603993 0.04863134 0.13534066 0.16074468 -0.8928201 0.26057097
0.22954638 -0.21471131 0.115021 0.11021626 0.1626875 0.3064934 0.26040366 0.14886197
-0.019946393 -0.180437 0.14551091 -0.08349519 -0.40373376 -0.005825225 0.10532866 0.138008
0.18066138 0.28239936 -0.082845576 0.14508699 0.13270292 0.42322317 0.12361323 0.14665307
-0.06983312 0.14688788 -0.13224612 -0.06641333 -0.08594369 0.4383373 0.2599866 0.4242804
0.2497967 0.07733204 -0.12569709 0.15226084 0.23913775 0.13350828 -0.2563561 -0.05056695
0.15858108 0.22659366 0.17974249 0.22797082 -1.8352559 0.7076808 0.10023095 0.2467685
-0.16853076 0.13336402 -0.11552324 0.16846505 -0.09052821 -0.19494717 0.16095504 -0.009029935
0.27494803 0.19209743 -0.026596325 0.028473847 0.043531585 -0.24443221 -0.2610256 -0.34417036
-0.33797187 0.011063042 -0.27917704 -0.060924027 0.09261484 0.14937583 0.46979207 -0.37374654
0.19124737 0.30556285 0.24092618 0.032674402 0.08320916 -0.014839215 0.1971844 -1.1486913
0.4804447 0.21954924 0.25937894 0.0791504 0.1767869 0.3702215 0.484038 0.022876028
0.49367103 0.14926364 0.03546771 -0.06480737 -0.0039067566 0.36527675 0.06798563 0.50441736
0.2762822 0.38994956 0.1522662 -0.039277323 0.016276069 0.106344976 -0.1568183 0.1691554
00000000: c31f 71be 7510 673f 5280 013e 2e0a 8e3e
00000010: c34f 843d 0931 933d f99a e43c 87f6 40be
00000020: 7b1e 4a3e 024e 7d3d 119b fd3d df9c 6bbe
00000030: df8f 0ebd 17cf 1f3f 8b35 e4bd 05e5 dbbd
00000040: 65ad 6c3d 99f0 273e 1359 42bc 5e22 413e
00000050: bbca 9c3e a777 a53e 0874 6a3e 53d2 063e
00000060: dee4 9a3e 8e63 123e 77f3 363e c4bd ad3e
00000070: bf7f 8a3d 3495 5cbe 8026 803d ed4f 143e
00000080: 78cf 02bf eb18 143e 3cf5 d83e af09 80be
00000090: 8981 d53e f9f5 8d3e 942e f63d bb77 913e
000000a0: 1d22 853e 0fad ac3d 2173 c23d dda6 6e3e
000000b0: db90 babe e555 703e 9db3 bc3d 9f19 013f
000000c0: 78b3 fc3d 9b1c f53d a3c4 703d e93e 2a3e
000000d0: 6bc2 c93e 8439 643e 6dce b23d 5798 943d
000000e0: 8c04 e73e 3df8 8b3c c2a8 443e f7e8 173d
000000f0: df45 3bbe 6fa4 863e 00f7 cf3e 3383 87be
00000100: a5c7 65bd 0a94 723d 9dbe 8c3e 7d5c d83d
00000110: a24b 9fbd c428 b73e 93e3 c1bd dc4b c03d
00000120: e214 a43d 9c0f ce3d 1735 273e 88d9 143f
00000130: 1e58 323e 7615 9a3e ba6a d03e 5996 5fbe
00000140: 0739 3f3e d925 b83c 9389 7f3e ba0e 283e
00000150: c21a 96bf 8b00 be3e 3eb2 79be f8b4 d03e
00000160: d001 6c3e e4a9 41bf bfb5 f2bd 56c3 c63e
00000170: 4e23 003f 3d85 713e 0b90 17bd 0c85 4fbe
00000180: a9a1 9b3c 4080 d1bd bb0c 20be 826d 763d
00000190: ead3 073e b5f4 4cbe 4da9 78bd 234f a83c
000001a0: b9af d33e 31d1 7abd 311b 11be 05fa 513d
000001b0: 7834 ea3c 09bf b03d 5efc 2f3e 6d59 4d3e
000001c0: 70b1 903e 0441 74be 54c7 3c3f 0170 f43d
000001d0: 5aae 113f 89b4 8ebb 022f 093c 90b0 0ebf
000001e0: 6081 fe3d 5705 49be 0438 3c3e 2a74 3dbd
000001f0: 54a8 2fbd a9e2 0f3e c9cf b33b 6120 cb3e
00000200: e45b 403e 58aa 973e cbf7 ae3d b888 9cbe
00000210: 99ce 4e3d a8f5 4d3e 2bf7 f63e fc2e 64be
00000220: 2a04 033e c761 6c3e 887b 31be 8d05 dc3c
00000230: d002 593e d0b4 8abe bcf3 773e 2160 8e3d
00000240: 94cb ce3c e971 48bd 5e94 3c3d a831 473d
00000250: be96 0a3e 419a 243e dc8f 64bf 8f69 853e
00000260: 350e 6b3e 48dd 5bbe 2190 eb3d 10b9 e13d
00000270: 8d97 263e b4ec 9c3e a153 853e 466f 183e
00000280: 9e66 a3bc 7ac4 38be d000 153e 87ff aabd
00000290: 31b6 cebe 87e1 bebb 8db6 d73d f851 0d3e
000002a0: 4cff 383e a696 903e f1aa a9bd af91 143e
000002b0: 46e3 073e b5b0 d83e ef28 fd3d 392c 163e
000002c0: ab04 8fbd c769 163e 876b 07be b603 88bd
000002d0: 3f03 b0bd bf6d e03e f71c 853e 483b d93e
000002e0: b5ca 7f3e 4360 9e3d bdb6 00be 44ea 1b3e
000002f0: 87e0 743e 65b6 083e 1b41 83be 4a1f 4fbd
00000300: 1463 223e 2b08 683e 6a0e 383e 2f71 693e
00000310: aae9 eabf 922a 353f e245 cd3d e2b0 7c3e
00000320: 5493 2cbe 9490 083e 7397 ecbd 1a82 2c3e
00000330: db66 b9bd 3ba0 47be 66d1 243e 4bf2 13bc
00000340: fdc5 8c3e 30b5 443e 89e0 d9bc fc41 e93c
00000350: 2d4e 323d 704c 7abe 26a5 85be 1937 b0be
00000360: a60a adbe c341 353c 4bf0 8ebe 798b 79bd
00000370: d9ac bd3d faf5 183e 9688 f03e b55b bfbe
00000380: 5ad6 433e bc72 9c3e 5ab5 763e 98d5 053d
00000390: 9069 aa3d 2e20 73bc b5ea 493e 5108 93bf
000003a0: d9fc f53e 84d1 603e 51cd 843e 9b19 a23d
000003b0: a007 353e ac8d bd3e d4d3 f73e 8266 bb3c
000003c0: 73c2 fc3e 91d8 183e 9746 113d bab9 84bd
000003d0: 4004 80bb 8e05 bb3e 0d3c 8b3d 7f21 013f
000003e0: dc74 8d3e 78a7 c73e aceb 1b3e 42e1 20bd
000003f0: 6455 853c 65cb d93d fa94 20be 1337 2d3e

q1.2.bias f4 [256]
0.28560507 0.41879126 -0.04149192 -0.009776481 0.08395014 -0.15094055 -0.010401788 0.2185746
0.20736787 0.24946684 0.03999511 0.022874653 0.06447332 -0.0035081208 0.09193935 0.13001806
0.044470612 0.10537436 0.21972466 0.043045055 -0.052517742 0.14339195 0.44119596 0.14739582
0.008307368 0.35279006 -0.07629028 -0.067490876 0.051825486 -0.016761458 0.008302959 -0.114346005
0.011412544 0.29606366 0.27687904 0.044507824 -0.0096090855 0.256979 0.12641048 -0.002005577
-0.050204393 -0.046553377 -0.07716832 -0.03898156 -0.073775046 -0.051883627 -0.0767975 -0.008693337
-0.04464678 0.24105902 -0.0423249 -0.022374252 0.4702109 -0.066704735 -0.06515991 0.043808244
0.29501012 0.35407627 -0.03432126 0.09649549 -0.049721446 0.084460065 -0.04943521 -0.08441416
-0.065628335 0.12909964 -0.070490696 -0.019765412 -0.05418907 0.21821705 -0.008232106 -0.0959161
0.053077884 -0.013572218 -0.07227899 -0.06939702 0.15168661 0.26819047 0.08060368 -0.06089174
0.15078743 0.111212 -0.11395479 0.16729033 -0.062864184 0.05595592 0.30682132 0.012422414
-0.06487908 0.24901955 0.3048501 -0.068148345 0.13290074 0.10851055 0.055194322 0.13274732
0.362231 0.22897662 0.21650535 -0.045739528 0.23021229 0.0059727556 -0.08848309 0.17510083
0.2090388 -0.10333429 0.06708698 -0.0107545145 -0.00961118 0.35529223 0.0012168117 0.11006824
0.2036972 -0.07395058 0.21828137 0.13851385 -0.06962684 0.114625335 -0.11821293 0.047153905
0.23946854 -0.061692536 -0.05948139 0.1708044 0.07720965 0.035177123 0.2841459 0.04269057
0.09063843 -0.081050076 0.28975073 0.17972858 0.14208664 -0.011844108 -0.00055408396 0.23114152
-0.027871642 -0.014893131 0.21270037 0.015656201 0.10155504 -0.043716095 0.3437048 0.0028923228
0.18742144 0.17048284 0.19623235 0.20372209 -0.013297333 0.029590566 -0.002807415 -0.071468785
-0.07014888 0.15820016 0.114551894 -0.0074818274 0.03751244 0.03348856 0.12757942 -0.100972734
-0.20931284 0.16011196 0.17581372 -0.023967143 -0.010849556 -0.0058595533 -0.0591728 0.24772258
0.115297526 0.17320336 -0.025156591 -0.015888374 -0.0042435382 0.023732582 -0.0038996239 0.35280192
0.01378575 0.06060174 0.02707277 -0.14313775 -0.05241112 -0.053005733 -0.099006556 0.020422619
0.2332767 0.04909277 -0.09810709 0.3027842 0.075454555 0.24406485 0.037610516 0.062011484
-0.0006942309 0.24446245 0.06256541 0.24230509 0.14845222 0.120788164 0.28374907 0.040828247
-0.025563631 -0.04957044 0.10063709 -0.18547875 -0.019494195 -0.030497892 0.07409967 -0.044668198
-0.043763824 -0.0065611852 0.038715206 0.004103955 -0.013048649 -0.055224113 0.20025304 0.19925116
0.026029909 0.025065295 -0.115299165 0.3672955 0.1807755 -0.23647691 -0.03222668 0.20272104
-0.07751334 0.27857232 -0.03088035 0.10029261 -0.0589579 -0.08122938 0.09963937 0.16317032
-0.053320147 0.214955 -0.058432586 -0.105849974 0.27447975 -0.071152024 0.015977243 -0.03344165
0.27193066 0.26173082 0.0536973 0.2039163 -0.032250144 -0.081343636 -0.10649909 0.33620256
0.14154609 0.034301553 0.15686926 -0.049446482 0.13710147 0.048049387 -0.07269376 0.0765502
00000000: d43a 923e cf6b d63e 6ef3 29bd 892d 20bc
00000010: 0dee ab3d 2990 1abe 436c 2abc 05d2 5f3e
00000020: 3e58 543e 3c74 7f3e ead1 233d a063 bb3c
00000030: 970a 843d 80e8 65bb b34a bc3d 7423 053e
00000040: d126 363d 83ce d73d 80ff 603e 0350 303d
00000050: d81c 57bd 57d5 123e 70e4 e13e eeee 163e
00000060: a01b 083c e6a0 b43e 143e 9cbd a838 8abd
00000070: f646 543d 534f 89bc 2209 083c 3d2e eabd
00000080: aefb 3a3c a895 973e 17c3 8d3e d64d 363d
00000090: 6d6f 1dbc c092 833e c071 013e 0070 03bb
000000a0: 1fa3 4dbd c1ae 3ebd 6d0a 9ebd 21ab 1fbd
000000b0: 5f17 97bd ed83 54bd 0248 9dbd 806e 0ebc
000000c0: 8bdf 36bd 2dd8 763e e05c 2dbd 354a b7bc
000000d0: 7cbf f03e 7e9c 88bd 8f72 85bd 4670 333d
000000e0: 910b 973e 7c49 b53e 7394 0cbd 6d9f c53d
000000f0: b7a8 4bbd 66f9 ac3d 937c 4abd 55e1 acbd
00000100: 2668 86bd b232 043e 6d5d 90bd 13eb a1bc
00000110: 5cf5 5dbd 4a74 5f3e f5df 06bc a96f c4bd
00000120: 3268 593d 025e 5ebc 0207 94bd 0620 8ebd
00000130: bc53 1b3e 4350 893e 8b13 a53d 9e69 79bd
00000140: 0568 1a3e 1ec3 e33d 2161 e9bd 284e 2b3e
00000150: f0be 80bd 0932 653d af17 9d3e 6187 4b3c
00000160: 53df 84bd fbfe 7e3e 5015 9c3e 5c91 8bbd
00000170: 2217 083e c73a de3d 7113 623d eaee 073e
00000180: 5776 b93e d978 6a3e 94b3 5d3e 5f59 3bbd
00000190: c5bc 6b3e 1bb7 c33b 9f36 b5bd a24d 333e
000001a0: 440e 563e eea0 d3bd e664 893d b433 30bc
000001b0: 3678 1dbc dde8 b53e 6d7d 9f3a 756b e13d
000001c0: 0096 503e 6773 97bd 2785 5f3e 93d6 0d3e
000001d0: 8498 8ebd b0c0 ea3d 9f19 f2bd 7424 413d
000001e0: 3e37 753e 50b1 7cbd c2a2 73bd 59e7 2e3e
000001f0: 1820 9e3d e315 103d 927b 913e 4fdc 2e3d
00000200: a4a0 b93d 95fd a5bd 355a 943e c50a 383e
00000210: 297f 113e ca0d 42bc f23f 11ba 5db0 6c3e
00000220: 1253 e4bc 5202 74bc 20ce 593e 6f41 803c
00000230: 17fc cf3d a60f 33bd 13fa af3e 208d 3d3b
00000240: 68eb 3f3e 0e93 2e3e 22f1 483e 869c 503e
00000250: 0fdd 59bc ea67 f23c 9cfc 37bb 3a5e 92bd
00000260: 37aa 8fbd 39ff 213e 2f9a ea3d 1e2a f5bb
00000270: a5a6 193d 4d2b 093d 2ea4 023e cbca cebd
00000280: 1b56 56be 64f4 233e 8308 343e be56 c4bc
00000290: 56c2 31bc 7f01 c0bb 2e5f 72bd fdaa 7d3e
000002a0: 1c21 ec3d 395c 313e 3215 cebc 5628 82bc
000002b0: 610d 8bbb d56a c23c d590 7fbb 74a2 b43e
000002c0: a0dd 613c 8839 783d b7c7 dd3c b492 12be
000002d0: 0bad 56bd 8a1c 59bd f3c3 cabd 564d a73c
000002e0: 16e0 6e3e 8015 493d 5fec c8bd 8806 9b3e
000002f0: eb87 9a3d 23ec 793e 7c0d 1a3d c1ff 7d3d
00000300: 0cfd 35ba 5d54 7a3e 4b22 803d d31e 783e
00000310: dc03 183e c95f f73d 8f47 913e 853b 273d
00000320: d26a d1bc 600a 4bbd d21a ce3d 24ee 3dbe
00000330: 4ab2 9fbc b7d6 f9bc 91c1 973d 00f6 36bd
00000340: b241 33bd 36ff d6bb d693 1e3d 787a 863b
00000350: 00ca 55bc ae32 62bd 220f 4d3e 7f08 4c3e
00000360: ad3c d53c bc55 cd3c f821 ecbd 280e bc3e
00000370: 361d 393e 0127 72be 2000 04bd 1b96 4f3e
00000380: 50bf 9ebd 08a1 8e3e caf8 fcbc 3666 cd3d
00000390: d77d 71bd 975b a6bd ba0f cc3d 1f16 273e
000003a0: 3a66 5abd 2a1d 5c3e 0257 6fbd dfc7 d8bd
000003b0: 9c88 8c3e 27b8 91bd b5e2 823c 1dfa 08bd
000003c0: 7f3a 8b3e 9501 863e b3f1 5b3d 6fcf 503e
000003d0: ba18 04bd 7e97 a6bd 321c dabd be22 ac3e
000003e0: 75f1 103e c97f 0c3d 56a2 203e 6588 4abd
000003f0: 5464 0c3e 6fcf 443d 77e0 94bd 5ac6 9c3d

q1.4.weight f4 [1, 256]
0.7241166 0.5822652 -1.3574277 -0.6808648 -1.0934508 -0.45559147 0.04397491 0.57240844
1.2227356 1.640958 0.71524954 0.02428824 -0.60389334 0.032096077 0.32334352 -2.3760204
-0.6782845 -2.360575 0.7816873 -0.66433525 0.017821705 -1.1934816 0.6095633 0.4251202
-1.5387343 0.6275858 -2.9300034 0.023911232 -1.1544328 0.5094407 -0.29655933 -0.44273943
-0.031787764 1.5685481 0.46709564 -0.042005464 0.74843013 0.27394223 -0.39546552 -0.21855742
-0.0018026339 0.014137015 0.025705311 -2.9832113 -1.954352 0.018033653 4.733958 0.042958003
-0.37013245 0.91741365 1.4528395 -0.007388659 0.8066003 0.007490871 0.0034873723 0.9445818
4.636617 0.32877302 -0.68059874 0.9893991 0.07054194 -0.7926741 1.3549991 1.4884198
-1.9743718 0.7015551 -0.015090499 0.026086815 -1.8201035 0.5968697 -1.3077815 1.3557819
-1.2177057 0.046080425 0.024398567 -0.48945272 -0.5088419 2.2466373 -0.6840457 0.022283055
0.88335407 -1.5622516 -6.1648707 0.8071674 0.00429858 -0.70942134 0.5485342 -1.3635063
-0.7082766 1.5784166 0.9174423 -0.54348445 -1.1141533 -3.9953637 0.5530599 -0.55617297
0.42012322 0.86662304 0.62630504 -0.89315426 0.7681049 -0.04364581 -4.243832 1.3167019
-0.83643156 -0.2651544 1.9871076 0.02828819 0.01457923 0.5454009 -3.0528886 -1.7443768
0.6930393 -0.0056751296 -1.9350564 -0.99664986 -2.2719145 -3.4616365 -1.7722247 0.61271566
0.21311569 0.011335426 -0.0011891881 -0.41018075 -2.1902077 -1.8186446 1.4126592 -0.6388638
0.8611013 -0.7133796 0.5121336 -0.6740133 0.43379474 0.016601065 -2.268226 0.46522313
-0.88575035 0.028111363 1.1317997 0.75906587 -0.4735509 -0.010275629 4.315541 -0.7129503
0.5493915 1.1223379 0.6303602 0.5137685 0.0041411594 0.029764144 0.03663964 0.045137152
0.013713671 0.91971993 0.6220243 -0.3259741 -1.7741132 -1.9514937 -0.6675147 0.041150503
-0.56279933 -1.1249733 0.4140745 -1.4421961 0.031679455 0.024874121 -4.191895 0.43029583
0.6575585 0.91642386 -0.62026757 -0.6449832 0.021434851 -0.9609238 0.019039491 0.81523466
-0.5578021 -1.1962281 0.031651586 -0.4501621 -1.3963035 0.03650194 -3.7683277 0.045640726
0.6530218 -0.23034552 -1.6441573 0.44893736 -0.32910106 0.7667436 -1.0626705 -0.90713084
-2.0277102 1.4370927 0.8793975 2.853673 0.6886503 2.098186 0.5627302 0.033592064
0.021283256 0.03716975 -0.3651268 -4.0500274 -2.2532816 0.024466515 -0.7725603 0.01818684
-4.894811 -1.0975897 -0.03793443 2.0947363 2.9505913 0.03913024 -0.8458624 0.44721347
-1.703741 0.024630982 3.159323 4.829828 -0.75182235 -1.5735815 -1.4296794 0.57462317
-0.5159887 0.8513488 2.3200808 -1.2169862 0.019069195 -0.019567186 -1.3181245 1.5597763
-1.0525038 0.46311608 0.050483566 -1.7196932 1.2650198 -0.032369353 0.040814273 -0.037168965
0.70763075 0.4908388 -1.1115661 -1.4051776 -0.39342433 0.015593277 1.399949 0.64886165
0.9629022 -0.827872 2.2639692 0.022719825 -0.42122415 2.1118731 0.010148412 -0.4783228
00000000: b55f 393f 550f 153f 31c0 adbf 284d 2ebf
00000010: 32f6 8bbf 4943 e9be 091f 343d 5c89 123f
00000020: 9a82 9c3f e90a d23f 981a 373f 22f8 c63c
00000030: c198 1abf 2d77 033d 488d a53e b810 18c0
00000040: 0ea4 2dbf a913 17c0 a91c 483f e011 2abf
00000050: d3fe 913c 01c4 98bf 570c 1c3f 5ba9 d93e
00000060: 3ff5 c4bf 77a9 203f 2d85 3bc0 7de1 c33c
00000070: 74c4 93bf b56a 023f a0d6 97be beae e2be
00000080: e333 02bd 2fc6 c83f 2927 ef3e ec0d 2cbd
00000090: 1e99 3f3f 2842 8c3e 757a cabe 84cd 5fbe
000000a0: 5b46 ecba f09e 673c f293 d23c efec 3ec0
000000b0: 3528 fabf 50bb 933c 957c 9740 bbf4 2f3d
000000c0: 0082 bdbe 9fdb 6a3f a5f6 b93f 901c f2bb
000000d0: 5b7d 4e3f fb75 f53b 668c 643b 1dd0 713f
000000e0: 2b5f 9440 f054 a83e b83b 2ebf 4249 7d3f
000000f0: 4b78 903d b1ec 4abf 9c70 ad3f 8a84 be3f
00000100: 37b8 fcbf 1d99 333f 243e 77bc 04b4 d53c
00000110: 27f9 e8bf 74cc 183f 6265 a7bf 438a ad3f
00000120: c8dd 9bbf d4be 3c3d 81df c73c 8c99 fabe
00000130: 7643 02bf e8c8 0f40 9e1d 2fbf f48a b63c
00000140: 7e23 623f dcf7 c7bf 9f46 c5c0 86a2 4e3f
00000150: 1adb 8c3b a39c 35bf bd6c 0c3f 6087 aebf
00000160: 9e51 35bf 8e09 ca3f 80dd 6a3f cc21 0bbf
00000170: 939c 8ebf 0ab4 7fc0 5595 0d3f 5a61 0ebf
00000180: 641a d73e 02db 5d3f 8755 203f c2a5 64bf
00000190: 86a2 443f f3c5 32bd 79cd 87c0 b089 a83f
000001a0: 6120 56bf 51c2 87be 8b59 fe3f a2bc e73c
000001b0: b9dd 6e3c 659f 0b3f 8762 43c0 bd47 dfbf
000001c0: 066b 313f 70f6 b9bb eeaf f7bf 7224 7fbf
000001d0: 0c67 11c0 748b 5dc0 42d8 e2bf efda 1c3f
000001e0: 003b 5a3e 39b8 393c 88de 9bba 3603 d2be
000001f0: 5d2c 0cc0 59c9 e8bf 04d2 b43f 948c 23bf
00000200: 2371 5c3f 0ca0 36bf 301b 033f 238c 2cbf
00000210: 581a de3e f5fe 873c 9d2a 11c0 ba31 ee3e
00000220: 89c0 62bf cd49 e63c d0de 903f 2452 423f
00000230: 4375 f2be 1d5b 28bc e918 8a40 e983 36bf
00000240: eca4 0c3f c5a8 8f3f 495f 213f 5586 033f
00000250: 90b2 873b efd3 f33c 7213 163d bce1 383d
00000260: 4eaf 603c c472 6b3f fc3c 1f3f 14e6 a6be
00000270: 2416 e3bf 8cca f9bf 3ee2 2abf 6e8d 283d
00000280: 9e13 10bf 20ff 8fbf 9301 d43e e299 b8bf
00000290: 51c2 013d d0c4 cb3c 0124 86c0 bc4f dc3e
000002a0: c155 283f c19a 6a3f dbc9 1ebf 9e1d 25bf
000002b0: 2498 af3c 1aff 75bf b5f8 9b3c 38b3 503f
000002c0: 1ecc 0ebf 011e 99bf 18a5 013d a67b e6be
000002d0: 13ba b2bf 0f83 153d 482c 71c0 c5f1 3a3d
000002e0: 702c 273f b2df 6bbe bf73 d2bf 1edb e53e
000002f0: ef7f a8be 4f49 443f 9605 88bf ba39 68bf
00000300: 01c6 01c0 a7f2 b73f 3220 613f 94a2 3640
00000310: 634b 303f ae48 0640 160f 103f d597 093d
00000320: 395a ae3c 4f3f 183d e6f1 babe d399 81c0
00000330: c435 10c0 006e c83c 83c6 45bf 91fc 943c
00000340: 4ba2 9cc0 d27d 8cbf 2261 1bbd 2910 0640
00000350: 7dd6 3c40 0847 203d 708a 58bf 2af9 e43e
00000360: 2f14 dabf eac6 c93c 5932 4a40 f38d 9a40
00000370: 6e77 40bf 1e6b c9bf bcff b6bf 811a 133f
00000380: d617 04bf fff1 593f 347c 1440 34c6 9bbf
00000390: 0037 9c3c 5d4b a0bc 4eb8 a8bf c0a6 c73f
000003a0: 72b8 86bf 8d1d ed3e dbc7 4e3d e81e dcbf
000003b0: 2bec a13f ba95 04bd de2c 273d 7c3e 18bd
000003c0: 4a27 353f 394f fb3e cc47 8ebf dcdc b3bf
000003d0: ea6e c9be f27a 7f3c 8731 b33f cc1b 263f
000003e0: c280 763f 6bef 53bf dfe4 1040 ed1e ba3c
000003f0: b1aa d7be ee28 0740 8645 263c bae6 f4be

q2.0.weight f4 [256, 7]
0.29638323 -0.092202194 -1.2062339 -0.6245306 -0.03794179 -0.95096445 0.011938199 -0.41152188
-0.30590355 0.05014452 -0.4080313 -0.1788999 0.8756758 -0.5078672 0.6168388 -0.1384292
-1.3910093 -0.40395364 0.02419171 1.097536 0.19414695 0.25284913 -0.19894376 0.41441864
-1.1769638 -0.061510224 0.81445944 -0.22752582 0.014222131 -0.6089504 0.18293393 0.59786063
0.18359886 -0.4586358 -0.16368887 0.5542453 -0.3089801 0.2577083 -0.25291216 0.35899398
-0.8121967 0.48645028 0.5492503 0.32347226 0.8737083 -0.68566436 -0.47931626 -0.108710736
-0.12227286 0.30393875 -0.31372502 -0.98569 0.66605014 0.9408953 -1.0198377 -0.11739708
-0.00440004 -0.13378407 -1.2162175 -0.5490031 0.14372917 -1.2596543 -0.05222874 0.75299567
0.31678244 0.65176815 -0.16409601 -0.8115638 0.18959269 -0.082884006 0.5606546 0.3997958
-0.040379666 -0.003690982 0.033381987 0.024721896 -0.078448005 -0.03458876 -0.067252345 -0.29160884
0.36209494 -0.4696057 0.8226939 -0.122702114 0.8254363 -0.2634175 0.4655396 0.067521624
0.4808705 -0.1384213 0.09161802 -0.008950304 -0.624727 -0.49923998 0.24093215 -0.9447407
2.436902 0.46425006 0.38602906 0.23007731 -1.0381685 -0.042919096 0.2147554 0.8669306
0.043226775 0.01301113 0.04659375 -2.0171623 1.1037856 0.83226436 -1.4205881 -0.2965245
0.41453698 -0.8922748 1.8362235 -0.25794035 -0.6516555 -0.1219495 0.60224724 0.10205498
0.197798 -0.36098593 -0.5782102 0.04139854 0.09505946 -0.10561502 0.71186155 -0.061804697
-0.09977726 -0.559776 -0.20390524 -0.405754 -0.10795674 0.25642163 -0.42785886 0.20432492
-0.13213845 1.5138437 -1.5244704 -0.023930483 0.2893178 -0.07699357 0.54051507 0.52210724
-0.28842056 1.1246183 -0.01846928 0.40593773 -0.2717481 -0.7866602 -1.0821065 0.14370547
0.99461067 -0.5567005 -0.040297084 0.036724042 0.7287203 0.68119645 -0.051642533 -0.52899444
-0.076443754 0.1859009 0.058705416 -1.3919857 -0.48686397 0.59745014 -1.0691776 0.018755585
0.15151943 -0.14121671 0.8123762 0.20295398 -0.26320195 0.8088325 0.6803127 -0.014293022
-0.56634545 0.83692884 -0.19391027 0.6659739 -0.14872791 1.3016146 -0.07785768 0.45856154
-1.2432252 0.18108697 0.340993 0.5129315 0.29360175 -0.07013379 -0.014675974 -3.164418
0.072703704 0.3340982 -1.673251 -0.16203202 0.060982022 -1.5743256 0.31574145 -0.33104146
0.74509865 0.24173579 -0.22323088 0.041682005 0.67548764 -0.25232622 -1.1004415 -0.6247436
0.80657876 0.63720214 0.019478943 -0.35773143 -1.2646445 -0.010316287 -0.3657736 -0.7990348
-0.06596119 0.3096618 -0.118241824 0.11543893 -0.13684393 1.3514582 -2.2034354 0.09401169
-0.8776054 0.047231182 -0.5806641 -0.3518613 -0.68707246 0.2790084 -0.11309365 -0.2594387
-0.757755 1.3159705 -0.17348517 -1.5353299 -0.25933737 -0.2243994 0.88388985 0.018746534
0.58921045 -0.3239383 0.17139426 0.2707614 0.22371568 -0.35796922 -0.28621423 0.964662
-0.25971895 -0.20858133 -0.46317044 -0.06410554 0.15041013 -0.041595455 -1.2215276 0.6444479
00000000: 8bbf 973e 81d4 bcbd df65 9abf 3de1 1fbf
00000010: da68 1bbd 6872 73bf 7098 433c ffb2 d2be
00000020: 649f 9cbe 5764 4d3d 7be9 d0be 8931 37be
00000030: 4a2c 603f 9603 02bf 26e9 1d3f 62c0 0dbe
00000040: 980c b2bf 03d3 cebe b12d c63c 0f7c 8c3f
00000050: 75ce 463e 7175 813e eab7 4bbe ae2e d43e
00000060: c0a6 96bf 25f2 7bbd 6a80 503f 87fc 68be
00000070: f103 693c 2ce4 1bbf 0853 3b3e 650d 193f
00000080: 5701 3c3e 50d2 eabe 0e9e 27be 05e3 0d3f
00000090: a432 9ebe 58f2 833e b47d 81be 0fce b73e
000000a0: 1fec 4fbf 0310 f93e ab9b 0c3f 289e a53e
000000b0: 59ab 5f3f b387 2fbf f168 f5be bca3 debd
000000c0: 316a fabd dc9d 9b3e 91a0 a0be 2e56 7cbf
000000d0: 4382 2a3f 84de 703f 0b8a 82bf e16d f0bd
000000e0: 362e 90bb b1fe 08be 04ad 9bbf 788b 0cbf
000000f0: bd2d 133e 5a3c a1bf ceed 55bd 53c4 403f
00000100: 4f31 a23e 47da 263f c908 28be a5c2 4fbf
00000110: 9624 423e 17bf a9bd 0f87 0f3f 09b2 cc3e
00000120: 2665 25bd 67e4 71bb 8dbb 083d 9385 ca3c
00000130: 59a9 a0bd f2ac 0dbd 99bb 89bd c14d 95be
00000140: 8264 b93e 2970 f0be 119c 523f 3f4b fbbd
00000150: cb4f 533f a9de 86be 355b ee3e c748 8a3d
00000160: a834 f63e 50be 0dbe 3aa2 bb3d 4ca4 12bc
00000170: 1cee 1fbf 629c ffbe ebb6 763e 87da 71bf
00000180: 34f6 1b40 2fb2 ed3e 9aa5 c53e 6399 6b3e
00000190: b5e2 84bf efcb 2fbd d7e8 5b3e 2aef 5d3f
000001a0: 8f0e 313d a22c 553c 17d9 3e3d 3019 01c0
000001b0: d948 8d3f 470f 553f d5d5 b5bf 0fd2 97be
000001c0: 313e d43e 1f6c 64bf 5f09 eb3f c210 84be
000001d0: e5d2 26bf a9c0 f9bd e02c 1a3f 3402 d13d
000001e0: 8f8b 4a3e 26d3 b8be 9505 14bf 8491 293d
000001f0: 89ae c23d b04c d8bd 8f3c 363f ec26 7dbd
00000200: 0558 ccbd 7b4d 0fbf 89cc 50be fdbe cfbe
00000210: 6c18 ddbd b249 833e 5110 dbbe 8d3a 513e
00000220: 4d4f 07be a1c5 c13f d921 c3bf dc09 c4bc
00000230: 7621 943e ceae 9dbd 325f 0a3f d2a8 053f
00000240: dcab 93be 7ef3 8f3f e34c 97bc 12d7 cf3e
00000250: 9122 8bbe 9062 49bf 7782 8abf 8727 133e
00000260: ce9e 7e3f ed83 0ebf 8e0e 25bd f36b 163d
00000270: 6a8d 3a3f e462 2e3f 1f87 53bd 2e6c 07bf
00000280: 8b8e 9cbd ce5c 3e3e 1775 703d 962c b2bf
00000290: 3c46 f9be 7ef2 183f d0da 88bf 50a5 993c
000002a0: e927 1b3e 1d9b 10be e3f7 4f3f 2bd3 4f3e
000002b0: 68c2 86be a60f 4f3f f928 2e3f 482d 6abc
000002c0: 04fc 10bf f840 563f 6a90 46be 447d 2a3f
000002d0: 214c 18be 4f9b a63f d973 9fbd 94c8 ea3e
000002e0: 0122 9fbf dd6e 393e a296 ae3e 7b4f 033f
000002f0: f852 963e 4ea2 8fbd 7f73 70bc d385 4ac0
00000300: aee5 943d eb0e ab3e 172d d6bf b9eb 25be
00000310: 49c8 793d 8083 c9bf dda8 a13e 447e a9be
00000320: c9be 3e3f 9689 773e a396 64be c0ba 2a3d
00000330: c2ec 2c3f e730 81be 44db 8cbf 32ef 1fbf
00000340: f27b 4e3f ae1f 233f 4e92 9f3c 9328 b7be
00000350: dfdf a1bf a505 29bc ad46 bbbe 8b8d 4cbf
00000360: a916 87bd fe8b 9e3e c528 f2bd 3f6b ec3d
00000370: d120 0cbe 95fc ac3f 1605 0dc0 3389 c03d
00000380: bfaa 60bf 7c75 413d 67a6 14bf 2a27 b4be
00000390: fbe3 2fbf 30da 8e3e a59d e7bd 26d5 84be
000003a0: 3bfc 41bf b971 a83f 19a6 31be b185 c4bf
000003b0: dec7 84be f5c8 65be 9b46 623f 5592 993c
000003c0: 7fd6 163f 3edb a5be fa81 2f3e 3da1 8a3e
000003d0: b915 653e be47 b7be ac8a 92be 17f4 763f
000003e0: e2f9 84be 5896 55be ad24 edbe c449 83bd
000003f0: 1d05 1a3e ff5f 2abd 045b 9cbf 8afa 243f

q2.0.bias f4 [256]
0.03018255 0.5060096 0.08524423 0.49590322 -0.07451531 0.20439519 -0.12213278 -0.33653206
0.25662112 -0.21968071 0.48668504 0.48493895 0.50272536 0.3429831 -0.5124928 0.16241445
-0.34235474 0.4682985 0.41793883 0.09145401 -0.030041615 0.56004924 -0.25692728 0.13387452
0.7012325 -0.8143334 -0.79086894 0.12769559 0.1339433 -0.78029513 0.11814886 0.11360482
0.046053044 -0.7522183 0.38099158 -0.75964105 -0.23047888 -0.20919359 -0.27670768 -0.11965325
-0.19994171 -0.025264723 -0.13403879 0.37702385 -0.3855008 0.2061041 -0.94575965 -0.2816387
0.40737113 -0.3098434 0.53351843 -0.26494968 -0.43547988 -0.21315664 0.11676568 -0.22903463
0.63306105 0.11839463 -0.2930988 -0.2927642 -0.34712002 0.43008956 -0.26192087 -0.41359806
-0.43692616 -0.6315807 -0.12809736 0.39795437 0.43260804 0.35312638 -0.29724854 -0.16835435
0.0856721 0.41189882 0.034386907 -0.43215996 -0.5169188 0.29682046 0.071386345 0.09761728
-0.04724031 -0.5711895 0.0995072 0.36209765 0.6975197 -0.027733143 -0.3500112 0.6216731
-0.13451631 0.35590595 -0.3996657 0.48871562 0.18980059 -0.641908 -0.0016064546 -0.3021944
0.49167955 0.14731123 -0.048026558 -0.012056464 -0.4869145 -0.15008734 0.01969779 0.53276277
0.37276158 -0.28742814 -0.42178774 -0.45946604 -0.22914791 -0.34045687 0.043986194 -0.70187604
-0.18239109 -0.84940594 0.67480063 -0.4191573 -0.04893752 -0.6209933 0.23497187 0.2182326
-0.34661666 -0.03023893 0.1403222 0.31980962 -0.40752456 -0.5165621 0.12576514 -0.20337307
0.4638366 0.47689548 0.22849895 -0.49770144 0.0354642 0.029364442 -0.45882633 0.4142611
-0.27462885 -0.659773 0.64066434 0.0020103902 0.2152772 0.28497988 -0.13462083 -0.40811318
0.00804002 0.016697705 0.26325402 0.17676483 0.41041383 -0.46214262 0.0015648631 -0.06373801
0.311792 0.71143645 0.55844235 0.31637964 0.59404176 0.5420713 -0.5245695 0.15736397
0.21980163 -0.6441945 -0.20770693 -0.09329915 -0.23517402 0.25335672 0.5509315 0.27185515
-0.11545533 0.34585968 -0.15120067 0.09700988 -0.7208314 -0.26915655 0.07815659 -0.3502421
-0.30564708 0.16643128 0.52000386 0.09011539 0.20028263 0.1905109 0.5584451 -0.31064785
-0.4813851 -0.17460118 0.23691528 0.00059606147 -0.32422742 0.45220998 -0.078701206 0.29914582
0.5576904 0.50570333 -0.13958536 -0.5995465 0.3318933 -0.4061739 -0.62437963 0.47720036
-0.0024445888 0.27015144 0.1162871 -0.058909796 0.060058597 -0.18681438 0.28528297 -0.04363702
-0.0036731232 0.53250617 -0.4910794 -0.14308552 0.03429443 0.028497374 -0.103853956 -0.4323993
-0.010383667 0.077341415 -0.44294044 -0.54272527 -0.54502416 0.77505136 0.39939794 -0.32504714
0.5746042 0.4750713 0.6764425 -0.10716679 -0.26541656 0.47811243 0.20630868 0.06964542
0.39757282 0.36893323 -0.5808411 -0.36599422 0.0051559354 0.10687929 0.046955086 -0.36307874
0.58218735 0.0064168656 0.5028725 -0.5555694 0.017499905 0.18667293 -0.02804305 0.30923522
-0.35310337 0.22474241 0.07951703 0.4088724 0.45908976 0.02426344 -0.038810134 0.39824846
00000000: 6541 f73c d889 013f 8794 ae3d 07e7 fd3e
00000010: 7c9b 98bd f94c 513e c020 fabd ee4d acbe
00000020: d863 833e fbf3 60be c82e f93e eb49 f83e
00000030: 9cb2 003f 7b9b af3e ba32 03bf f94f 263e
00000040: 1f49 afbe d2c4 ef3e 14fc d53e 3d4c bb3d
00000050: d519 f6bc 635f 0f3f f98b 83be 6716 093e
00000060: f983 333f 2778 50bf 6376 4abf a2c2 023e
00000070: 6f28 093e 6cc1 47bf 08f8 f13d a5a9 e83d
00000080: 1ea2 3c3d 6191 40bf 5411 c33e d677 42bf
00000090: a802 6cbe d836 56be a1ac 8dbe c30c f5bd
000000a0: 85bd 4cbe f7f7 cebc 7741 09be 4509 c13e
000000b0: 5c60 c5be f40c 533e 4e1d 72bf f332 90be
000000c0: f392 d03e cba3 9ebe aa94 083f 7ca7 87be
000000d0: 38f7 debe bc45 5abe d822 ef3d 0e88 6abe
000000e0: 4a10 223f e278 f23d 0c11 96be 30e5 95be
000000f0: b7b9 b1be b334 dc3e 7e1a 86be 20c3 d3be
00000100: c9b4 dfbe 46af 21bf f42b 03be adc0 cb3e
00000110: cd7e dd3e fbcc b43e f630 98be 1565 2cbe
00000120: db74 af3d 67e4 d23e 49d9 0c3d 1244 ddbe
00000130: ca54 04bf daf8 973e 0133 923d 92eb c73d
00000140: 0e7f 41bd 7a39 12bf 6eca cb3d dd64 b93e
00000150: a790 323f 9e30 e3bc ab34 b3be f825 1f3f
00000160: a5be 09be 4e39 b63e fca0 ccbe ef38 fa3e
00000170: 165b 423e 1554 24bf ac8f d2ba 39b9 9abe
00000180: 6cbd fb3e c1d8 163e 7fb7 44bd 7a88 45bc
00000190: db4c f9be 7fb0 19be 425d a13c 2463 083f
000001a0: 9bda be3e c829 93be 90f4 d7be 223f ebbe
000001b0: c0a5 6abe 5d50 aebe de2a 343d 26ae 33bf
000001c0: bbc4 3abe ab72 59bf bcbf 2c3f c99b d6be
000001d0: b572 48bd 6bf9 1ebf 779c 703e 5e78 5f3e
000001e0: bd77 b1be a2b7 f7bc 9fb0 0f3e 16be a33e
000001f0: 0fa7 d0be 6a3d 04bf 94c8 003e 0841 50be
00000200: fe7b ed3e a52b f43e a1fb 693e b9d2 febe
00000210: e942 113d b38d f03c 49eb eabe 081a d43e
00000220: 279c 8cbe e2e6 28bf 9402 243f c0c0 033b
00000230: a071 5c3e e2e8 913e 0bda 09be 36f4 d0be
00000240: 4aba 033c a0c9 883c 3bc9 863e d701 353e
00000250: c321 d23e f59d ecbe 181c cd3a 1389 82bd
00000260: 33a3 9f3e b320 363f 14f6 0e3f 83fc a13e
00000270: 1f13 183f 2fc5 0a3f 304a 06bf 0524 213e
00000280: ae13 613e eee9 24bf 20b1 54be a013 bfbd
00000290: 75d1 70be f9b7 813e d909 0d3f 9930 8b3e
000002a0: d873 ecbd 8514 b13e 59d4 1abe 1ead c63d
000002b0: 6888 38bf e3ce 89be 9010 a03d ef52 b3be
000002c0: c67d 9cbe f66c 2a3e f91e 053f 6b8e b83d
000002d0: e416 4d3e 4a15 433e 42f6 0e3f 3c0d 9fbe
000002e0: 1c78 f6be a7ca 32be eb99 723e 0241 1c3a
000002f0: 2301 a6be 1188 e73e 192e a1bd a429 993e
00000300: ccc4 0e3f c675 013f 77ef 0ebe e17b 19bf
00000310: ebed a93e 07f6 cfbe 58d7 1fbf 9b53 f43e
00000320: 6535 20bb 4a51 8a3e ee27 ee3d 664b 71bd
00000330: 0100 763d 454c 3fbe 9c10 923e bbbc 32bd
00000340: c8b8 70bb 5352 083f c26e fbbe 0385 12be
00000350: 5178 0c3d 5373 e93c 62b1 d4bd 7163 ddbe
00000360: 4220 2abc 2d65 9e3d 17c9 e2be 0bf0 0abf
00000370: b486 0bbf c469 463f e37d cc3e 946c a6be
00000380: 4319 133f 8c3c f33e 562b 2d3f 437a dbbd
00000390: aee4 87be 27cb f43e 9542 533e 42a2 8e3d
000003a0: aa8e cb3e d1e4 bc3e 01b2 14bf 9863 bbbe
000003b0: 1ff3 a83b 87e3 da3d fa53 403d 75e5 b9be
000003c0: 3b0a 153f 9244 d23b 41bc 003f cc39 0ebf
000003d0: f65b 8f3c 3027 3f3e 8aba e5bc 1454 9e3e
000003e0: f7c9 b4be e022 663e d3d9 a23d b957 d13e
000003f0: d00d eb3e 1fc4 c63c 60f7 1ebd 39e7 cb3e

q2.2.weight f4 [256, 256]
0.027493546 -0.3522616 -0.02379914 -0.008247303 0.040345464 0.20156778 0.3717777 0.26587307
0.01922881 0.20939888 0.6225576 0.08362239 0.32100576 0.10780908 0.69355375 0.014103469
0.09808208 0.087617844 0.32048482 0.16687955 -0.023410149 0.08065357 0.073616706 0.10707964
0.122258134 0.022167305 0.724808 0.19930083 0.20411241 -0.56759137 -0.10915733 0.22734305
-0.35431656 0.8696098 0.30111682 -0.18676338 0.18154576 0.23115696 -0.076254554 0.32677326
0.3095129 -0.23545866 -0.3757917 0.021243295 0.546201 -0.107352324 -0.79480344 -0.16428219
0.26113024 0.07318083 0.21630973 0.022586623 0.47078443 0.19881707 0.075284995 0.0036471111
0.20290585 0.48236045 0.40472287 -0.32444575 -0.92602277 -0.122000575 -0.22964612 -0.10941306
-0.2989125 1.286867 0.4221778 0.11839811 0.18685704 0.5646929 0.26182166 -0.084452525
0.2125474 0.3505623 0.17724462 -0.10305512 -0.10323569 -0.037317485 -0.28318322 0.17794241
-0.60955566 -3.5312705 0.05141252 -0.068583794 0.21767084 -0.32780588 0.538491 0.15112863
-0.7314741 0.15692407 -0.2546485 -0.056398578 -0.7930675 0.05371012 0.2803576 0.08747924
0.12435374 -0.066939265 0.22428262 0.28630248 0.099441275 0.40858212 0.1250094 0.10555038
0.27208275 0.40757003 -0.32421157 -0.6054685 0.2662621 -0.9630788 0.35703948 -0.39423993
0.08041488 0.023076288 0.08834471 -0.078999765 0.19010077 -0.112492 0.024628118 -0.08914834
-0.18904777 -0.029598685 -0.7501919 -0.2191619 0.61671853 0.36251536 0.21932656 0.16665564
-0.5444309 0.23411502 0.2303682 0.82314086 0.2795894 0.06668127 -0.3396448 0.36926994
-0.16199401 -0.6311366 -1.356634 0.18309131 0.32330006 0.2868287 0.08194592 -0.074014
-0.20656653 -0.12427632 0.07900519 0.35805994 0.28568566 -0.3377582 -0.6229415 0.5278234
0.14444028 0.21331987 0.21800554 0.29768193 0.2534168 0.23639725 -0.2315245 0.041770924
-0.6289584 -0.21560547 0.089937896 -0.60070527 -0.55776995 0.4292837 0.035593726 0.42332646
-0.6502454 0.21997142 -0.012509586 -0.4005838 -0.080501 0.21503569 -0.3314 -0.80608946
-0.07441329 -0.51472336 0.34903395 -0.18912163 0.32715625 0.47040385 -0.65794426 0.007380314
0.33165464 0.07136859 0.10423036 0.0050040213 -0.34724295 0.080022834 -0.6389306 0.43575677
0.31894246 -0.20541915 0.18137462 1.1996448 0.07443559 0.053233143 -0.093072824 0.1201848
0.037195474 -0.18584073 0.1345898 0.274008 0.031015553 -0.32790887 0.08226036 -0.47917065
0.0973863 0.27752808 -0.9575162 -0.7698549 0.16563648 0.18060781 -0.16217043 -0.212332
0.22354247 0.2802617 -0.40414783 1.9797771 -0.030593324 0.25668266 0.2692481 0.18453912
-0.01902731 0.16685143 0.4443191 -0.26332358 -0.051059537 0.26982906 0.38011998 0.41293094
0.06905007 0.10571335 -0.327521 0.274764 0.34493148 0.3104674 0.08029491 -0.4205314
0.023661885 -0.005694607 0.09293547 0.75905246 0.4785166 0.3835775 -0.74366575 0.23551081
0.3127215 0.4519492 0.27006188 -0.28694376 -0.30777007 -0.7760486 0.16997845 0.046304654
00000000: 253a e13c a25b b4be 6af6 c2bc b21f 07bc
00000010: 4941 253d c967 4e3e a659 be3e 8420 883e
00000020: bd85 9d3c a96c 563e ef5f 1f3f 3742 ab3d
00000030: de5a a43e 02cb dc3d bd8c 313f 3d12 673c
00000040: 42df c83d fc70 b33d 9616 a43e 79e2 2a3e
00000050: a4c6 bfbc b32d a53d 5bc4 963d 924c db3d
00000060: 7962 fa3d 3598 b53c 048d 393f 8415 4c3e
00000070: d802 513e ab4d 11bf e18d dfbd 9ecc 683e
00000080: fb68 b5be bf9e 5e3f fc2b 9a3e e63e 3fbe
00000090: 22e7 393e 69b4 6c3e 592b 9cbd d34e a73e
000000a0: 7a78 9e3e 131c 71be c567 c0be 6b06 ae3c
000000b0: d4d3 0b3f 89db dbbd 3d78 4bbf 9739 28be
000000c0: ddb2 853e d5df 953d 4c80 5d3e 9507 b93c
000000d0: a80a f13e b496 4b3e 052f 9a3d 5f04 6f3b
000000e0: 8dc6 4f3e f3f7 f63e d637 cf3e c11d a6be
000000f0: d40f 6dbf 70db f9bd 5a28 6bbe f413 e0bd
00000100: 0f0b 99be 0fb8 a43f b027 d83e b57a f23d
00000110: 7457 3f3e b78f 103f 7d0d 863e 72f5 acbd
00000120: 07a6 593e e77c b33e 9d7f 353e 900e d3bd
00000130: 3c6d d3bd 38da 18bd 64fd 90be 8936 363e
00000140: d70b 1cbf 5600 62c0 ef95 523d a975 8cbd
00000150: 1be5 5e3e 2cd6 a7be 8cda 093f 77c1 1a3e
00000160: e341 3bbf b4b0 203e 4a61 82be 3202 67bd
00000170: 7906 4bbf 25ff 5b3d 088b 8f3e 5128 b33d
00000180: 2cad fe3d 7417 89bd 58aa 653e 3d96 923e
00000190: dea7 cb3d ad31 d13e 7702 003e cc2a d83d
000001a0: 6e4e 8b3e 05ad d03e 0fff a5be fcff 1abf
000001b0: 8253 883e 558c 76bf e1cd b63e d1d9 c9be
000001c0: 8eb0 a43d 7c0a bd3c 12ee b43d a1ca a1bd
000001d0: c7a9 423e 3562 e6bd e8c0 c93c 6893 b6bd
000001e0: bd95 41be f178 f2bc 940c 40bf fa6b 60be
000001f0: 44e1 1d3f 9d9b b93e 2497 603e c7a7 2a3e
00000200: d35f 0bbf d9bb 6f3e a4e5 6b3e 5cb9 523f
00000210: 5826 8f3e 3190 883d ece5 adbe f310 bd3e
00000220: c2e1 25be 2b92 21bf 2fa6 adbf 4a7c 3b3e
00000230: 9687 a53e 36db 923e 43d3 a73d a794 97bd
00000240: 2d86 53be 9584 febd 79cd a13d a253 b73e
00000250: 6445 923e a5ee acbe 1879 1fbf 6f1f 073f
00000260: 27e8 133e 8670 5a3e d83c 5f3e c469 983e
00000270: d9bf 813e 1f12 723e c214 6dbe fd17 2b3d
00000280: 6b03 21bf aec7 5cbe 5c31 b83d d2c7 19bf
00000290: 03ca 0ebf 13cb db3e baca 113d 3fbe d83e
000002a0: 7c76 26bf 3040 613e 02f5 4cbc 5219 cdbe
000002b0: b5dd a4bd 5132 5c3e 43ad a9be e15b 4ebf
000002c0: ff65 98bd e9c4 03bf 94b4 b23e 1aa9 41be
000002d0: 0681 a73e c6d8 f03e 096f 28bf 90d6 f13b
000002e0: a3ce a93e b229 923d ba76 d53d c6f8 a33b
000002f0: d4c9 b1be 03e3 a33d f590 23bf 831b df3e
00000300: 6d4c a33e 6659 52be 45ba 393e f68d 993f
00000310: b071 983d ff0a 5a3d f79c bebd 7323 f63d
00000320: 485a 183d 084d 3ebe e9d1 093e c74a 8c3e
00000330: 5414 fe3c ace3 a7be 1f78 a83d db55 f5be
00000340: 7872 c73d 2918 8e3e c81f 75bf 3615 45bf
00000350: 9c9c 293e 41f1 383e 0110 26be 8f6d 59be
00000360: 51e8 643e 767e 8f3e 77ec cebe 5669 fd3f
00000370: da9e fabc e96b 833e e3da 893e d3f7 3c3e
00000380: 29df 9bbc 1adb 2a3e cb7d e33e 59d2 86be
00000390: ce23 51bd 0927 8a3e 169f c23e af6b d33e
000003a0: 206a 8d3d 3e80 d83d d5b0 a7be dead 8c3e
000003b0: dc9a b03e 95f5 9e3e a871 a43d e44f d7be
000003c0: 92d6 c13c d399 babb f454 be3d 4351 423f
000003d0: 2100 f53e 4564 c43e e160 3ebf bf29 713e
000003e0: 081d a03e e365 e73e 8d45 8a3e 4bea 92be
000003f0: 0a94 9dbe 1fab 46bf d50e 2e3e f3a9 3d3d
