traininig1/sac_pendulum_actor.pth (torch, 275844 bytes, 6 tensors)

network.0.weight f4 [256, 6]
000000 a9 52 44 bc 42 83 e4 be ac fb 4e 3e 29 0a 18 be
       -0.011982598 -0.44631392 0.20213193 -0.14847626
000010 85 8e 94 3e d1 98 4d 3f 8d fa be be 5e 8e 5f 3e
       0.29014984 0.80311304 -0.3730053 0.21831653
000020 66 2f f4 bf 1d bc af be 18 8b eb bc 5f e4 16 be
       -1.9076965 -0.34323207 -0.028752849 -0.14735554
000030 a1 fd 66 3c 04 c2 0b 3f e2 98 52 bf de 4f f6 bd
       0.014098556 0.5459292 -0.8226453 -0.12026952
000040 99 47 e7 3e 52 8e fc be 00 b3 7d 3c 92 db 34 bc
       0.45171812 -0.49327332 0.015484571 -0.011038678
000050 80 29 50 bf 45 d6 c8 3e be 6e 58 3e 0c 00 60 bf
       -0.81313324 0.39225975 0.21135995 -0.8750007
000060 21 5e 17 3f 53 29 ca 3e e5 71 9d 3e b3 2f b3 be
       0.59128004 0.39484653 0.30750957 -0.3499733
000070 41 cb 15 bf 2f dd 0c bf ba 9d 75 bd c1 ce e1 3e
       -0.58513266 -0.55025 -0.059964873 0.44103053
000080 2e fd 63 bf 95 88 02 be b3 cb 93 3e 39 d4 25 3f
       -0.89058197 -0.12747414 0.28866348 0.6477695
000090 51 07 f9 bc 2f f0 8b be b1 18 7a bf cb 32 1c 3e
       -0.030398997 -0.27331683 -0.97693926 0.15253751
0000a0 a4 6f 16 3f 9b 0e 89 bf 49 39 16 bf c0 14 f0 3e
       0.587641 -1.0707582 -0.5868116 0.4689083
0000b0 86 50 8f bf 4d 58 9d be 79 f3 b3 bd cd 03 ed be
       -1.1196449 -0.3073143 -0.08786673 -0.46291962
0000c0 e5 24 f8 3c 82 76 6f bf 22 a3 8f be 39 12 05 bf
       0.03029103 -0.93540204 -0.28054148 -0.5198093
0000d0 1e 71 bb 3e 53 7c fc 3c 6f 9b 3c bf 96 98 f0 3d
       0.3660974 0.030821001 -0.7367467 0.117478535
0000e0 75 8d 2a bd 32 70 97 3e 37 81 7f bf e0 52 75 3f
       -0.04163881 0.29577786 -0.9980654 0.9582958
0000f0 19 65 26 be 20 3f da be f2 c3 ff bd 3e 6a 24 3f
       -0.16249503 -0.42626286 -0.124885455 0.6422461
000100 6e 97 f0 3d ad d5 3b bf 8b 42 35 bd ac 73 09 3e
       0.11747633 -0.7337292 -0.044252913 0.13423032
000110 23 c0 0d 3f 43 0a d6 3d ae 41 4b bf 8f c7 34 3e
       0.553713 0.10451176 -0.79397094 0.1765425
000120 88 32 05 bd cb 31 06 3e e8 53 53 bf bb 14 52 be
       -0.032518893 0.13104932 -0.82549906 -0.2051572
000130 99 07 25 3f e5 ef 2f 3f 08 37 77 3e 1d fb 63 be
       0.6446472 0.68725425 0.24142087 -0.22263761
000140 e6 62 fa be dc 4c c3 3e 8e 7f 3a 3f d2 af eb be
       -0.4890358 0.38144577 0.72850883 -0.46032578
000150 54 02 3d 3f 67 e7 60 3d de a4 29 bf b2 09 58 be
       0.7383168 0.054908182 -0.6626719 -0.21097448
000160 1f 69 5a be 26 dc b5 3e 4b 06 ab bc 24 b4 45 bc
       -0.21329163 0.35519522 -0.020877024 -0.012066875
000170 34 1e 38 bf 98 d9 bc 3e 6f ce 1b 3e 17 22 56 bf
       -0.71921086 0.3688476 0.15215467 -0.83645767
000180 ec e9 9f be 8c c9 f1 3e ef ec c1 3e ec cf 4f be
       -0.31233156 0.4722408 0.37876078 -0.2029416
000190 b9 e4 01 bf b2 d9 24 be 7d 46 62 bf 45 6e 25 3e
       -0.5073963 -0.16098669 -0.88388807 0.16155346
0001a0 99 36 01 3f 8c cc 59 be 7d e4 20 3f 2c 5d d6 3e
       0.50473934 -0.21269435 0.62848645 0.4186796
0001b0 2b 6f 8f be a9 bd 03 3f d0 cd 0f 3e 08 a5 06 3e
       -0.28014502 0.51461273 0.14043355 0.13148892
0001c0 6d 6a fb be 36 55 88 3f 6d 7a c7 be 6f a2 1e 3d
       -0.49104634 1.0651004 -0.3896059 0.038729127
0001d0 d7 21 72 be 6b 68 31 be cb 01 2b bf 62 38 50 bf
       -0.23645721 -0.17324989 -0.6679961 -0.81336033
0001e0 36 af 69 bf fc 6b 77 3e 41 ef 81 3e c0 0c 02 bf
       -0.91282976 0.24162287 0.2537785 -0.50800705
0001f0 8d c8 49 3e c8 40 c1 3d d3 28 99 be bf 0a 6c 3d
       0.1970541 0.09436184 -0.2991396 0.057627436
000200 50 ba 77 bf c8 8b 63 3d 4c c3 33 bf aa 2f a2 3f
       -0.96768665 0.055553228 -0.70219874 1.2670796
000210 9a 84 91 be 2d ef d1 bd 88 5c 0c 3f 53 d5 77 bf
       -0.2842148 -0.10250697 0.5482869 -0.9680988
000220 19 6c 11 bd f3 e4 0d 3f 21 86 9d bd ba 0a 12 bf
       -0.03550348 0.55427474 -0.07691599 -0.5704762
000230 ba 01 02 3e 89 a5 98 bf 70 ef 01 bf eb d7 f6 3d
       0.12695971 -1.1925517 -0.5075598 0.12052902
000240 57 84 f3 be 95 b7 72 3e 57 db f4 be 62 9d 17 be
       -0.47561905 0.23702843 -0.47823593 -0.1480613
000250 62 f8 59 bf 93 34 4f be e9 72 09 bf 3b 2b 4b 3e
       -0.8514463 -0.20234899 -0.53690964 0.1984071
000260 2e bc 0b 3f 41 09 4a bb 58 29 3f bf af 23 a7 be
       0.54584014 -0.003082827 -0.7467246 -0.32644412
000270 26 e8 52 be 7d e0 09 bf 44 48 ef be 8b 70 f2 be
       -0.2059637 -0.53858167 -0.46734822 -0.47351488
000280 ae 45 26 be 66 02 cc 3e cf 84 94 bc fc ff 59 3e
       -0.16237518 0.3984558 -0.018129734 0.21289057
000290 09 5e 71 40 7e f7 97 3d 7d b0 68 bf 01 57 9f 40
       3.7713645 0.07420252 -0.908943 4.9793706
0002a0 7e 8b 12 be e6 06 af bd b7 31 3d 3f 09 bd 68 3e
       -0.14311025 -0.08546238 0.73903984 0.22728361
0002b0 fb ac 7f be 60 16 2b bf 7a 16 ab bd 03 ac 7e be
       -0.2496833 -0.66831017 -0.083538964 -0.24870305
0002c0 1c 7e 83 3f 78 81 0a 3e 3f ab c6 bd 9e a8 62 3f
       1.027286 0.13525951 -0.09700631 0.8853854
0002d0 44 95 ba 3e f8 72 7f bd 3e ac 03 be 19 4b 89 bd
       0.36442006 -0.062365502 -0.12858674 -0.06703777
0002e0 49 ae 23 be 08 a0 a7 bd f8 9a f9 be dd 8f 2c 3e
       -0.15984453 -0.081848204 -0.48751044 0.16851754
0002f0 fb 46 73 3f d5 5a 89 3e 76 33 81 bf 3d 45 6c 3f
       0.9503018 0.26827112 -1.009383 0.9229315
000300 7d 46 de 3e 9a 2f 9f 3e 5e 62 f3 be d3 e8 5c bc
       0.43413153 0.31091005 -0.47535986 -0.013483244
000310 89 89 05 bc 98 2d 96 bf 06 c8 4e 3e 7b cb 94 3e
       -0.008150467 -1.1732664 0.2019349 0.29061493
000320 54 2c 90 be 85 6c 40 be da 31 90 bf 1a 36 65 3d
       -0.2815882 -0.18791397 -1.1265213 0.0559598
000330 08 08 af be b9 e1 f7 be ae 3c 34 bf 52 93 a0 be
       -0.34185815 -0.484144 -0.7040509 -0.31362396
000340 c6 f9 41 3e 0e 8f 6e 3c 9e ab 93 bb 73 6d 0b be
       0.18942937 0.014560474 -0.0045065423 -0.1361597
000350 63 8a e1 3e 75 33 e8 3c 2b 8b 5e bf 33 43 95 bd
       0.44050893 0.02834485 -0.86931103 -0.07288208
000360 21 0c 41 bf 63 c1 0d be 48 64 25 3f 87 db 6f 3e
       -0.7540913 -0.13843302 0.6460614 0.23423587
000370 e8 40 8b bf ae 3d 89 3f 3a ca 7e be 1c 9a a8 3e
       -1.0879183 1.0721948 -0.24881831 0.32930076
000380 d8 13 2d 40 a1 0e c5 3e cb 8f a4 bf 5c 81 1a 40
       2.7043362 0.38487723 -1.2856382 2.4141455
000390 5c 50 ea 3d 24 bb bb 3d 14 13 d9 be b5 06 05 3f
       0.114411086 0.091665536 -0.42397368 0.5196336
0003a0 43 bc fe 3d 72 e3 74 bf ce b3 5c 3e 98 95 87 be
       0.12438252 -0.95659554 0.21552965 -0.26481318
0003b0 cb e8 ee be db 34 34 3e 48 9e 22 bf 4a cf e8 3e
       -0.46661982 0.17598288 -0.6352277 0.4547065
0003c0 cd 54 8a be f9 75 af bf 55 08 86 3b 8f e3 99 bd
       -0.27017823 -1.3707877 0.0040903487 -0.075141065
0003d0 52 2b af 3e 6e a6 88 3d 61 c2 b5 be 09 f6 a6 be
       0.34212738 0.06672369 -0.35499862 -0.32609585
0003e0 5a a2 31 be 48 64 ea 3e b8 76 7f be 8b 37 ea be
       -0.17347088 0.45779634 -0.24947631 -0.457455
0003f0 da 53 17 3f 78 1a f9 3c c5 c4 fe be 9b da f6 bd
       0.5911232 0.03040813 -0.49759498 -0.120534144

network.0.bias f4 [256]
000000 2c 7b 73 3d d1 68 30 be 12 a8 8a be e8 f4 12 bf
       0.059443638 -0.17227484 -0.27081352 -0.5740495
000010 de 59 91 be 85 d8 42 be ef 14 10 be 2a 3a 7c be
       -0.28388876 -0.19027908 -0.14070486 -0.24631563
000020 03 fe 4e be dd f7 67 be a6 9d d8 be 3b 8e 1e be
       -0.20214085 -0.22653146 -0.42307776 -0.15483944
000030 8f eb 31 be 02 39 09 bf d4 e7 cf be b2 cb 0c bf
       -0.17375015 -0.5360261 -0.40606558 -0.54998314
000040 91 97 0d 3c e2 e7 3c be 44 72 01 bf 0f a8 52 bd
       0.008642093 -0.18447831 -0.5056498 -0.051429804
000050 a5 77 4d bc a4 0b 4c 3d 0f a2 90 3e 95 2d 02 bf
       -0.0125407325 0.04981579 0.2824864 -0.508508
000060 a2 d5 26 3e 16 13 2e bd ea a7 d6 bc 5c 67 06 bd
       0.16292432 -0.04249867 -0.026203115 -0.032813415
000070 1c 4b b8 be 4f 04 73 be 6c 47 0b bf 9e 6f a3 be
       -0.35994804 -0.23732112 -0.54405856 -0.31921095
000080 6e d6 ed be 4d 8d c4 be 8c 7f a3 3d e0 92 2b be
       -0.4645266 -0.38389054 0.07983312 -0.16755247
000090 91 35 f8 3c 47 b1 da be de 35 24 bf 69 3b 87 be
       0.03029898 -0.42713377 -0.64144695 -0.26412514
0000a0 c0 56 be be b6 fc 02 bf 56 80 dd be 1b 87 ae be
       -0.3717556 -0.51166856 -0.43261975 -0.34087452
0000b0 80 20 02 3e 2b 72 9a bd 75 c0 23 3e 4c b6 25 be
       0.1270771 -0.07541307 0.15991385 -0.16182822
0000c0 fb 33 f6 be e2 48 b9 be b1 f3 9c bd 7a 70 de bd
       -0.48086533 -0.36188418 -0.07663668 -0.10861297
0000d0 c0 1b 06 be b5 8a 29 bf 49 35 30 bc 0f 1a e9 be
       -0.13096523 -0.66227275 -0.010754892 -0.45527694
0000e0 5b fe e1 3c 7e e1 cd be ec 72 d8 be 61 75 00 bf
       0.027587106 -0.402111 -0.42275178 -0.50179106
0000f0 a7 13 d7 be 06 e5 75 bc a4 66 d7 bd fa d1 13 bf
       -0.4200718 -0.015008217 -0.10517624 -0.57742274
000100 46 ad 8c be fd 00 12 be 63 18 07 bf ad 77 b8 be
       -0.27475947 -0.1425819 -0.52771586 -0.36028805
000110 23 e1 d7 be 4f c1 da be d5 09 b1 be ff 49 91 be
       -0.42163953 -0.42725608 -0.34577814 -0.28376767
000120 cf 3e b7 3d 74 b3 b7 3c 90 61 f1 be d6 71 b3 bb
       0.08947527 0.022424437 -0.47144747 -0.005476217
000130 52 d3 d2 be 91 c9 75 be d7 c4 09 bf d4 07 42 be
       -0.4117685 -0.24002673 -0.5381598 -0.18948299
000140 9e 2a ce bd bb 99 45 be 7c 61 9c bd 50 f4 4e be
       -0.10066722 -0.19296925 -0.07635781 -0.20210385
000150 99 e8 ac 3c 2f 7f d3 be 14 4f f6 bd d0 dc 59 be
       0.021107005 -0.4130797 -0.12026802 -0.2127564
000160 f7 19 98 be 76 d0 5d be 67 bc 04 bf f4 6d c7 be
       -0.2970731 -0.21661553 -0.5184998 -0.38951075
000170 a1 56 6a bd 3a 3d 5c be 5e b5 32 3d c7 ed a8 be
       -0.057211522 -0.21507731 0.043629996 -0.3299391
000180 25 9d aa be 00 69 9a 3d 30 e5 54 3a dd 13 ce 3d
       -0.33323017 0.075395584 0.000812131 0.10062382
000190 e9 e5 95 be 0a 9f 8e be ff cd b9 3c 30 1d c5 be
       -0.2927697 -0.27855712 0.022681234 -0.3849883
0001a0 32 fd 08 be 84 3b 10 bf be 23 81 be 61 9c 2a be
       -0.13377836 -0.56340814 -0.25222582 -0.16661216
0001b0 0f de 19 be 7a e1 9c be 84 99 68 be 68 fa b9 be
       -0.15026115 -0.30640775 -0.22714812 -0.36323857
0001c0 cb 49 9d be e5 18 d1 bd f3 37 03 bf af 03 81 be
       -0.30720362 -0.102098264 -0.51257247 -0.25198123
0001d0 73 72 64 3e 72 30 9e be 67 60 f4 bd 9e e7 4a be
       0.22309284 -0.30896336 -0.1193245 -0.19814917
0001e0 93 f0 04 3e 15 bb 06 be f1 3d 76 be be e5 1a be
       0.12982397 -0.13157304 -0.24047066 -0.15126702
0001f0 ed df 68 3d e5 0f 7f be 1b 32 3c be a7 b1 8c bd
       0.056854177 -0.24908407 -0.18378489 -0.06869822
000200 40 79 05 bf 41 6e 09 bf fe 34 1f be 3b a9 62 3c
       -0.5213814 -0.5368386 -0.15547559 0.013834293
000210 af 30 c9 bd 3b 24 e4 be 5f 52 af be 1f 2f a1 be
       -0.09823739 -0.44558892 -0.34242532 -0.31481263
000220 62 56 41 be ac 99 9c be f9 5d cc bd e2 63 74 be
       -0.18880609 -0.30585992 -0.09978861 -0.23866227
000230 86 9d 51 bd 71 8f 96 be e4 2b 74 be 27 3e c7 be
       -0.051175617 -0.29406312 -0.23844868 -0.38914606
000240 ac b4 35 be 51 4d 01 be 99 cb 76 be 59 58 3e 3e
       -0.17744702 -0.1262715 -0.24101104 0.1858839
000250 34 20 0d bb 10 25 d8 3e a4 a3 8b bd e7 63 4c be
       -0.0021534087 0.42215776 -0.06818321 -0.19959985
000260 b9 2d a7 be 62 b4 1d bf 94 49 81 be 4c 71 93 bd
       -0.3265207 -0.6160337 -0.25251448 -0.07199344
000270 92 d2 b8 be 02 47 9a bd 88 cd e1 bd 14 e2 d7 be
       -0.36098152 -0.07533075 -0.1102553 -0.4216467
000280 3c d8 e8 be 05 32 f3 be 75 a9 ee 3c a9 15 61 3e
       -0.45477474 -0.474991 0.029133538 0.21980919
000290 e7 e8 4a bd 50 f9 54 bd ae ce 57 3c e6 61 db 3c
       -0.04953852 -0.051995575 0.013171835 0.02678008
0002a0 25 03 36 3d 55 9c 30 3d bb dd 20 bc 67 06 f1 bd
       0.044436593 0.04311784 -0.00981849 -0.11768799
0002b0 76 68 f5 bd 0c bf 91 be e9 94 41 bf 49 4c eb bd
       -0.11982815 -0.2846607 -0.75617844 -0.114891596
0002c0 e0 bd 88 bd 0e 64 28 bc 35 ea ca be 22 f7 ee be
       -0.06676841 -0.010277761 -0.3963181 -0.46672922
0002d0 22 34 aa be 5a 2f 58 be f1 b9 2b bf c5 1e 20 bd
       -0.332429 -0.21111813 -0.670806 -0.039091844
0002e0 e0 d0 9c be 66 5e c4 3e a5 89 bc bd 1a 79 96 3d
       -0.3062811 0.3835327 -0.09205941 0.07347317
0002f0 ca b3 c6 be 8b 4e e4 be 39 28 83 bd 25 ad 89 bd
       -0.38809043 -0.44591174 -0.06404156 -0.06722478
000300 09 df b8 bd 19 92 a5 be 4d a4 2e be 80 15 a9 be
       -0.090269156 -0.32338026 -0.17054863 -0.33024216
000310 03 46 77 be c3 c0 9a be e3 f6 dd be 40 7d ad be
       -0.24147801 -0.3022519 -0.43352422 -0.3388462
000320 1e d1 08 3e 41 dc 7e be ce b2 ec 3d d7 21 59 be
       0.13361022 -0.24888708 0.11557542 -0.21204315
000330 8b 25 19 3d 40 ce 3a 3c 2f 11 93 bd af 97 2d be
       0.03738932 0.011401713 -0.07181012 -0.16952394
000340 be 5f 83 be 8f 35 33 bd af f4 e9 be 60 64 90 bb
       -0.25658983 -0.04375225 -0.4569449 -0.004406497
000350 77 73 b0 be 75 88 cc bd 51 31 48 3e c4 34 c5 be
       -0.34463093 -0.099869646 0.19550063 -0.3851682
000360 52 43 02 be cc 67 4b be 6b d4 e6 bd 4a 21 9a be
       -0.12720993 -0.19863814 -0.11270984 -0.30103523
000370 e6 63 82 be 59 93 ac 3e 10 63 9b be 82 16 11 bf
       -0.2546684 0.33706167 -0.30349016 -0.5667497
000380 2d ac cd be 8f 99 24 be 4b 54 2b 3d 77 32 0b be
       -0.40170422 -0.16074203 0.041828435 -0.1359347
000390 22 b3 ae bc fa 95 76 3e a8 3e 58 be 44 0e 28 3e
       -0.021325652 0.24080649 -0.21117651 0.16411692
0003a0 91 52 40 be 38 45 ce bb 80 e8 73 be 4f ce 0d be
       -0.18781497 -0.0062948726 -0.2381916 -0.13848232
0003b0 af 25 bf be 1b 8d 9b be f2 db d2 be 1d c4 12 be
       -0.37333438 -0.30381092 -0.4118343 -0.14332624
0003c0 42 c1 a9 be 8e 01 66 3d ae d6 94 be dd a7 e5 be
       -0.33155257 0.056153826 -0.29070038 -0.44854632
0003d0 01 56 c2 bd 88 a5 3b 3e ab b6 42 be 59 3d a5 3a
       -0.0948906 0.18324864 -0.19014995 0.0012606784
0003e0 dd b3 62 be 92 fd 6f be 11 46 39 be c4 11 98 bd
       -0.22138925 -0.23436573 -0.18093134 -0.074252635
0003f0 7a 88 71 be ba 0b c6 be 59 e7 a5 be 90 80 17 be
       -0.23587218 -0.38680822 -0.32403067 -0.14795136

network.2.weight f4 [256, 256]
000000 8b 4e 20 3e 36 67 1d bd 64 d3 7a bd ee af 13 3d
       0.15654962 -0.038428508 -0.061236754 0.03605645
000010 88 9a 4d b8 a5 b9 bc 3d d5 2f 8e bc 0d 23 68 be
       -4.9019727e-05 0.092150964 -0.017356792 -0.22669621
000020 a8 e9 82 bd fb 3c 34 be 1f d2 1a 3e 92 c5 b7 be
       -0.06392223 -0.17601387 0.15119217 -0.35892922
000030 e9 9b 5e be 85 52 18 3e 5a f4 af be 7a d7 a6 3c
       -0.21739163 0.14875229 -0.34366113 0.02036642
000040 e9 e3 cf 3d 40 3c 72 bc bb 9c f4 3d 07 17 1e bd
       0.10150892 -0.0147848725 0.119439565 -0.03859618
000050 20 da 39 3d a0 3b 74 bd 7c 39 1e bc 3c d5 53 bd
       0.045374036 -0.059627175 -0.00965726 -0.051717028
000060 4e df 9b bc 47 5e cf bd e6 57 08 bd bd 09 7f 3d
       -0.019027378 -0.10125404 -0.03328695 0.062265147
000070 33 cf ac bd 2d 3c c1 3d ba 47 8f bc 6c bb 11 be
       -0.084379576 0.09435306 -0.017490257 -0.14231652
000080 ef 51 c2 ba 88 1b 47 3c a9 2f 41 bd 0a a0 c7 bc
       -0.0014825444 0.01215256 -0.047164593 -0.024368305
000090 b8 af d5 bd 45 b0 67 bc 18 75 8a be aa 9b d0 bc
       -0.10433906 -0.014141147 -0.2704246 -0.025464851
0000a0 70 c3 a2 bc 69 de 37 bd c5 57 81 bd 1e 46 56 3d
       -0.019868582 -0.04488984 -0.06315569 0.052312963
0000b0 2e ed ca bc 7d 2e 1d bd d8 b8 87 be c5 f0 99 3b
       -0.0247713 -0.038374413 -0.26508212 0.0046978914
0000c0 ae e5 c1 3b ce 04 96 3d ce 8c 0d be 11 fc 9a bd
       0.0059172725 0.07325135 -0.13823244 -0.07567609
0000d0 f7 f5 83 3d 45 a6 7a bd ca ed 81 39 79 1b d5 be
       0.064433984 -0.061193723 0.00024781964 -0.41622522
0000e0 30 b7 5f bd 86 33 52 3d 53 5a d1 bd 0a 82 2e 3d
       -0.05461806 0.051318668 -0.10222306 0.042604484
0000f0 02 12 6f 3d 3f 1e 6f 3d 0b 31 f9 3b b5 e0 b0 3c
       0.058366783 0.058378454 0.0076047233 0.021591524
000100 b0 3b 6f 3d 05 dc 6e 3d 49 35 1b bd ec 10 da 3d
       0.05840653 0.058315296 -0.037892614 0.10647759
000110 85 6d a6 bd 87 fa 61 bd 7e 13 5d bd 8d ab c7 be
       -0.08126358 -0.055170562 -0.053973667 -0.3899807
000120 29 2c 8b bd 86 ed d6 bc 0e 58 6d 3c 6f 70 83 be
       -0.06795532 -0.026236307 0.014486326 -0.25671718
000130 22 56 7c 3b 05 71 d9 3d 27 c4 a2 bd f0 91 52 3e
       0.0038503488 0.1061726 -0.07947569 0.20563483
000140 86 28 95 3c 6b 27 e0 bb 4f a3 f2 3d 86 b7 05 3d
       0.0182078 -0.0068406365 0.11847555 0.032645725
000150 76 fd 26 3d 9c c4 98 bd 0b 5a 58 3e 15 c7 ee 3d
       0.040769063 -0.07459375 0.21128099 0.11659066
000160 7e 73 11 3d 43 7c 49 3d 20 c8 32 3e 28 43 37 bd
       0.035510533 0.04919077 0.17459154 -0.04474178
000170 cf 44 a3 3c f0 ed a8 bc bc 6f 1c bd 38 e7 c4 3d
       0.019930271 -0.02062127 -0.038192496 0.09614414
000180 55 0b 34 3d ac 77 70 be 4b 17 a9 bd f5 61 08 bd
       0.04395612 -0.23483151 -0.08256396 -0.033296544
000190 ab f4 11 3d 5d 38 33 bd 1e 42 71 b9 ba 09 af 3d
       0.035633724 -0.043754924 -0.00023008182 0.08546777
0001a0 73 89 b1 3c a2 0c 89 bc b6 ec e5 3c 97 bf d5 3d
       0.021671986 -0.016729657 0.028066974 0.104369335
0001b0 87 73 f5 bd 14 7d 84 bc c4 2b 83 bd 27 47 7a bd
       -0.11984926 -0.016172923 -0.06404832 -0.061103012
0001c0 6a 70 46 bd 3f bd 6f bd 64 91 ce 3d d3 53 65 be
       -0.04844705 -0.05853009 0.10086325 -0.22395258
0001d0 16 ef 25 be 51 0a b8 be 06 be 18 bd 12 51 fe bd
       -0.16204485 -0.3594537 -0.037290595 -0.12417807
0001e0 b0 0a 35 3d ca 9f ad bd 27 a4 44 be 64 81 00 be
       0.044199646 -0.08477743 -0.19203244 -0.12549359
0001f0 62 38 a8 bb 8e 11 81 bd 24 ed 39 3d e3 60 90 bd
       -0.0051336745 -0.063021764 0.04539217 -0.0704973
000200 8b 5e ca 3d 80 19 49 3c eb bc bc 38 36 5c 8e 3d
       0.09881314 0.012274146 8.999727e-05 0.069511816
000210 95 7d 56 bd 41 a5 26 3b f7 a1 30 bd 2b fb cd be
       -0.052365858 0.002542809 -0.04312321 -0.40230688
000220 5b 7a ae bc d4 5c 73 bd f8 f6 81 bd 17 24 8d 3a
       -0.021298578 -0.0594147 -0.06345934 0.0010768202
000230 ca 57 2d bd 66 24 96 3d 43 da e8 bc 5b 58 36 bd
       -0.04232005 0.07331161 -0.028424388 -0.044517856
000240 67 ab ba bc c5 60 69 3b c1 c5 3a 3d af 21 9c 3c
       -0.02278681 0.0035610658 0.04559875 0.01905903
000250 45 fa 8b bd 69 4e 81 3c 70 6a 59 be 60 97 ac 3c
       -0.068348445 0.01578446 -0.21232009 0.021068275
000260 ce f8 25 3c d6 d6 7c 3c af 83 2f bb 83 2e b0 3c
       0.01013012 0.01543208 -0.002678137 0.021506554
000270 93 c6 e4 3d a3 9d 22 bc 8c d2 81 bc 0d 4c 23 bd
       0.111706875 -0.009925279 -0.015847467 -0.03986745
000280 8f c1 93 bc 16 40 46 bd 64 6e 4b be 7b 12 bd 3d
       -0.018036632 -0.04840096 -0.1986633 0.092320405
000290 27 c5 c9 3c e1 a3 9c bd b7 29 1f 3d 39 04 b1 3c
       0.024630142 -0.07648445 0.03885814 0.021608459
0002a0 59 c8 86 3d 15 b9 2d bd 92 db 73 bd eb a9 4a 3c
       0.06581182 -0.042412836 -0.05953557 0.012369613
0002b0 50 34 c7 bc b1 79 83 bd 9b 4a 61 3d b5 cf 3f bd
       -0.024316937 -0.06419695 0.05500279 -0.046828944
0002c0 66 48 0a bd 22 a3 42 be 62 0b 04 3e 7a dc 7e bc
       -0.03376045 -0.19007543 0.12894967 -0.015555495
0002d0 cb 8f 5d bd c8 ae 9b bd a3 a9 b3 bc c0 be e7 3c
       -0.05409221 -0.07601696 -0.021931475 0.028289199
0002e0 fb 91 23 3d 57 f3 87 3c 6c ac 79 bd 6e 24 e7 3b
       0.03993414 0.016595526 -0.06095545 0.0070539033
0002f0 8f 6e b6 3d 53 95 a4 bc 84 95 c2 bc c3 86 13 be
       0.08907806 -0.020090735 -0.023752935 -0.14406876
000300 a8 59 5e bd e5 c5 04 be 1a 46 19 bd df 95 07 3d
       -0.05428472 -0.12966116 -0.03742037 0.033101913
000310 cc cf 59 3d 1b 32 cf bd ed 25 60 be a6 1b 3c bd
       0.053176686 -0.10116979 -0.21889468 -0.045924805
000320 62 06 bc bd a2 f9 41 bc 4e 11 57 bd e5 a8 0c 3d
       -0.09180905 -0.011839302 -0.052506737 0.034340758
000330 5a 69 9d bc 45 17 06 3e 41 31 51 be 89 59 84 be
       -0.019215275 0.13094814 -0.20428945 -0.2584956
000340 9b 1a d7 3d 63 4c d8 3b 00 92 b4 bd 65 b7 0c be
       0.105031215 0.006600903 -0.0881691 -0.13741834
000350 24 26 2d bd ef 04 cd 3c 91 3f 56 bd 3c 86 ea bc
       -0.0422727 0.025026767 -0.052306715 -0.028628461
000360 a5 75 e1 3c 5b e7 4f bd 49 b8 ad bb 82 a0 9a 3d
       0.027521918 -0.050757747 -0.0053015095 0.07550146
000370 eb 79 ae bb 6c 28 30 3c b2 9b 85 3c 42 85 31 bb
       -0.0053245923 0.010751825 0.016309593 -0.0027087484
000380 ce cd 72 bd ea bd e9 bd 79 2b 07 be 08 09 ab be
       -0.059278302 -0.11413176 -0.13200177 -0.33405328
000390 51 7a 25 3b ea e8 30 3d f3 50 00 bd da 85 4c bd
       0.0025249908 0.043190874 -0.0313272 -0.04993234
0003a0 74 58 b4 bc 38 bf 64 bb 55 98 7a 3d 15 e0 68 bd
       -0.022014834 -0.0034904014 0.06118043 -0.056854326
0003b0 64 df 4a 3d d5 d1 bf be 1a 3d ea bc f0 b8 1e 3e
       0.04952945 -0.37464777 -0.028593589 0.15500236
0003c0 d6 98 72 3c d7 6f 83 bd b2 83 02 3c 81 c8 0f 3d
       0.014806947 -0.06417816 0.007965969 0.035103325
0003d0 e5 f0 67 3c 1a c5 a9 be d2 b4 9a b8 f4 d7 2a bd
       0.014156555 -0.3315819 -7.376973e-05 -0.041709855
0003e0 d3 d9 a4 be 4b 41 6c 3b 1a 3d 96 3d 69 11 5f 3c
       -0.32197437 0.003604966 0.07335873 0.013614991
0003f0 40 d2 e7 3a 4e aa 6e be 73 cc 0b bc 17 9c f7 3c
       0.0017686561 -0.23307154 -0.008532631 0.030225797

network.2.bias f4 [256]
000000 9d 79 b4 bc 51 73 9d 3d 4e 6e e8 be cf ce 51 bd
       -0.022030646 0.076880105 -0.45396656 -0.05122262
000010 c8 c0 9c be a7 cd 8d be 30 93 98 bd 7d 3e 11 3e
       -0.3061583 -0.27695963 -0.07449949 0.14183994
000020 1e 67 21 3e 6d f7 3b 3e 6a a1 32 3b 58 ef bc bd
       0.15761992 0.18356104 0.0027256855 -0.09225339
000030 2a fc 9e bd 26 ff cd bd a5 5f c3 bd 87 1f 19 be
       -0.0776294 -0.10058431 -0.09539727 -0.14953433
000040 0e 74 5b bd fe f6 03 be de 87 d7 3b 08 1f e0 bc
       -0.053577475 -0.12887189 0.006577476 -0.027358547
000050 ce b5 2c be d4 6e e1 3d ef fc 5e bd dc 90 08 be
       -0.16866228 0.11007467 -0.054440435 -0.1333651
000060 e4 08 6e bd c3 45 e1 bd 18 d3 1e bd cf f6 00 bd
       -0.058113948 -0.10999634 -0.038775533 -0.031485375
000070 53 5e fc bc 84 94 26 bd e6 b7 d7 bd 53 51 01 bd
       -0.030806696 -0.04066898 -0.10533123 -0.031571697
000080 58 c5 56 be e3 81 6f 3e 29 32 2e be 1c 4d 15 3e
       -0.20973718 0.23389392 -0.17011322 0.14580196
000090 89 98 1e bd 3f 93 12 bd 4e 52 69 bd ac 4e 11 be
       -0.038719688 -0.035784956 -0.056963257 -0.14190167
0000a0 85 3c 70 bc e9 cd 60 3e 7d 84 46 be 57 58 94 3e
       -0.0146628665 0.21953548 -0.19386478 0.28973648
0000b0 52 b1 6f bd 56 37 24 bb 72 ec 4b 3b 0e ec 41 be
       -0.058518715 -0.0025057397 0.0031116274 -0.18937704
0000c0 7d 28 2b be 68 ae f6 bd 56 46 90 bd 74 c0 1e 3c
       -0.16714664 -0.12044984 -0.070446655 0.009689439
0000d0 72 75 30 bd 3c 49 71 bc ef 43 51 bd a5 90 cc bc
       -0.043080755 -0.014726933 -0.051090177 -0.024971316
0000e0 48 0a c7 bd ae 72 79 bd 1d 38 bd 3e 24 83 0b be
       -0.09718758 -0.060900383 0.36956874 -0.13624245
0000f0 0a d1 85 bd 72 66 96 bd 1b c4 b0 bd 65 36 bc bd
       -0.06534012 -0.07343759 -0.08631154 -0.091900624
000100 47 27 4b 3d bb 8b ca 3b 86 57 a1 be 72 ad aa bd
       0.049598005 0.006181208 -0.31512088 -0.08333863
000110 88 58 17 bb 03 39 a9 3b 26 7c 6a 3e e8 17 ac bd
       -0.002309354 0.005164267 0.22898921 -0.08402997
000120 ab c6 51 be ff 84 b4 be 08 47 86 bd 4e 94 7b ba
       -0.20485942 -0.35257718 -0.06556517 -0.0009596989
000130 e4 98 9c bd c4 6f 8c bc bd 6d ab bd fd a1 82 3d
       -0.07646349 -0.017143138 -0.0837054 0.06378553
000140 25 f0 97 3c db 73 44 be e2 79 8e bc ca 31 2b 3c
       0.018547127 -0.1918482 -0.017392103 0.010448882
000150 55 ac 43 be 04 d1 16 bc c3 78 07 be 62 d0 e1 bb
       -0.19108708 -0.009205107 -0.1322966 -0.0068912962
000160 45 0f 96 bd 6a 6c 06 3c 6a 7d 8c be b6 8d 74 be
       -0.07327131 0.008204559 -0.27439433 -0.23882183
000170 e0 ca a6 3e ce d7 b4 bc 12 04 aa 3d c1 42 16 bc
       0.32576656 -0.02207556 0.083015576 -0.009171189
000180 f8 93 88 bd 55 e6 e6 3c 59 ca f9 3c b7 02 02 bd
       -0.06668848 0.028186003 0.030491995 -0.03174087
000190 74 88 89 be 99 04 63 be 8f bc 19 3e f5 3b 53 bd
       -0.26861918 -0.22169723 0.15013336 -0.05157085
0001a0 e4 8b 5e 3e c7 6f 2d be 2e 49 90 be a2 11 b2 3d
       0.21733052 -0.16937171 -0.28180832 0.086947694
0001b0 b7 d1 b6 3c 89 0f e0 3d 2f d8 7a 3d 9a 9b 10 3e
       0.022316797 0.10940463 0.061241325 0.14121857
0001c0 f3 21 99 3d b2 bb 1d 3e 13 e6 34 be 0e fb db bd
       0.074771784 0.15403631 -0.17665891 -0.10741244
0001d0 99 fb a4 bd 2d c2 06 3b 4a 79 c7 3d 2e f2 89 bd
       -0.08055801 0.0020562515 0.09739931 -0.06735645
0001e0 ce 93 ac be 1e 07 c4 be 96 d9 55 bc 8c 4c 6d bd
       -0.33706516 -0.3828668 -0.013052365 -0.05793433
0001f0 e1 89 d0 bd 87 8e 17 bd bf d0 dd 3c e7 0f a0 be
       -0.10182548 -0.03700116 0.027077077 -0.31262133
000200 a9 5e 67 3d d8 96 bd bc c0 18 2c be f4 58 9e be
       0.05648676 -0.023143217 -0.16806316 -0.3092724
000210 cd 28 33 be 08 c4 04 be c4 68 9c bd f5 36 89 bd
       -0.17496033 -0.12965405 -0.0763717 -0.06699935
000220 aa c9 71 bd 2c b5 4f be 13 e2 fd bc 76 4e 98 bd
       -0.059030212 -0.20283955 -0.03099159 -0.0743684
000230 3d 00 45 3b b3 d6 13 be 9b 04 b9 3d b6 93 90 bd
       0.0030059956 -0.1443737 0.090340815 -0.070594236
000240 03 81 46 3c 1c d0 89 bc 37 46 76 be 8c 9b ac be
       0.01211572 -0.016822867 -0.24050222 -0.33712423
000250 bb fe 3b 3d 5a 38 5b 3d c7 56 09 be b4 08 e8 3d
       0.045897227 0.053520538 -0.13412009 0.11329785
000260 bc 97 50 be 53 88 1c be a1 ce 45 3e 46 5c 39 3b
       -0.20370382 -0.15286379 0.19317104 0.002828376
000270 73 46 4c be aa 00 2f be 0e 68 82 be 41 ba 99 be
       -0.19948749 -0.17090097 -0.25470012 -0.30024913
000280 b8 bc ff bd 53 34 48 bd 12 33 8f be 3c cc 29 bc
       -0.12487167 -0.048878025 -0.2796865 -0.010363635
000290 80 23 d2 bd 6e 4d 60 3e 37 ad a2 bd 72 98 b6 bc
       -0.10260677 0.21904537 -0.07943194 -0.022289488
0002a0 aa e1 e4 bc 50 93 a2 bd 9c d6 78 bd dd 12 8b bd
       -0.027939636 -0.07938254 -0.060751542 -0.06790707
0002b0 fd bb 98 3b 09 e7 97 bd 57 fb 31 bd 85 19 af be
       0.004661082 -0.07417113 -0.043452587 -0.34199157
0002c0 db b0 55 3c 50 33 f8 bc 0e 12 d4 3a 17 63 1f be
       0.013042654 -0.030297905 0.0016179697 -0.15565144
0002d0 21 90 77 bd 8c c4 59 bd 0c 95 c3 be 53 e1 15 3c
       -0.060440186 -0.053165957 -0.3819965 0.00914796
0002e0 45 c9 8a be ea f7 a1 3d 3f db 76 3e e8 8a f4 bd
       -0.2710668 0.07908614 0.24107073 -0.11940557
0002f0 67 43 9a bc 41 a0 a3 bd 35 20 c2 bd 1a ab e2 bd
       -0.018830968 -0.079895504 -0.09478799 -0.11067791
000300 60 bd 3e bd ec 38 3f 3e e1 b2 74 bd 76 b2 3b bd
       -0.04656732 0.18674058 -0.059740905 -0.04582449
000310 43 7a aa bd 5a 4f 71 be 7d 9c 56 be 6e 8d da 3b
       -0.08324101 -0.23565426 -0.20958133 0.0066696918
000320 28 9e 5b bd 75 4f d0 bc 91 b1 3b be f1 1c 11 3e
       -0.053617626 -0.025428513 -0.18329455 0.14171197
000330 fd 2a 7d bd 26 9e 21 be 8b 57 89 3e 74 c3 ba bc
       -0.061808575 -0.15782985 0.26824602 -0.022798277
000340 76 ed 1d bd 00 df 63 be 28 60 3d bd 9e 2f ae bc
       -0.03855654 -0.22253036 -0.04623428 -0.02126294
000350 ed df 22 bd cb 35 5e bd 3b 81 7e be 6e f8 71 bc
       -0.039764334 -0.05425052 -0.24853985 -0.014768703
000360 f0 1e 2e be b8 51 c6 3e f1 58 05 3e 7a 74 94 3d
       -0.17003989 0.3873422 0.1302221 0.07248779
000370 f5 38 34 bd 03 74 d9 3e 98 67 65 bd 70 d5 1b bd
       -0.04399963 0.42471322 -0.056006998 -0.038045347
000380 ab a5 a0 3e e3 73 12 bf cb e2 b2 bb 5c 52 93 bc
       0.31376395 -0.5720808 -0.0054591647 -0.017983608
000390 15 a4 bd 3d f7 10 d7 3c e5 60 a3 3d 7e 5c 92 be
       0.09259812 0.026253207 0.079774655 -0.2858619
0003a0 29 4e fb bc cf a8 d5 bd 31 03 3a be dd 86 c0 bc
       -0.030676918 -0.10432588 -0.1816528 -0.023501808
0003b0 bc f7 0c 3e fb a5 34 bd 3e c6 58 3d f6 53 4a bd
       0.13766378 -0.044103604 0.052923433 -0.049396478
0003c0 85 6d 30 be a9 8b a4 3e e9 69 6b 3e 0d 9f 88 bd
       -0.17229278 0.32137802 0.2298962 -0.066709615
0003d0 01 35 4f bc ff bf 14 3e 2e c0 dd bd 3f 1f 2f 3c
       -0.012646914 0.14526366 -0.10827671 0.010688602
0003e0 be f0 90 be bb 5f d1 bc 07 07 ba 3d 00 0b 42 be
       -0.28308672 -0.025558343 0.090833716 -0.18949509
0003f0 3a 62 45 3e 82 bd 05 be 62 f0 11 be 7c b5 99 bd
       0.19275752 -0.13060573 -0.14251855 -0.075053185

mean.weight f4 [1, 256]
000000 c7 93 96 be 44 44 c2 3e 8f 31 84 c0 ed 47 63 be
       -0.2940962 0.37942708 -4.1310496 -0.22195406
000010 36 eb 4e 3d 7f c5 2d 3f 47 79 8d 3b fc 79 68 3e
       0.050517283 0.6787948 0.004317436 0.22702783
000020 e1 6c f4 3e c0 22 67 3e 68 6b 51 be 42 6d 08 bf
       0.47739318 0.2257185 -0.20451128 -0.53291714
000030 4c 1d 9e 3b be 9c 8f bc bd 39 d4 3c 2a a9 5a bf
       0.00482527 -0.017530795 0.025906438 -0.85414374
000040 e9 2d d1 bb c6 7b 8b be 09 09 cb bc 64 2b 1f 3c
       -0.0063836467 -0.2724287 -0.024784582 0.009714935
000050 a4 78 15 bf 4a ee dd 3d 3d 39 0e bc 20 82 af bc
       -0.5838721 0.10836466 -0.008680639 -0.021424353
000060 52 e7 94 3b 7f 57 dc 3c ff c6 10 3c 78 e5 78 bc
       0.004544177 0.02689719 0.008836507 -0.015191428
000070 ad 57 03 bd 35 cc 0f 3d d2 ca 8d be 65 8b 0b bf
       -0.032066036 0.035106856 -0.27693802 -0.54509574
000080 cf 09 a0 be 00 9e c4 3e 2b 76 82 3e 04 f5 c5 3e
       -0.31257483 0.38401794 0.2548078 0.38663495
000090 12 0c 57 3e aa 55 6e 3c 73 03 0b bc e5 87 89 be
       0.21000698 0.014546791 -0.008484709 -0.26861492
0000a0 5a d8 80 be fa c3 6d 3d e5 e5 5e bf 7f 30 83 3e
       -0.25165063 0.058048226 -0.8706954 0.25622937
0000b0 0b 4b 78 bc 8d 4b f2 ba 17 28 d8 3c e5 f3 2a be
       -0.01515461 -0.0018485651 0.026386304 -0.16694601
0000c0 39 4c 71 be b8 a4 cf bf 5f d5 da bd 9e c6 3b be
       -0.23564233 -1.6222143 -0.106852286 -0.18337485
0000d0 41 4f b6 3f 95 79 17 be f2 39 18 be c7 c6 d5 bc
       1.4242936 -0.14792474 -0.14865854 -0.026095761
0000e0 fe 01 ac 3c 1e 15 e2 3c aa 58 7a 3e db 69 a6 3e
       0.020997044 0.02759796 0.24447885 0.32502636
0000f0 dc 7b d4 3e 96 02 0b 3d 6b 86 f9 bd 51 c3 8c be
       0.41500747 0.033938013 -0.12183841 -0.27492765
000100 74 37 79 3d 1b e9 f4 3e cc 8b a2 bd 34 3e dc bd
       0.0608439 0.47834095 -0.079368204 -0.10754052
000110 de d1 bc bb d7 c0 bd 3f 67 62 a0 3e 4c 3c 74 ba
       -0.005762323 1.4824475 0.31325075 -0.0009316846
000120 0c 08 7e c0 83 f4 7d be 37 3d 28 bc bf 74 19 be
       -3.9692411 -0.24800305 -0.010268501 -0.14985941
000130 fb 55 79 3c aa a4 a8 3c f9 43 51 bf 54 c7 48 3e
       0.015218253 0.02058633 -0.81744343 0.19607288
000140 04 41 2c be ca 5b 33 be 06 34 21 3c db fd 11 bf
       -0.16821676 -0.17515483 0.0098390635 -0.5702798
000150 9f ee f3 bc 58 83 a0 bb 6b bc 45 bb 92 76 74 bb
       -0.02977687 -0.00489847 -0.003017212 -0.0037302119
000160 21 47 ae bc 83 9c 1f 3e 83 b5 34 3e c8 4c e3 be
       -0.021274151 0.15587048 0.17647366 -0.44394517
000170 2f b8 15 3f 08 48 35 3b 3b 02 ea 3e 5d 32 8a 3c
       0.58484167 0.0027661342 0.45704827 0.016869718
000180 14 c0 f6 3c 21 26 89 3e a3 fb 7e 3c 73 9b c1 bd
       0.030120887 0.26786903 0.015562925 -0.09453478
000190 85 06 52 bf 00 e8 bf be 0d fa a4 be 42 57 ab 3b
       -0.820412 -0.3748169 -0.32222024 0.005228908
0001a0 fa af 92 3d 03 44 4e bf e2 54 c2 be 31 60 73 be
       0.07162471 -0.8057253 -0.37955385 -0.23767163
0001b0 b7 d9 36 3c c3 f1 a8 3e 15 65 75 3d 42 b8 94 3d
       0.011160306 0.3299695 0.059910852 0.07261707
0001c0 9d d6 73 3d c4 c7 0c 3f 30 d2 76 bf 99 38 3f 40
       0.059530843 0.5499232 -0.9641447 2.9878294
0001d0 ce 77 a6 3c 2c 76 c9 bc 88 87 a9 3e a5 6d 01 3c
       0.0203208 -0.024592482 0.33111215 0.007899676
0001e0 1e 3a ca 3f 2c ad 40 be 47 86 32 3c 21 b0 c3 3c
       1.5798986 -0.1881606 0.010896272 0.023887696
0001f0 30 9c 3b c0 28 95 20 3e 0e d8 1e 3e 3c b9 dd bf
       -2.931408 0.15681899 0.15512106 -1.7322154
000200 27 14 99 3b 8c 83 1b 3c 28 6d 74 be f0 ef e1 be
       0.004671592 0.009491812 -0.23869765 -0.4412837
000210 90 10 20 3f ec 42 23 3f 2e 14 31 3d 8c c0 1c be
       0.6252527 0.6377399 0.043232135 -0.15307826
000220 fb 24 8d bc 1a 87 8d 40 26 c7 15 3c 51 8c 84 3c
       -0.017229548 4.422742 0.009141719 0.01618019
000230 b3 48 a9 be d9 a1 ed 3e 52 0d d8 be 2c 92 3b bd
       -0.33063278 0.46412542 -0.42197663 -0.045793697
000240 14 6e 06 b7 cb 62 fd be 1b 89 c6 3e e2 23 ad be
       -8.012652e-06 -0.49489436 0.38776478 -0.3381644
000250 a4 41 c7 bd 00 64 e6 be 6d b8 f3 bd 21 26 f8 3d
       -0.09729317 -0.4499817 -0.11900411 0.121166475
000260 5e 37 1a c0 ec fe a5 bf 77 e8 0d 3f d1 19 13 3b
       -2.4096293 -1.2968421 0.5543284 0.0022445808
000270 e4 3f 95 be cf f8 b7 be 31 a2 d5 be e7 01 24 bf
       -0.29150307 -0.35932013 -0.41725305 -0.640654
000280 b7 7b 09 bf 0c 3c 0a 3f ba 3c 98 bf 76 f8 3a 3e
       -0.537044 0.53997874 -1.1893532 0.18258843
000290 f3 4d 84 3f be eb 2a 3d ea 22 64 3b 31 5f 33 3d
       1.0336288 0.041728728 0.003481085 0.043791953
0002a0 4d 4f 26 ba 20 1f d0 bb 20 51 ce 3e ef 24 2f 3c
       -0.0006344214 -0.0063513666 0.40296268 0.010689958
0002b0 f0 9d 20 40 f9 0e 8f bb e4 ef 98 bd 0b 1e 85 bf
       2.5096397 -0.0043657986 -0.074676305 -1.0399793
0002c0 f4 9a 83 bc 41 05 17 bd d3 e3 09 3f da 26 5e bf
       -0.016065098 -0.036870245 0.5386326 -0.8677803
0002d0 29 de 17 be cf 55 9c bb 71 c7 ac c0 80 cf e6 be
       -0.14830841 -0.0047709714 -5.399346 -0.45080185
0002e0 66 8f 78 3f 43 4d d4 3e 28 73 3f 3e c4 d9 22 c0
       0.9709381 0.41465196 0.18696272 -2.5445414
0002f0 ad 83 27 bd 36 19 0c 3e 0c 5c a6 be e0 77 a4 3f
       -0.04089706 0.13681492 -0.324921 1.2849083
000300 3b b8 06 3c 1a b4 0e 3e bb 77 d2 3c 1c d9 b6 bb
       0.008222635 0.13935891 0.025691858 -0.0055800807
000310 42 67 87 bf 6d 69 dc bf a3 41 20 be ac c7 86 3e
       -1.0578387 -1.7219673 -0.15650038 0.26324213
000320 bc dc c7 be 99 de b9 3d 55 00 a2 bc 0e 4c bb 3e
       -0.39035594 0.0907566 -0.019775549 0.36581463
000330 81 6e d7 3c 67 d9 56 be 16 56 e9 be 96 fa c1 3b
       0.02629781 -0.2098137 -0.4557349 0.0059197647
000340 ae 42 b3 3c 0e cb 45 bf 56 df 2c 3d de 36 ff 3c
       0.021882381 -0.7726296 0.042205177 0.031154092
000350 8f 8a c6 ba 36 95 9e bf 24 57 28 3e b7 60 da 3c
       -0.0015147495 -1.2389286 0.16439492 0.026657445
000360 7e cb 76 3e 9e 92 b3 3e c9 0f d0 3e 79 6d f5 3e
       0.24101064 0.35072798 0.40637043 0.47935084
000370 12 6f 33 3b 51 2f 09 3e 99 f5 31 3b 6b fb 33 be
       0.0027379435 0.13396956 0.0027154444 -0.17576377
000380 f5 59 b0 3e 4c d0 ee be 71 5d c9 3c a4 fe 30 3d
       0.34443632 -0.46643293 0.02458069 0.043211594
000390 9a 6f 5c 40 f0 85 44 bc f1 c8 03 40 cb d8 49 be
       3.4443116 -0.011994824 2.0591395 -0.19711606
0003a0 42 63 6b be 92 21 60 bc 44 66 97 3e 9e e0 1e 3d
       -0.22987083 -0.013679879 0.2957021 0.03878843
0003b0 ce c5 12 3e ab 1f 8c 3c ec 53 e2 bc 18 ac 43 3e
       0.14333269 0.017104944 -0.027627908 0.19108617
0003c0 6f 9a 80 c0 22 37 1f 3e c7 fe 02 3f 6a 04 28 3d
       -4.0188518 0.15548375 0.5117001 0.041019835
0003d0 63 ab 8b 3e 61 f0 92 bc 0e 48 73 bd 29 2f b7 ba
       0.27279195 -0.017936887 -0.05939489 -0.0013975847
0003e0 35 e6 a9 be 70 c5 dc 3c 0c 88 9e be 52 ea f8 be
       -0.33183447 0.026949614 -0.3096317 -0.48616272
0003f0 53 4a 7c 3e 3a 94 3d be 9c f6 8a bd b8 ff 8c 3d
       0.24637727 -0.18513575 -0.06785318 0.06884712

log_std.weight f4 [1, 256]
000000 a1 6c 02 3e 4b dd f7 3e 1a 9f 6d be 3a f8 24 bd
       0.12736751 0.4841102 -0.23205224 -0.04027579
000010 62 ef 97 bd 1a 42 eb 3b 91 04 08 3d ee 61 85 3e
       -0.074187055 0.007179511 0.03320748 0.26051277
000020 29 92 f8 3d 39 23 01 bc 41 f2 34 bf ac b7 1d 3b
       0.12137253 -0.007881933 -0.7068215 0.0024065776
000030 45 b5 96 bc d6 e4 8c 3c fb 93 1f bb 63 de e3 3e
       -0.018396983 0.017198961 -0.0024349678 0.44505605
000040 26 8c 03 3a 2a 2d a7 bc f9 d2 4f bc 26 ad 0c 3c
       0.0005018137 -0.020407278 -0.012684577 0.008586204
000050 dc d5 2b bf 58 00 f0 be c8 ce 3e 3d a7 8a c4 be
       -0.671232 -0.46875262 0.04658392 -0.38387033
000060 13 1c c4 3c 24 f5 d3 3c 3d 01 3e 3a 87 f2 53 bd
       0.023939168 0.025873728 0.00072481093 -0.051744964
000070 9b 28 e3 bb d3 4c 46 bc c2 7d b4 3d 19 7a 2f bc
       -0.006932331 -0.012103277 0.08813049 -0.010710263
000080 af f4 ce bb ea 24 0f 3e 77 63 d2 3e 31 71 c8 3d
       -0.0063157897 0.13978925 0.4109151 0.097872145
000090 6d 6a 35 3d 8e dc ab 3c 7c fd 2a 3c 01 f7 2e bd
       0.04429095 0.020979192 0.010436412 -0.04271603
0000a0 05 c7 6e be 57 91 64 bf 39 37 9f 3d 16 e0 66 3e
       -0.23318107 -0.8928427 0.07774205 0.2254642
0000b0 04 76 74 3c 17 bb 44 bd a1 d9 63 bd 97 b7 79 3e
       0.014920715 -0.048029985 -0.05562747 0.2438644
0000c0 98 b7 44 be 2f d9 fd bd 3d 8b b2 3c 73 97 22 3f
       -0.1921066 -0.1239494 0.02179491 0.63512343
0000d0 8d d0 58 3f 18 f8 4c bf b9 78 37 3d 3f b2 89 be
       0.84693223 -0.8006606 0.044792864 -0.26893803
0000e0 63 95 0f bc 23 2b 69 3c 0d 69 36 3e 20 9b 6e bd
       -0.008763644 0.014231476 0.17813511 -0.058253407
0000f0 7e 3a 21 3f 29 b0 27 3d 6b 62 b7 3d 04 87 c9 3f
       0.62979877 0.040939484 0.089543186 1.5744328
000100 9e 59 84 be 57 9d 96 3d f4 e9 a3 3e a9 af e2 3c
       -0.25849622 0.07354229 0.3201443 0.027671652
000110 f3 20 06 3c 71 48 01 3f d8 4f fe 3e fc 52 90 3b
       0.008186567 0.5050116 0.4967029 0.0044044238
000120 5c fe 8a be 79 31 2e bf d7 fb 8b 3b 90 67 28 3f
       -0.27147186 -0.6804424 0.004271965 0.65783024
000130 c0 fc 36 3d 2d 5c 11 3a a2 ad 16 3f d6 8f 96 3d
       0.044674635 0.00055450463 0.5885869 0.07351653
000140 30 cc 07 3f fb c0 07 3f 04 bf e2 bb 7a f2 54 bd
       0.5304594 0.5302884 -0.0069197435 -0.051989056
000150 f3 5c 89 be 5d d8 c3 3c 7a a9 86 bf d4 b5 9b 3c
       -0.26828727 0.023906881 -1.052047 0.0190076
000160 fe c2 4b bd a8 ff 3f 3d 08 fe e2 bd 29 4c 63 3d
       -0.049746506 0.046874672 -0.11083609 0.055492554
000170 31 c7 ae be 84 d1 46 bc ba 1f 98 3d df cc 5a bc
       -0.34136346 -0.012134913 0.07427926 -0.013354509
000180 07 a0 db b8 d4 bf 10 bd c2 36 39 bf 8b d4 de bc
       -0.00010472541 -0.03533919 -0.7234918 -0.027200958
000190 fc 8e 55 3f 30 d6 74 bd 69 1e 76 bf 1f 7c d3 bb
       0.834213 -0.059774578 -0.9614015 -0.0064540054
0001a0 43 7b 82 be b4 f7 7f be 1b d6 b6 3e 61 46 17 bf
       -0.25484666 -0.24996835 0.35710225 -0.59091765
0001b0 af ea ea ba 0c 09 06 bd 9c 9a da bf 85 1a 41 bf
       -0.0017922724 -0.03272347 -1.7078433 -0.7543109
0001c0 4b 84 df be 78 71 1d 3f 86 b2 f8 bd ba 2a 41 be
       -0.4365562 0.61501265 -0.12143426 -0.18863955
0001d0 03 6d ce 3c 5b 17 1a 3d 46 79 38 bf ad 84 40 3d
       0.025198465 0.03761993 -0.7206005 0.04700153
0001e0 ce df f3 be e4 14 f9 3e 78 9b 8f 3c f8 ea 9d 3a
       -0.47631687 0.4864875 0.017530188 0.0012048176
0001f0 b0 51 5f be 06 af 4e bf c9 62 82 3f 1d 1d 1a be
       -0.21808505 -0.80735815 1.0186397 -0.15050168
000200 47 0f c1 bf fb 8b be 3c 07 26 93 bd ea 3c bc be
       -1.5082787 0.023260107 -0.071849875 -0.36765224
000210 7d 0c b7 be 4e 89 0a 3e c5 8d 46 bd c3 97 04 3d
       -0.35751715 0.1352894 -0.048475046 0.032371294
000220 62 a0 a4 3c f6 4e db be 73 c2 c2 3b 06 a8 f6 ba
       0.020096008 -0.4283368 0.0059435903 -0.0018818385
000230 53 40 37 bc 84 8d df bb 62 bd ea be ca e6 8b bc
       -0.01118477 -0.00682229 -0.45847613 -0.017077822
000240 ba 77 14 ba 6c da c1 bd c4 14 24 3e 58 cb 36 3e
       -0.00056635926 -0.09465489 0.16023546 0.17851007
000250 7c c7 25 bf 1c bc bb bc a8 27 95 bd ad 24 54 bf
       -0.64757514 -0.022916846 -0.072829545 -0.8286846
000260 7a 3a 0a be 73 f5 d3 3e 3a 6a 72 be d0 ba 6a 3c
       -0.1349887 0.413982 -0.23673335 0.014326766
000270 d2 39 01 c0 93 31 12 3f 7c 12 66 be 11 75 be 3d
       -2.019154 0.57106894 -0.22467989 0.092996724
000280 f8 fe 3c 3f 8a 64 8f be 18 7e 0c 3e 07 de 52 3d
       0.7382655 -0.28006393 0.13719976 0.051481273
000290 00 de 1d 3d e9 ac fc be 9a 8a 78 bc 73 c2 e5 3c
       0.038541794 -0.4935067 -0.015169764 0.028046822
0002a0 3e 17 1c bf ae ba 69 ba 31 34 10 3e 9f 97 52 3d
       -0.60972965 -0.0008916062 0.1408241 0.05141413
0002b0 d8 d1 28 be 9f e0 02 3d d7 e9 73 bc 45 fb de 3d
       -0.16486299 0.031952497 -0.014887295 0.108877696
0002c0 43 3d 14 3c a9 da b9 bb f0 f5 1e 3f 31 d5 94 bd
       0.009047809 -0.0056718183 0.6209402 -0.072672255
0002d0 44 b7 11 3e b5 ea 97 3b 62 4e f5 be b9 00 45 bf
       0.14230067 0.0046361336 -0.47911364 -0.7695423
0002e0 ad 30 53 bd 01 a1 1a be e2 6b 84 bd 4d fa 65 bd
       -0.051560093 -0.1510048 -0.064658895 -0.05614691
0002f0 02 12 fb 3b 99 e5 3f be 9e ca e1 bd f5 01 09 3e
       0.007662059 -0.18739928 -0.11024974 0.13379653
000300 96 d4 1a bb b7 40 4c 3f 24 26 4c ba fa 4b cb bb
       -0.0023625246 0.79786247 -0.0007787666 -0.0062041255
000310 22 b0 8a bd a9 f9 ae bd d5 63 b2 bd 3f c3 b4 bd
       -0.06771876 -0.08543713 -0.08710448 -0.08826303
000320 78 5c fd 3b 3a 32 90 3d d0 c1 88 be 5a 2b c6 3e
       0.0077319704 0.0704083 -0.26710367 0.3870495
000330 fc eb 27 3d 12 31 7d 3e 37 37 14 bf 7a 89 aa 3c
       0.040996537 0.2472575 -0.5789675 0.020817507
000340 57 6c 94 bc 81 52 69 be d1 5d 46 bd fd d6 0c 3d
       -0.018118067 -0.22785379 -0.048429314 0.034384716
000350 16 a2 cd 3c af 97 30 3f b3 c2 d3 3e ae 2c e0 3c
       0.025101703 0.6898145 0.4135948 0.027365055
000360 20 1b 8d 3e bd 06 dc 3e 2e ca 3e bf 3f 21 bf 3e
       0.27559757 0.4297389 -0.7452725 0.37330052
000370 19 b8 07 3d 75 6c 3e bc 3a dd cd 3c 44 8a 26 3c
       0.033134554 -0.011622538 0.025129903 0.010164801
000380 ca 2a 8e 3d 99 06 d1 3e bd e4 e1 3b 42 67 88 bd
       0.06941755 0.40825346 0.006893723 -0.0666032
000390 14 a9 07 be 27 66 93 bc 34 45 2c bd 2e e3 1f bf
       -0.13248092 -0.017993046 -0.042058185 -0.62456024
0003a0 58 8a 70 bf 1b a2 6e be 4c a7 ae bd db e1 f8 bc
       -0.93961096 -0.23304026 -0.08528003 -0.030381134
0003b0 8e 9f 25 3f a1 1d 33 3d ba 60 d9 be bd 51 a3 3e
       0.64696586 0.04372943 -0.4245661 0.318983
0003c0 4f 44 26 3e cc 8c 03 3e 17 e0 44 bf 2c c4 0b bd
       0.16236995 0.12846678 -0.76904434 -0.03412263
0003d0 f5 43 56 3e 02 5f 82 bf ee 30 c5 3d 7b 01 a4 bd
       0.20924361 -1.0185244 0.09628473 -0.08008095
0003e0 1b 30 0e 3f c6 ac a1 bc d9 0b cd 3e 71 40 8d 3b
       0.55542153 -0.019735705 0.40048102 0.0043106605
0003f0 40 ce 1a bd 34 85 08 bf 37 89 f2 3c a4 bd 71 bd
       -0.03779435 -0.5332825 0.029606445 -0.059018746
