validated models/3.0volt.pth (torch, 275956 bytes, 6 tensors)

network.0.weight f4 [256, 6]
00000000: 3df0 a03e a0a5 89bf 9c4e 5ebe 226e bd3e
00000010: 1868 643f ea98 ee3d 9555 5fbb ba9b 00bf
00000020: 96d2 89bf dfeb 0e3f 56d1 99bf 2419 91bf
00000030: d0c3 2fbf 4e51 fcbe 92ab e2be f27e fbbe
00000040: 9e3e b53a 76fc 07be 146c 803e 631c b2be
00000050: 2c6f 5d3e 8760 253f fb36 973a bfb5 28bf
00000060: b11a aabe 318b 19bf b434 ea3c 7eb0 ca3e
00000070: 75bc f33e b436 d8bd 77fc 9fbe 21df 65be
00000080: 8292 cdbf bb4d 2f3e 1762 a1be 64b1 26bf
00000090: 20c5 b0be 8b7e 20bf 6d6b 933e 9c52 033f
000000a0: 48d2 89be cad9 a7be 1022 d8bd 1164 b7be
000000b0: 91e5 8a3f 9714 943e b5ae 533f 2249 683f
000000c0: bce4 683f 766d 9abc c5c3 543f 8a9e a7be
000000d0: 6aed f53e 18de 2d3d 68c5 83bd 7ac5 3bbe
000000e0: 459b 02bf 1a7d 75be e51a 72bf d99e 163e
000000f0: e5fd afbd 291a acbe 8b0d 5fbf 79ea fc3e
00000100: 4cf6 253f 4947 1e3e 3760 2b3d 2b17 96bf
00000110: 9aaf 83bd 70b1 b33e 3da2 55be d8b7 993e
00000120: 94c0 e9be d253 8fbd 5a5a cb3d e2c5 71bf
00000130: 1eb2 9e3e fb32 e83d ae26 4abe e709 48bf
00000140: 423a 7cbe 23dc be3e 0d44 543f bf8d bb3d
00000150: 2cba 513f 6997 dcbd bdcd fbbe e3bc 033e
00000160: a049 193f 7c07 753d 67e0 b2be c26b c93c
00000170: 1632 c2be 77c1 45be 9b16 443f fdca 34be
00000180: f046 ad3e 4136 413e 20e5 06be 311c b8be
00000190: bbef 933f f4a5 2d3e cf69 cfbd b092 fdbd
000001a0: cf51 e23f 4318 693e 022f 883e a1f3 753f
000001b0: 48d8 e7be 21d2 c2be 3254 933e e9a5 0a3e
000001c0: 6f8e 41bf e199 5b3d 9bf2 c4bd 2567 bbbe
000001d0: a368 acbe c39a f4bd 55bd 89bf 1ae3 f83e
000001e0: 3512 2bbd 68ed 38bf f23d d1be bb90 ec3e
000001f0: 37f3 94be 77fb 14bf 0847 333f 51fd f3be
00000200: d3d4 0fbe a3ee 683e 0a4b 753f 60e7 3ebe
00000210: 3c06 b8bb 7fac 583e 5ae7 60c0 da4b a33e
00000220: 66aa 15bf 852f 02c0 2685 8ebd 5d16 183c
00000230: afc2 b13e db5b 8d3e 9fd3 a53f 7e6d a03e
00000240: 1148 563f 9267 00bf 8b0f 083f 7a3f 783e
00000250: 5ac6 bb3e 92ff cc3e 781b 03bf b952 85bf
00000260: e760 9c3e 5f00 b13d 68d1 cebe 63a0 663e
00000270: cb10 1abf 3034 46be 3242 15bf d90b be3c
00000280: f4c3 2dbe 163b 2c3d 01e6 e13e 7a37 15bf
00000290: bef8 11be cffa 44be 94e3 ff3d 9376 fbbd
000002a0: c9e0 99bb 3275 373d 7f72 ba3d 9246 ad3e
000002b0: 3934 3bbf c666 fd3e 9c0d 80be bc91 c4be
000002c0: f4a3 3dbe fc3a 00bf 9951 c0bd 07e7 30be
000002d0: 58c5 7cbe 0fa5 92be a821 933f f6a4 0c3f
000002e0: 24a5 723e af78 833f 44cd 6d3f 42e4 06bf
000002f0: b10a f53e 1cb2 3dbc 6a68 a73e dfbd c0be
00000300: db06 de3e 11e9 083d 6eaa 08be 6783 83be
00000310: 6ba0 753f 5db6 23bf 3d26 193f fd5a 04bf
00000320: af8e 3cbf d440 0dbe eb2d b53d a01d a7be
00000330: ef02 2cbe 73c1 b4be 8862 02be 2612 833e
00000340: be72 9cbf 62bf 6b3e 29a7 ad3d d6a5 b53e
00000350: 94c5 103e 57a2 fd3e 9dea e03e 0452 0d3f
00000360: 9d49 723e 0e54 60be 149b 123f b4bb 37be
00000370: 70c3 cc3e d0c7 05bf e6b4 2f3e 8de2 d9be
00000380: 184b dfbc 9805 033f 82f1 523e c460 35bf
00000390: c2c4 ab3d e332 07bf 2cfd 4f3f 48fe d93e
000003a0: 9249 123f 3f9f db3d f8a4 443f 6681 e5be
000003b0: 7706 da3e 0c76 703d 11f9 bbbe 93ed 7ebe
000003c0: 8ace 08bf c9c5 c9bd 4aab e2be 5013 103f
000003d0: 4507 eebe 31ba bcbe 97d0 553f 5e89 b43d
000003e0: a932 ae3e 42d5 42be 6fb0 adbe 9896 163f
000003f0: 1af6 c0be 6ab3 9c3e 1869 3dbe fed0 18bf
0.31433287 -1.075367 -0.21709675 0.36998087 0.89221334 0.1165026 -0.003407811 -0.5023762
-1.0767391 0.5582866 -1.2017009 -1.1335797 -0.6865816 -0.4928078 -0.44271523 -0.4912029
0.0013827865 -0.132799 0.25082457 -0.34787282 0.2162444 0.64600414 0.0011536771 -0.6590232
-0.3322349 -0.59978014 0.028589584 0.39587778 0.4760472 -0.10557309 -0.31247303 -0.22448398
-1.6060336 0.17119496 -0.3152015 -0.65114427 -0.34525394 -0.6269309 0.28792897 0.51297927
-0.26918244 -0.32783347 -0.10553372 -0.35818532 1.0851308 0.2892196 0.82688457 0.9073659
0.9097402 -0.018851023 0.8311122 -0.32738143 0.48032695 0.042448133 -0.06434137 -0.1833705
-0.5101817 -0.23973504 -0.9457229 0.14709033 -0.085933484 -0.3361371 -0.8713004 0.49397638
0.64828944 0.1545688 0.041839805 -1.172582 -0.06429978 0.35096312 -0.2086267 0.30023074
-0.45654738 -0.06998409 0.099293426 -0.9444257 0.30995268 0.11337849 -0.19741318 -0.7814011
-0.24631599 0.37277326 0.8291634 0.09157895 0.819247 -0.10771067 -0.49180403 0.12865023
0.5987797 0.05982159 -0.3493683 0.024587516 -0.37928838 -0.19312082 0.76596993 -0.17655559
0.33843184 0.18868352 -0.13173342 -0.35959008 1.1557535 0.16957837 -0.10127603 -0.12381494
1.7681216 0.22763161 0.26598364 0.96074873 -0.45282197 -0.3805094 0.28775173 0.13539852
-0.7560796 0.053613547 -0.09616586 -0.3660213 -0.3367358 -0.11943581 -1.0760905 0.48610765
-0.04176541 -0.72237253 -0.40867573 0.4620417 -0.29091808 -0.58196205 0.7003026 -0.47654203
-0.1404603 0.22747283 0.95817626 -0.1864295 -0.0056159776 0.21159552 -3.5141206 0.31893808
-0.5846313 -2.0341504 -0.0695899 0.009282676 0.34718844 0.27609143 1.2955207 0.31333536
0.83703715 -0.50158036 0.53148717 0.24242964 0.36674768 0.40038735 -0.5121379 -1.041587
0.3054268 0.08642649 -0.4039414 0.2252212 -0.60181874 -0.19355845 -0.5830413 0.023199009
-0.16969281 0.042048536 0.44120792 -0.58287776 -0.14255044 -0.19236301 0.12494579 -0.122784756
-0.004695986 0.0447895 0.0910387 0.33842903 -0.7312656 0.49492472 -0.25010383 -0.38392437
-0.18519574 -0.50090003 -0.093905635 -0.1727563 -0.24684656 -0.28641555 1.1494646 0.5493921
0.23695809 1.0271205 0.92891335 -0.52692044 0.4785972 -0.011578109 0.3269685 -0.3764486
0.43364605 0.033425394 -0.13346264 -0.2568619 0.95947903 -0.6395014 0.5982397 -0.5170134
-0.7365522 -0.13794261 0.08846649 -0.3263979 -0.16797994 -0.3530384 -0.12732899 0.25599784
-1.2222517 0.23022225 0.08479149 0.35478085 0.1413787 0.49537918 0.43928996 0.5520327
0.23660894 -0.21907064 0.5726788 -0.17942697 0.39992857 -0.52258015 0.17158851 -0.42555657
-0.027257487 0.5118041 0.2059994 -0.7085078 0.08387138 -0.5281202 0.81245685 0.42576814
0.5714351 0.10723733 0.7681422 -0.44825286 0.42583057 0.05870633 -0.3671346 -0.24895315
-0.53440154 -0.09852178 -0.44271308 0.5627947 -0.4648992 -0.36860803 0.8352141 0.08815263
0.34023026 -0.19026664 -0.3392367 0.5882354 -0.3768776 0.30605632 -0.18497121 -0.59693897

network.0.bias f4 [256]
00000000: 5628 2ebe 6f6e a1be 87b7 9e3d 06c9 3ebf
00000010: 104a c03d 4e10 2c3e c9d5 11bf e8bd 0bbc
00000020: 4efd 60bd f721 f2be 37ee 5ebe 9688 64bf
00000030: e7f4 86be b79a 37be 7bff 00bf 0bc8 1b3e
00000040: 735e babd cb07 84bd 41d7 34be 3abc cfbe
00000050: 8758 c5be 79dc 90be cbe7 cdbd 7c4f bbbe
00000060: bb62 003e 33d0 53bd d9f2 80be 3588 09bf
00000070: 8610 1ebf bd11 833a 0a94 cebe e40e 73bd
00000080: bc44 e5be 5052 25bf 4c08 02bf 51c8 4ebf
00000090: da0b 803e 1195 2dbf b763 8cbe 4b50 d3be
000000a0: d07d cdbe 2357 64be 4674 9f3d 8bc8 66be
000000b0: c736 973d db07 8fbe 1908 cebe a3a4 09bf
000000c0: fbae a2be 0dbe 28bd 21dc 9dbe 1299 c5be
000000d0: 51be f5be 45d6 aabe bbae 113f 9976 74be
000000e0: b37f 80be 6b22 233c 3260 903d 2572 83bd
000000f0: f9a8 0cbf fd54 b4be 909b 8bbe 6118 eabe
00000100: c9d2 adbe 63ee 0cbf fbcb b43d 2659 453e
00000110: 62f3 fdbd 607a 13bf bccb 6fbe 8fc0 3abe
00000120: 7b43 dfbe ecca 84be c5bd 10bf 7138 f0bd
00000130: 1c74 90bd be0b ecbe eb04 abbc 008e 6b3d
00000140: a722 af3d f646 61be 5c72 75be 485d 613e
00000150: b6a3 aebe c10f d4be 2482 2bbe 9028 28be
00000160: 1fb5 003c 5e97 24bf 447e 003e c5d2 03be
00000170: 351a 843d 857e dabe bd5f 22be b94f 5bbe
00000180: 0c17 60be d0a2 5d3e 30d7 a53d 2a71 c7bd
00000190: 9fb9 fbbd 8519 11be df93 88be dde1 4fbe
000001a0: 0393 fabb 2007 20bf 5591 dcbe fd9f 9bbe
000001b0: 3257 3fbe 8b96 75be f040 5ebd 3d51 753d
000001c0: fc2d 5e3e 1f0e d4be 6115 623e 8a6b 1abf
000001d0: d9c3 363d 243e 713d 9490 1fbf 0f4a adbe
000001e0: d5ad 6abe bcb0 02bf 3b91 8cbe e9e2 fbbe
000001f0: cb2c 23bf bcb0 9fbe d116 a63d 2f62 81be
00000200: 38ba 92be 4909 fc3d f45e 5fbe 5030 bdbe
00000210: 4cfa ffbe 9d59 8cbd aebe 4dbe c2cf e43d
00000220: 5847 e7be fa42 a7bd 289e a7be b0a6 e3be
00000230: 5757 643e 4efa d13c 9455 17be 7e8e 12bf
00000240: c80b 903d d18c 23bf bbe3 19bf 3f68 cabe
00000250: a2eb eb3d 1db8 babe f260 4d3e 8091 61be
00000260: c9f0 d4be aaa3 c4be 1a05 89be 6ba6 f7be
00000270: ea3d 4fbf 6c9e 74be 3a44 45be 7e9b e3bd
00000280: f8b8 13bf 6294 40bd 5f48 053e 26f4 95be
00000290: fd3a 20bf c5d1 8fbe 71ed 7fbe 9b4a 84be
000002a0: e1c3 34bf 4fd5 0fbe ca90 06bf bd7b 7abe
000002b0: 169b 5d3e f757 4dbf 523b 68be e251 35bd
000002c0: a863 64be 446a 3bbf 92cf aebe 5cac c3be
000002d0: 9ed3 5ebc d930 f6bd a2a5 3cbc 22e3 e83e
000002e0: b522 28bf 1c0c 32be 52aa 103e 2797 34be
000002f0: dabd 00bf fe38 acbe da76 c5be 3761 adbe
00000300: c254 13bf 487c c8be 3e1e 283e 301c 9c3e
00000310: 7637 7fbe 4c8c cfbd 4d81 f03d 8363 a03e
00000320: 98cf 51be 4b1a d83d eb03 28be 15d6 babe
00000330: 3bab 18be 31b3 4b3e 5b94 3abf 3b0d ddbe
00000340: 2c09 75be 15c9 0bbf b9bd d0be 11dc d2be
00000350: c0bf 4cbd 7e26 47be eab0 adbd a165 32be
00000360: 36c8 61be 5727 e0bc d10e 50be 70d1 04bf
00000370: 765c ffbe eeaf 95be e632 edbd dd50 cabe
00000380: fbd6 24bd ff00 41be bc4a f2be 0229 c3be
00000390: 50eb 70be 9631 d5be dc6e 66be 2191 f3be
000003a0: c2c6 67be 46d4 8dbe 5584 8cbe e314 eabe
000003b0: dfb8 e0be eb1e b9be 3839 56be 3c32 dcbe
000003c0: 86da e1bd c0bd 65bf 788e f8bd bea9 493d
000003d0: e030 c1be c7c6 9fbe dd1c dbbe 689d 563b
000003e0: 2df5 6f3c 40c4 b73d 36e8 823c b42b 1a3e
000003f0: 5909 ddbe a0bd 19bf 3d91 303e ee56 2c3e
-0.17007574 -0.31529567 0.07749849 -0.7452549 0.09389126 0.16803095 -0.56966835 -0.008529164
-0.05492907 -0.47291538 -0.21770559 -0.89270914 -0.2635872 -0.17930113 -0.5038983 0.15213029
-0.09100046 -0.06446799 -0.17660238 -0.40573293 -0.38544104 -0.28293207 -0.100539766 -0.3658408
0.12537663 -0.051712226 -0.25185278 -0.5372346 -0.6174396 0.0009999793 -0.4034732 -0.059340373
-0.44779003 -0.64578724 -0.5079391 -0.8077441 0.25009042 -0.6780558 -0.27419826 -0.41272196
-0.4013505 -0.22298865 0.07785849 -0.22537439 0.07383495 -0.2793568 -0.40240553 -0.5376684
-0.31774125 -0.04119687 -0.30832008 -0.38593346 -0.47996762 -0.333666 0.5690724 -0.23873366
-0.25097427 0.009956936 0.07049598 -0.06418256 -0.5494533 -0.3522109 -0.27267122 -0.45721725
-0.3394988 -0.5505125 0.08827969 0.19272289 -0.12399937 -0.57608604 -0.23417562 -0.18237518
-0.4360617 -0.25936067 -0.56539565 -0.11729515 -0.07053396 -0.4610271 -0.020876369 0.05750847
0.08551531 -0.21999726 -0.23969406 0.2200824 -0.34109277 -0.4141827 -0.16748863 -0.16421723
0.007855683 -0.6429347 0.12548167 -0.12873371 0.06450311 -0.42674652 -0.15856834 -0.2141713
-0.21883792 0.2164414 0.080976844 -0.09738381 -0.12291264 -0.14169891 -0.26675317 -0.20301004
-0.0076469197 -0.6251087 -0.4307963 -0.303955 -0.18685606 -0.23983209 -0.054261148 0.059891928
0.21697229 -0.41417024 0.22078468 -0.6032034 0.04462037 0.058897153 -0.62329984 -0.33845565
-0.22917874 -0.51050925 -0.27454552 -0.49196556 -0.63740224 -0.31189525 0.08109821 -0.2527022
-0.286577 0.123064585 -0.21813565 -0.36950922 -0.4999565 -0.0685303 -0.2009227 0.11172439
-0.45171618 -0.08167072 -0.3273785 -0.4446311 0.22298943 0.02563205 -0.14778739 -0.57248676
0.07033497 -0.63886744 -0.60113114 -0.39532658 0.11519553 -0.36468592 0.20056513 -0.2202816
-0.41589954 -0.38406116 -0.26761705 -0.48369154 -0.8095385 -0.23888558 -0.19264308 -0.11113642
-0.57704115 -0.04701651 0.13015889 -0.29287833 -0.6259001 -0.2808973 -0.2499292 -0.2583817
-0.7061139 -0.14046215 -0.5256468 -0.24461265 0.21641192 -0.8021235 -0.22678879 -0.044267543
-0.22303641 -0.73209023 -0.3414274 -0.38217437 -0.013600258 -0.12021036 -0.011514099 0.4548579
-0.6567796 -0.17387432 0.14127472 -0.17635785 -0.5028969 -0.33637232 -0.3856724 -0.33863232
-0.57551205 -0.3915732 0.16417786 0.30490255 -0.249235 -0.101341814 0.11743412 0.3132592
-0.20489347 0.1055189 -0.16407745 -0.36491457 -0.14909069 0.19892575 -0.7288262 -0.43174157
-0.2392928 -0.546037 -0.40769747 -0.41183522 -0.049987555 -0.19448277 -0.08481009 -0.17421581
-0.2204903 -0.027362509 -0.20318152 -0.51882076 -0.4987523 -0.29235786 -0.11581974 -0.3951482
-0.040244084 -0.18848036 -0.47322643 -0.38117224 -0.23527265 -0.41639394 -0.22503227 -0.47571662
-0.22634414 -0.27701014 -0.2744471 -0.4571906 -0.43891045 -0.361564 -0.20920265 -0.43007076
-0.11028008 -0.8974266 -0.12136549 0.049234144 -0.377326 -0.31206343 -0.42795458 0.003274763
0.014645857 0.089729786 0.015979867 0.15055734 -0.43171194 -0.6005497 0.17242904 0.16830036

network.2.weight f4 [256, 256]
00000000: 9b99 1e3f 475e 60bd de29 a23d 86d4 82bf
00000010: d95e 68bf 6bf0 4ebf 0793 2dbe 0043 c1be
00000020: 695c efbe 0015 2bbd 3938 e83e 8629 893e
00000030: f391 93be dad2 f73e e238 cc3e 9820 bdbe
00000040: 349f 9cbd d33c 31be 75ff 5abf 581b fb3e
00000050: 52fc 4abe bd08 fb3e 79ce 4cbd e152 fe3d
00000060: 1fd4 e8be fe7b d3be ed40 503e c095 793c
00000070: 7f0f 423e b608 893e eae9 ba3e dda8 f7be
00000080: ff07 cdbd 9ce9 783d a2d1 d7be 8934 883e
00000090: 68e5 95bf 74c8 38bf a074 0dbf fa1c 42bf
000000a0: 5973 49be c80a c4be 4dcf 91be 724b 0fbf
000000b0: 2368 8dbe 711a a83e 6fe6 00bf a11c 90bd
000000c0: f38f 11be aab4 d8be 2d11 2d3e a5a3 42bf
000000d0: a192 70bf d711 17be cfef b3bc 70e1 7cbe
000000e0: 064b 93bd 026f 7abe fb88 7f3d 57cb 933e
000000f0: 6d38 8dbf aaed d9be 4c10 6cbb 290c 39bf
00000100: 2ca5 edbe 413f 16bf f5e5 193c 7ad4 023e
00000110: f7e8 493f 90f9 193e 2749 d93d 585a 85bd
00000120: 96dd 13bf ae2e 64bf f49d 01bf 235d 93be
00000130: 7222 53bf 8c77 a23c 04be 4abf fc2c b6be
00000140: e8ae 293b 2d23 74bf 398b 293e a672 e13e
00000150: 1ad5 f1be 855c 1bbf 6e8f 9b3e 7054 013e
00000160: 8836 09bf c01b 51bf 26c7 3dbf c00a d63e
00000170: d5d5 7fbc 1181 11bf 0469 92be fbb5 05bf
00000180: a7b5 92bf fe4b b4bd 342a 2ebf 945b 56bc
00000190: 6c4d 253f c182 9cbe 8f57 8dbf 8ef0 14bd
000001a0: bbe9 8e3e 55d7 dfbe aac9 443d b8b7 7f3e
000001b0: 4453 53be 61f8 7ebf 5fe2 0dbe 79e2 3fbe
000001c0: 78eb adbd f748 d83d 5405 403b 9766 abbf
000001d0: 3902 0abd b1af 1bbe 0790 153f d950 873e
000001e0: 224f 21bf 4881 293f 9584 d2bd 13a5 4c3d
000001f0: b0c7 05bf 45ed e9bc 227e aabe 2ad1 b83d
00000200: 55ec 8fbe 9efa 96bd e8c8 fabb d57d 36bf
00000210: c55f 343f d38a b3be d535 983e 2eb6 313f
00000220: ead3 7bbf e52d 393e 87e3 09be 07bb dcbe
00000230: 9d6a 04be c895 92bf 253f 763e 599c 1b3f
00000240: d47b bbbe 59d1 283f 061e 35bf cd3a 49bf
00000250: 27b4 783e bc65 0f3f 5c17 5c3e 3d46 f7be
00000260: e4b9 b0bf a062 43be 54c7 243d 2322 d73d
00000270: b74c 9c3e 4684 cebe 67c9 123e bd0e cebe
00000280: f872 72be d6c3 14bf b8f3 8ebf 1968 5b3f
00000290: 3f8a 143e 91af 2b3e 11f2 e7be fb29 e23d
000002a0: a063 a83e bfcb c4bc 9af6 c3bf 61cd 9a3e
000002b0: 14f2 b4be 4986 a1be bfc5 c4bd 9b1b 023e
000002c0: cffc 183d 7281 0f3f ff87 8d3d 0137 83be
000002d0: 0525 14be 851a f43d 8e6f d6be 3e73 a4be
000002e0: bf0e 0e3f 2ca0 1d3e cb0e 7dbf 2d3e 403e
000002f0: 8381 343e 7339 a1bd bb39 9b3d 6966 0ebf
00000300: c958 0e3e 6f00 6fbe b47a b83d 816a 0ebf
00000310: c2c4 10bf eef2 8f3d 3380 c1bd 2454 05bf
00000320: ae91 18bd 58b7 8dbe 0627 92bf e6fe 3dbe
00000330: e867 25bf 6944 04bf f08f 803f 6585 cb3e
00000340: e5ed 043e a22f bfbf 3c43 7bbf 05a5 8abf
00000350: a92c 213e 7c34 873e acdd 1fbf ed45 363e
00000360: dae1 993d 3909 e73b e21d c93c 526b 0dbf
00000370: 968a 27be c2dc a9bf 8bc5 403f 1b95 9c3e
00000380: 6a59 3dbe aef8 f73d 5e48 cfbe 64c5 653e
00000390: 4e9c a0be 2dab b73d 0c5e 9dbf 8f80 9dbe
000003a0: d8cc 4dbd d429 0bbf 732c 84bf 1516 82be
000003b0: 0753 953e 65b4 ce3e 5c97 b0be 9da2 d7bf
000003c0: 9055 e23e 54a8 63be c26b 85bf b9e1 b4be
000003d0: 799f b43e bcc4 6a3d a6b3 24be 5609 823e
000003e0: 9379 6f3e 0ddc 9b3e c44c 1d3e 9e00 aabe
000003f0: e40e 8cbe 2cc0 213e ae9d 3e3e 7726 13bf
0.61953133 -0.05477741 0.07918142 -1.0221107 -0.90769726 -0.808356 -0.16950618 -0.3774643
-0.4675019 -0.041768074 0.45355394 0.26789492 -0.28822288 0.48403054 0.39887148 -0.3693893
-0.07647553 -0.17308359 -0.85546046 0.490443 -0.19822815 0.49030104 -0.050001595 0.12418152
-0.45474336 -0.41305536 0.20337267 0.015233457 0.18951224 0.26764458 0.36506587 -0.4837102
-0.10011291 0.060769662 -0.42152125 0.2660258 -1.1710634 -0.7218087 -0.5525608 -0.75825465
-0.19672908 -0.38289475 -0.2847847 -0.55974495 -0.27618513 0.32832673 -0.50351614 -0.070367105
-0.14215069 -0.42325336 0.16901083 -0.7603095 -0.9397374 -0.14752899 -0.021964936 -0.24695373
-0.07192044 -0.24456409 0.062386494 0.28866073 -1.1032845 -0.42564136 -0.0036020456 -0.7228418
-0.4641508 -0.5869027 0.009393205 0.12776366 0.788711 0.15036607 0.10609656 -0.06511372
-0.5775999 -0.8913373 -0.5063164 -0.28781995 -0.82474434 0.019832395 -0.7919619 -0.35581195
0.0025891606 -0.95366174 0.16557015 0.44032782 -0.47232896 -0.6068805 0.30382866 0.12629867
-0.53598833 -0.8168297 -0.74132 0.41805077 -0.015614946 -0.56837565 -0.28595746 -0.52230805
-1.1461686 -0.08803557 -0.68033147 -0.013083357 0.6457126 -0.30568507 -1.1042346 -0.036362223
0.27912697 -0.43718973 0.048043884 0.24972427 -0.20637232 -0.99597746 -0.13855885 -0.18738736
-0.08492178 0.10560792 0.002930005 -1.3390683 -0.033693526 -0.1520374 0.58422893 0.2642887
-0.6301137 0.6621289 -0.10279194 0.049962115 -0.52257824 -0.028555522 -0.33299357 0.0902427
-0.28109995 -0.0737202 -0.0076533444 -0.71285754 0.7045863 -0.35066852 0.2972857 0.6941861
-0.9837023 0.18083914 -0.13465701 -0.4311144 -0.12931295 -1.145196 0.24047525 0.6078544
-0.3661791 0.6594444 -0.7074894 -0.7860535 0.24287473 0.5601461 0.21493286 -0.48295775
-1.3806729 -0.19080591 0.040229157 0.10504558 0.3052728 -0.40335292 0.14334641 -0.4024562
-0.2367667 -0.5811132 -1.1168127 0.85705715 0.14505862 0.16766192 -0.4530187 0.110431634
0.32888508 -0.024022935 -1.5309632 0.30234817 -0.3534094 -0.31547764 -0.096080296 0.12705843
0.037350472 0.5605689 0.06910705 -0.25627902 -0.14467247 0.11919121 -0.41881984 -0.32119173
0.5549125 0.15393132 -0.988507 0.18773718 0.1762753 -0.07872286 0.075793706 -0.55625015
0.13901056 -0.23340009 0.09007779 -0.5563126 -0.5655023 0.07028757 -0.0944828 -0.52081513
-0.037248306 -0.27678943 -1.1418159 -0.18554267 -0.64611673 -0.51666886 1.0043926 0.3975021
0.12981375 -1.4936411 -0.98149467 -1.083161 0.15739693 0.2640723 -0.6244762 0.17800112
0.07513781 0.00705066 0.024550382 -0.5524188 -0.1636146 -1.3270495 0.75301427 0.30582508
-0.1849114 0.12107979 -0.404849 0.2243858 -0.3136925 0.08968196 -1.2294326 -0.30762145
-0.050244182 -0.543607 -1.0326065 -0.25407472 0.29164907 0.40372005 -0.34490478 -1.6846501
0.44205904 -0.22232181 -1.042351 -0.35328463 0.35277918 0.057316527 -0.16084155 0.25397748
0.2338622 0.30441323 0.15361315 -0.33203596 -0.2735511 0.15795964 0.18614838 -0.5748057

network.2.bias f4 [256]
00000000: e198 82be a189 62bd 3b73 fdbc 8d5b 26bd
00000010: f092 c93b eb75 84bd 7346 0fbd ddc9 49bc
00000020: b3ec 89bd b944 c4bc 10e5 3bbd 6d5d f2bc
00000030: acdf abbc 0c3f 61be f29d 25be be3f 9c3c
00000040: f60f ccbd eff7 0bbd 4ade 93bd ffa5 eabc
00000050: cfe3 01bd b4f2 44be e6fd d7bc 89d4 8dbd
00000060: 28e8 e2bc ce37 29be edf1 2b3f 2162 c63d
00000070: d301 673e 9e89 803e 51d1 943c 70f4 06ba
00000080: 1c89 053d 0047 083e 7bbf a3be d11e 74bd
00000090: 7c54 18bc b456 d53e e2ff 6cbd 4828 b3bc
000000a0: fa28 53bd f83b 21be 247d 943d 0515 ed3b
000000b0: 1d37 483e 4909 59bc abfd d5be fd29 a93e
000000c0: 3fba ee3d 4bf0 dcbc 511f 7ebc da7e 273d
000000d0: 3e1d 41bd fb88 763d 9fe0 0cbd 2f1b 0b3f
000000e0: e0da 05bd eeef cebc b404 a3bc b832 42bd
000000f0: 29c6 42bb e1f3 96bd 5fa3 afbe 1b9b a03e
00000100: ea2d 77be 6a1e d8bd e6a9 093c 5cd1 893a
00000110: f79e 933c 16e3 c1bc cba1 463d 7910 9abd
00000120: 26a2 7dbd 703c a3bd 07ea adbe 07c0 953d
00000130: 5a56 543e eca4 1e3c 4d57 6ebd 0f73 46bd
00000140: f1ab 43bd 01ea acbd 3834 30bc 65e4 d63e
00000150: 1687 003a 7c2f b0be 5e53 5dbe ba1c 84bc
00000160: 6434 8fbe 3e5b 793e 7c05 31bd 0a39 4cbe
00000170: eafc b83d 739a 87bd ee16 7ebd 69c2 de3c
00000180: e5fd 3ebe e857 e8bc dcd9 94bc 6eb0 82bd
00000190: 5d17 e3bc 0f23 40bd d173 a7bc 9505 9bbd
000001a0: 021c 51bd eac9 643e 7a25 85bd f08b a9ba
000001b0: eafc fa3c 3f1f 03be 68b1 673c 3813 cf3c
000001c0: 722c 33bd 65bd 61bd 3dc7 c83e 7369 92bd
000001d0: 3fe6 00be c61c b0be 54d6 c53d f442 5a3e
000001e0: 436a 103c f31d a03d 6948 83be 9953 b7bd
000001f0: ab56 e73b 3ba4 74bd c5d6 0abe bc18 adbd
00000200: be62 07bd a466 5e3e 720a eb3c dcb2 adbc
00000210: 2152 bf3d 5564 81bd 467d babe 9a57 9bbd
00000220: 1b6e 9ebe 825d 0abe c042 0a3e 38b8 1e3e
00000230: 9d20 9ebc 3f1d 2d3e d569 473b 7923 83be
00000240: b070 4fbe 6595 573c 7e13 9fbd 3e16 0bbc
00000250: faa7 fabc c343 bfbe 00b8 b8bd 95f6 87bc
00000260: 73dc bdbe 36a1 6ebc 76ea 81be 25da 76bd
00000270: ba1e 66bd 2ba9 99bd adce 8dbd 0895 83bd
00000280: 0f64 f33b b2be fd3d 5c26 4ebe a946 833e
00000290: 049d e0bd 63ad d53d da9a 48bd 09ac 9a3e
000002a0: cfff 883c f3b6 04bd afb7 23be 9bcb 94bd
000002b0: af33 893b e4c3 e53c 6fcc aebc f085 58bd
000002c0: dc88 e6bd 3dd5 8ebd 7ae0 6fbd 6f40 4cbd
000002d0: 6060 0abd d402 383e c7ef b7bd e688 9bbc
000002e0: 4568 76be 7d14 f0bb e1eb 31be cd24 a63e
000002f0: cbfd 91bc 62b5 65bd 3015 043d 2024 85bc
00000300: 1619 89be f30f 033e 8edb f63b c879 a7bc
00000310: 5b4a 8b3d fbed 563e 0b10 1f3e 87b5 2cbd
00000320: a7e2 81bd 32d8 29bd 1f20 23bd 96b1 52be
00000330: fae8 153e 6b6f 883e 487e d1bb 5547 b6bc
00000340: c75c d4bd 94cb 2a3e 1bbf 86bb a26a 7abd
00000350: 9e1b 313d 8f1c 433e 7afe 6c3d e27b 12bd
00000360: 378b 013c 53e6 82bd 0a90 873c b164 1fbd
00000370: 4f64 3cbd 337d 36bc 90a7 04bc f839 b9bb
00000380: c32f 113d 33a7 a53d 8edb 8fbc a8ee 703d
00000390: 9174 25be d67c 6fbc 35fd 02bc b405 27bb
000003a0: 53fc a2bd 4ee4 33bd 35d9 0ebe c78b 1f3e
000003b0: d6fa 73bd b2ea 0d3e 214a 9cbb 7084 73bd
000003c0: 0820 903e b004 08bd 2e7c f2bc 1011 80bc
000003d0: adc1 62bd a682 773c f270 9dbc 7e38 d9be
000003e0: bd99 dabc 9fad 823c 9dc1 8fbe a832 fbbc
000003f0: d780 683d 85c9 a33d eb50 ebbc 7c63 8cbd
-0.25507262 -0.055307034 -0.030938735 -0.040614653 0.0061515495 -0.064678036 -0.034979295 -0.012316194
-0.067346 -0.02395855 -0.045872748 -0.029585565 -0.020980678 -0.21996707 -0.16173533 0.019073363
-0.09963982 -0.034171995 -0.07220133 -0.028643606 -0.031711396 -0.19233209 -0.026366185 -0.069253035
-0.027698591 -0.16525194 0.67166024 0.09686685 0.2255929 0.25104994 0.018166216 -0.00051481184
0.03260146 0.13308334 -0.31982026 -0.0595997 -0.009297486 0.41667712 -0.057861216 -0.021869794
-0.05155275 -0.15745533 0.07250431 0.0072351717 0.19552274 -0.013246843 -0.41795096 0.33039847
0.116566174 -0.02697005 -0.015510396 0.04089246 -0.04714703 0.06018923 -0.034393903 0.54338354
-0.03267944 -0.025260892 -0.019899704 -0.04741165 -0.0029720163 -0.07370735 -0.3430433 0.31368336
-0.24138609 -0.10552676 0.008402323 0.0010514664 0.018020136 -0.023667853 0.04849414 -0.07522673
-0.061922215 -0.07970512 -0.3396761 0.07312017 0.20736066 0.009682875 -0.058188725 -0.048449572
-0.047771398 -0.0844307 -0.010754637 0.41971126 0.0004902942 -0.34411228 -0.21613833 -0.01612698
-0.27969658 0.24351212 -0.04321812 -0.19943634 0.090326145 -0.06621256 -0.062033586 0.027192311
-0.1865154 -0.02836223 -0.01817029 -0.063813075 -0.027721101 -0.046908434 -0.020440968 -0.07569424
-0.0510521 0.22342649 -0.06501289 -0.0012935381 0.030638177 -0.12804888 0.014141418 0.025277719
-0.04374356 -0.05511226 0.39214507 -0.07149019 -0.12587832 -0.34396952 0.096600205 0.21314603
0.008814397 0.07818212 -0.25641182 -0.08951492 0.007059892 -0.059726935 -0.1355849 -0.08451983
-0.033053152 0.21718842 0.028691504 -0.02120345 0.09341837 -0.06317965 -0.364237 -0.07585068
-0.3094338 -0.13512233 0.13502026 0.15499961 -0.01930266 0.16905688 0.003042807 -0.25613
-0.2025783 0.013158177 -0.0776739 -0.00848919 -0.030597676 -0.37356386 -0.0901947 -0.016597072
-0.37082252 -0.014564803 -0.25374192 -0.060266633 -0.056181647 -0.07502969 -0.06924186 -0.0642491
0.0074276994 0.12389888 -0.2013182 0.25639847 -0.10967448 0.104334615 -0.048975803 0.30209377
0.016723542 -0.032401036 -0.15988038 -0.07265397 0.0041870694 0.02804751 -0.021337716 -0.052862108
-0.112565726 -0.06974266 -0.058563687 -0.049866136 -0.033783317 0.17969829 -0.08981281 -0.018986177
-0.24063213 -0.007326661 -0.17375137 0.32449952 -0.017821213 -0.056081183 0.03224677 -0.016252577
-0.26776952 0.12799053 0.007533497 -0.020443812 0.068012916 0.2098922 0.15533464 -0.042165305
-0.06342059 -0.041465946 -0.039825555 -0.20575556 0.14639655 0.26647505 -0.0063932277 -0.02225081
-0.103692584 0.16679221 -0.004112137 -0.06113685 0.04323923 0.19053863 0.057859875 -0.035762675
0.007906727 -0.06391587 0.016548175 -0.038914386 -0.0459941 -0.011138248 -0.008096591 -0.0056526624
0.03544594 0.08088531 -0.017560747 0.05882135 -0.16157748 -0.014617166 -0.00799494 -0.0025485577
-0.07958283 -0.0439189 -0.13950045 0.15580665 -0.059565388 0.1385906 -0.004769579 -0.059452474
0.28149438 -0.033207595 -0.02960023 -0.015633136 -0.055360485 0.015106833 -0.019218896 -0.42425913
-0.026684636 0.01595193 -0.28077403 -0.030663803 0.056763496 0.07997421 -0.028725108 -0.06854913

mean.weight f4 [1, 256]
00000000: 0b99 67bf 8ce8 593c fe58 50bc d05d a0bc
00000010: 1e87 093c ec4a 3b3d ef5a d03c aa10 623c
00000020: 24ea 65bc 99c4 97bb a911 47bd 550a 45bc
00000030: 5885 6abf 2987 523f 76ec c33e 2e9c 103f
00000040: 435f e1be 603c 973c 049a 713c 5aee 80bf
00000050: 9fca ec3e 1653 c1bf 50e2 e5bd 9a94 81bc
00000060: e478 b1ba adce 15bf 888d 703e 0f29 463f
00000070: f491 69bf cad2 e2be 62bf 56bb 5cd0 89bb
00000080: 4c07 20bc 598f 503f 547f 1e3f cae6 86bb
00000090: 2f40 15bd d800 4f3d 3fd0 dd3e ca8c 92bc
000000a0: 3563 6e3c 8dc4 bc3f 224b f2bd dc11 f3bc
000000b0: 490f 813e d9ee 28bc 5675 063f 3db9 ff3e
000000c0: 4de4 c03d 2581 8938 0fa7 11bd a455 30bf
000000d0: 0899 39bb b114 7b3e c269 113d 640a 19bf
000000e0: 41ed 603c 0f35 7c3a 0d64 11bd a56b 373b
000000f0: 3201 063d 710e f9bc 9665 8d3e f8e2 263e
00000100: ca48 8b3f 3f53 76bd 98d1 843b 988a 653c
00000110: 967e 163c 0370 06bf 2ab0 0cc0 469b 5d3e
00000120: dfe1 d43b a72e 45be 20d3 dcbf 6882 a1bf
00000130: 5709 0b3f d7b0 b3be f568 033d 88a2 003c
00000140: 1ce4 bf3c c8ad 6b3c 5fa8 25bb 0b2e c3bd
00000150: 2db0 56bc e0b1 d53d 78d6 df3e f720 803b
00000160: 194e 4cbf d680 673e 26fb 553c 7742 acbe
00000170: db6a ddbe 3831 50bb a6d6 86bd 7102 5c3d
00000180: 73b9 d7be 4975 523f 7d09 d8bc eb84 653d
00000190: 0423 013d 199d 123d 2188 333d 0a96 f3bb
000001a0: 442f 913a dd25 c13f f142 3c3e 18bf de3f
000001b0: 1eb8 533c b377 0bbf 3d57 5f3f 6a1a 01bb
000001c0: 5d9e d9bc 533a 04c0 82a2 afbe fc79 903b
000001d0: a323 d93c 12e0 fb3e 742f adbf d53f 713e
000001e0: cd6a 4dba e854 1fc0 10a4 ca3f 8e89 83bc
000001f0: 6a26 cd3b 3c8e a3bc aa28 17be b8e5 79bc
00000200: 88b1 31bd 8b38 483d 8e71 db3e d999 893c
00000210: ce16 8340 b4fb dcbc f20a 243e 99ca 41bc
00000220: 3c63 0c3f e7e1 863f 55d4 0640 c046 9bbe
00000230: a4ff 33bd aa3a e33e 9869 e6bb cd55 05c0
00000240: 0a71 bf3e a2f5 b5bd 11c9 9bbc c3ee 79bc
00000250: c819 31ba ca7a 083f 3880 293e b039 353f
00000260: 272d 49bf da4a b23d 213e 2b3e ecf2 d93f
00000270: f892 833c 42ca 6ebe d0c8 d4bc ec39 373d
00000280: bb55 d43c cb2f 28bf cb99 51bf 6191 813e
00000290: bb08 ed3e 537a 52bf 30ab 8fbc c3b3 95be
000002a0: 6caa b53b 21e5 c23b a7d0 8b40 a717 87bc
000002b0: e39a f1be 3952 e33c 07e6 9ebf 9f28 fbbc
000002c0: 9158 82c0 0872 013d a3ef 7d3b 1579 e3bb
000002d0: 5cf2 e93b 7ba0 ddbd 29d5 f5b9 7065 ef3b
000002e0: 3d9b 92bf 8f6b d23c 01ea fb3e 5680 be3e
000002f0: 36f3 74bb c31c b83c 25ed 1fbf dd36 90be
00000300: 8e4e 643f b664 01bf d298 58bc 0250 923a
00000310: 9b74 843e 0ac3 49bf 77df e13e 8f58 83bd
00000320: 9b5e 073c 8bea 453d 55fc 363c d85d 15bf
00000330: 64c9 4340 683e 08bf 1f6a 253c ef68 56bc
00000340: 26fc ca3a 859c 603e aa65 bb3c 6f64 e43c
00000350: 625f b5bf 0bfe 943e 2007 c13f eb7a babc
00000360: 9995 e83b 0cd9 7a3d 3334 76bc fa16 b23c
00000370: 910f 1c3d 9101 c1bb ad33 56bb b0f8 b73c
00000380: 7a95 85be 9eec 25bf d093 7a3c 82e9 4f3f
00000390: 6b11 713e 8a1e 293d 16d7 50bc 4024 0b3b
000003a0: ff34 6d3c 64ed 6f3c c89c dcbe db98 3bbf
000003b0: 43b6 3cbd 1a94 85be c358 233c 63a3 cb3c
000003c0: a680 243f a996 3abc 5f01 d83c 50e4 23bb
000003d0: 2676 94bf 2a0c 95bc 3188 19bb 9ade a0be
000003e0: 0a5a 83bc 733c dabc 35be 24be 036a 81bc
000003f0: 15df 4abf eb54 fb3e 24f5 353d daa1 45bd
-0.904679 0.013300072 -0.01271653 -0.019575983 0.008394031 0.045725748 0.025433986 0.013797918
-0.014032874 -0.0046315906 -0.048600826 -0.012026389 -0.91609716 0.8223749 0.38266343 0.5648831
-0.4401799 0.018461406 0.014746193 -1.0072739 0.46248338 -1.5103481 -0.11224806 -0.015817929
-0.0013540057 -0.5851849 0.2349149 0.774064 -0.9123833 -0.44301444 -0.0032767882 -0.0042057466
-0.009767365 0.8146873 0.6191304 -0.0041168677 -0.036438163 0.050537914 0.43322942 -0.0178894
0.01455002 1.4747483 -0.11830737 -0.029671602 0.25206974 -0.010310852 0.5252279 0.49946013
0.09418545 6.556724e-05 -0.03555971 -0.6888068 -0.0028319973 0.24519612 0.03550125 -0.5978148
0.013728441 0.00096209435 -0.035495806 0.0027987745 0.032715984 -0.030402394 0.27616566 0.16297519
1.0881588 -0.060137983 0.004053306 0.014010094 0.009185454 -0.52514666 -2.1982522 0.21641263
0.0064966525 -0.19256078 -1.725193 -1.2617922 0.54311126 -0.35095856 0.032082517 0.0078512505
0.0234242 0.014384694 -0.002527736 -0.095302664 -0.013103527 0.104343176 0.43718314 0.0039101797
-0.7980667 0.22607741 0.013060367 -0.3364446 -0.43245587 -0.0031767618 -0.0658391 0.053713266
-0.42133674 0.8221021 -0.026371712 0.056034964 0.031527534 0.03579435 0.043830995 -0.0074336575
0.0011076708 1.508968 0.18384911 1.7402067 0.012922315 -0.5447952 0.8724249 -0.0019699582
-0.026564771 -2.0660598 -0.3430367 0.004409073 0.02650625 0.4919439 -1.3530107 0.23559506
-0.0007836044 -2.4895573 1.5831318 -0.016056802 0.006260683 -0.019965284 -0.14761606 -0.015252523
-0.043382198 0.04888205 0.42860073 0.016796993 4.096534 -0.02697549 0.160198 -0.011828088
0.5483892 1.053769 2.1067097 -0.30327415 -0.04394497 0.44380695 -0.0070316307 -2.0833619
0.3739093 -0.08884741 -0.019016774 -0.015254679 -0.0006755856 0.5331236 0.16552818 0.7079115
-0.7858452 0.08705683 0.16722919 1.7027259 0.016061291 -0.23319343 -0.025974661 0.044732973
0.025919786 -0.65697926 -0.81875294 0.25306228 0.46295723 -0.822179 -0.017537683 -0.2923871
0.0055439975 0.0059477245 4.3692203 -0.01649077 -0.47188482 0.027749168 -1.2413949 -0.030659018
-4.0733113 0.03160289 0.003874757 -0.0069419243 0.007139487 -0.10821625 -0.00046888858 0.0073057935
-1.1453625 0.025686054 0.49201968 0.37207288 -0.003737641 0.022474652 -0.6247123 -0.28166857
0.89182365 -0.505443 -0.013220029 0.001116276 0.25870213 -0.7881323 0.44115803 -0.064133756
0.008262302 0.04831938 0.011168559 -0.5834632 3.059167 -0.53220224 0.010096102 -0.013086542
0.0015486523 0.21934707 0.022875626 0.027879922 -1.4169734 0.2910007 1.5080299 -0.02276369
0.0070979116 0.06124215 -0.015027094 0.021739472 0.038100783 -0.0058900793 -0.003268461 0.02245745
-0.26090604 -0.64814174 0.01529403 0.8121568 0.235418 0.04128889 -0.012746593 0.0021231323
0.014477967 0.014644001 -0.43088365 -0.73280114 -0.046072256 -0.26089555 0.009969893 0.024858182
0.642588 -0.011388459 0.026367841 -0.002500791 -1.1598556 -0.018194277 -0.0023427124 -0.31419832
-0.016034145 -0.026640153 -0.16088183 -0.01579762 -0.79246646 0.49088225 0.044423237 -0.048250057

log_std.weight f4 [1, 256]
00000000: 5215 6b3d 2b2a 99bb c745 f1bc 2d3f 943c
00000010: f14d 1ebd 60ab f8bc 77d6 d03b 79f3 edbc
00000020: bdc9 8cbc 2ee3 09bd 9cfa a93c d2cf 0a3c
00000030: c1a0 1ebe dd9a 3abe 8d26 3e3e a408 f43e
00000040: 814e 1f3d 4bb7 d2bb e065 ffbc b5d8 a6bd
00000050: 8b8a b53a 0097 3abe befb d93d 8225 f8bc
00000060: a693 f3bb 231e 1c3d 2a45 df3d 063f 0ebd
00000070: 51bc 373d a812 84bd 4e02 05bc ad06 2b3d
00000080: 5aba 7f3a 8d32 a3bd 6073 963a 4cd6 1c3c
00000090: 8a01 493c f0fd 143f 831e db3c bf97 04bd
000000a0: 1566 ba3c 5b96 1e3f 2dde 043e 3e94 dcbc
000000b0: 555e ed3d b49a fa3c 3b90 83bc baed 16bd
000000c0: 1b63 f1be 31b8 4e3b c250 87bc b669 94bd
000000d0: 21d1 26bc 1026 f53d c91b 4fbd cf35 9ebd
000000e0: f4c0 92bb dfdd fbbc a20e 303d d82b 00bd
000000f0: 9e7a 31bc cdf0 69bc d5b5 c13d 2560 fa3d
00000100: c0da 3dbe 4907 cf3d fd25 87bd 06e7 abbe
00000110: 264f 593a 8bfc 883d 4e94 573f 84da 9bbd
00000120: 4de8 3a3c a2ee 6fbd 1bb4 f43d cff5 91bd
00000130: a6d1 44be 5cd1 2abe a440 543c 59f4 16bc
00000140: 526d 293c 5090 e23c efd9 23b8 d8a7 69bd
00000150: f70b 8a3b aec9 e33e 6da3 3a3a 5f53 f039
00000160: 8ca5 85be c2be 593f c722 533c deb2 b0bd
00000170: 7d84 ec3d 2dc7 67bc 9d12 39bb 1a3e 81be
00000180: 6fc6 e03e 807d 63bf 67a4 593c c9b7 a6be
00000190: 1237 7cbc 0f4b e8ba eb9d 6b3c 419e a3bb
000001a0: bc07 6d3c fd6a 79be a6d1 e23e 9794 42be
000001b0: 44da 21bd 0251 243d 5f32 ef3d 15c4 183d
000001c0: 1943 803c 0709 b7bd b1f0 b9bd eef8 24bd
000001d0: 3151 473d 53e8 4c3b 8459 ef3d 8ae4 41be
000001e0: e23d 8e3b f150 ef3d 0535 3cbe 1cc0 7ebb
000001f0: 9eaf 113b 4e82 363d 0bf7 b4bd 756a 063d
00000200: 4bd3 2fbd 246e ccbe e89d f23d 6592 53bc
00000210: 40a4 bcbe e854 ba3c cc28 a2be c876 5bbc
00000220: 7b73 b6b8 0653 053e dfde 94bd 4201 9e3e
00000230: 54fc 31bd 0d25 b53e 8da5 4d3b 06af b33e
00000240: d77c 9a3c 1d38 173f 6ad3 b93c 52d4 0dbc
00000250: 39d9 85bc 6157 373e eb42 f73d 3770 333e
00000260: ce9e 09bd c55b 2e3f 9cf3 9f3d 6f54 083f
00000270: 43c3 11bc e02a e3bd 22c3 9bbc 9a6e cd3c
00000280: abc2 10bd 9e74 90be 5853 dabc fae6 8c3e
00000290: d452 763e 5309 73be 1604 723a b165 e8bd
000002a0: ac39 a63b b195 f7bb 7f2c dbbe 8c7e c23b
000002b0: d2cd 733d dcfc 8d3b 587b da3d f849 ea3c
000002c0: 7aaf ff3d 0d68 f23b 5349 8fbc c349 0c3c
000002d0: 6b85 d43c ae10 d4be d2d6 d93b bdd1 dd3c
000002e0: 58e7 c0bd 0cc3 a63a 4655 9aba 8db5 06be
000002f0: f670 563b 88e7 2bba a14c 523d f0fc da3e
00000300: 5010 24bd 8d13 9dbe f83a 903b a5d3 13bd
00000310: ee73 a8be 62b3 76be 1b56 363e 0bf4 f53d
00000320: 3602 a23c 5917 ccbb 6f7b 833b 9fe4 573a
00000330: 6c37 7f3d b9eb eabd 5691 37bc 8c4a 0bbd
00000340: 407b d93b 0333 9d3d 3289 caba 9225 31bd
00000350: fbfa 343d 65c3 e9bd 5357 873d 6286 c5bc
00000360: ddff 873c ebe0 643c 338a 803b b126 a83b
00000370: 7c96 16bd eac2 8d3c 8ab3 b0bb 09a8 b63c
00000380: b561 76be b3cd 5bbd 72b4 cdbb e84b 443e
00000390: aa9e dc3e 73bd 353b 51b9 9f39 6e5f 0b3d
000003a0: 1ca4 8e3b 5b9c 20bc fe94 0ebd 48a5 bd3d
000003b0: d62e af3c eef5 33bd 54ab 1abd bd08 1ebd
000003c0: 116e 17be 7368 abbc d2ad 1c39 3e4c c03b
000003d0: 3ebd 943b 7b83 6dbb 10b8 953c 630d 77bd
000003e0: e7e7 033d c7de 8abc 2e5e 0f3e ee09 af3c
000003f0: 23c9 9d3d f52d 02bd 9aad 423b b8e6 533c
0.05739338 -0.0046742163 -0.029452218 0.01809653 -0.03864855 -0.030355155 0.0063732225 -0.02904676
-0.01718604 -0.03366392 0.020749383 0.0084724 -0.1549101 -0.18223138 0.18569393 0.47662842
0.038893227 -0.0064305416 -0.031176507 -0.08146802 0.0013850493 -0.18221664 0.10643719 -0.030291323
-0.0074333725 0.038114678 0.10901864 -0.034728073 0.044857327 -0.06448871 -0.008118225 0.041754413
0.00097552466 -0.07968626 0.0011478476 0.009572577 0.012268433 0.5819998 0.026747948 -0.03237128
0.022753755 0.61948174 0.12975378 -0.026926156 0.11590258 0.030591346 -0.016059985 -0.036847807
-0.47145924 0.0031542892 -0.016518 -0.07246725 -0.010181696 0.119701505 -0.050563607 -0.07725107
-0.004478568 -0.030745445 0.042982705 -0.031291813 -0.010832457 -0.014278603 0.0945851 0.12225369
-0.18540478 0.101088114 -0.065990426 -0.33574694 0.0008289687 0.06688794 0.8421067 -0.07610038
0.011407924 -0.058577187 0.11948415 -0.071269624 -0.192206 -0.16681427 0.012954865 -0.00921353
0.010341005 0.027656704 -3.9065195e-05 -0.057044834 0.004212852 0.44489807 0.0007119689 0.00045838483
-0.26102865 0.850567 0.0128867095 -0.08627866 0.11548708 -0.014146608 -0.0028239854 -0.25242692
0.43901393 -0.8886337 0.0132838255 -0.32562092 -0.015393989 -0.0017722565 0.014380912 -0.0049932306
0.014467176 -0.24357219 0.44300574 -0.19001995 -0.039514795 0.040116318 0.116795294 0.037296373
0.015656995 -0.08937269 -0.09079111 -0.04027646 0.048661415 0.0031266406 0.116869956 -0.18934837
0.004340873 0.1168536 -0.183796 -0.003887183 0.002222992 0.044557862 -0.08836182 0.03281637
-0.042926114 -0.3992778 0.118465245 -0.012913321 -0.36844063 0.022745565 -0.3167175 -0.013395019
-8.699946e-05 0.13019952 -0.07269072 0.30860335 -0.04345353 0.3537983 0.0031379194 0.3509447
0.018858356 0.5907 0.022683818 -0.008656578 -0.016338931 0.17904426 0.120733105 0.17523275
-0.033598714 0.6810878 0.07810137 0.53253835 -0.008896652 -0.11092162 -0.019013945 0.025077153
-0.0353419 -0.28213972 -0.02665107 0.2751997 0.24055034 -0.23734026 0.0009232176 -0.11347521
0.005072793 -0.0075556864 -0.42807385 0.0059354957 0.059522457 0.0043331217 0.10668057 0.028599724
0.124846414 0.0073976577 -0.017491018 0.008562508 0.025942525 -0.41418976 0.006647923 0.02707755
-0.09419125 0.0012722923 -0.0011774681 -0.13155194 0.0032721139 -0.0006557633 0.05134261 0.427711
-0.04005462 -0.3067898 0.004401561 -0.03609051 -0.32900947 -0.24091867 0.17806284 0.12009438
0.019776445 -0.006228369 0.004012517 0.00082356663 0.062308714 -0.11470742 -0.011204084 -0.03400664
0.006637007 0.07675745 -0.0015452264 -0.04324872 0.044184666 -0.11414222 0.06608453 -0.02411193
0.016601497 0.01396964 0.0039227246 0.0051315655 -0.036764607 0.017304856 -0.0053924965 0.022296922
-0.2406071 -0.053662967 -0.0062776143 0.19169581 0.430898 0.0027731329 0.00030464915 0.034026556
0.0043530595 -0.009802903 -0.03481006 0.092600405 0.021384638 -0.04393571 -0.037761047 -0.038582552
-0.14788081 -0.020923829 0.00014942072 0.005868464 0.004539161 -0.0036241699 0.018276244 -0.0603155
0.03220358 -0.016951932 0.1400077 0.02136704 0.077043794 -0.03178211 0.0029705525 0.012933426
