validated models/4-18_0.4.pth (torch, 275956 bytes, 6 tensors)

network.0.weight f4 [256, 6]
-0.33537593 -0.19648425 0.30179775 0.19143242 0.014033822 0.01131786 0.09951967 0.028435184
0.39581874 0.21760318 0.12703207 0.11464865 -0.053097963 0.1585486 0.29948112 -0.29896197
-0.1658029 0.21400177 0.22002463 0.024015658 -0.41037807 0.081879415 0.0682956 0.15531988
0.15086304 -0.405774 -0.09747134 -0.4040872 -0.4130724 0.14667012 0.3196018 0.032513842
0.28492704 0.40883714 -0.13869917 0.34910348 0.39190087 -0.24103521 0.17512482 0.04708602
0.05426795 0.024871908 0.37598675 0.029816382 -0.22389267 0.18848471 0.132599 0.0876201
0.1252781 -0.18725385 0.24320431 -0.06553991 0.18343113 0.31540006 -0.22949141 -0.1809322
-0.1752696 0.28482497 0.13565467 0.26550022 -0.2597459 -0.5215547 -0.10857438 0.17833416
-0.08101212 0.2472948 -0.104757756 -0.299285 -0.44918722 -0.1645418 -0.4422003 0.039576516
0.37889734 0.16732877 0.08003243 -0.10014916 -0.18176943 0.018704884 -0.32885662 0.19498573
-0.35161278 -0.030969413 -0.19053592 -0.38348803 -0.24984115 -0.15155831 0.49174395 -0.25898364
-0.2897088 0.16499357 0.3241767 -0.104261324 0.24158403 0.094691604 0.13017145 0.2920588
-0.041415233 -0.39064768 0.23233859 0.37638667 0.56689227 0.08086481 0.22776179 -0.29858923
-0.0015632538 0.13993469 0.013394572 0.2775675 -0.10164872 -0.36622483 0.32729733 -0.12730622
-0.5349985 0.17772079 -0.011697494 0.14172176 0.3570365 -0.08455039 -0.09419104 -0.29069763
0.070684135 -0.17370734 0.3917817 0.3829928 0.031428587 0.33373573 0.37396505 -0.612888
-0.132749 0.10664577 0.24496499 -0.13752572 0.19419631 -0.5233312 0.031952005 -0.05881305
-0.042768203 -0.4316102 0.32064143 0.24812096 0.0967928 -0.49919462 -0.3136999 -0.1937376
-0.10749903 0.14324625 0.41364625 -0.014037278 0.0606801 -0.17601816 0.36810836 0.08646229
-0.053690802 0.45034754 -0.026812445 0.08408943 -0.3865068 0.048278313 0.19349764 -0.1285867
-0.052161988 -0.12877218 -0.6128276 0.073861875 0.0023488754 -0.24744007 0.3776985 -0.11201808
0.18197927 -0.057545606 0.13375343 -0.06154624 0.40515488 -0.2800021 -0.026365768 0.08789491
0.1322147 0.029951636 0.21842425 0.06367996 0.08915757 0.19750294 -0.016408592 -0.15657195
0.07222494 -0.18541439 -0.089279525 0.0970576 -0.71729076 0.15528306 0.0017329274 -0.46475542
-0.74855775 -0.26723674 -0.27634814 0.21521893 0.44260523 0.10495242 -0.29847252 -0.18929927
-0.49368474 0.06567042 0.18975702 -0.10225343 -0.35736725 -0.48933607 0.34309462 -0.054693367
0.13476092 0.2814832 -0.43178302 0.06150685 -0.08007949 0.25603452 -0.49893776 0.20679602
-0.039581854 -0.10635323 0.31378263 0.3035904 -0.045908865 0.1936583 -0.043518472 0.18864049
-0.13700737 -0.18489903 0.23283188 -0.061132096 -0.045840472 0.06986864 -0.0040014056 -0.1305833
-0.21917829 -0.06400822 0.15594894 0.28447023 -0.028730059 -0.29875985 -0.27925718 -0.082598135
-0.10321385 -0.07628666 -0.49244174 -0.24980967 -0.2621642 -0.39398983 0.1886102 -0.1778129
0.29564527 0.29083616 0.41362536 -0.31395087 0.18760915 -0.25122765 -0.25410378 0.41699913
00000000: 65b6 abbe 2b33 49be 3c85 9a3e dc06 443e
00000010: 1eee 653c 8c6e 393c f8d0 cb3d e7f0 e83c
00000020: c1a8 ca3e 5ed3 5e3e b214 023e e9cc ea3d
00000030: 407d 59bd 905a 223e 9755 993e 8b11 99be
00000040: 3cc8 29be 4823 5b3e 234e 613e 7cbc c43c
00000050: 131d d2be 65b0 a73d 90de 8b3d 2d0c 1f3e
00000060: d77b 1a3e 9cc1 cfbe 0e9f c7bd 84e4 cebe
00000070: 3a7e d3be b130 163e d9a2 a33e 3c2d 053d
00000080: f5e1 913e 1a53 d13e 2807 0ebe b1bd b23e
00000090: 3ba7 c83e efd1 76be ec53 333e 45dd 403d
000000a0: 1248 5e3d 2cc0 cb3c 5681 c03e 7c41 f43c
000000b0: 1f44 65be 2302 413e 08c8 073e 2b72 b33d
000000c0: e748 003e 79bf 3fbe 8d0a 793e ca39 86bd
000000d0: 5fd5 3b3e 1e7c a13e ccff 6abe 4a46 39be
000000e0: e079 33be 94d4 913e 0fe9 0a3e a5ef 873e
000000f0: 6afd 84be 9c84 05bf 3f5c debd 3b9d 363e
00000100: afe9 a5bd d93a 7d3e 3c8b d6bd e23b 99be
00000110: defb e5be a57d 28be 1468 e2be fc1a 223d
00000120: d5fe c13e 3c58 2b3e 0be8 a33d 011b cdbd
00000130: c421 3abe fc3a 993c e55f a8be 57aa 473e
00000140: 9706 b4be 91b3 fdbc d91b 43be 8b58 c4be
00000150: 5cd6 7fbe 1a32 1bbe ddc5 fb3e 8199 84be
00000160: b654 94be 13f4 283e 7dfa a53e f686 d5bd
00000170: ce61 773e aced c13d aa4b 053e bb88 953e
00000180: 05a3 29bd f902 c8be 2bea 6d3e c1b5 c03e
00000190: da1f 113f 739c a53d 633a 693e b0e0 98be
000001a0: 18e6 ccba 0a4b 0f3e e874 5b3c 541d 8e3e
000001b0: 342d d0bd d281 bbbe 8493 a73e 905c 02be
000001c0: a9f5 08bf 70fc 353e d9a6 3fbc 821f 113e
000001d0: 7dcd b63e c128 adbd 3be7 c0bd 52d6 94be
000001e0: d8c2 903d 56e0 31be 9c97 c83e a217 c43e
000001f0: 43bb 003d 69df aa3e 5978 bf3e 3ae6 1cbf
00000200: 5bef 07be 1969 da3d 1ad8 7a3e 8bd3 0cbe
00000210: 66db 463e 09f9 05bf 1be0 023d f4e5 70bd
00000220: b62d 2fbd 03fc dcbe 1d2b a43e 6c13 7e3e
00000230: 4e3b c63d 7096 ffbe 469d a0be 2663 46be
00000240: 7428 dcbd 25af 123e 71c9 d33e 9cfc 65bc
00000250: b28b 783d 1b3e 34be b378 bc3e 2413 b13d
00000260: e3ea 5bbd f493 e63e c6a5 dbbc 1437 ac3d
00000270: 38e4 c5be 7bbf 453d 3f24 463e 3bac 03be
00000280: cfa7 55bd dbdc 03be 45e2 1cbf e544 973d
00000290: 97ef 193b ee60 7dbe b361 c13e bc69 e5bd
000002a0: c658 3a3e f1b4 6bbd a9f6 083e e917 7cbd
000002b0: 7670 cf3e 6f5c 8fbe 06fd d7bc 3f02 b43d
000002c0: 4a63 073e 225d f53c 9baa 5f3e a46a 823d
000002d0: 3e98 b63d 363e 4a3e 506b 86bc 6654 20be
000002e0: abea 933d 45dd 3dbe 2fd8 b6bd 23c6 c63d
000002f0: 5ea0 37bf 8602 1f3e 6523 e33a 6cf4 edbe
00000300: 7ba1 3fbf 41d3 88be 817d 8dbe 5a62 5c3e
00000310: 279d e23e 4bf1 d63d 64d1 98be abd7 41be
00000320: 3fc4 fcbe 377e 863d aa4f 423e 3f6a d1bd
00000330: d7f8 b6be 428a fabe 19aa af3e 2706 60bd
00000340: c4fe 093e 911e 903e aa12 ddbe 9bee 7b3d
00000350: b700 a4bd f516 833e c574 ffbe 56c2 533e
00000360: 9520 22bd b9cf d9bd 1ea8 a03e 3370 9b3e
00000370: ef0a 3cbd 5d4e 463e 6d40 32bd f92a 413e
00000380: a94b 0cbe 2c56 3dbe 7b6b 6e3e a665 7abd
00000390: 38c3 3bbd 4a17 8f3d 391e 83bb a1b7 05be
000003a0: 4670 60be be16 83bd 14b1 1f3e 15a6 913e
000003b0: 4d5b ebbc 0df7 98be ccfa 8ebe 3629 a9bd
000003c0: c861 d3bd 2e3c 9cbd 5321 fcbe 1bce 7fbe
000003d0: 633a 86be 09b9 c9be 0823 413e 9614 36be
000003e0: d15e 973e 7ae8 943e b4c6 d33e 2bbe a0be
000003f0: 9d1c 403e e9a0 80be e419 82be e980 d53e

network.0.bias f4 [256]
0.13737234 0.02530161 -0.11841793 0.00209461 -0.44743383 -0.17885734 0.10067184 0.0121793505
0.05523029 -0.32224888 0.100371175 0.062968135 -0.15159231 0.17159766 -0.094964504 -0.10055267
-0.014895854 -0.07255489 0.15737927 -0.09360458 0.02282264 -0.1890107 -0.08347171 -0.091154054
-0.03970199 -0.1868971 -0.083772905 -0.01137093 0.0743954 -0.0613373 0.026054101 -0.18564098
-0.12500796 0.2848431 -0.10222281 -0.13175632 0.16037007 0.0291954 0.12685923 -0.093054146
0.14912267 -0.00526429 0.010182257 -0.3311253 -0.13867971 -0.13802756 -0.002209306 -0.15877058
-0.05569933 -0.02684401 -0.14648387 0.1895974 -0.11970432 -0.11429144 0.28068218 -0.043959085
-0.17794831 0.19398147 -0.046245378 -0.20729822 0.14224178 -0.0020931552 -0.22833082 -0.12047432
-0.20478086 -0.2176434 -0.29009137 -0.27922457 0.08618621 -0.17621197 -0.26408496 -0.039705437
-0.029125195 -0.13784897 -0.28961802 -0.16149493 -0.11041531 -0.03456503 -0.3088663 0.09815404
-0.1289241 -0.2148023 -0.2198229 -0.2008262 -0.0037132818 -0.22057334 0.01028112 -0.23075934
-0.070590876 -0.1563469 -0.1609627 -0.10979649 0.19196935 0.26425156 -0.36983377 -0.08290582
-0.24693435 -0.0046034777 -0.002077727 0.0924653 -0.18986349 -0.23216882 -0.031785496 0.16085084
-0.3378295 -0.025562096 0.05365015 0.05521061 -0.08173767 0.17380662 -0.12243039 -0.15806906
0.051437665 0.008724293 -0.114879444 0.11272995 -0.025105277 0.16966972 -0.22285672 -0.2986728
-0.16129225 -0.19287394 -0.1537627 0.17856485 0.19022027 -0.06651593 -0.0053096293 -0.18905988
-0.33820695 -0.044568654 -0.25234425 0.07278355 -0.1573903 -0.318361 0.10016906 -0.14503305
-0.25052288 -0.10510722 -0.060320646 -0.06719042 0.023685677 -0.21687599 -0.08787825 -0.2139022
0.14526653 0.08739119 -0.18015967 -0.21300873 -0.1967201 -0.0050041396 0.018970836 0.0138583
-0.049418908 -0.0768486 0.03122668 -0.053546816 -0.23449558 0.0053139906 -0.09023798 -0.06109167
-0.0069918213 -0.37939888 0.004415919 0.13380598 -0.20235363 -0.32373273 0.16034131 0.22887018
0.11808269 -0.09627188 -0.1232263 -0.18794397 -0.30858573 0.07952655 -0.18867032 -0.1142998
-0.11553856 -0.20403664 -0.27611876 -0.09695104 0.09329962 0.09419452 -0.0032075264 -0.075704694
-0.010558679 -0.3111154 0.071811706 0.13560687 0.1690217 -0.182417 -0.14695539 -0.118312106
-0.008355889 -0.2805848 -0.23046936 0.041311156 -0.08778393 -0.14072362 -0.0046367734 -0.016243111
0.00040740997 -0.05787837 -0.012976139 0.18719284 0.060113594 0.2676663 0.099664986 0.26900083
0.017134873 -0.17373525 -0.20896322 0.10443998 0.15717764 0.12576866 -0.1543775 0.015172702
-0.20508285 -0.07325297 -0.13746665 -0.14664046 -0.13461271 -0.107762285 -0.16935347 -0.24762976
0.10205272 -0.16599393 0.08690895 -0.18479684 -0.40706155 -0.17889932 -0.29970127 0.04741131
0.03367521 0.18157056 0.08353897 -0.08170407 0.05224601 -0.1272201 -0.2555403 -0.24426328
-0.22238967 -0.1021806 -0.21259467 -0.17930205 -0.27067703 0.07343593 -0.14732169 -0.005594353
-0.17650269 -0.005689526 0.10837407 -0.041135017 -0.27321038 -0.3231158 -0.17846727 -0.30538964
00000000: 56ab 0c3e 5245 cf3c 1a85 f2bd b945 093b
00000010: 0c16 e5be 6126 37be 0a2d ce3d e68b 473c
00000020: 2839 623d cefd a4be 678f cd3d 70f5 803d
00000030: 043b 1bbe 4cb7 2f3e c07c c2bd 8fee cdbd
00000040: bd0d 74bc a897 94bd 0828 213e c2b3 bfbd
00000050: 8cf6 ba3c 058c 41be 37f3 aabd faae babd
00000060: 8e9e 22bd f461 3fbe 2191 abbd 234d 3abc
00000070: 9e5c 983d d23c 7bbd 696f d53c ab18 3ebe
00000080: 1602 00be f4d6 913e 315a d1bd 21eb 06be
00000090: 0d38 243e 312b ef3c 63e7 013e 2c93 bebd
000000a0: 9db3 183e 1180 acbb 7bd3 263c 4189 a9be
000000b0: 0e02 0ebe 1957 0dbe 01ca 10bb c194 22be
000000c0: fb24 64bd f8e7 dbbc deff 15be d225 423e
000000d0: 8a27 f5bd a111 eabd 93b5 8f3e 710e 34bd
000000e0: 1538 36be 14a3 463e cb6b 3dbd fc45 54be
000000f0: d4a7 113e 512d 09bb 8ecf 69be 3ebb f6bd
00000100: 13b2 51be e9dd 5ebe db86 94be 86f6 8ebe
00000110: 6582 b03d e970 34be 2536 87be 2ba2 22bd
00000120: f697 eebc 4828 0dbe d048 94be ed5e 25be
00000130: 6c21 e2bd 1094 0dbd b923 9ebe fc04 c93d
00000140: ae04 04be 22f5 5bbe 4119 61be 62a5 4dbe
00000150: 885a 73bb fadd 61be 2572 283c 2d4c 6cbe
00000160: f391 90bd 6719 20be 68d3 24be fbdc e0bd
00000170: 9d93 443e fb4b 873e da5a bdbe 87ca a9bd
00000180: 5cdc 7cbe c5d8 96bb 7a2a 08bb 725e bd3d
00000190: 936b 42be aabd 6dbe 8231 02bd 15b6 243e
000001a0: fdf7 acbe 9a67 d1bc 42c0 5b3d 8524 623d
000001b0: 1466 a7bd 5dfa 313e c9bc fabd dbdc 21be
000001c0: 4db0 523d 56f0 0e3c ea45 ebbd f6de e63d
000001d0: 95a9 cdbc e6bd 2d3e 8d34 64be a4eb 98be
000001e0: cc29 25be bf80 45be f873 1dbe b4d9 363e
000001f0: 1ac9 423e 8139 88bd 66fc adbb ea98 41be
00000200: 7629 adbe 9f8d 36bd 4433 81be 8b0f 953d
00000210: ec2a 21be 3700 a3be 7025 cd3d 8b83 14be
00000220: 8944 80be 7442 d7bd c812 77bd 229b 89bd
00000230: 7708 c23c bd14 5ebe 83f9 b3bd 2e09 5bbe
00000240: c0c0 143e 27fa b23d c77b 38be f61e 5abe
00000250: fe70 49be c4f9 a3bb ba68 9b3c ec0d 633c
00000260: 7b6b 4abd cc62 9dbd 18cf ff3c e853 5bbd
00000270: 9c1f 70be fc20 ae3b b1ce b8bd 423b 7abd
00000280: a61b e5bb 9240 c2be 6ab3 903b 6f04 093e
00000290: ca35 4fbe 4cc0 a5be 8330 243e f25c 6a3e
000002a0: 56d5 f13d 312a c5bd 125e fcbd 6274 40be
000002b0: f3fe 9dbe d1de a23d cb32 41be 0316 eabd
000002c0: 7b9f ecbd fbee 50be 705f 8dbe 448e c6bd
000002d0: df13 bf3d 0ee9 c03d 5d35 52bb 100b 9bbd
000002e0: 4ffe 2cbc 854a 9fbe 0412 933d 87dc 0a3e
000002f0: 0614 2d3e 86cb 3abe 797b 16be 9e4d f2bd
00000300: 23e7 08bc d0a8 8fbe 2900 6cbe e335 293d
00000310: 10c8 b3bd da19 10be 13f0 97bb 4610 85bc
00000320: a499 d539 df11 6dbd df99 54bc 7baf 3f3e
00000330: ac39 763d 8f0b 893e 281d cc3d 7aba 893e
00000340: 6f5e 8c3c a7e7 31be 74fa 55be a1e4 d53d
00000350: 2df3 203e 80c9 003e 2315 1ebe ed96 783c
00000360: 3d01 52be a705 96bd 0fc4 0cbe eb28 16be
00000370: ead7 09be 79b2 dcbd ff6a 2dbe a892 7dbe
00000380: 0401 d13d 50fa 29be 52fd b13d 623b 3dbe
00000390: 5f6a d0be 6231 37be 7272 99be 5d32 423d
000003a0: 04ef 093d a2ed 393e 7b16 ab3d 7754 a7bd
000003b0: eaff 553d fc45 02be 2ed6 82be 2720 7abe
000003c0: 1eba 63be 1044 d1bd 6bb2 59be f59a 37be
000003d0: 2e96 8abe 9465 963d 7fdb 16be d650 b7bb
000003e0: 1fbd 34be 346f babb 39f3 dd3d 317d 28bd
000003f0: 3be2 8bbe 6f6f a5be 20c0 36be 085c 9cbe

network.2.weight f4 [256, 256]
-0.3534396 -0.7743156 -0.12933266 0.06880037 0.07662381 -0.24071647 0.12588975 0.14395852
-0.13574041 -0.39498478 -0.2950728 0.0076809903 -0.12226904 0.09283718 -0.11834389 -0.14289078
-0.7596069 -0.095560424 -0.20193172 -0.0014499137 -0.74424404 0.44332066 -0.173954 0.098927066
0.06956375 0.13414018 0.011961645 0.012492116 -0.07208746 -0.09015479 0.030579511 0.159394
0.011230792 0.15748541 0.13721913 -0.031206537 -0.4230392 0.08912161 0.08337353 -0.012712687
-0.009524341 -0.06017571 0.17073274 -0.15853213 -0.14577122 -0.06402936 -0.3758704 -0.29046732
-0.05789402 0.08246129 -0.13808376 -0.6539072 -0.3055845 0.14136882 -0.4463977 0.051058315
0.008474007 0.13065942 0.13861857 -0.02916599 -0.05748352 0.030805273 -0.88028526 0.015077928
0.007288277 0.023433309 -0.05321295 -0.41956344 -0.007121178 -0.09313292 -0.14875434 0.0565854
0.20885172 -0.18071477 -0.011851295 0.010735435 0.027403217 -0.103036396 -0.09128079 -0.05129756
0.12978916 0.083302684 0.17267655 -0.15329988 0.023565957 0.010937269 0.057410378 0.08656506
-0.029332235 -0.46541908 -0.048647426 -0.020467889 0.13427392 -0.015006501 0.008098781 -0.0021399136
-0.7471406 0.0489194 0.105360195 -0.74059165 0.077724464 -0.35748827 0.0026550367 0.055734023
0.034840036 0.031249652 0.0639589 0.029757908 -0.22282763 -0.005766038 0.15902188 -0.005752986
-0.32238322 0.050438143 -0.029179594 0.014134839 -1.0005504 -0.15734899 0.022693984 -0.1464217
-0.009523876 0.16407081 -0.7898633 -0.18382084 0.015713021 0.15874821 0.048547626 0.03992724
-0.13159183 0.1321329 0.16371721 -0.115763605 -0.10865258 0.14049082 -0.06273663 -0.35686594
-0.24564444 0.009559603 0.07277263 -0.097436436 0.07025556 -0.3116175 0.01680116 -0.15239383
-0.26856908 -0.19345976 0.11652974 -0.12304971 0.14928396 0.056932934 0.01732264 0.035754506
-0.8378598 -0.123964176 -0.017954163 0.016509756 0.23901151 0.03151129 0.02852232 -0.3194831
-0.2711401 -0.1582906 0.075267084 -0.0033867864 0.1353599 -0.46239144 0.07223983 -0.3932609
0.054901354 0.098551735 -0.28604943 -0.15807074 -0.20019335 -0.0033195273 -0.20148258 -0.027717836
0.097536966 0.012533837 -0.01594714 0.1462187 0.048766866 -0.33487895 -0.50125766 0.051695563
-0.18812998 -0.10781435 0.07993419 -0.37276793 0.020764144 0.021730457 -0.07751498 0.011128993
-0.0014537158 0.20458136 0.037807412 -0.06504527 -0.15350637 -0.037778646 -0.03417725 -0.2499336
-0.07885201 -0.13379297 -0.049761366 -0.06739654 -0.107374735 -0.06663177 0.105645716 0.02977626
-0.01634305 -0.15911457 0.05187226 -0.042937715 0.14861827 0.009347399 0.059190985 0.027735276
-0.11763561 -0.01116631 -0.59269714 -0.27166066 -0.06845701 0.033435 -0.5788548 0.026702017
-0.10995913 0.16664737 0.04169988 0.053833567 0.16299391 -0.20557001 -0.104784 0.051287573
-0.33058915 0.1597107 -0.027025105 -0.0020825744 0.0372629 -0.07591961 -0.09679004 -0.06020188
0.052980714 -0.20956993 -0.40635428 -0.04087155 0.061700024 0.00030365607 -0.66916364 0.07908303
-0.04532271 0.001709389 -0.2929865 -0.09498893 -0.6808449 0.039231237 -0.51763314 -0.32881457
00000000: 09f6 b4be 8c39 46bf c86f 04be 35e7 8c3d
00000010: f2ec 9c3d 617e 76be 3ee9 003e dd69 133e
00000020: 89ff 0abe 723b cabe c813 97be d1b0 fb3b
00000030: 3168 fabd 6b21 be3d 485e f2bd f651 12be
00000040: 9975 42bf 2fb5 c3bd 30c7 4ebe 080b beba
00000050: c786 3ebf edfa e23e ff20 32be 469a ca3d
00000060: 7077 8e3d 0b5c 093e c7fa 433c bbab 4c3c
00000070: 97a2 93bd 13a3 b8bd e281 fa3c 2e38 233e
00000080: 5b01 383c db43 213e 2c83 0c3e daa4 ffbc
00000090: 9898 d8be 6485 b63d bebf aa3d e048 50bc
000000a0: fb0b 1cbc ce7a 76bd 90d4 2e3e 3f56 22be
000000b0: 0d45 15be d321 83bd 1672 c0be 22b8 94be
000000c0: 4822 6dbd 77e1 a83d d465 0dbe 7666 27bf
000000d0: 9275 9cbe fdc2 103e 3d8e e4be 8622 513d
000000e0: 90d6 0a3c 95cb 053e 07f2 0d3e 84ed eebc
000000f0: d773 6bbd 575b fc3c 605a 61bf 6a09 773c
00000100: 80d2 ee3b 36f7 bf3c d2f5 59bd 05d1 d6be
00000110: c558 e9bb 79bc bebd 0f53 18be 18c6 673d
00000120: 3add 553e 4b0d 39be ef2b 42bc aee3 2f3c
00000130: b67c e03c bf04 d3bd 6cf1 babd 641d 52bd
00000140: 73e7 043e 999a aa3d 1fd2 303e a5fa 1cbe
00000150: 650d c13c 3b32 333c 2527 6b3d 0649 b13d
00000160: 284a f0bc 694b eebe 8642 47bd 46ac a7bc
00000170: 1a7f 093e d4dd 75bc c0b0 043c cb3d 0cbb
00000180: 9b44 3fbf b55f 483d 16c7 d73d 6a97 3dbf
00000190: 012e 9f3d b408 b7be 2000 2e3b 5c49 643d
000001a0: 6db4 0e3d 45ff ff3c e2fc 823d dbc6 f33c
000001b0: ed2c 64be 08f1 bcbb a2d6 223e 8b83 bcbb
000001c0: 6a0f a5be 3a98 4e3d 0b0a efbc d095 673c
000001d0: 0912 80bf 1820 21be bce8 b93c 92ef 15be
000001e0: 080a 1cbc 2e02 283e 7b34 4abf 883b 3cbe
000001f0: 98b8 803c e48e 223e e0d9 463d bf8a 233d
00000200: 02c0 06be d94d 073e 7ca5 273e 7815 edbd
00000210: 3e85 debd d3dc 0f3e 107c 80bd 22b7 b6be
00000220: 378a 7bbe e29f 1c3c d109 953d c18c c7bd
00000230: 26e2 8f3d 548c 9fbe 96a2 893c 210d 1cbe
00000240: e381 89be 511a 46be 25a7 ee3d 7d01 fcbd
00000250: e5dd 183e 8232 693d 36e8 8d3c 5173 123d
00000260: fb7d 56bf eee0 fdbd 9c14 93bc 783f 873c
00000270: 6fbf 743e fc11 013d a4a7 e93c 4a93 a3be
00000280: e0d2 8abe ee16 22be a125 9a3d d9f4 5dbb
00000290: c99b 0a3e 92be ecbe 7af2 933d 7e59 c9be
000002a0: 3ee0 603d 7ed5 c93d 1275 92be 4cdd 21be
000002b0: 7cff 4cbe 6d8c 59bb 7351 4ebe 8410 e3bc
000002c0: 76c1 c73d b95a 4d3c 94a3 82bc 5bba 153e
000002d0: c4bf 473d 4175 abbe 6c52 00bf babe 533d
000002e0: 25a5 40be c5cd dcbd 89b4 a33d 70db bebe
000002f0: 9119 aa3c 1204 b23c 2dc0 9ebd 6156 363c
00000300: 9c8a beba c77d 513e f2db 1a3d 7436 85bd
00000310: c630 1dbe c8bd 1abd 72fd 0bbd 98ee 7fbe
00000320: 2a7d a1bd 0601 09be 93d2 4bbd 3207 8abd
00000330: 49e7 dbbd 3d76 88bd c85c d83d 58ed f33c
00000340: dce1 85bc eeee 22be 0278 543d 75df 2fbd
00000350: 632f 183e d525 193c 3f72 723d 1735 e33c
00000360: f0ea f0bd e6f2 36bc 00bb 17bf 1b17 8bbe
00000370: 3033 8cbd 23f3 083d d42f 14bf 30be da3c
00000380: 4132 e1bd 9ca5 2a3e 7ecd 2a3d 9680 5c3d
00000390: e0e7 263e f280 52be fe98 d6bd eb12 523d
000003a0: fb42 a9be 348b 233e c163 ddbc cd7b 08bb
000003b0: fca0 183d be7b 9bbd db39 c6bd 3f96 76bd
000003c0: 4e02 593d 8099 56be ab0d d0be ed68 27bd
000003d0: 2ab9 7c3d 0734 9f39 4f4e 2bbf 49f6 a13d
000003e0: 4ea4 39bd 940d e03a 5402 96be 8e89 c2bd
000003f0: da4b 2ebf efb0 203d 9b83 04bf 625a a8be

network.2.bias f4 [256]
0.10371437 -0.005237398 -0.03423568 0.011741759 0.13872722 0.009844079 0.090093724 0.0028412878
-0.03554051 -0.09987209 -0.040888235 -0.06467505 0.033960562 0.00036224173 -0.040171273 0.028860418
0.025456702 0.0017551163 0.009517016 -0.014938633 -0.04445409 0.07456815 -0.024533523 -0.0017890024
0.04602496 -0.047798336 0.065199755 0.0765226 -0.12180921 0.011670766 -0.04894505 -0.01766415
0.05124704 -0.0992133 0.0875523 -0.021845821 0.07621477 -0.024649799 -0.005793078 -0.0149714155
-0.0007141657 -0.10185504 -0.055595875 0.019322962 -0.049457554 -0.10796104 -0.033695415 0.006521107
0.047806427 -0.058092456 0.040277965 0.0832737 -0.0013776659 0.10413745 -0.006771866 0.039592363
0.0022561094 -0.039058287 -0.041592002 0.01411589 -0.098019645 0.026387397 0.0900673 -0.024284631
-0.022403676 0.06062607 0.006428568 -0.0016267146 0.021066371 -0.010604575 -0.17005834 0.0069193547
0.018087296 0.0111947395 0.06536165 -0.038252976 0.119248115 0.105925664 -0.023492541 0.045137472
0.003923375 0.024227045 0.067282535 -0.16405097 0.055139504 0.01087297 -0.041259225 -0.012296066
-0.0003278527 0.018646358 -0.030347532 -0.03829565 0.009215204 -0.04293022 -0.0407856 -0.07529763
-0.008895846 -0.16273215 -0.074399695 -0.01417148 0.026217317 -0.052775677 0.032079183 0.010553983
0.026765782 0.025431044 0.07545105 0.057746436 0.06616486 -0.02009914 -0.016495328 0.061953343
-0.031283583 0.034356996 -0.018392231 -0.03802052 0.099916734 -0.011979229 -0.091921575 -0.011286463
0.07621847 0.028473312 -0.046377126 -0.013089147 0.02640113 0.087322555 0.06122203 -0.09281086
0.045937534 0.001692042 0.038535796 0.0123152975 0.016149312 -0.094221145 -0.04606037 -0.02448306
0.023276547 -0.03379259 0.055502404 0.04305367 -0.0074074375 0.02148466 0.0018771559 0.00040815037
0.050739918 0.051535062 0.056917492 -0.017317358 0.017268494 -0.021903126 0.018437814 0.10066823
-0.015791887 -0.023002917 0.0749074 -0.024159476 0.037448652 0.040960558 0.035345007 -0.17731743
-0.0027828787 0.04090454 -0.026992712 -0.07504062 -0.052429438 -0.037774257 0.09908526 -0.003186358
-0.040440813 -0.10097387 -0.035061587 -0.04212303 0.006988349 0.03471337 0.071431115 0.05993184
0.010537067 -0.051263783 -0.021362614 0.049574696 -0.010266033 0.0015060743 0.02581853 0.08436607
0.035245553 -0.052141353 0.059165306 -0.05235862 0.023383234 0.012497253 -0.0450276 0.0065264516
0.014029708 0.04386072 -0.051546995 -0.013385774 0.0103632845 0.020386485 0.11289994 -0.042597428
-0.020726988 0.095479906 0.0153466975 -0.009612814 -0.015740335 -0.0041953493 -0.022936387 -0.03868728
0.02308369 0.07146397 -0.027006472 0.095917314 -0.04616167 0.035121042 -0.042750444 -0.03297567
-0.0020782824 0.06855059 -0.04590301 -0.038656775 -0.048001394 0.020870103 -0.036018703 -0.04521333
0.03293981 0.011707334 0.02373577 -0.0035498745 0.0045306324 -0.021840163 0.04072048 -0.015179515
-0.01542165 0.03464022 -0.0034093787 -0.0017911044 -0.10322746 -0.02312171 -0.05423906 -0.046839222
0.04661554 -0.052931238 -0.01757891 0.03180249 -0.03997062 -0.02921153 0.027962139 0.0084550055
0.01574663 -0.08325642 0.038611684 0.046095442 0.113976516 0.029384065 -0.025257906 0.08369518
00000000: 3368 d43d 7b9e abbb b63a 0cbd 8260 403c
00000010: 820e 0e3e 0f49 213c 0f83 b83d e634 3a3b
00000020: ed92 11bd bd89 ccbd 6c7a 27bd 5a74 84bd
00000030: 3b1a 0b3d 43eb bd39 a28a 24bd af6c ec3c
00000040: 938a d03c ee0b e63a 42ed 1b3c 2bc1 74bc
00000050: 7e15 36bd 30b7 983d 87fa c8bc f67c eaba
00000060: ab84 3c3d 30c8 43bd 7387 853d e2b7 9c3d
00000070: 1b77 f9bd be36 3f3c 9b7a 48bd 68b4 90bc
00000080: 6be8 513d 5830 cbbd 9f4e b33d 02f6 b2bc
00000090: 7d16 9c3d 60ee c9bc dcd3 bdbb ab4a 75bc
000000a0: d936 3bba 6099 d0bd 80b8 63bd 304b 9e3c
000000b0: 0194 4abd ae1a ddbd 3404 0abd 03af d53b
000000c0: acd0 433d 5bf2 6dbd 82fa 243d 678b aa3d
000000d0: cc92 b4ba 0446 d53d 88e6 ddbb 9a2b 223d
000000e0: 3cdb 133b 95fb 1fbd 605c 2abd 5546 673c
000000f0: 86be c8bd 622a d83c 3475 b83d 90f0 c6bc
00000100: ea87 b7bc 0b53 783d bda6 d23b 7c37 d5ba
00000110: 6293 ac3c d0be 2dbc c623 2ebe c1bb e23b
00000120: cf2b 943c 246a 373c 54dc 853d 27af 1cbd
00000130: 5b38 f43d 8eef d83d 6e73 c0bc 12e2 383d
00000140: a88f 803b cc77 c63c 6dcb 893d fafc 27be
00000150: f6d9 613d 8b24 323c 6fff 28bd 7075 49bc
00000160: a5e3 abb9 3fc0 983c 639b f8bc e6db 1cbd
00000170: 5efb 163c 99d7 2fbd cd0e 27bd a535 9abd
00000180: e2bf 11bc 42a3 26be de5e 98bd 7f2f 68bc
00000190: b3c5 d63c 4f2b 58bd 7665 033d 9dea 2c3c
000001a0: ea43 db3c c454 d03c 1586 9a3d 8787 6c3d
000001b0: 7181 873d f4a6 a4bc 3621 87bc cac2 7d3d
000001c0: 3723 00bd ecb9 0c3d 4eab 96bc 68bb 1bbd
000001d0: 25a1 cc3d 8744 44bc 6141 bcbd dbea 38bc
000001e0: 6e18 9c3d dd40 e93c f1f5 3dbd dd73 56bc
000001f0: 2f47 d83c 2bd6 b23d f4c3 7a3d 9f13 bebd
00000200: ff28 3c3d 82c7 dd3a b6d7 1d3d 1ac6 493c
00000210: 904b 843c 04f7 c0bd cca9 3cbd b390 c8bc
00000220: 75ae be3c 196a 0abd 7d56 633d 0c59 303d
00000230: 17ba f2bb 9900 b03c e60a f63a 04fd d539
00000240: a9d4 4f3d 6e16 533d 5122 693d 22dd 8dbc
00000250: a876 8d3c 2f6e b3bc e60a 973c 252b ce3d
00000260: fd5d 81bc 9d70 bcbc 0d69 993d 18ea c5bc
00000270: c263 193d 42c6 273d edc5 103d b392 35be
00000280: f560 36bb 858b 273d d21f ddbc e6ae 99bd
00000290: 40c0 56bd 2eb9 1abd 36ed ca3d 37d2 50bb
000002a0: 44a5 25bd 63cb cebd bd9c 0fbd 3389 2cbd
000002b0: 85fe e43b 9b2f 0e3d 7a4a 923d 177b 753d
000002c0: aaa3 2c3c f9f9 51bd a600 afbc d60e 4b3d
000002d0: dd32 28bc 7867 c53a 6281 d33c 1ec8 ac3d
000002e0: a45d 103d 2c92 55bd 5257 723d fe75 56bd
000002f0: 328e bf3c 47c1 4c3c dc6e 38bd d8db d53b
00000300: dcdc 653c 4ca7 333d f122 53bd 0150 5bbc
00000310: c4ca 293c 8f01 a73c 1538 e73d a47a 2ebd
00000320: a5cb a9bc f88a c33d b770 7b3c 107f 1dbc
00000330: e0f1 80bc 2479 89bb 17e5 bbbc 8e76 1ebd
00000340: 021a bd3c b45b 923d ad3c ddbc 4c70 c43d
00000350: 0514 3dbd 15db 0f3d 171b 2fbd 7f11 07bd
00000360: cb33 08bb 4064 8c3d cb04 3cbd 9156 1ebd
00000370: 1c9d 44bd c7f7 aa3c 5988 13bd 9d31 39bd
00000380: e5eb 063d 1ed0 3f3c 8471 c23c 03a5 68bb
00000390: b375 943b 24ea b2bc 85ca 263d 80b3 78bc
000003a0: 17ab 7cbc e7e2 0d3d e26f 5fbb 7ec3 eaba
000003b0: eb68 d3bd be69 bdbc c729 5ebd 7cda 3fbd
000003c0: f0ef 3e3d 6dce 58bd a501 90bc 5443 023d
000003d0: 3cb8 23bd 054d efbc db10 e53c dd86 0a3c
000003e0: 14ff 803c 5882 aabd 4927 1e3d 93ce 3c3d
000003f0: 856c e93d dab6 f03c abe9 cebc 6168 ab3d

mean.weight f4 [1, 256]
0.30179748 -0.24434204 -0.09236028 0.020694923 0.70480144 0.035429202 -1.6370009 -0.014552494
-0.03063616 0.5723916 0.017551357 0.33879066 0.0009733855 0.1359579 -0.034539282 0.7405029
-0.06867566 0.4363025 -0.2668444 0.33609182 -0.22151953 -0.21798907 0.12466177 0.0047308113
-0.8172848 0.75914246 -0.017344354 0.47923434 -0.49170083 -0.73701984 0.018687412 -0.35162005
-0.36542302 0.56495506 -0.30199203 0.02903971 0.290324 0.11711426 0.028923007 -0.4859098
-0.13066174 0.15934077 0.27771968 -0.0855047 0.003925424 0.3830633 -0.7435054 -0.0032371439
0.010736412 -0.48068392 -1.1131897 -0.021124206 0.0756751 -0.4124467 -0.0038247441 0.21910012
-0.0206528 -0.17584486 0.032826345 -0.0017846487 -0.18400916 0.06904476 -0.25488666 -0.5056541
0.037963815 -1.0444622 -0.0016602976 -0.008341947 -0.19604406 0.053790253 -0.66076124 0.33224848
-0.06925222 -0.05075005 0.43863335 0.86344415 0.39945263 0.44284862 -0.25282037 -0.035559643
-0.43077198 -1.4970825 -0.21670216 0.3771984 -0.50278044 0.0028208771 -0.09270517 0.08598476
0.028002286 -0.10919949 0.05275645 -0.015833208 -0.37732193 -0.0077355653 0.006598991 -0.44424972
0.1872478 0.1813646 0.2724696 -0.010096097 -0.008733016 0.35923213 0.05922775 -0.6579704
-0.35089076 0.07532864 0.036396824 -0.0955733 -0.029536398 0.02107857 -0.020568615 0.74592584
0.095714875 0.049918726 -0.27292135 0.023568895 0.308726 -0.033559848 0.025934847 0.0033364769
0.012201676 -0.025060551 -0.011387111 0.8020112 0.104729116 0.41369072 0.22751515 -0.13361081
1.0631695 -0.9378486 0.0012917706 -0.21583402 0.17231663 0.6025846 0.0467535 0.03187883
-0.048299402 0.0088633 -0.0245101 -0.09206378 -0.010022048 0.01962004 0.14172421 0.55687505
0.0720695 0.007903485 0.33135667 -0.0058497777 0.22056934 -0.005123093 -0.24054973 -0.07312502
0.10345689 1.7141279 -0.2036261 0.1350353 1.5832002 0.07208878 0.026883112 0.24760695
-0.0057835933 0.017349806 0.03547044 0.5507439 0.059226952 -0.022182 0.5054753 -0.015102204
0.014940182 0.09490916 0.8615235 -0.029191867 -0.42614475 -0.040055927 0.054022573 -0.25490913
0.25283942 -0.0060377945 0.24541627 0.04073395 0.0056250733 0.044971287 -0.3891347 0.85731417
-0.19032559 0.013379818 0.05933767 0.020808268 0.32730797 -0.01969096 -0.035288 0.42390844
0.012210737 0.80163497 0.024659753 0.5304779 0.06412264 0.02289807 1.0941865 0.04230274
-0.009990903 -0.5724927 1.0455333 0.0012533269 -0.19345687 -1.0818373 0.022167081 -1.3149328
-0.012278237 -0.22160286 0.81738603 -0.15528713 0.019475924 0.015209837 -0.04335414 0.032326505
0.19231427 -0.114259996 -0.013939191 -0.014622845 0.30471355 -0.19783711 -0.62570125 -0.008831517
0.0056356424 -0.0018929148 -0.40738767 -0.1199537 0.012575821 0.20756724 -0.35450742 0.11711582
-0.030431379 0.026268933 0.08478368 -0.032004807 0.03657333 0.00020087161 -0.6545372 0.00012372999
-0.14487793 0.012160602 -0.03077573 -1.3993101 -0.004329993 -0.18408287 -0.012572187 -1.1562179
0.22807944 0.4513104 -0.13080238 0.17855941 -0.13431549 -0.84638554 -0.54489505 -0.012734103
00000000: 3385 9a3e cd34 7abe 6327 bdbd 6688 a93c
00000010: de6d 343f 361e 113d 3f89 d1bf 956d 6ebc
00000020: aff8 fabc 4288 123f ddc7 8f3c f875 ad3e
00000030: cc2a 7f3a 8c38 0b3e 1079 0dbd 9991 3d3f
00000040: d3a5 8cbd 0b63 df3e d49f 88be 3a14 ac3e
00000050: 04d6 62be 8738 5fbe ac4e ff3d ec04 9b3b
00000060: 9439 51bf 2957 423f bf15 8ebc 345e f53e
00000070: 36c0 fbbe 55ad 3cbf 5816 993c 8b07 b4be
00000080: ba18 bbbe e5a0 103f b39e 9abe b0e4 ed3c
00000090: 59a5 943e 9ad9 ef3d f1ef ec3c 2bc9 f8be
000000a0: 31cc 05be 3a2a 233e 4631 8e3e 171d afbd
000000b0: d8a0 803b df20 c43e 5f56 3ebf 4326 54bb
000000c0: c7e7 2f3c 341c f6be 007d 8ebf ac0c adbc
000000d0: 8cfb 9a3d 372c d3be 8fa8 7abb c85b 603e
000000e0: 1030 a9bc ad10 34be eb74 063d e0ea e9ba
000000f0: e66c 3cbe 5767 8d3d 8180 82be 8c72 01bf
00000100: f27f 1b3d f0b0 85bf 589e d9ba a9ac 08bc
00000110: c6bf 48be 2b53 5c3d a627 29bf 791c aa3e
00000120: 1cd4 8dbd 49df 4fbd 8d94 e03e ad0a 5d3f
00000130: 0e85 cc3e 0ebd e23e ac71 81be fda6 11bd
00000140: 258e dcbe 66a0 bfbf 2ce7 5dbe 2620 c13e
00000150: 38b6 00bf 77de 383b 35dc bdbd c718 b03d
00000160: 0d65 e53c fba3 dfbd 2617 583d a5b4 81bc
00000170: 5730 c1be a07a fdbb 593c d83b b374 e3be
00000180: e3bd 3f3e a4b7 393e 2381 8b3e 1a6a 25bc
00000190: ed14 0fbc 46ed b73e cc98 723d c070 28bf
000001a0: f4a7 b3be e745 9a3d d614 153d efbb c3bd
000001b0: 51f6 f1bc f7ac ac3c 837f a8bc fff4 3e3f
000001c0: 2906 c43d 9477 4c3d 59bc 8bbe 8e13 c13c
000001d0: 5611 9e3e 0d76 09bd 5175 d43c cba8 5a3b
000001e0: 8ae9 473c c94b cdbc 0191 3abc 9b50 4d3f
000001f0: 387c d63d 45cf d33e bbf9 683e 46d1 08be
00000200: f015 883f d916 70bf a150 a93a 9803 5dbe
00000210: c573 303e fc42 1a3f 9980 3f3d 6093 023d
00000220: 98d5 45bd 6037 113c 68c9 c8bc ef8b bcbd
00000230: 8433 24bc 35ba a03c 2720 113e 5d8f 0e3f
00000240: 2d99 933d 9e7d 013c 95a7 a93e 7eaf bfbb
00000250: eedc 613e 9edf a7bb ab52 76be 92c2 95bd
00000260: 35e1 d33d 8b68 db3f 5c83 50be b246 0a3e
00000270: 4ea6 ca3f 48a3 933d f939 dc3c ad8c 7d3e
00000280: 4c84 bdbb 2e21 8e3c 7449 113d 8dfd 0c3f
00000290: f697 723d 07b7 b5bc d466 013f 3c6f 77bc
000002a0: aac7 743c bc5f c23d ce8c 5c3f c823 efbc
000002b0: a52f dabe af11 24bd c646 5d3d 7383 82be
000002c0: 2b74 813e b1d8 c5bb 674e 7b3e a4d8 263d
000002d0: 8952 b83b d033 383d aa3c c7be f178 5b3f
000002e0: b6e4 42be 0637 5b3c 0f0c 733d 1a76 aa3c
000002f0: e994 a73e f04e a1bc 268a 10bd 870a d93e
00000300: 8b0f 483c f337 4d3f 4003 ca3c 66cd 073f
00000310: bb52 833d bc94 bb3c 4e0e 8c3f a345 2d3d
00000320: e2b0 23bc e28e 12bf 09d4 853f ac46 a43a
00000330: 8f19 46be a579 8abf bd97 b53c b84f a8bf
00000340: a92a 49bc dceb 62be 3640 513f 9703 1fbe
00000350: f98b 9f3c ae32 793c 1c94 31bd cc68 043d
00000360: 08ee 443e 2501 eabd 3461 64bc a894 6fbc
00000370: 6a03 9c3e d095 4abe f52d 20bf 11b2 10bc
00000380: 32ab b83b ae1b f8ba 1e95 d0be 49aa f5bd
00000390: d10a 4e3c 828c 543e ff81 b5be 6bda ef3d
000003a0: 3a4b f9bc f231 d73c 11a3 ad3d 7917 03bd
000003b0: ebcd 153d 10a1 5239 c08f 27bf 84bd 0139
000003c0: e15a 14be 433d 473c 621d fcbc 981c b3bf
000003d0: 9de2 8dbb 3880 3cbe 93fb 4dbc f3fe 93bf
000003e0: a88d 693e 2812 e73e 0ff1 05be 47d8 363e
000003f0: 008a 09be b9ac 58bf 3e7e 0bbf b3a2 50bc

log_std.weight f4 [1, 256]
0.15890247 0.122410946 -0.119115435 -0.008025175 -0.26605138 -0.16855687 -0.12638795 -0.01774324
0.02289951 -0.085441776 0.09595097 0.2083119 -0.008414468 -0.32158792 0.03782913 -0.05053383
-0.23744115 0.17666765 0.1197151 0.21295027 -0.18547806 -0.044593785 -0.09109108 -0.00023534012
-0.35340488 -0.04029929 0.122276686 -0.26067436 -0.09001134 -0.055535983 -0.029746631 0.13406223
-0.04284383 -0.014685515 -0.25408113 0.0026190076 0.1556054 -0.06722956 -0.005441685 -0.12604861
-0.12481393 -0.0044050403 0.011615084 -0.16834448 -0.0075446656 0.18454216 -0.022474945 0.012946994
-0.16207698 -0.14637159 -0.13928309 -0.25064525 0.2746739 -0.39107582 -0.37613222 0.08842571
0.035145685 0.011788793 -0.026331177 -0.032209065 0.21787518 -0.13156238 -0.05319837 -0.05821546
-0.012697063 0.0033062291 0.0017619552 0.010018842 -0.0079734465 -0.073028564 -0.026121037 -0.114619896
0.27450684 0.037780024 -0.062082116 -0.0656637 0.37561688 -0.12056517 -0.011279694 0.18549056
-0.18258962 -0.28977826 -0.5951836 -0.015565461 0.047369514 -0.017199049 -0.01646331 -0.4085449
0.00573515 -0.10325709 -0.30294633 0.0073765856 0.250357 0.0075982013 0.24881709 0.056549914
0.10751281 0.21307188 0.041305285 0.019248752 -0.031019237 0.07409789 -0.32064986 0.07886397
0.03202457 -0.14259401 0.21714275 0.2008491 0.05768208 0.01827313 0.01931778 0.050670054
-0.17196338 -0.052157234 -0.017082298 -0.03730606 -0.03603621 0.0028885657 -0.15010285 -0.057194807
-0.17220962 -0.04161359 -0.20913415 0.14373566 0.045493867 -0.21301408 -0.14542617 0.33721742
0.043226212 -0.038474742 -0.30337384 0.034123097 -0.017668286 0.17361133 -0.010294287 0.10435686
-0.22642955 0.026437419 -0.15342396 -0.3217048 -0.2345693 -0.015267991 0.103898756 -0.23488082
-0.39061144 0.1195536 -0.01128181 0.014493975 -0.015986111 -0.0041686757 0.28247944 -0.30085987
-0.18028714 -0.36219198 -0.17814848 0.27852833 0.43952334 -0.68250674 -0.3011057 0.23339933
-0.0046434407 -0.31878915 0.033547007 -0.04926925 -0.35691017 0.016350754 -0.2560778 -0.18166599
0.029921036 -0.19467807 -0.122625805 0.0035218587 -0.13132048 -0.022617271 -0.30223295 -0.10999145
-0.12182243 0.005619298 0.21483871 -0.12042521 -0.025649907 -0.20272106 -0.113145605 0.28100377
0.69481426 -0.026848149 -0.6006061 -0.014697733 0.42401627 0.0023123145 -0.01723355 0.035257943
-0.25472018 0.5064466 0.007013426 -0.052487303 -0.10649265 -0.06241146 -0.09678905 -0.038541075
-0.03206551 0.30917692 -0.10460958 -0.00931603 0.111074336 -0.12533513 0.013043334 -0.089324936
-0.22587207 0.059118222 0.06871969 0.023824302 -0.02466173 -0.18414658 -0.15883204 0.01913458
0.10289794 0.013949988 0.019388497 -0.03817923 -0.2129429 -0.35931066 0.031401478 -0.010109729
-0.12269868 -0.001868577 0.052320287 -0.34735546 -0.017138213 0.24168813 0.25010413 -0.039469782
0.19491525 -0.14858909 0.19137439 -0.038497426 0.12204129 0.023328451 0.03155525 0.014893897
0.03529736 -0.0075092893 0.012918276 0.1396676 -0.025311658 0.22075903 -0.016701125 -0.007304044
0.17282706 -0.1277229 0.034741815 -0.08551042 -0.2498178 0.02058632 -0.052466396 -0.110324755
00000000: 54b7 223e 97b2 fa3d cbf2 f3bd 067c 03bc
00000010: e337 88be 2c9a 2cbe d86b 01be 455a 91bc
00000020: c197 bb3c 19fc aebd f181 c43d b74f 553e
00000030: d6dc 09bc 2ca7 a4be b8f2 1a3d 90fc 4ebd
00000040: c623 73be 5de8 343e 312d f53d a30f 5a3e
00000050: f6ed 3dbe f9a7 36bd f68d babd a2c5 76b9
00000060: 7cf1 b4be de10 25bd 336c fa3d 1c77 85be
00000070: de57 b8bd b379 63bd 35af f3bc 9c47 093e
00000080: 037d 2fbd 849b 70bc ec16 82be a8a3 2b3b
00000090: 0657 1f3e a7af 89bd 2a50 b2bb e312 01be
000000a0: 729e ffbd 2858 90bb 314d 3e3c 7f62 2cbe
000000b0: 3e39 f7bb 9ff8 3c3e 601d b8bc a11f 543c
000000c0: 82f7 25be 6fe2 15be 3aa0 0ebe 9354 80be
000000d0: 0fa2 8c3e 173b c8be 6794 c0be 8a18 b53d
000000e0: ecf4 0f3d c825 413c 7bb4 d7bc a7ed 03bd
000000f0: ac1a 5f3e 4ab8 06be 89e6 59bd 5673 6ebd
00000100: 5807 50bc 52ad 583b 68f1 e63a 1226 243c
00000110: 0fa3 02bc 0090 95bd c9fb d5bc d6bd eabd
00000120: 298c 8c3e 3abf 1a3d d149 7ebd b17a 86bd
00000130: db50 c03e dfea f6bd 77ce 38bc 3df1 3d3e
00000140: c6f8 3abe d15d 94be f45d 18bf 4606 7fbc
00000150: 8906 423d 05e5 8cbc 10de 86bc cc2c d1be
00000160: eded bb3b 7478 d3bd c81b 9bbe 49b7 f13b
00000170: cb2e 803e 55fa f83b e8c9 7e3e e2a0 673d
00000180: ad2f dc3d 842f 5a3e bb2f 293d 8faf 9d3c
00000190: 0e1c febc a2c0 973d 382c a4be 6f83 a13d
000001a0: 322c 033d 2a04 12be ab5a 5e3e 63ab 4d3e
000001b0: 0b44 6c3d 88b1 953c 5240 9e3c 678b 4f3d
000001c0: 2b17 30be d3a2 55bd 2df0 8bbc 3dce 18bd
000001d0: b49a 13bd 174e 3d3b 90b4 19be 1a45 6abd
000001e0: b857 30be 0373 2abd 4327 56be 712f 133e
000001f0: c757 3a3d 5d20 5abe 99ea 14be c3a7 ac3e
00000200: f80d 313d b197 1dbd d153 9bbe a9c4 0b3d
00000210: 15bd 90bc 2bc7 313e 5fa9 28bc 0db9 d53d
00000220: 26dd 67be 4993 d83c 2c1b 1dbe 7eb6 a4be
00000230: ef32 70be 9926 7abc dfc8 d43d 9984 70be
00000240: 39fe c7be 85d8 f43d 57d7 38bc 2378 6d3c
00000250: 4ef5 82bc 6399 88bb 25a1 903e 4e0a 9abe
00000260: 319d 38be 3a71 b9be 8e6c 36be 449b 8e3e
00000270: 3409 e13e c3b8 2ebf 872a 9abe 3c00 6f3e
00000280: 0128 98bb 5538 a3be 9668 093d 8ece 49bd
00000290: eebc b6be 04f2 853c a11c 83be a606 3abe
000002a0: f61c f53c b059 47be 3d23 fbbd fcce 663b
000002b0: e078 06be db47 b9bc 47be 9abe 3343 e1bd
000002c0: 0a7e f9bd 1722 b83b aefe 5b3e 7ea1 f6bd
000002d0: c11f d2bc 1c96 4fbe e2b8 e7bd badf 8f3e
000002e0: 59df 313f a6f0 dbbc 52c1 19bf c3ce 70bc
000002f0: a918 d93e 338a 173b 602d 8dbc a26a 103d
00000300: af6a 82be 7ca6 013f e2d0 e53b edfc 56bd
00000310: d218 dabd 29a3 7fbd 5639 c6bd 3fdd 1dbd
00000320: 2057 03bd 704c 9e3e 8c3d d6bd 43a2 18bc
00000330: f17a e33d da57 00be b5b3 553c feef b6bd
00000340: 024b 67be f325 723d e9bc 8c3d 2f2b c33c
00000350: 6507 cabc ec90 3cbe dea4 22be 1fc0 9c3c
00000360: 28bc d23d 7e8e 643c a0d4 9e3c d361 1cbd
00000370: b40d 5abe 91f7 b7be d69e 003d 47a3 25bc
00000380: 7249 fbbd 0aeb f4ba cc4d 563d 93d8 b1be
00000390: 7065 8cbc 187d 773e a60d 803e 11ab 21bd
000003a0: dd97 473e bd27 18be a6f7 433e 7aaf 1dbd
000003b0: c9f0 f93d 4f1b bf3c 1440 013d 8805 743c
000003c0: f793 103d 7c10 f6bb 2da7 533c 0605 0f3e
000003d0: 655a cfbc a80e 623e ccd0 88bc c356 efbb
000003e0: 94f9 303e cbc9 02be 6f4d 0e3d 1620 afbd
000003f0: 3dd0 7fbe a4a4 a83c 01e7 56bd f2f1 e1bd
