validated models/actor_1743257887.pth (torch, 275820 bytes, 6 tensors)

network.0.weight f4 [256, 6]
0	0x3f114a38	0.56753874
1	0xbd05c55d	-0.032658923
2	0x3c50dc57	0.012747846
3	0xbe03badf	-0.12864254
4	0x3f0cd574	0.55013204
5	0xbf305356	-0.6887716
6	0xbf085ecd	-0.53269655
7	0xbf131609	-0.574555
8	0x3ea07dae	0.31345886
9	0xbe626b67	-0.22111283
10	0xbecb0e08	-0.39659142
11	0x3d0144b3	0.031559657
12	0xbe15318c	-0.14569682
13	0x3cde322e	0.027123537
14	0xbdee3b9d	-0.11632464
15	0xbd3b3882	-0.045708187
16	0x3ec542aa	0.38527423
17	0xbe907618	-0.28215098
18	0xbd640c0c	-0.05567555
19	0x3db014d5	0.085977234
20	0x3eae76a5	0.34074894
21	0xbead27b9	-0.33819368
22	0xbe74ba09	-0.23899092
23	0x3e337a09	0.17527021
24	0x3e32ea93	0.17472295
25	0xbe90c697	-0.28276512
26	0x3ecef4c2	0.4042111
27	0x3e29f505	0.16597374
28	0x3ec5b680	0.386158
29	0x3cd16590	0.025561124
30	0x3ee378f7	0.44428226
31	0x3e9c7999	0.30561522
32	0x3d6a69f5	0.057229955
33	0xbf427b6d	-0.7596958
34	0x3e5f6761	0.2181678
35	0xbe5f8bdb	-0.21830694
36	0xbdc541d1	-0.09631694
37	0xbeebca11	-0.46052602
38	0x3e1aed34	0.15129548
39	0x3e9bd1e3	0.30433568
40	0x3e0136a1	0.12618496
41	0xbeb96c98	-0.36215663
42	0xbc038f1d	-0.008029726
43	0xbb93e60a	-0.004513507
44	0x3d94abca	0.07259329
45	0x3c07f738	0.008298688
46	0x3d3a1525	0.04543032
47	0xbca10054	-0.019653477
48	0x3db7c7b2	0.08973636
49	0xbecd0f61	-0.40050796
50	0xbd84a821	-0.064773805
51	0xbe75ba91	-0.2399695
52	0xbe5ab9e0	-0.21359968
53	0x3e74621c	0.23865551
54	0x3ef8b889	0.4857829
55	0xbec6b13c	-0.38807094
56	0x3ed02055	0.40649667
57	0x3dbb7769	0.09153635
58	0xbe607ed4	-0.21923381
59	0x3e895580	0.26823044
60	0xbe185aeb	-0.14878432
61	0xbedbf717	-0.42961952
62	0x3e00e121	0.1258588
63	0xbd16bb5f	-0.036799785
64	0xbeccadb5	-0.39976278
65	0x3ddd0ecc	0.10793838
66	0x3edd418b	0.43214068
67	0xbf3cc2a4	-0.737345
68	0x3e8d0d68	0.2754929
69	0xbe26318e	-0.16229841
70	0x3ebc68c1	0.3679867
71	0xbd8e8362	-0.06958653
72	0x3df52b95	0.11971203
73	0x3e75a3c6	0.23988256
74	0x3e90ed0e	0.28305858
75	0x3e986097	0.29761192
76	0xbd84575d	-0.06461976
77	0x3ef75d29	0.48313263
78	0xbe551ec1	-0.20812513
79	0x3c4f0291	0.012634889
80	0xbdcec038	-0.100952566
81	0xbbac9b4f	-0.0052675377
82	0xbbeadf51	-0.0071677347
83	0x3c914258	0.01773183
84	0x3d12df32	0.035857387
85	0xbe84bf3a	-0.25927144
86	0x3eca4139	0.39502886
87	0xbeef2bcb	-0.467131
88	0x3ecd1e26	0.40062064
89	0xbeb3d52b	-0.35123572
90	0x3ec17937	0.37787792
91	0xbdffac19	-0.12483997
92	0x3e7bb94a	0.24582401
93	0xbecdeb23	-0.40218458
94	0x3ef5b518	0.47989726
95	0xbea5d893	-0.32391796
96	0x3e90f4a4	0.28311646
97	0x3ea10351	0.31447843
98	0x3c365daa	0.01113073
99	0xbe8bd7ab	-0.2731298
100	0xbea312df	-0.31850335
101	0x3d3a2c2b	0.045452278
102	0xbdf7e643	-0.12104466
103	0xbf011f04	-0.5043795
104	0xbca0db9a	-0.019635964
105	0x3e5a0cb0	0.21293902
106	0xbef67eb6	-0.48143548
107	0xbe093b19	-0.1340145
108	0x3eb6d5fb	0.3571013
109	0x3e4484a3	0.19191222
110	0xbdcb1a70	-0.09917152
111	0x3eb6bf77	0.3569295
112	0xbed244d0	-0.41068125
113	0xbe9ae193	-0.30250224
114	0x3e0e2664	0.13881832
115	0xbf264651	-0.64951044
116	0xbe66bf5c	-0.22533935
117	0xbd20dbcd	-0.03927212
118	0xbe6f6c49	-0.23381151
119	0xbe0d9f03	-0.1383019
120	0xbc7854e9	-0.015156963
121	0xbe8001c8	-0.2500136
122	0x3e33ca09	0.17557539
123	0xbec3f4cf	-0.38272712
124	0xbef3f133	-0.47644958
125	0x3d96f3cf	0.073707215
126	0x3ef23f3d	0.47313872
127	0xbe862139	-0.26197222
128	0x3e50a53a	0.20375529
129	0xbea9b45f	-0.33145425
130	0xbc1e187b	-0.009649391
131	0xbde1614b	-0.11004885
132	0x3ec56d4f	0.38559958
133	0xbef8540c	-0.48501623
134	0xbf099b0c	-0.5375221
135	0xbe67998f	-0.22617172
136	0xbe543cd3	-0.20726328
137	0xbc4f5ca0	-0.012656361
138	0xbc15f143	-0.00915176
139	0xbf1ae94a	-0.6051222
140	0x3dccc80c	0.099990934
141	0x3e0505fd	0.12990566
142	0xbf27a2bb	-0.6548268
143	0x3ed1d274	0.40980875
144	0xbdaed886	-0.08537392
145	0xbee1e0ab	-0.4411672
146	0xbeb1dc31	-0.34738305
147	0x3e6620ac	0.22473401
148	0xbec598ba	-0.38593084
149	0xbec05ebe	-0.37572283
150	0x3d81c2dc	0.063359946
151	0x3d84ec3e	0.06490372
152	0x3f028494	0.5098355
153	0xbc21c0a4	-0.009872589
154	0xbdba2110	-0.090883374
155	0xbeb5c68c	-0.35503042
156	0xbd88a079	-0.06671233
157	0xbf04b102	-0.5183259
158	0x3e97d648	0.2965567
159	0x3e55888f	0.20852874
160	0xbea46978	-0.32111716
161	0x3f1ee6dd	0.6207102
162	0x3e60f006	0.21966562
163	0xbe1de5fc	-0.15419763
164	0x3c1f388c	0.009718072
165	0x3e730c84	0.23735243
166	0xbed84980	-0.42243576
167	0xbe72cc0d	-0.23710652
168	0x3eb36317	0.35036537
169	0xbe0537ef	-0.13009618
170	0x3ecd891a	0.40143663
171	0x3ac9138c	0.0015340908
172	0xbe0b8ccf	-0.13627933
173	0x3eb968c7	0.3621275
174	0xbe215a59	-0.15757121
175	0xbf21343c	-0.6297033
176	0x3e0ec0ad	0.13940687
177	0x3eaf4adb	0.34236798
178	0xbdde1652	-0.10844101
179	0xbe57092f	-0.20999597
180	0xbe3fa18a	-0.18713966
181	0xbe36a5d5	-0.17836697
182	0xbe65e731	-0.22451474
183	0x3e39cc81	0.18144418
184	0xbd9605ea	-0.07325347
185	0x3ebbfdb2	0.36716992
186	0x3e8bd611	0.27311757
187	0xbecba576	-0.39774674
188	0x3e87f91d	0.26557246
189	0x3d64ccbc	0.055859312
190	0x3e48312c	0.19550008
191	0x3d286aa3	0.04111732
192	0x3db62e2f	0.088955276
193	0x3e0cec60	0.13762045
194	0x3f0a1647	0.5394024
195	0xbed4e46b	-0.4158052
196	0x3dc7ddb0	0.097590804
197	0x3ee29593	0.4425474
198	0x3e0957c5	0.13412388
199	0xbeac596b	-0.3366197
200	0xbf132b0e	-0.5748757
201	0xbddfa6fa	-0.1092052
202	0x3e76f748	0.24117768
203	0xbee42a0d	-0.44563332
204	0x3e40d9cb	0.18833081
205	0xbeb54c0d	-0.35409585
206	0xbe3a89f2	-0.18216684
207	0xbcc187fc	-0.023624413
208	0x3eaa4309	0.3325427
209	0xbea164de	-0.31522268
210	0xbe1ad24c	-0.15119284
211	0x3d8964e7	0.06708699
212	0xbf0f75a7	-0.560389
213	0xbef5ec2b	-0.48031744
214	0xbe14a761	-0.14516975
215	0xbed11fe0	-0.4084463
216	0x3e646d41	0.22307302
217	0xbeaf738b	-0.3426784
218	0x3e9be9a0	0.3045168
219	0x3f00bafb	0.5028531
220	0x3f251dc2	0.6449853
221	0x3d95d332	0.07315673
222	0x3e8ffc10	0.28121996
223	0x3e64de71	0.2235048
224	0x3ef36365	0.4753677
225	0xbe8bd542	-0.2731114
226	0x3e012e33	0.1261528
227	0x3ea2c50b	0.31790957
228	0x3cba8067	0.022766305
229	0xbebc273a	-0.36748677
230	0xbe4a429a	-0.19751969
231	0x3e5e5868	0.21713412
232	0x3e30aa49	0.17252459
233	0x3dababc1	0.08382369
234	0x3e234694	0.15944892
235	0xbea17da6	-0.31541175
236	0x3f482708	0.78184557
237	0x3edae06d	0.42749348
238	0x3e7c0ea0	0.24614954
239	0x3f30d282	0.6907121
240	0x3eacd270	0.337543
241	0x3de1ace0	0.110193014
242	0x3bd3b704	0.006461026
243	0x3ebf354a	0.37345344
244	0x3e440807	0.19143687
245	0xbd8da2ff	-0.06915855
246	0x3cf4acb1	0.029867502
247	0xbf015bf8	-0.5053096
248	0xbe0e3686	-0.13887987
249	0xbd21b860	-0.039482474
250	0x3e764d3a	0.24052897
251	0x3f0bad96	0.54561746
252	0x3effe682	0.4998055
253	0x3e19c78e	0.1501753
254	0x3dac6432	0.08417548
255	0x3efa88fc	0.48932636

network.0.bias f4 [256]
0	0xbe480029	-0.19531311
1	0xbe193b92	-0.1496413
2	0xbe32dc72	-0.17466906
3	0xbcc949a5	-0.02457125
4	0x3d0f2b04	0.034953132
5	0xbe3d30ef	-0.18475698
6	0xbcddb0ff	-0.027061937
7	0xbe05afc3	-0.13055329
8	0x3dbf8b5d	0.09352753
9	0x3d8a1ec6	0.06744151
10	0xbcc9618a	-0.024582643
11	0xbd9ed546	-0.077555224
12	0xbeb97a63	-0.36226186
13	0xbe7db772	-0.2477701
14	0x3c2bf58b	0.010495554
15	0xbe952c84	-0.29135525
16	0xbe90cc77	-0.28280994
17	0x3db26638	0.08710903
18	0xbeaac85f	-0.33355996
19	0xbed68243	-0.41896257
20	0xbe541cc0	-0.20714092
21	0xbd7319c9	-0.059350763
22	0xbe02d4a4	-0.12776428
23	0x3e53e799	0.20693816
24	0x3db619dd	0.08891652
25	0x3cac6cfc	0.021048062
26	0xbe64edb0	-0.22356296
27	0xbd7d4ca9	-0.061840687
28	0xbea3b9fd	-0.31977835
29	0x3e0751c3	0.13214783
30	0xbe7c8471	-0.24659897
31	0xbea2acef	-0.31772563
32	0x3e3222d4	0.17396098
33	0x3cc5b5bd	0.024134511
34	0xbe655b91	-0.22398211
35	0x3e67b74f	0.2262852
36	0xbdefe260	-0.117130995
37	0x3e24ba55	0.16086705
38	0x3d26de4e	0.04073935
39	0xbc002b15	-0.007822772
40	0xbe4fd5dd	-0.20296426
41	0xbe66c47a	-0.22535887
42	0xbebd1619	-0.36930922
43	0xbe2b97a7	-0.1675707
44	0xbe4d1ee4	-0.20031315
45	0xbdbd6810	-0.09248364
46	0x3cbab137	0.02278958
47	0xbbfc3c54	-0.0076976214
48	0xbe4c268b	-0.19936578
49	0x3e023aba	0.12717715
50	0x3e53e842	0.20694068
51	0x3dc35f7d	0.09539697
52	0xbe82ca8a	-0.2554515
53	0xbe8f8983	-0.280346
54	0xbdc7e73b	-0.097609006
55	0x3d34e356	0.044162117
56	0xbf06f3ec	-0.52715945
57	0xbe216949	-0.1576282
58	0xbdc69911	-0.09697164
59	0x3e0417ed	0.12899752
60	0xbd51360c	-0.051076934
61	0xbe26d482	-0.16292003
62	0xbece3806	-0.40277117
63	0xbd847058	-0.0646674
64	0xbe9c4758	-0.3052318
65	0xbe97cc0e	-0.2964787
66	0xbdf8fb63	-0.12157323
67	0xbc6e83eb	-0.014557819
68	0xbe9093e9	-0.28237846
69	0xbe73ef25	-0.23821695
70	0x3e238e3c	0.15972227
71	0xbe0af259	-0.13569011
72	0xbd08c5ef	-0.03339189
73	0xbe6586d0	-0.22414708
74	0xbd2b7384	-0.04185821
75	0xbe7d6194	-0.24744254
76	0x3d886d93	0.066615246
77	0xbdcfeb6a	-0.101523235
78	0xbe8f43d6	-0.27981442
79	0xbe7c3e16	-0.24633059
80	0xbeb1c08f	-0.34717223
81	0xbc80122d	-0.015633667
82	0xbdd6b678	-0.10484022
83	0xbeab4e5d	-0.33458224
84	0x3e4e5625	0.20150049
85	0xbe7ebfd0	-0.24877858
86	0x3d3bd3cb	0.04585628
87	0xbec0318c	-0.375378
88	0x3dbc1f57	0.09185665
89	0x3d359ee0	0.044340968
90	0xbddf7d0f	-0.10912525
91	0xbec2f936	-0.38080758
92	0xbd94da65	-0.07268218
93	0x3cc06c78	0.023489222
94	0x3e3c334c	0.18378943
95	0x3d433bd6	0.047664486
96	0x3cb4970a	0.022044677
97	0xbed0084c	-0.4063133
98	0x3da30df3	0.07961645
99	0xbde0939b	-0.109656535
100	0xbe531f34	-0.20617372
101	0x3dcbf209	0.09958274
102	0x3d864d1c	0.06557676
103	0x3d2d7b27	0.042353775
104	0x3d797257	0.06090006
105	0xbed1c3a5	-0.40969577
106	0x3e02bee2	0.12768129
107	0xbdcb1bb0	-0.0991739
108	0x3e24a7bc	0.1607961
109	0xbe1df935	-0.15427096
110	0x3df4c6ff	0.11952018
111	0x3e8c91bf	0.27454945
112	0xbdc82d0a	-0.097742155
113	0x3e31e9fb	0.17374413
114	0xbe835276	-0.2564885
115	0xbe62049e	-0.22072074
116	0xbed10dab	-0.4083074
117	0xbe27c01c	-0.16381878
118	0xbe59e240	-0.21277714
119	0x3c7b5c97	0.015341899
120	0x3cf34c22	0.029699389
121	0xbd16dc9a	-0.036831476
122	0xbeb31507	-0.3497698
123	0xbcbc551e	-0.022989806
124	0x3dddef26	0.108366296
125	0x3dfca79a	0.12336655
126	0xbecb1d24	-0.3967067
127	0xbe792f6d	-0.24334498
128	0x3cfd1109	0.030891912
129	0xbe1df246	-0.15424451
130	0x3e1b0ca6	0.15141544
131	0xbcfdbc24	-0.030973502
132	0x3e58dcfc	0.21178049
133	0x3d8f3de0	0.069942236
134	0xbec29ac3	-0.380087
135	0xbe714552	-0.235616
136	0x3e2c6ad6	0.1683763
137	0xbdd2aedc	-0.10287258
138	0xbea92374	-0.3303486
139	0xbd9d3ba7	-0.076773934
140	0xbe39b972	-0.18137148
141	0x3e4f84f9	0.20265569
142	0x3e550ecc	0.20806426
143	0x3ddce113	0.10785117
144	0xbe71b9ef	-0.23606084
145	0xbda19da2	-0.07891394
146	0xbd36a9ad	-0.04459541
147	0xbc3fa6ae	-0.011697454
148	0x3e1ecf0a	0.15508667
149	0x3e3d9eb6	0.18517575
150	0x3e17b3ab	0.14814632
151	0xbe20ae77	-0.15691553
152	0x3df0ba0f	0.11754238
153	0xbeccb401	-0.39981082
154	0xbd01b44a	-0.031666078
155	0x3d9d89cc	0.07692298
156	0xbec1d73f	-0.37859532
157	0xbe7ccb0b	-0.2468683
158	0xbe6d91bb	-0.23200123
159	0x3e94af59	0.2904003
160	0x3e2c40f9	0.1682166
161	0x3e1a4ee9	0.15069164
162	0x3d0930ef	0.033493932
163	0xbe12a15d	-0.14319368
164	0xbddf9633	-0.1091732
165	0xbdf110ea	-0.11770804
166	0xbed5cff7	-0.41760227
167	0xbeabb244	-0.33534443
168	0x3da7e446	0.081978366
169	0xbe11d906	-0.14242944
170	0xbb6ab7c5	-0.0035815102
171	0xbef70308	-0.482445
172	0x3e10165b	0.14071028
173	0x3da64430	0.081184745
174	0xbce32ef9	-0.02773236
175	0xbd83e67d	-0.064404465
176	0xbe2c481b	-0.16824381
177	0xbd579bfb	-0.05263899
178	0xbd9267e0	-0.07148719
179	0x3cd9a431	0.02656755
180	0xbd8a523d	-0.06753967
181	0xbe01f358	-0.12690485
182	0xbe248c23	-0.16069083
183	0xbd10de88	-0.035368472
184	0xbebb8766	-0.36626738
185	0xbd376148	-0.04477051
186	0xbd64f017	-0.05589303
187	0xbeab322c	-0.33436716
188	0xbeda2fd1	-0.42614606
189	0xbe8635da	-0.2621296
190	0xbeed5f1c	-0.46361625
191	0xbdfdb4fd	-0.123880364
192	0x3db10e3b	0.08645292
193	0xbd25217d	-0.04031514
194	0xbe8f01dd	-0.2793111
195	0x3d1b510e	0.037919097
196	0xbcd912dc	-0.02649825
197	0xbd4857bd	-0.0489118
198	0x3c4eda49	0.012625285
199	0x3d3a0d2e	0.045422725
200	0xbdd50b79	-0.10402579
201	0xbdd4d7dd	-0.10392735
202	0xbe80f699	-0.2518814
203	0x3e74b89a	0.23898545
204	0xbd434b5b	-0.047679286
205	0x3b22dafc	0.0024849763
206	0xbdfa2418	-0.122139156
207	0xbee5781d	-0.44818202
208	0xbed923d4	-0.42410147
209	0xbe41fe58	-0.1894468
210	0xbb2a438f	-0.002598021
211	0x3ea62621	0.32450965
212	0x3e7befd7	0.2460321
213	0xbbcc2364	-0.006229805
214	0x3d7fabce	0.062419705
215	0xbe891404	-0.26773083
216	0xbe98898f	-0.2979245
217	0x3dc3d6a2	0.09562422
218	0xbe07b026	-0.13250789
219	0x3e5eabc7	0.21745215
220	0xbe392d4f	-0.1808369
221	0x3de11f86	0.10992341
222	0xbd9884a7	-0.074471764
223	0xbe0f3820	-0.13986254
224	0xbda0eb88	-0.07857424
225	0xbed2c607	-0.41166708
226	0xbe90398d	-0.28168908
227	0x3e5a726f	0.21332715
228	0xbe68a896	-0.2272056
229	0xbe85e9a6	-0.26154822
230	0x3d3de595	0.046361525
231	0xbe903d8c	-0.28171957
232	0x3dba3cde	0.09093641
233	0xbed5eb72	-0.41781193
234	0x3e4ea4c9	0.20180048
235	0xbe43e500	-0.19130325
236	0xbea86c74	-0.32895243
237	0xbdf92176	-0.12164585
238	0xbe938f47	-0.2882025
239	0xbcb3b31f	-0.021935998
240	0x3d797b29	0.06090847
241	0xbdedd95a	-0.11613722
242	0x3d2aba4c	0.041681573
243	0x3ca06faa	0.019584496
244	0x3e3637cc	0.17794722
245	0xbd7bec99	-0.061504934
246	0x3dc919c0	0.098193645
247	0xbed81b01	-0.42208102
248	0xbea98d45	-0.33115593
249	0x3d6e1318	0.058123678
250	0xbf0ae67b	-0.54257935
251	0xbe706f87	-0.23480044
252	0x3dd77ff4	0.10522452
253	0x3e161233	0.1465538
254	0xbed13d8c	-0.4086727
255	0x3df7319a	0.120700076

network.2.weight f4 [256, 256]
0	0xbbe532af	-0.0069945673
1	0x3c1e39d4	0.009657342
2	0xbcf2338d	-0.029565597
3	0x3d021502	0.031758316
4	0x3d05bebf	0.032652613
5	0xbd30ef08	-0.043196708
6	0x3d5838f6	0.052788697
7	0x3c78d008	0.015186317
8	0xbcbcf06c	-0.02306386
9	0x3ccf0f1f	0.025275765
10	0x3d23cc0f	0.039989527
11	0xbc90c3b8	-0.017671451
12	0xbd4b22f8	-0.049593896
13	0x3d1957b8	0.03743717
14	0xbcce2bf9	-0.025167452
15	0xbd735632	-0.059408374
16	0xbc82a370	-0.015947074
17	0xbba92d30	-0.0051628575
18	0xbbe75e80	-0.007060826
19	0xbd758144	-0.05993773
20	0xbd3e9ea6	-0.046538018
21	0x3d5677b1	0.05236024
22	0xbd56fe72	-0.05248875
23	0x3d5b45c1	0.05353332
24	0xbc0bbfde	-0.008529631
25	0xbac6703a	-0.0015139647
26	0xbd02cd54	-0.031934097
27	0xbc84e2de	-0.01622146
28	0xbbda0590	-0.006653495
29	0x3c203385	0.009777908
30	0x3caca8a4	0.021076508
31	0x3cc74a8c	0.024327539
32	0xbd824264	-0.06360319
33	0x3c0440ea	0.008072117
34	0x3ca6e418	0.020372435
35	0xbd2c8832	-0.042122073
36	0x3bdaf113	0.0066815703
37	0x3d063e3e	0.032774203
38	0x3d45add1	0.048261467
39	0xbd2cd470	-0.042194784
40	0xbd0fd77c	-0.03511761
41	0xbbf214a9	-0.007387717
42	0x3ca3ade7	0.019980384
43	0x3be457e0	0.0069684833
44	0x3cf95cde	0.03043979
45	0xbceb3a71	-0.02871439
46	0x39d06da2	0.00039754534
47	0xbc86ea2a	-0.01646908
48	0xbd35a55d	-0.044347156
49	0xbc8e6e0d	-0.01738646
50	0x3c065dfb	0.008201118
51	0xbb82d8f9	-0.0039931503
52	0x3d1bd6a2	0.038046487
53	0xbc958aad	-0.018254602
54	0x3d54ffc5	0.052001733
55	0xbd024671	-0.03180546
56	0x3d29f462	0.041492827
57	0xbd037c7b	-0.032101136
58	0x3cc5dcd2	0.024153147
59	0x3d20327d	0.03911065
60	0xbb886db5	-0.0041634687
61	0xbc3e6422	-0.011620553
62	0x3d055057	0.03254732
63	0xbcbc64ed	-0.022997344
64	0xbb39cc20	-0.0028350428
65	0x3b71b7e0	0.003688328
66	0x3d362def	0.0444774
67	0xbc17f368	-0.009274341
68	0xbc2e3310	-0.010632291
69	0xbd6feb33	-0.058573913
70	0xbcfc3d92	-0.030791078
71	0x3bf59730	0.0074948296
72	0xbd128f50	-0.035781205
73	0xbc60c90d	-0.013719809
74	0x3d3ff7fc	0.046867356
75	0xbcf7531d	-0.030190999
76	0xbd6bd9da	-0.057580806
77	0xbd5133bb	-0.051074725
78	0xbcb0ed12	-0.021597419
79	0xbb1cfaa8	-0.0023953114
80	0x3b6728a0	0.0035272017
81	0xbb9813ca	-0.004641031
82	0xbcd81a58	-0.02637975
83	0xbd7e063d	-0.062017668
84	0xbb6b77bc	-0.0035929522
85	0xbd6aa309	-0.05728439
86	0x3cd8cfd4	0.026466288
87	0x3c084a58	0.008318506
88	0xbd3741b0	-0.04474038
89	0xbd7a5cae	-0.061123542
90	0xbd7c7f8a	-0.06164507
91	0xbaecd940	-0.0018070117
92	0x3d10c3b6	0.035342894
93	0x3d152396	0.03641089
94	0x3b09bf9b	0.0021018747
95	0x3d355f76	0.04428049
96	0xbd764830	-0.060127437
97	0x3cccf834	0.025020696
98	0x3d29bfd8	0.041442722
99	0xbbb5fadc	-0.0055535864
100	0xbd5b2c6d	-0.053509165
101	0x3c923657	0.017848177
102	0xbc96c354	-0.018403687
103	0xbd4afc83	-0.04955722
104	0x3cdc12db	0.02686446
105	0x3c4c0a10	0.012453571
106	0x3cd93b44	0.026517518
107	0x3c1be6e9	0.0095155025
108	0xbd194976	-0.037423573
109	0x3c6ab8a0	0.014326245
110	0xbd762b7f	-0.060100075
111	0xbd4c8d68	-0.049939543
112	0x3bbf0a7d	0.0058301077
113	0xbd18fa9b	-0.03734837
114	0x3ccb6958	0.024830505
115	0x3c66ca30	0.014086291
116	0x3c222be8	0.009898163
117	0xbd8d6abb	-0.06905123
118	0x3d0f453a	0.03497813
119	0xbc19b85e	-0.0093823355
120	0xbad89618	-0.0016524224
121	0x3d23a19a	0.039949037
122	0x3d18d611	0.037313525
123	0xbc02b4e0	-0.007977694
124	0x3d36c0a2	0.044617303
125	0xbd337fea	-0.04382316
126	0xbd6fcefb	-0.058547
127	0x3d5f756a	0.054555334
128	0x3d4affe3	0.04956044
129	0xbd2e25e4	-0.042516604
130	0x3d1a2c6e	0.037640028
131	0xbcf7f53c	-0.030268304
132	0xbd3f7b89	-0.04674867
133	0xbd3f7c77	-0.04674956
134	0x3d43342d	0.04765718
135	0xbc69b870	-0.014265165
136	0xbbea7f65	-0.0071563
137	0xbd0512f8	-0.032488793
138	0x3d68f78a	0.056876697
139	0xbcd3a749	-0.025836604
140	0xbcce73f8	-0.025201783
141	0x3cf7808f	0.030212669
142	0xbc3f2097	-0.011665485
143	0x3ccf0644	0.025271542
144	0xbd91efcd	-0.071258165
145	0xbc9ebe16	-0.01937775
146	0xbd68fd21	-0.056882028
147	0xbd1c9f85	-0.038238067
148	0xbd3e96a8	-0.046530396
149	0x3bdf7610	0.006819494
150	0xbd098981	-0.0335784
151	0xbcebe114	-0.028793849
152	0xbcfa6a38	-0.030568227
153	0x3b700b69	0.0036627895
154	0xbd24d7e1	-0.04024494
155	0xbcb98493	-0.022646224
156	0xbd262030	-0.04055804
157	0x3d5fcae2	0.054636844
158	0xbd292e98	-0.0413042
159	0xbd21c3a9	-0.039493237
160	0xbc849390	-0.016183645
161	0xbd5ac2e7	-0.05340853
162	0xbd3cbc94	-0.04607828
163	0xbd475f69	-0.048674975
164	0xbd276325	-0.040866036
165	0xbd872bff	-0.066001885
166	0xbd51b2cb	-0.0511959
167	0xbd4f51ec	-0.050615236
168	0xbd8d0df7	-0.06887429
169	0xbcab0cd0	-0.020880133
170	0xbd5dbd32	-0.05413551
171	0xbca6e062	-0.020370666
172	0x3b0487d8	0.002022257
173	0x3d06612b	0.03280751
174	0x3cd823d1	0.026384266
175	0xbd5f0e89	-0.05445722
176	0x3d53d572	0.05171723
177	0xbbfaf6ec	-0.00765883
178	0xbd39a556	-0.045323692
179	0xbcca74b1	-0.024713846
180	0x3cb77094	0.022392549
181	0x3cebda56	0.028790634
182	0xbcba2c9c	-0.02272635
183	0x3d17f8fc	0.037102684
184	0x3cb81dec	0.022475205
185	0x3b3cc7f8	0.0028805714
186	0xbd533051	-0.05155975
187	0xbd056434	-0.032566264
188	0xbcfb6cac	-0.030691467
189	0x3d455a0a	0.04818157
190	0xbc76c678	-0.015061967
191	0x3bfd81ec	0.007736435
192	0x3bd21964	0.006411718
193	0xbd79f16e	-0.06102126
194	0x3b9b64d0	0.0047422424
195	0xbd81a83b	-0.063309155
196	0x3c8e8ff6	0.01740263
197	0x3c8f0402	0.017457966
198	0xbd21a113	-0.039460253
199	0xbd6c63e9	-0.05771247
200	0xbb3360a5	-0.0027370837
201	0xbcdb4bbe	-0.026769515
202	0xbcbd5f04	-0.023116596
203	0xba60ec1c	-0.0008580105
204	0xbc889bcf	-0.016675858
205	0x3d049077	0.032364335
206	0xbd210d1c	-0.039319143
207	0xbc4e8722	-0.01260546
208	0xbc9df80e	-0.01928332
209	0x3d27c32b	0.04095761
210	0xbd1d495a	-0.03840003
211	0x3cd2dcb9	0.025740014
212	0xbc328704	-0.010896448
213	0xbcb0e7b9	-0.021594869
214	0x3d2d96c0	0.042380095
215	0xbd82e610	-0.06391537
216	0x3b9258ed	0.004466167
217	0xbd874200	-0.066043854
218	0x3d285046	0.04109218
219	0x3c71828f	0.0147406
220	0x3c581100	0.013187647
221	0x3ce71a71	0.02821085
222	0xbc622edd	-0.013805118
223	0x3d0648e2	0.03278435
224	0xbd348272	-0.044069715
225	0xbc83ebb8	-0.01610361
226	0x3d4e6916	0.050393187
227	0xbd0daff0	-0.034591615
228	0x3cc22e30	0.023703665
229	0x3c2c4b65	0.010516022
230	0xba9bf7ca	-0.0011899408
231	0xbca4afe9	-0.020103412
232	0xbd7ccc80	-0.061718464
233	0xbd1ce527	-0.038304474
234	0x3a8de679	0.0010826132
235	0x3c87e63c	0.016589276
236	0xbca11b0d	-0.01966622
237	0x3bf9ace0	0.0076194853
238	0xbd49dc73	-0.049282502
239	0xbd8197db	-0.06327792
240	0xbd77a685	-0.06046154
241	0xbaf3ee80	-0.0018610507
242	0xbd44fde2	-0.048093684
243	0x3c8610b4	0.016365387
244	0xbd84d867	-0.06486588
245	0x3d6bebb6	0.05759784
246	0xbcd803d0	-0.026369005
247	0x3d12a50a	0.035801925
248	0x3a8f1469	0.0010916117
249	0x3d4e4b38	0.050364703
250	0x3c97b768	0.018520072
251	0x3c2abc34	0.010420848
252	0x3d502be8	0.050823122
253	0x3a257080	0.00063110143
254	0xbc2c6f60	-0.010524601
255	0xbd256173	-0.040376138

network.2.bias f4 [256]
0	0xbd0351ee	-0.032060556
1	0x3d16022c	0.036623165
2	0xbd22b876	-0.039726697
3	0xbd83bd3d	-0.06432579
4	0x3d1db24a	0.038500108
5	0xbe627f07	-0.2211877
6	0x3dd137a6	0.10215692
7	0xbd1674fa	-0.03673265
8	0x3ca09e95	0.019606868
9	0xbe39e70b	-0.18154542
10	0x3cf35270	0.029702395
11	0xbd4d2d17	-0.05009183
12	0xbd0554c6	-0.03255155
13	0xbd5de3e4	-0.05417241
14	0x3d8562fd	0.06513021
15	0x3c841189	0.016121643
16	0xbdaffdcb	-0.08593329
17	0x3db57e81	0.08862019
18	0x3cf86eee	0.030326333
19	0xbca7b2e3	-0.020471042
20	0xbd615ac2	-0.055018194
21	0x3de59ea7	0.11211901
22	0x3e13a052	0.14416626
23	0xbe437310	-0.19086862
24	0xbdac7abc	-0.08421847
25	0xbb3d1d30	-0.0028856508
26	0x3c5f69a4	0.0136360265
27	0xbc791795	-0.015203376
28	0xbaacee9d	-0.0013193671
29	0xbd8ab130	-0.06772077
30	0x3cc98964	0.024601646
31	0xbd8c47e5	-0.0684965
32	0xbc1d3f36	-0.00959759
33	0xbe268725	-0.16262491
34	0x3c22e561	0.0099423835
35	0xbdbc03d6	-0.09180419
36	0xbdbf136e	-0.09329878
37	0xbda11331	-0.078649886
38	0xbd8fd48a	-0.070229605
39	0x3d8110e2	0.06302048
40	0xbddff0a5	-0.10934571
41	0xbe0976ed	-0.13424273
42	0xbe51bb2e	-0.2048156
43	0xbac70790	-0.0015184749
44	0xbd898ba5	-0.06716088
45	0xbdcdc8ad	-0.100480415
46	0xbe146c25	-0.14494379
47	0xbe3083c2	-0.17237762
48	0xbdd10ab1	-0.10207117
49	0x3dfcd4bb	0.123452626
50	0xbe042bdd	-0.12907358
51	0xbe0f9060	-0.14019918
52	0xbd1a091f	-0.037606355
53	0xbdf63c05	-0.120231666
54	0x3d9bcc45	0.07607321
55	0xbccbd195	-0.02488021
56	0xbdf3f83c	-0.11912581
57	0xbb3762b8	-0.0027982425
58	0xbc5ac40e	-0.013352407
59	0x3c533556	0.012891134
60	0xbdc20969	-0.09474451
61	0xbc94e087	-0.01817347
62	0xbda95cf1	-0.0826968
63	0x3d97d0de	0.07412885
64	0xbd499e74	-0.04922338
65	0xbc40cc2c	-0.011767428
66	0xbe09d30a	-0.13459411
67	0xbd29aed6	-0.041426502
68	0xbd9ed95c	-0.07756302
69	0xbd1b7b12	-0.037959166
70	0x3d6f7328	0.05845943
71	0x3d99056d	0.07471738
72	0x3cd12962	0.025532428
73	0xbd437cb1	-0.047726337
74	0x3d90f0ca	0.07077177
75	0xbc8e8cb8	-0.017401084
76	0xbe1e59fc	-0.15464014
77	0xbb3268d0	-0.0027223118
78	0x3915c246	0.0001428212
79	0xbd679342	-0.05653692
80	0xbde22c52	-0.1104361
81	0xbc0b5ac9	-0.008505532
82	0xbd97a0b4	-0.074036986
83	0xbc4c69cf	-0.012476399
84	0xbe42264b	-0.1895992
85	0xbdc083de	-0.09400152
86	0x3dfd6d1f	0.12374329
87	0xbcfab9d7	-0.030606193
88	0xbd8aa18c	-0.06769094
89	0xbdc41aa1	-0.095753916
90	0xbcefdb3b	-0.029279342
91	0xbd4c16bf	-0.04982638
92	0xbcadeed6	-0.02123205
93	0xbd9af08d	-0.07565413
94	0xbd995cb0	-0.07488382
95	0x3bea1d87	0.007144633
96	0xbcf8eed6	-0.030387323
97	0xbdb44f1d	-0.08804152
98	0x3d1d51d9	0.038408134
99	0x3c6eb586	0.014569646
100	0xbd44f265	-0.048082728
101	0x3d19075f	0.037360545
102	0xbcbd7087	-0.023124946
103	0xbd9c4c6c	-0.07631764
104	0xbd194273	-0.037416887
105	0xbd8a01ad	-0.06738601
106	0x3e03e327	0.1287962
107	0xbd5547a7	-0.052070286
108	0xbd22cd38	-0.039746493
109	0xbd0e6487	-0.03476384
110	0x3cb0dee4	0.021590658
111	0x3b0b3913	0.0021243736
112	0xbd20a932	-0.039223857
113	0xbdea3cca	-0.11437376
114	0xbe356905	-0.17715843
115	0xbdc720b4	-0.097230345
116	0xbd3c1233	-0.045915794
117	0xbcb62480	-0.022234201
118	0x3bd7d4f0	0.0065866634
119	0xbdbc9144	-0.09207395
120	0x3df918e0	0.12162948
121	0xbd095ab2	-0.03353376
122	0xbdf36a4f	-0.11885511
123	0xbd442174	-0.047883466
124	0xbd816c33	-0.063194655
125	0xbd5169e7	-0.051126387
126	0x3dc26692	0.0949222
127	0xbda8f18b	-0.08249196
128	0xbd09a998	-0.033609003
129	0xbd6d5573	-0.05794282
130	0xbd27ee36	-0.04099866
131	0xbcf6160b	-0.030039808
132	0x3dbd6f61	0.092497595
133	0x3cb0d042	0.02158368
134	0xbd5b2ea6	-0.053511284
135	0xbc824eba	-0.01590668
136	0xbdf764ba	-0.12079759
137	0x3b9806ce	0.004639483
138	0xbd83adaf	-0.06429612
139	0x3d11cf2c	0.035597965
140	0xbde1caea	-0.11025031
141	0x3d8ccfc0	0.06875563
142	0x3d76ecdc	0.06028448
143	0xbd9be779	-0.07612509
144	0xbd8b9551	-0.06815589
145	0xbd13703e	-0.035995714
146	0xbd7434c2	-0.059620626
147	0xbc09cebb	-0.008411105
148	0xbd9f4f2b	-0.07778772
149	0x3cf9d9b3	0.030499315
150	0xbccd8585	-0.025088081
151	0xbe31210f	-0.17297767
152	0x3d54b35f	0.051928874
153	0xbcb0ccae	-0.021581974
154	0xbd2df1f4	-0.042467073
155	0xbd47bfcd	-0.0487669
156	0xbd7488dd	-0.059700835
157	0xbd57cd0a	-0.052685775
158	0xbd631c3f	-0.05544686
159	0xbe4d4017	-0.2004398
160	0x3c9d2cbc	0.01918637
161	0xba720bbc	-0.0009233316
162	0x3db25d30	0.0870918
163	0xbd9b395a	-0.07579298
164	0xbb23c015	-0.0024986316
165	0x3d510472	0.05102963
166	0x3cacfc3a	0.021116365
167	0xbd8d1ca5	-0.06890229
168	0xbc9fff71	-0.019530984
169	0xbc9db014	-0.019249
170	0xbc9d1a45	-0.019177565
171	0xbd95e330	-0.07318723
172	0x3d871de1	0.06597496
173	0xbda05a12	-0.078296795
174	0x3db8b21e	0.09018348
175	0xbce7b3e7	-0.028284026
176	0x3d2024fa	0.039097764
177	0x3c099ef4	0.008399714
178	0xbd94192b	-0.07231363
179	0xbd079b85	-0.0331073
180	0x3b8fc9d6	0.0043880744
181	0xbd8d3b25	-0.068960465
182	0xbe19379c	-0.1496262
183	0xbd606b74	-0.054789975
184	0x3d942abd	0.07234714
185	0x3d8e5cd6	0.06951301
186	0xbd7ad050	-0.06123382
187	0xbc557dae	-0.013030453
188	0xbd6c29c7	-0.05765703
189	0x3cdb2bb4	0.026754238
190	0xbd2c37b8	-0.042045325
191	0xbda1ce80	-0.07900715
192	0xbe47bc6e	-0.19505474
193	0xbe29b886	-0.16574296
194	0xbba88441	-0.005142719
195	0xbd261266	-0.04054489
196	0xbdd2c371	-0.10291184
197	0xbdfbe9bc	-0.12300441
198	0x3d935bef	0.07195269
199	0xbe5071df	-0.20355938
200	0xbdd80ad0	-0.10548937
201	0xbdaa8790	-0.08326638
202	0xbd74ba7e	-0.059748165
203	0xbca1501c	-0.01969152
204	0x3d32d8d4	0.043663815
205	0xbd2e56e3	-0.04256333
206	0x3c274b12	0.010210769
207	0x3e48a3c0	0.19593716
208	0x3be2efbd	0.0069255517
209	0xbc500929	-0.012697496
210	0x3d2a2899	0.041542623
211	0xba67a4d4	-0.0008836512
212	0x3c584915	0.013201018
213	0x3c56a81c	0.013101604
214	0x3cc73b9f	0.024320422
215	0xbdb871a7	-0.090060525
216	0xbe0e4635	-0.1389397
217	0xbdb9f831	-0.09080542
218	0xbd0b48a6	-0.03400483
219	0x3ce14030	0.027496427
220	0xbd994592	-0.074839726
221	0xbde5cfa3	-0.11221244
222	0xbbb647d5	-0.0055627623
223	0xbd6b25d3	-0.05740912
224	0xbe19db75	-0.15025122
225	0x3d8c3381	0.06845761
226	0xbe2ff951	-0.1718495
227	0xbb354cad	-0.002766411
228	0xbe0ae9a5	-0.13565691
229	0xbe2771ff	-0.1635208
230	0x3da10ef4	0.0786418
231	0xbd62e32b	-0.055392426
232	0xbce39407	-0.027780546
233	0xbe48b063	-0.19598536
234	0xbe20b69e	-0.15694663
235	0xbe37b889	-0.17941488
236	0x3c6b7306	0.014370685
237	0x3d2161c3	0.039399873
238	0xbd8bb461	-0.06821514
239	0xbe2cda76	-0.16880211
240	0x3d4d2c0a	0.050090827
241	0x3cd6a620	0.026202261
242	0xbc703a05	-0.01466227
243	0x3db7c7d4	0.08973661
244	0x3deb3311	0.114843495
245	0x3df3daa2	0.11906935
246	0x3e062730	0.13100886
247	0xbb2db1cb	-0.0026503678
248	0xbd227eb8	-0.03967163
249	0xba8a82d9	-0.001056756
250	0x3d42713b	0.047471266
251	0xbe178dd0	-0.14800191
252	0xbce8df55	-0.028426806
253	0x3c070c71	0.008242712
254	0xbba51ca0	-0.0050388128
255	0x3b37e315	0.0028058935

mean.weight f4 [1, 256]
0	0xbd331f64	-0.04373111
1	0xbe372cae	-0.17888138
2	0xbf847b6f	-1.0350169
3	0xbe545e30	-0.20739055
4	0x3c7b412d	0.015335363
5	0x3f69d02c	0.9133327
6	0x3dbba8d5	0.091630615
7	0xbd663b7c	-0.056209072
8	0xbfcb3281	-1.5874788
9	0x3e725c0d	0.23667927
10	0xbedd2871	-0.43194917
11	0x3c9dae7d	0.019248242
12	0xbd037180	-0.032090664
13	0xbe57e706	-0.21084222
14	0xbdb7b34c	-0.08969745
15	0x3ee76f74	0.4520222
16	0xbc809470	-0.01569578
17	0xbf23a198	-0.6391845
18	0xbf148422	-0.5801412
19	0xbf32ca16	-0.6983961
20	0x3cc6548e	0.02421024
21	0x3f181449	0.5940595
22	0x3eb995e2	0.36247164
23	0x3ed28170	0.41114378
24	0x3d83d69f	0.0643742
25	0x3c5f24be	0.0136196
26	0xbb6642d6	-0.0035135052
27	0x3dcef4fe	0.10105322
28	0xbc873d25	-0.016508648
29	0xbe7ca0b7	-0.24670683
30	0x3e21d884	0.1580525
31	0x3d2e98c5	0.04262616
32	0x3e95cf88	0.29259896
33	0xc05b13f3	-3.4230926
34	0x405b24e2	3.4241261
35	0xbdee3c1a	-0.11632557
36	0x3e56253a	0.20912638
37	0xbf57cd2d	-0.8429745
38	0xbc89d3e1	-0.016824665
39	0xbd4b95bf	-0.049703356
40	0xbfaf50c2	-1.369652
41	0x3f7f88a4	0.9981787
42	0x3edf1d2b	0.4357694
43	0x3bf3205f	0.0074196304
44	0x3d326b11	0.043559138
45	0x3e786b6c	0.24259728
46	0x3e85bb79	0.26119593
47	0x3ea50372	0.3222919
48	0x3db3a8df	0.08772444
49	0x3e8660a8	0.26245618
50	0xbd016afb	-0.031596165
51	0xbed005c1	-0.4062939
52	0x3c3ba813	0.011453646
53	0x3e8d17a5	0.27557102
54	0x3f650eae	0.89475524
55	0x3bf079f6	0.0073387576
56	0xbf0137bf	-0.50475687
57	0xbc33fdeb	-0.010985832
58	0x3a830109	0.0009994815
59	0x3f241849	0.64099556
60	0x3e0630d4	0.13104564
61	0x3f0f108e	0.55884635
62	0xbdf115e1	-0.11771751
63	0xbd477445	-0.048694868
64	0xbf2957d7	-0.6614966
65	0x3d8eca6f	0.06972205
66	0xbf651163	-0.89479655
67	0xbbaf79c8	-0.0053550936
68	0xbb8780e8	-0.00413524
69	0xbf715c78	-0.9428172
70	0x3e6217f4	0.2207945
71	0x3e868a60	0.26277447
72	0xbed3b612	-0.41349846
73	0x3bfa51d9	0.0076391515
74	0xbf0c499d	-0.54799825
75	0x3e2f3f0b	0.17113893
76	0xbe46e1be	-0.19422051
77	0xbeaadb35	-0.33370367
78	0x3d0b7210	0.034044325
79	0xbbfddf6a	-0.0077475803
80	0x3fa95681	1.3229524
81	0x393ef77f	0.00018212011
82	0xbd820ff9	-0.06350703
83	0xbded1d48	-0.115778506
84	0x3e02f8e5	0.12790258
85	0x3eba7166	0.3641464
86	0x3ece46d9	0.40288427
87	0xbd314701	-0.043280605
88	0xbcd4619a	-0.025925446
89	0x3e4d379a	0.20040742
90	0x3d39212e	0.04519766
91	0x3f08334b	0.53203267
92	0x3f2532c6	0.645306
93	0xbc96b22d	-0.018395508
94	0xbf914652	-1.1349585
95	0xbb916c1f	-0.004437938
96	0xbe5bb050	-0.21453977
97	0xbdeb9fe3	-0.11505105
98	0xbe8b3ab2	-0.27193218
99	0xba5b7fbe	-0.0008373222
100	0xbf61d9ba	-0.8822285
101	0x3bbf2ffa	0.0058345767
102	0x3d12b3d2	0.03581602
103	0x3f6073be	0.8767661
104	0xbd8c4b18	-0.068502605
105	0xbd0ec4fa	-0.03485582
106	0x3e1377b0	0.14401126
107	0xbe101fc6	-0.1407462
108	0xbd3c5f38	-0.045989245
109	0xbd3cc21e	-0.046083562
110	0xbc8cdaf9	-0.017194258
111	0xbe7aee68	-0.24505007
112	0x3d5a7c6b	0.05334131
113	0x3d471b7c	0.048610196
114	0x3e968960	0.29401684
115	0xbd66bf31	-0.056334678
116	0xbeaff968	-0.3436997
117	0xbfa51254	-1.2896218
118	0xbc956f1f	-0.018241463
119	0xbde26e1e	-0.110561594
120	0x3c1206fa	0.008912796
121	0xbe8026c9	-0.2502959
122	0x3db6cbc6	0.089255854
123	0x3b4df643	0.00314273
124	0x3d3a528b	0.045488875
125	0x3d6d036e	0.0578646
126	0x3e564c92	0.20927647
127	0x3e96141f	0.29312226
128	0xbe80e60f	-0.2517552
129	0x3e0ed48f	0.13948272
130	0xbcb1f5d1	-0.02172366
131	0xbf050895	-0.5196622
132	0x3f5b2308	0.8560033
133	0x3e86c478	0.2632177
134	0xbd1b5302	-0.03792096
135	0x3d35455d	0.044255603
136	0xbdd8f405	-0.10593418
137	0x3f8902d1	1.0703984
138	0xbc2e123d	-0.0106244655
139	0x3d46e740	0.04856038
140	0x3c5782cc	0.013153743
141	0x3f348de7	0.70529026
142	0xbd08521b	-0.033281427
143	0xbf39694e	-0.7242631
144	0x3e8e0482	0.27737814
145	0xbc0fb199	-0.00877037
146	0x3d50dd48	0.05099228
147	0x3d6c2f29	0.057662163
148	0xbb7ea988	-0.0038858373
149	0xbbac564e	-0.0052593118
150	0xbeb8e44f	-0.36111686
151	0xbf24fd30	-0.64448833
152	0xbdb98622	-0.09058787
153	0xbb4a3d14	-0.003085916
154	0xbe46377a	-0.193571
155	0xbea95dbd	-0.3307933
156	0x3a982393	0.0011607282
157	0xbda39da4	-0.07989052
158	0x3d6916c2	0.05690647
159	0x3be059ba	0.0068466337
160	0xb913169a	-0.00014027432
161	0xbcf9150f	-0.03040555
162	0x3f6ece4e	0.93283546
163	0x3c4f241c	0.0126428865
164	0x3cc644c8	0.02420272
165	0xbf58bbf4	-0.84661794
166	0x3bb7ba8d	0.0056069554
167	0xbccf6e64	-0.025321193
168	0xbf244f83	-0.64183825
169	0xbd0ce876	-0.03440138
170	0xbe872f72	-0.26403385
171	0x3cd7d408	0.026346222
172	0xbde3471e	-0.11097549
173	0xbdb5c583	-0.08875563
174	0xbe115f4e	-0.14196512
175	0x3c965eca	0.018355746
176	0x3b667a30	0.0035168044
177	0x3cf17a31	0.02947721
178	0xbfa625d1	-1.2980291
179	0xbe1fee4f	-0.15618251
180	0x3d48b919	0.049004648
181	0xbd362dc3	-0.044477236
182	0x3fdcba44	1.7244344
183	0x3f2631c7	0.64919704
184	0x3f392556	0.72322595
185	0x3fd02cc0	1.6263657
186	0x3d2bcaae	0.041941337
187	0x3daaab18	0.08333415
188	0xbd6f8fb0	-0.05848664
189	0x3e1834ab	0.14863841
190	0xbf071908	-0.5277257
191	0xbcfcd455	-0.030862967
192	0x3f0c85a5	0.54891425
193	0x3cbff8fc	0.023434155
194	0x3d444a21	0.047922257
195	0xbd137f2e	-0.03600996
196	0xbea845b8	-0.3286569
197	0x3e8f6c23	0.2801219
198	0xbf369066	-0.71314085
199	0xbfa05ed1	-1.2528936
200	0xbf789918	-0.971086
201	0x3d89cb5f	0.06728243
202	0xbc2bf51c	-0.01049545
203	0xbd2f55de	-0.0428065
204	0x3d76f90a	0.060296096
205	0x3cd3f946	0.025875699
206	0xbea05d88	-0.3132136
207	0x3eb99ca2	0.36252314
208	0xbe57ede0	-0.21086836
209	0xbde31717	-0.110883884
210	0xbd9a85e7	-0.07545071
211	0xbe45b592	-0.19307545
212	0xbd049c00	-0.032375336
213	0x3b3f7cb8	0.0029218625
214	0x3ec9fa55	0.394488
215	0x40174f62	2.3642201
216	0x3e43556e	0.19075558
217	0x3caa0ee4	0.020759054
218	0xbcd26141	-0.02568114
219	0x3f0c9e38	0.5492892
220	0x3e9cb705	0.30608383
221	0xbf008438	-0.5020175
222	0x3d5b6e58	0.05357203
223	0x3fad875a	1.3556931
224	0x3d43851b	0.04773436
225	0xbe4b12c9	-0.19831385
226	0x3f43f884	0.7655108
227	0x3c82631c	0.0159164
228	0xbf11ee7d	-0.5700453
229	0xbfacf43e	-1.3512037
230	0xbd1d284f	-0.03836852
231	0xbf511627	-0.81674427
232	0x3f8ba974	1.0911088
233	0x3e809081	0.25110248
234	0xbd9c57ca	-0.07633932
235	0x3daac6f1	0.08338726
236	0xbe30acf1	-0.17253472
237	0xbe81c45f	-0.25345132
238	0x3c0331eb	0.008007507
239	0x3eebe4e8	0.4607308
240	0xbdbf8505	-0.09351543
241	0x3e8e23bc	0.27761638
242	0x3d275768	0.04085484
243	0x3ebe535e	0.3717298
244	0x3dccc224	0.09997967
245	0xbc584bae	-0.013201637
246	0x3ec68a6d	0.38777485
247	0x3bd90e6e	0.0066240346
248	0xbd0296db	-0.03188215
249	0xbf393ff9	-0.7236324
250	0x3d6655f5	0.05623432
251	0xbf3e23dc	-0.7427347
252	0x3d9b196f	0.075732104
253	0x3cee6cd6	0.029104631
254	0x3e764a82	0.2405186
255	0x3ec56afa	0.3855818

log_std.weight f4 [1, 256]
0	0x3b758c14	0.0037467526
1	0xbd22541f	-0.039631005
2	0x3dbf2497	0.09333151
3	0x3d1323f9	0.035922978
4	0x3ca27a62	0.019833747
5	0xbd70877a	-0.05872295
6	0x3d07793f	0.033074614
7	0xbd093ce2	-0.033505328
8	0x3eca8e5e	0.39561743
9	0x3c80c720	0.01571995
10	0x3c41f5a3	0.0118383495
11	0xbcd484b6	-0.025942188
12	0x3d0cf625	0.03441443
13	0x3b91777a	0.0044392915
14	0xbe127dfc	-0.14305872
15	0xbce72697	-0.028216643
16	0x39c88a4d	0.00038250015
17	0x3e056236	0.13025746
18	0xbd725869	-0.059166346
19	0x3c80c6d8	0.015719816
20	0xbcd238c5	-0.025661835
21	0x3d82d7af	0.06388795
22	0x3c660db0	0.014041349
23	0x3c5aaa0f	0.013346209
24	0xbd2ef0a1	-0.04270995
25	0xbd12e362	-0.03586138
26	0xba59a692	-0.0008302714
27	0x3d136a65	0.035990138
28	0x3c848e2f	0.01618108
29	0x3d27b557	0.040944424
30	0x3e3ca5f4	0.18422681
31	0x3c5da145	0.013527219
32	0xbedb3645	-0.42814842
33	0xbe7f77e8	-0.24948084
34	0xbef34b25	-0.47518268
35	0x3eac2a36	0.33625954
36	0x3e3b2a84	0.18277937
37	0x3e428ff0	0.1900022
38	0x3dc8788c	0.097886175
39	0xbe87d776	-0.2653157
40	0xbd3423ca	-0.043979444
41	0xba332e31	-0.0006835191
42	0x3e863a5c	0.262164
43	0xbbf4227c	-0.0074504
44	0x3e578748	0.210477
45	0xbd075f99	-0.033050153
46	0x3e75862b	0.23976962
47	0xbd0dfc2a	-0.03466431
48	0xbd33e968	-0.043923765
49	0xbe352210	-0.17688775
50	0xbd5e54bf	-0.05428004
51	0x3e15f604	0.14644629
52	0x3bb5061f	0.0055244113
53	0xbbb0b9a0	-0.005393222
54	0x3eedd18a	0.46448928
55	0xbc8b6a3d	-0.017018432
56	0xbd06f33a	-0.032946803
57	0x3e9bbe21	0.30418494
58	0x3ce82708	0.028338924
59	0x3d498fc5	0.049209375
60	0x3f001e76	0.5004648
61	0x3d2d193c	0.042260394
62	0x3cba613a	0.02275144
63	0xbe7b80d7	-0.24560867
64	0xbebfe0a5	-0.37476078
65	0xbebd490d	-0.36969796
66	0x3d30e70e	0.0431891
67	0x3d069c3b	0.032863837
68	0x3c3e958a	0.011632333
69	0xbdffb4f9	-0.1248569
70	0xbd807536	-0.06272356
71	0xbf8ba945	-1.0911032
72	0xbdc18419	-0.09449024
73	0xbd22f62d	-0.039785553
74	0xbd50c33b	-0.050967436
75	0x3e0773b8	0.13227737
76	0x3c8b618b	0.017014286
77	0xbd07924c	-0.033098504
78	0xbc0255a4	-0.007954989
79	0x3b1168dc	0.0022187745
80	0xbd1a6c19	-0.037700746
81	0x3cbb0564	0.022829719
82	0x3ca7e7cc	0.020496272
83	0x3dfc5a6d	0.12321935
84	0xbd5601a6	-0.052247666
85	0xbc1a5a73	-0.009420979
86	0x3ecde415	0.40213075
87	0x3d0fae8e	0.035078578
88	0x3b17b7e4	0.002315038
89	0x3c452aa3	0.012034091
90	0xbde76ea3	-0.11300399
91	0xbca47d67	-0.020079328
92	0xbde2829a	-0.110600665
93	0x3b0e5b60	0.0021721944
94	0xbdd394e6	-0.103311345
95	0x3edc0680	0.4297371
96	0x3d6229d5	0.055215675
97	0x3cefaf9e	0.029258545
98	0x3c238ebb	0.00998276
99	0xbc16a93d	-0.009195623
100	0xbdaa151d	-0.08304808
101	0x3c8c6302	0.017137054
102	0xbd08d29a	-0.03340397
103	0xbe33930a	-0.1753656
104	0x3e86feac	0.26366174
105	0x3d4f9d3d	0.050687063
106	0xbe045fc3	-0.12927155
107	0x3e337d47	0.17528258
108	0x3ceb94dc	0.028757505
109	0xbdd01149	-0.10159547
110	0x3a7b0e89	0.0009577056
111	0xbdd80cd2	-0.1054932
112	0x3e991b9d	0.2990388
113	0xbe97317e	-0.29529947
114	0x3de88d7e	0.113551125
115	0x3dcdbd14	0.100458294
116	0xbe177dfa	-0.1479415
117	0xbcc7838c	-0.024354719
118	0xbd3f25de	-0.046666972
119	0x3dbcbc4a	0.09215601
120	0xbe69a108	-0.22815335
121	0xbdc91a26	-0.098194405
122	0x3e3e358f	0.18575118
123	0xbd3b8caa	-0.045788445
124	0x3d42e88f	0.047585066
125	0xbe159f4f	-0.14611553
126	0x3dd7f099	0.10543937
127	0x3e61863c	0.22023863
128	0x3ded5b42	0.11589672
129	0xbd610a4e	-0.054941468
130	0x3cf3a3a1	0.02974111
131	0xbe99688b	-0.29962572
132	0x3e92566a	0.28581554
133	0xbd713a7d	-0.05889367
134	0x3c0ca0f9	0.008583301
135	0xbc612445	-0.0137415575
136	0xbda1d1ad	-0.079013206
137	0x3e93308e	0.28747982
138	0xbcdb8e46	-0.02680124
139	0xbd782ff6	-0.060592614
140	0x3d5bbcfa	0.05364702
141	0x3cf1d562	0.029520694
142	0xbecdd851	-0.402041
143	0xbe8e8a94	-0.27840102
144	0x3dd39dbe	0.10332821
145	0x3c1b64c8	0.009484477
146	0xbdaeb41c	-0.08530447
147	0x3d07a35c	0.033114776
148	0x3d184700	0.037177086
149	0xbb84a788	-0.0040482916
150	0xbb7d98e4	-0.0038695866
151	0x3d1cfaf0	0.03832525
152	0xbe342905	-0.17593773
153	0x3a17b2fa	0.00057868625
154	0xbe8e4b11	-0.27791646
155	0xbd828e2a	-0.06374772
156	0x3c6f5fe6	0.014610266
157	0x3e77799a	0.24167481
158	0x3d6ebf4f	0.058287915
159	0x3c8b947d	0.017038578
160	0xbcb3b2e7	-0.021935893
161	0xbd5f2806	-0.05448153
162	0xbd957587	-0.07297807
163	0x3ca18879	0.019718396
164	0xbc8c9d09	-0.017164724
165	0x3e80afe8	0.25134206
166	0xbd739ae1	-0.059473876
167	0xbd5bb9bf	-0.05364394
168	0xbe2e814e	-0.17041513
169	0x3d258857	0.040413227
170	0xbc008593	-0.007844347
171	0x3c98c510	0.018648654
172	0xbddbf661	-0.107403524
173	0x3d428141	0.047486547
174	0x3e272908	0.16324246
175	0x3c6c9f58	0.014442287
176	0xbb80195a	-0.003909272
177	0x3d82b621	0.063823946
178	0xbe19dee6	-0.15026435
179	0x3d2fbe72	0.042906232
180	0xbd24d538	-0.040242404
181	0x3c3ba413	0.011452693
182	0xbcdc0ca2	-0.026861493
183	0xbdd45e08	-0.103694975
184	0xbd406ce8	-0.04697886
185	0x3e43c509	0.19118132
186	0x3d3c00c5	0.04589917
187	0x3ccd8c21	0.025091233
188	0xbe0cab21	-0.13737155
189	0xbcff8563	-0.031191533
190	0x3df32338	0.11871952
191	0x3c5852d4	0.0132033415
192	0x3da465cf	0.08027231
193	0xbdc6de56	-0.09710376
194	0xbd0db010	-0.034591734
195	0x3bf6d38c	0.0075325426
196	0xbb395403	-0.0028278835
197	0xbcf232d6	-0.029565256
198	0xbcfdf7f5	-0.031002024
199	0xbe4e0fd7	-0.2012323
200	0x3e2be9dd	0.1678843
201	0x3f3958a1	0.7240086
202	0x3c9b8c64	0.018987842
203	0xbdf4c049	-0.11950738
204	0xbd2ab7a8	-0.041679054
205	0xbd187f93	-0.03723104
206	0x3a262269	0.0006337525
207	0xbd99045a	-0.07471533
208	0xbd6c17bb	-0.05763982
209	0x3cf0c561	0.029390993
210	0xbe025990	-0.12729478
211	0x3e3051fd	0.17218776
212	0x3c9a5b03	0.018842226
213	0x3b029863	0.0019927255
214	0x3d39aec0	0.04533267
215	0xbdd21d8c	-0.10259542
216	0xbe79e631	-0.24404217
217	0x3de8cab8	0.113667905
218	0x3cb8a38f	0.022538928
219	0x3dc015cb	0.09379157
220	0x3d7d26dc	0.061804637
221	0x3dbc3a16	0.091907665
222	0x3cec9edb	0.028884342
223	0x3c67ae35	0.014140655
224	0x3d51ec80	0.051250935
225	0xbe9b97e9	-0.30389336
226	0xbd755b98	-0.059901804
227	0xbb4cba75	-0.0031239067
228	0x3e31d30f	0.17365669
229	0x3e03d18d	0.12872906
230	0x3daaa89b	0.0833294
231	0x3dd46912	0.10371603
232	0xbf1b01b2	-0.6054946
233	0xbd5aa6f2	-0.053381868
234	0x3d368b58	0.044566482
235	0x3e9c7744	0.30559742
236	0xbec75038	-0.3892839
237	0xbd0d40c5	-0.034485597
238	0x3cc1f99c	0.023678593
239	0x3cfa82df	0.030579982
240	0x3d72da41	0.059290174
241	0xbc258ea2	-0.010104807
242	0x3b832a07	0.004002813
243	0xbe34c354	-0.17652637
244	0xbd722ed2	-0.059126683
245	0xbe9d4b57	-0.30721542
246	0xbd9126af	-0.070874564
247	0x3ba87c9e	0.0051418087
248	0x3c9884ad	0.018617952
249	0xbd9678cd	-0.0734726
250	0x3ebf4c64	0.3736297
251	0xbd18a848	-0.03726986
252	0x3f06581f	0.5247821
253	0x3c6f38b4	0.014600921
254	0xbc59d98d	-0.013296497
255	0x3e724a3d	0.23661132
