models/10.0volt.pth (torch, 275956 bytes, 6 tensors)

network.0.weight f4 [256, 6]
0	0xbf44d59b	-0.76888436
1	0xbe757956	-0.23972067
2	0x3f7f244f	0.9966478
3	0x3e21c5df	0.15798138
4	0x3f14d041	0.5813027
5	0x3f4ee831	0.80823046
6	0xbdd601a9	-0.104495354
7	0xbe7fc8dd	-0.24978967
8	0x3f88c706	1.0685737
9	0x3e203ff4	0.15649396
10	0xbec1a376	-0.37820023
11	0x3eaa2cf9	0.33237436
12	0xbe586bf7	-0.21134935
13	0xbe2ae39d	-0.1668839
14	0xbe1d07fb	-0.15335076
15	0x3d094e0d	0.0335217
16	0x3e5c4936	0.21512303
17	0xbef03d48	-0.46921754
18	0xbc31e97d	-0.010858891
19	0x3c874dab	0.016516527
20	0xbd5ed41d	-0.054401506
21	0x3d46e19b	0.048554998
22	0xbcad8dfb	-0.021185866
23	0xbc0169d7	-0.007898769
24	0x3e3cb358	0.18427789
25	0xbf3b7bf9	-0.7323604
26	0x3f16fd8a	0.5898062
27	0xbe134b07	-0.1438409
28	0x3f9c5203	1.2212528
29	0xbe16bdde	-0.14720866
30	0x3ef81fe5	0.48461834
31	0xbe43820f	-0.19092582
32	0x3fc9f6fa	1.5778496
33	0x3df7cd90	0.12099755
34	0x3e9345c4	0.28764164
35	0x3f90da2d	1.1316582
36	0xbb9ca1a5	-0.0047800117
37	0xbed5b452	-0.41739136
38	0xbef768fa	-0.48322278
39	0xbf5108da	-0.8165413
40	0xbe874893	-0.26422557
41	0x3eacd10f	0.3375325
42	0xbf0fecb2	-0.56220543
43	0xbfc260ee	-1.518583
44	0x3e9c5a54	0.30537665
45	0x3deeb53b	0.11655661
46	0x3ecbf4d7	0.39835235
47	0x3e1dda85	0.1541539
48	0xbc1944bf	-0.009354769
49	0x3e3c099c	0.1836304
50	0x3d88a374	0.06671801
51	0x3dd93602	0.10606004
52	0xbed6c2a7	-0.41945383
53	0x3f231d8b	0.63716954
54	0x3e8437a7	0.2582371
55	0x3f4863aa	0.78277075
56	0xbf225416	-0.63409555
57	0xbeadf4e8	-0.3397591
58	0xbf32292f	-0.6959409
59	0xbf34e51c	-0.70662093
60	0x3f890070	1.0703259
61	0xbf025665	-0.5091308
62	0xbf3b88a3	-0.73255366
63	0xbef4dab4	-0.47823107
64	0xbf819e7e	-1.0126493
65	0x3e257f4e	0.16161844
66	0x3de2dc3a	0.11077161
67	0xbed43f03	-0.41454324
68	0x3f0d8e48	0.5529523
69	0xbe25560c	-0.16146106
70	0xbf2187b3	-0.63097686
71	0x3f4122f7	0.7544398
72	0x3b9184d1	0.004440882
73	0xbe3242c2	-0.17408279
74	0xbea8b1c2	-0.32948118
75	0xbf1f1bc3	-0.62151736
76	0xbd93d80a	-0.072189406
77	0xbf8be574	-1.0929399
78	0xbfac3999	-1.3455077
79	0x3e2b8a1f	0.16751908
80	0x3f2e6a01	0.681305
81	0xbe5ceace	-0.21573946
82	0xbe015a51	-0.12632109
83	0x3f2fd47e	0.6868361
84	0x3e685056	0.22686896
85	0x3df836ed	0.12119851
86	0x3ef5102d	0.47863904
87	0xbf4fbca7	-0.81147236
88	0x3f7c33d3	0.9851658
89	0xbec506c0	-0.38481712
90	0xbd3b5bcd	-0.045741845
91	0x3e94ca0e	0.29060405
92	0xbff27baa	-1.8943989
93	0x3d8dcaab	0.069234215
94	0xbe880918	-0.26569438
95	0xbf05f051	-0.5231982
96	0x3ea7d114	0.327767
97	0x3e0b779b	0.13619845
98	0x3f500518	0.8125777
99	0x3e2f39a9	0.1711184
100	0xbf75e7a4	-0.9605658
101	0xbf1ca2fb	-0.6118619
102	0x3ec058aa	0.37567645
103	0x3e2d1581	0.16902734
104	0xbecc5cec	-0.39914644
105	0x3d89034f	0.06690084
106	0xbe4bcac9	-0.19901575
107	0x3ee19291	0.44057134
108	0x3ea0306c	0.31286943
109	0xbd3ebc4e	-0.0465663
110	0x3ec2e64b	0.38066325
111	0x3d9ae270	0.07562721
112	0x3d3eb114	0.046555594
113	0xbf3f0203	-0.74612445
114	0xbe3c3641	-0.18380071
115	0xbebea727	-0.37236902
116	0x3ea8ccb8	0.32968688
117	0xbdbd7a71	-0.092518695
118	0xbea07989	-0.31342724
119	0xbf00a42e	-0.5025052
120	0xbdc13102	-0.094331756
121	0xbe022c43	-0.12712197
122	0x3eb3f865	0.35150447
123	0x3bb73d0b	0.0055919937
124	0xbeee6cab	-0.46567282
125	0x3f96048e	1.172014
126	0xbd8657f3	-0.06559744
127	0xbd87242c	-0.06598696
128	0xbfc26521	-1.5187112
129	0x3e8ef719	0.27922896
130	0xbda6f3b6	-0.08151953
131	0xc008a327	-2.134958
132	0xbea312c4	-0.31850255
133	0xbdd37b1f	-0.10326218
134	0x3f1284e3	0.5723402
135	0xbd9939a8	-0.074817
136	0xbf5c2715	-0.85997134
137	0x3e787b8d	0.24265881
138	0x3f3b6820	0.7320576
139	0xbeac81df	-0.33692834
140	0xbf7d703f	-0.989994
141	0xbed3df43	-0.41381273
142	0xbdb9faca	-0.09081037
143	0xbf0650ec	-0.52467227
144	0x3cbb1471	0.022836896
145	0x3e7baf4c	0.24578589
146	0x3e4e3366	0.20136794
147	0xbe87f1c2	-0.26551634
148	0xbecb7a8a	-0.39741927
149	0x3e22f221	0.15912677
150	0x3edcb997	0.43110344
151	0xbe0d5899	-0.13803329
152	0xbed0c6de	-0.40776724
153	0xbf5aa706	-0.8541111
154	0x3e5a18b4	0.21298486
155	0xbccef1d3	-0.025261795
156	0xbda73b9d	-0.08165667
157	0x3ed19f8b	0.40942034
158	0x3f9418b2	1.1570036
159	0xbe6d2725	-0.23159464
160	0x3e06d7e3	0.13168292
161	0xbee91901	-0.4552689
162	0x3c517c4e	0.012785984
163	0xbfa9c488	-1.3263102
164	0x3de206db	0.11036464
165	0xbf60465a	-0.8760735
166	0x3f18a5cc	0.59627986
167	0xbb1fe389	-0.0024397096
168	0xbf2ef090	-0.6833582
169	0x3f29c215	0.6631177
170	0x3f102b46	0.5631603
171	0xbef22b91	-0.47298864
172	0x3f27d1ac	0.6555431
173	0xbe8c5247	-0.27406523
174	0x3c8f6720	0.017505229
175	0xbe461085	-0.19342239
176	0xbdb8ac07	-0.090171866
177	0xbf923b79	-1.14244
178	0xbf3bdfb8	-0.7338824
179	0xbf797fe5	-0.97460777
180	0xbe0f8e5b	-0.14019148
181	0xbf2f290d	-0.68422014
182	0x3e42af63	0.19012217
183	0xbda251a0	-0.07925725
184	0xbe7ddcd4	-0.2479127
185	0x3f71634e	0.9429215
186	0xbd6a289c	-0.057167634
187	0x3f5a5606	0.8528751
188	0x3e9cfb71	0.30660585
189	0xbf77b175	-0.9675515
190	0x3df1a861	0.11799694
191	0xbe9e364d	-0.30900803
192	0x3eecd687	0.4625742
193	0xbf438406	-0.76373327
194	0xbf5638e9	-0.8368059
195	0xbe3e62e0	-0.18592405
196	0x3e84a1e8	0.25904775
197	0xbef6311e	-0.48084348
198	0x3d95cf12	0.07314886
199	0xbf1f424d	-0.6221054
200	0x3f28ae6f	0.65891165
201	0x3e1f3bac	0.15550107
202	0xbf2a5dde	-0.6654948
203	0x3d387596	0.045034014
204	0xbf9fc5fe	-1.2482297
205	0xbe91d324	-0.284814
206	0x3ec3bd93	0.3823057
207	0xbde28f23	-0.110624574
208	0xbf0b093d	-0.5431097
209	0x3e214f8a	0.15752998
210	0xbe27f88a	-0.16403404
211	0xbda2fbd3	-0.07958188
212	0xbe047fd8	-0.12939394
213	0xbe575adf	-0.21030758
214	0xbe7f724d	-0.24945946
215	0x3eb25bec	0.34835756
216	0x3f215400	0.630188
217	0x3d52fab0	0.051508605
218	0x3fd00e70	1.6254406
219	0xbe9131bd	-0.2835826
220	0x3d98983b	0.07450911
221	0x3e8a912e	0.27063888
222	0xbe6e4db8	-0.23271835
223	0xbe5f1d6f	-0.21788572
224	0xbfeffbcc	-1.8748717
225	0x3d0ecf22	0.034865506
226	0xbf73cdd9	-0.95235974
227	0xbfa65f2b	-1.2997793
228	0x3cdcdd77	0.026961071
229	0x3ce6ba5e	0.028165039
230	0xbdb01276	-0.08597271
231	0x3d656e3b	0.056013327
232	0xbca70c84	-0.02039171
233	0xba9a3a9f	-0.0011766738
234	0x3f551c82	0.83246624
235	0x3cfb1645	0.030650267
236	0xbf420969	-0.7579561
237	0xbef666e6	-0.4812538
238	0x3cf99df9	0.030470835
239	0xbe45789a	-0.19284287
240	0xbd78081c	-0.06055461
241	0xbf80e8d7	-1.0071057
242	0xbdcf2d9a	-0.1011612
243	0x3f05363b	0.52035874
244	0x3e2242f7	0.15845858
245	0xbf3071ae	-0.6892346
246	0x3f2245e1	0.63387877
247	0xbe4e02ed	-0.20118304
248	0x3f1c0d4e	0.609578
249	0x3e266b4e	0.16251871
250	0x3ea1e2f2	0.31618458
251	0xbf508c8c	-0.8146446
252	0x3edd6268	0.4323914
253	0xbd9f808e	-0.07788192
254	0x3f8d9e2a	1.1063893
255	0x3ddc1f9e	0.10748218

network.0.bias f4 [256]
0	0xbda20339	-0.07910771
1	0xbdfc1885	-0.12309364
2	0xbf28b097	-0.65894455
3	0xbe138000	-0.14404297
4	0xbe8d5020	-0.27600193
5	0xbee8b42b	-0.45449957
6	0xbd9f9664	-0.077923566
7	0x3ec3810e	0.38184398
8	0xbf1b752d	-0.6072567
9	0xbea07e67	-0.31346437
10	0x3dc4a68b	0.09602078
11	0x3df9b249	0.12192208
12	0x3e77447c	0.24147218
13	0xbe45f578	-0.1933192
14	0xbe35948d	-0.17732449
15	0xbe7024ec	-0.23451585
16	0xbf1e6f63	-0.6188871
17	0xbf3cc94d	-0.7374466
18	0xbe770177	-0.24121653
19	0xbf1165a4	-0.56795716
20	0xbea51563	-0.3224288
21	0xbe05c9a3	-0.130652
22	0xbe3c5965	-0.18393476
23	0xbe8ba90f	-0.2727742
24	0xbeaf1f5b	-0.3420361
25	0xbe291c16	-0.1651462
26	0xbe686e49	-0.2269832
27	0xbef5c8e4	-0.4800483
28	0xbe04a484	-0.12953383
29	0xbe933e8b	-0.28758654
30	0xbed157c8	-0.40887284
31	0x3cec1b66	0.028821658
32	0xbd6c1ecf	-0.05764657
33	0xbcdc9b2f	-0.026929466
34	0x3f1d3c49	0.6142011
35	0xbe91f208	-0.28504968
36	0xbe94777f	-0.28997418
37	0x3ec20096	0.37891072
38	0xbe2eeac3	-0.17081742
39	0xbe54186a	-0.20712438
40	0xbd925f62	-0.07147099
41	0xbf10e36c	-0.5659702
42	0xbe81f35f	-0.2538099
43	0x3c802e79	0.01564716
44	0xbed9fa93	-0.42573985
45	0xbde27887	-0.11058145
46	0xbdeee488	-0.116646826
47	0x3ed20439	0.41018847
48	0xbe00c40f	-0.1257479
49	0x3d45d9f5	0.048303563
50	0xbe885489	-0.26626995
51	0xbea144cc	-0.314978
52	0xbeeba78c	-0.46026266
53	0xbf18fd58	-0.5976157
54	0xbdae20cb	-0.085023485
55	0xbed73ed8	-0.42040133
56	0x3daf751d	0.085672595
57	0xbed98206	-0.42482013
58	0xbdc23429	-0.09482605
59	0x3dab4ab3	0.08363857
60	0xbe33b347	-0.17548858
61	0xbd83c1be	-0.06433438
62	0xbde37659	-0.111065574
63	0xbf2c21b2	-0.67238915
64	0xbec72de6	-0.38902205
65	0xbe32ce7c	-0.1746158
66	0x3eaed8b7	0.34149715
67	0x3db072ad	0.08615623
68	0x3c0bf9dc	0.008543458
69	0x3e6101b6	0.21973309
70	0xbec9f0c5	-0.39441505
71	0x3db55fa5	0.08856133
72	0xbe6727f3	-0.22573833
73	0xbe419827	-0.18905698
74	0xbd0fec29	-0.03513733
75	0xbef62344	-0.4807378
76	0x3c69a900	0.014261484
77	0xbf19a783	-0.6002123
78	0xbf265269	-0.649695
79	0xbe23533a	-0.15949717
80	0x3f06f829	0.5272241
81	0xbdb82b70	-0.0899266
82	0xbeae318e	-0.34022182
83	0xbefd8bb9	-0.49520662
84	0xbed4cd46	-0.4156286
85	0xbee6edeb	-0.45103392
86	0xb87c8ad5	-6.021078e-05
87	0x3de41dc3	0.11138489
88	0xbec2e17a	-0.3806265
89	0x3d798a31	0.060922805
90	0xbd73e9e3	-0.059549224
91	0xbea3ea25	-0.32014576
92	0xbe85657f	-0.26053998
93	0xbf46cf5b	-0.7766015
94	0xbee4513f	-0.44593236
95	0xbf1e1dc9	-0.617642
96	0xbeb11c3a	-0.34591848
97	0x3e802aa9	0.25032547
98	0xbebf3daf	-0.37351748
99	0xbe1fbbf3	-0.1559904
100	0xbddecc69	-0.10878832
101	0xbe9b748d	-0.3036236
102	0xbd338ef9	-0.04383752
103	0xbe9cb77e	-0.30608743
104	0xbe49fd73	-0.1972559
105	0x3f06a533	0.52595824
106	0xbe02830d	-0.12745304
107	0xbec6f995	-0.3886229
108	0xbe05c385	-0.13062866
109	0xbf3a3936	-0.72743547
110	0x3edf4a04	0.43611157
111	0x3e148119	0.14502372
112	0x3e936dd7	0.2879474
113	0xbd784caa	-0.060619988
114	0xbe337b85	-0.17527588
115	0x3c8633e8	0.016382173
116	0x3e10ba34	0.14133531
117	0x3d80b4e8	0.06284505
118	0xbd4ee791	-0.050513808
119	0xbe722a15	-0.23648866
120	0xbded25b8	-0.1157946
121	0x3ce3551e	0.027750548
122	0xbf4d7efc	-0.8027189
123	0x3e3fca50	0.1872952
124	0xbef3a990	-0.47590303
125	0xbe9bfafa	-0.30464917
126	0xbeab7f54	-0.3349558
127	0x3ea4b752	0.32171112
128	0xbeca8c70	-0.3956027
129	0xbee6ca73	-0.45076331
130	0x3cd788d7	0.026310368
131	0xbe74e289	-0.23914541
132	0xbf05f754	-0.5233052
133	0xbd3421ae	-0.043977432
134	0xbdb7b7b2	-0.08970584
135	0x3d85e605	0.06538013
136	0xbeae2f52	-0.34020478
137	0xbe69af09	-0.22820677
138	0xbdbdc09a	-0.092652515
139	0xbd592da4	-0.053022042
140	0xbe5f7a05	-0.2182389
141	0x3e7428e7	0.23843728
142	0xbde7116a	-0.11282618
143	0x3d473e80	0.04864359
144	0xbeb6ce7f	-0.3570442
145	0xbeaf843c	-0.34280574
146	0x3ea5dcdd	0.32395068
147	0xbe760e02	-0.24028781
148	0x3e7a8517	0.24464832
149	0xbe9327fc	-0.28741443
150	0x3ccf8c85	0.02533556
151	0x3e80c83a	0.2515276
152	0x3deb06f3	0.11475935
153	0xbe7ecec8	-0.24883568
154	0xbeb07ea3	-0.34471616
155	0xbcb47b15	-0.022031346
156	0xbe592344	-0.21204859
157	0x3dbc0c87	0.09182077
158	0xbed149f9	-0.4087675
159	0x3cf28c48	0.029607907
160	0xbe56dd9e	-0.20982978
161	0xbdd4a9a4	-0.10383919
162	0xbe94a96b	-0.29035506
163	0xbd74e3df	-0.059787627
164	0x3e3dc4bd	0.18532081
165	0xbe576bc1	-0.21037199
166	0xbe9b5e95	-0.30345598
167	0xbe4ec5f9	-0.20192708
168	0xbe720014	-0.23632842
169	0xbe88f995	-0.26752916
170	0x3c432d5d	0.011912671
171	0xbe50db00	-0.20396042
172	0xbe916ce6	-0.28403395
173	0xbc8f7944	-0.017513879
174	0xbe81b543	-0.25333604
175	0xbd2a34b2	-0.04155416
176	0xbeda92cb	-0.4269012
177	0xbef6cb3a	-0.48201925
178	0x3df15fa7	0.11785822
179	0xbf203b72	-0.62590706
180	0xbec2fb47	-0.38082334
181	0xbf051ff4	-0.5200188
182	0xbe1f7a3f	-0.15573977
183	0xbf1f2b20	-0.6217518
184	0xbea01592	-0.31266457
185	0xbead0e88	-0.3380015
186	0x3e638a2a	0.22220674
187	0xbe82804f	-0.25488517
188	0xbeb3aaa6	-0.35091132
189	0x3edf1178	0.43568015
190	0x3e6254e3	0.22102694
191	0xbe35430d	-0.17701359
192	0x3e0369b2	0.12833288
193	0xbef1e3e3	-0.47244176
194	0xbe9ec4d2	-0.31009537
195	0xbe0d7d2d	-0.13817282
196	0xbcfdbb49	-0.030973094
197	0x3e8e0bbc	0.27743328
198	0xbe5c2514	-0.21498519
199	0xbe96d090	-0.29455996
200	0xbea816e0	-0.32829952
201	0x3e03a7d2	0.12856987
202	0x3e4d1ab8	0.20029724
203	0x3e443fda	0.19164982
204	0xbe615962	-0.22006753
205	0xbef2ccce	-0.4742188
206	0xbccfd8b6	-0.02537189
207	0xbea3eb2f	-0.32015368
208	0xbb3c2917	-0.0028711015
209	0xbd9ac986	-0.07557969
210	0xbe5b9410	-0.214432
211	0xbf021942	-0.5081979
212	0xbd5b7d02	-0.053586014
213	0xbe10179d	-0.14071508
214	0xbef4377c	-0.4769858
215	0xbe8988b8	-0.2686212
216	0xbf110c48	-0.56659365
217	0xbe16ed67	-0.14739
218	0xbdaeb497	-0.085305385
219	0xbe98e00e	-0.2985844
220	0xbf0983f9	-0.53717
221	0xbe82eac2	-0.2556973
222	0x3f14d55a	0.5813805
223	0xbe7c0af6	-0.24613556
224	0xbf1afc90	-0.6054163
225	0xbed097ba	-0.40740758
226	0xbd8c8898	-0.06861991
227	0xbe667abf	-0.22507761
228	0xbf08b993	-0.53408164
229	0xbc06951a	-0.0082142595
230	0xbe73b071	-0.23797776
231	0xbe0065f5	-0.12538894
232	0x3d844c6c	0.06459889
233	0xbef19af6	-0.47188538
234	0xbbbf10af	-0.0058308463
235	0xbee9f48c	-0.45694387
236	0xbf0237ed	-0.50866586
237	0xbf1e1b2f	-0.6176023
238	0xbea1358e	-0.3148617
239	0x3e995946	0.29950923
240	0xbe88c380	-0.26711655
241	0xbe79986f	-0.24374555
242	0xbea79518	-0.32730937
243	0xbe05dfa6	-0.13073596
244	0xbe81cf9f	-0.25353715
245	0xbf0cdd89	-0.55025536
246	0x3e86a221	0.2629557
247	0xbe116311	-0.14197947
248	0x3d44072f	0.047858413
249	0xbea7c0dc	-0.32764328
250	0x3e79b8b9	0.24386872
251	0xbf3eba2d	-0.7450283
252	0xbdb9604e	-0.09051572
253	0x3cec92b1	0.028878542
254	0x3e2350ca	0.15948787
255	0xbd81da21	-0.06340433

network.2.weight f4 [256, 256]
0	0xbf8185d7	-1.011897
1	0xbe6cacca	-0.23112789
2	0xbce29817	-0.027660413
3	0x3d79ced7	0.060988273
4	0x3f00e846	0.5035442
5	0xbf8d33f1	-1.1031476
6	0xbdb08a55	-0.08620135
7	0xbeda7618	-0.42668223
8	0xbddc6f06	-0.107633635
9	0xbfbd3d12	-1.4784262
10	0x3f022b9f	0.5084781
11	0x3d15e6da	0.03659711
12	0xbe7d5ca7	-0.24742375
13	0x3ec511b6	0.38490075
14	0xbf9bf05a	-1.2182724
15	0x3ee6481a	0.44976884
16	0xbeee0a95	-0.46492448
17	0xbf2e40a5	-0.6806739
18	0x3dcbe316	0.099554226
19	0xbde5f186	-0.112277076
20	0xbf07b306	-0.53007543
21	0x3e27521b	0.16339915
22	0xbd01dc33	-0.03170414
23	0xbefe9fbc	-0.49731243
24	0xbe61f847	-0.22067367
25	0x3e8245d2	0.25443894
26	0xbe8af814	-0.27142394
27	0xbea3589a	-0.31903535
28	0x3f364418	0.7119765
29	0x3d73ae9b	0.05949269
30	0xbe9df5a5	-0.30851474
31	0xbe824769	-0.25445107
32	0xbe9baa7b	-0.30403504
33	0xbf695695	-0.9114774
34	0x3e84c7c9	0.25933674
35	0xbe05496c	-0.1301629
36	0xbf5af4c0	-0.8552971
37	0xbf9f1842	-1.2429278
38	0x3dc1fee1	0.094724424
39	0xbe650ecb	-0.22368924
40	0xbe917dd8	-0.28416324
41	0xbf0a29d0	-0.5397005
42	0xbe75c0d7	-0.23999344
43	0xbd996260	-0.07489467
44	0xbeddbec1	-0.43309596
45	0x3f15309a	0.58277285
46	0xbf1b62d6	-0.60697687
47	0xbe1ab87a	-0.15109435
48	0x3e9a0034	0.3007828
49	0x3e823433	0.2543045
50	0xbf2a2c82	-0.66474164
51	0xbdae6529	-0.085153885
52	0xbdcdfe62	-0.10058285
53	0xbe42f8a7	-0.19040166
54	0xbd7d2d0f	-0.06181055
55	0xbf0582c4	-0.5215266
56	0xbd0bdcb3	-0.034146022
57	0x3e509305	0.20368584
58	0xbefa632a	-0.4890378
59	0xbccd3b4f	-0.025052695
60	0xbe771716	-0.241299
61	0xbf87f9cd	-1.0623108
62	0x3eb34d4c	0.3501991
63	0x3e0b6fde	0.13616893
64	0xbe6a185b	-0.22860853
65	0x3ecf308c	0.40466726
66	0x3db8365c	0.08994743
67	0xbf46ef31	-0.7770873
68	0x3eda8485	0.4267923
69	0xbf08f0c1	-0.5349236
70	0xbf118847	-0.5684857
71	0xbe3974ba	-0.18110934
72	0xbe87fa06	-0.2655794
73	0xbb18ed26	-0.002333471
74	0xbe325f8a	-0.17419258
75	0xbf45587d	-0.7708815
76	0x3dcfc7f5	0.10145561
77	0xbf148b64	-0.58025193
78	0xbedd6ac5	-0.4324552
79	0xbee25a87	-0.44209692
80	0xbf87ac00	-1.0599365
81	0xbe6bff53	-0.23046617
82	0xbfb71a50	-1.4304905
83	0xbe809eeb	-0.25121245
84	0xbf2c50b3	-0.6731064
85	0x3dcb8dc2	0.099391475
86	0xbe49ab24	-0.19694191
87	0xbe4fbe99	-0.20287551
88	0xbee0d3ab	-0.4391149
89	0xc0279b5e	-2.6188579
90	0x3d178af2	0.036997743
91	0xbf034846	-0.51282156
92	0xbeae1c4f	-0.34005973
93	0xbcb2bf7b	-0.02181982
94	0x3e0f28b4	0.13980371
95	0xbe2da2ea	-0.16956678
96	0x3da35850	0.07975829
97	0xbeee8ca2	-0.4659167
98	0xbe827101	-0.2547684
99	0xbf65189b	-0.8949067
100	0x3d7520bc	0.05984567
101	0x3e6dd9c6	0.23227605
102	0x3e0fe1f8	0.14051044
103	0xbcb4ab93	-0.02205447
104	0x3e1c50de	0.15265223
105	0xbd5fcfbf	-0.05464148
106	0xbbca6fd4	-0.0061778817
107	0xbe98385f	-0.29730508
108	0xbf29488d	-0.6612633
109	0x3f0f10fe	0.55885303
110	0x3dcc4d60	0.099756956
111	0xbf2a4f90	-0.6652765
112	0x3c34bbc9	0.0110311
113	0xbf104933	-0.56361693
114	0xbe3ad5bd	-0.18245597
115	0xbef4f5d5	-0.47843805
116	0xbf90294d	-1.1262604
117	0xbda5b502	-0.08091165
118	0xbf53e32a	-0.827685
119	0x3d88fbf0	0.06688678
120	0xbe6844e8	-0.22682536
121	0xbdd7aab2	-0.105306044
122	0xbf90415e	-1.1269948
123	0xbfe53019	-1.7905303
124	0x3e1410a4	0.14459473
125	0x3e4286e5	0.1899677
126	0x3eb76f92	0.3582731
127	0xbe007c7c	-0.12547487
128	0xbf0aa4b5	-0.54157573
129	0x3e7212c7	0.23639975
130	0x3e944b40	0.2896366
131	0x3e1d9113	0.15387373
132	0xbf634e56	-0.88791406
133	0xbedb002c	-0.4277357
134	0x3d7c6622	0.06162084
135	0xbe06ee17	-0.13176762
136	0xbe8ef74f	-0.27923056
137	0xbe01886c	-0.12649697
138	0x3eb13e80	0.34617996
139	0xbee29469	-0.44253853
140	0xbeda40d1	-0.42627576
141	0xbe4ca9a3	-0.19986586
142	0x3ef1276d	0.47100392
143	0x3e6a2f9d	0.22869726
144	0xbf38908f	-0.7209558
145	0xbe169456	-0.14705023
146	0xbe847678	-0.25871634
147	0xbeabfba2	-0.33590418
148	0x3eb133c1	0.34609798
149	0xbd9b9e7f	-0.0759859
150	0xbfaa6458	-1.3311872
151	0xbf84eab6	-1.0384128
152	0xbf457d3c	-0.7714422
153	0xbf12bf93	-0.5732357
154	0xbe739919	-0.23788871
155	0x3f2b356a	0.6687838
156	0xbeb8f027	-0.36120722
157	0xbf372c96	-0.7155241
158	0xbe532d60	-0.20622778
159	0xbea668d8	-0.32501864
160	0xbf68f747	-0.91002315
161	0xbe3c8f6a	-0.18414083
162	0xbf40c6ad	-0.75303155
163	0xbec9a049	-0.393801
164	0xbe97f813	-0.29681453
165	0xbf2cda75	-0.6752084
166	0xbf4a705e	-0.7907771
167	0xbc904ad2	-0.017613802
168	0x3b64b278	0.0034896415
169	0xbe9c8890	-0.3057294
170	0xbe1a4813	-0.15066557
171	0xbeeaa3f3	-0.45828208
172	0x3deaf2e2	0.114721075
173	0xbf253b19	-0.645433
174	0xbf48ebe5	-0.78484946
175	0xbf8dcab7	-1.1077489
176	0xbec77756	-0.38958234
177	0xbedfb5f7	-0.43693516
178	0xbeefca56	-0.46834058
179	0xbeef97d7	-0.46795532
180	0x3f71897a	0.943504
181	0xbe0171d6	-0.12641081
182	0xbedd00f9	-0.43164805
183	0xbe53f904	-0.2070046
184	0x3e916465	0.28396907
185	0x3faaf707	1.3356637
186	0xbfb41410	-1.4068623
187	0xbeb52f07	-0.35387442
188	0xbe4d4799	-0.20046844
189	0xbdbe8ccb	-0.09304198
190	0x3e3cfabc	0.18455023
191	0xbf884bd8	-1.0648146
192	0xbe42e2e0	-0.19031858
193	0x3dc46ccc	0.09591064
194	0xbde84b9e	-0.11342548
195	0xbf396473	-0.724189
196	0xbf5b54d2	-0.856763
197	0x3ed9e159	0.4255474
198	0x3cd2a4ee	0.02571341
199	0xbdc0898b	-0.09401234
200	0x3d962ed2	0.07333149
201	0x3dbc0b26	0.09181814
202	0xbf86bd32	-1.0526488
203	0x3f28bd30	0.6591368
204	0xbf10cd48	-0.56563234
205	0xbf78f0e7	-0.9724259
206	0xc01ae2a6	-2.4200835
207	0x3f044177	0.5166239
208	0x3ed72dec	0.42027223
209	0xbde23aa9	-0.11046345
210	0x3f338a6c	0.7013309
211	0xbf161c7f	-0.5863723
212	0xbec9740e	-0.39346355
213	0x3e3c3da1	0.18382885
214	0xbe5ccf75	-0.21563514
215	0xbbcd7d3b	-0.006271032
216	0xbf112375	-0.5669473
217	0xbf1e4a52	-0.61832154
218	0xbf25c009	-0.6474615
219	0xbe5db9ad	-0.21652861
220	0xbdcaee55	-0.099087395
221	0x3e6b36c0	0.22970104
222	0xbdefdb5c	-0.11711761
223	0x3ed2a028	0.41137815
224	0x3e13263c	0.14370054
225	0x3e5bcd11	0.21464945
226	0xbf9a92db	-1.2076067
227	0xbf2bbe90	-0.6708765
228	0xbe79e0b5	-0.24402125
229	0xc00266ba	-2.03752
230	0xbe88a31a	-0.26686937
231	0xbe95a88c	-0.29230154
232	0xbe247395	-0.16059716
233	0xbd895f04	-0.06707576
234	0xbe0c695f	-0.13712071
235	0x3e19b169	0.15009083
236	0xbf01c3fc	-0.50689673
237	0x3e842835	0.25811926
238	0x3e582754	0.21108752
239	0xbdb771c4	-0.08957246
240	0xbf4d88fe	-0.8028716
241	0xbdae7a47	-0.08519416
242	0x3f10bda2	0.56539357
243	0xbd9ec792	-0.07752909
244	0xbee68dab	-0.4502996
245	0xbecb2635	-0.39677587
246	0xbf761938	-0.9613223
247	0x3d8adb09	0.06780059
248	0xbe83a980	-0.25715256
249	0x3e427cc1	0.18992902
250	0xbe66abdf	-0.22526501
251	0x3d696fb1	0.056991283
252	0xbde647b9	-0.11244149
253	0xbe7d9886	-0.24765214
254	0xc0232e4a	-2.5497003
255	0xbf67167d	-0.9026869

network.2.bias f4 [256]
0	0x3dcfa4d3	0.101388596
1	0xbebc7d25	-0.36814228
2	0xbd8f1ae1	-0.069875486
3	0xbbd73ade	-0.006568297
4	0x3c926f50	0.017875344
5	0xbce8277a	-0.028339136
6	0xbd5d4405	-0.054019947
7	0x3dcd9d3b	0.10039755
8	0xbde923be	-0.113837704
9	0xbdc97ba6	-0.09838037
10	0xbbcb3ae1	-0.0062020873
11	0xbd22cf11	-0.039748255
12	0xbd2abcdb	-0.041684013
13	0x3dc2ddf2	0.09514989
14	0xbe13d758	-0.14437616
15	0xbd7886b6	-0.060675345
16	0xbd86b2f6	-0.06577103
17	0xbcceb777	-0.025233967
18	0xbdf79add	-0.12090085
19	0xbe732987	-0.2374631
20	0xbce76b41	-0.028249385
21	0xbe24bd35	-0.16087802
22	0xbe84f27d	-0.25966254
23	0x3e9412b2	0.28920513
24	0xbdf98e3a	-0.12185331
25	0xbd3d61c6	-0.046235822
26	0xbd2b74ac	-0.041859314
27	0x3dbe0d77	0.09279912
28	0xbdb11ea2	-0.08648421
29	0xbd85b2aa	-0.06528218
30	0xbceea7af	-0.029132692
31	0x3d614a4f	0.055002507
32	0xbcbb92c2	-0.022897128
33	0xbe0c8354	-0.13721973
34	0xbe6a5628	-0.22884429
35	0x3eb29a58	0.3488338
36	0xbd0c8be0	-0.034313083
37	0xbd5fb0ab	-0.054611843
38	0xbe88e138	-0.26734328
39	0xbc36b6cd	-0.011151982
40	0xbd8b106b	-0.06790241
41	0xbd055df2	-0.032560296
42	0x3ca205c1	0.019778134
43	0xbbb873ea	-0.0056290524
44	0xbac38ad0	-0.0014918689
45	0x3d9571cb	0.07297095
46	0x3c08ab17	0.008341572
47	0xbe14f49b	-0.14546435
48	0x3d84a815	0.064773716
49	0x3e9cb136	0.3060395
50	0xbe98e9cb	-0.2986587
51	0x3e1300e8	0.14355814
52	0xbe134dae	-0.14385101
53	0xbdedd142	-0.116121784
54	0xbe292db6	-0.16521344
55	0x39f70a4e	0.0004711919
56	0xbdd76830	-0.10517919
57	0xbdbff2a6	-0.093724534
58	0x3b4a6a6b	0.0030886184
59	0xbdc7f868	-0.097641766
60	0xbc5b393a	-0.013380343
61	0xbefb88f0	-0.49127913
62	0xbe5cf43d	-0.21577545
63	0xbe6794a9	-0.22615303
64	0xbc699eaa	-0.01425902
65	0xbeb303c6	-0.34963816
66	0xbe989ed0	-0.29808664
67	0x3ea6cede	0.32579702
68	0xbd9558c1	-0.07292319
69	0xbebe1554	-0.37125647
70	0xbde9920c	-0.11404809
71	0x3e3509bc	0.17679495
72	0x3ce05721	0.027385296
73	0xbc6b85c5	-0.014375155
74	0x3cf73696	0.030177396
75	0x3b60d8ad	0.0034308836
76	0x3cf10cba	0.029425014
77	0xbe22632c	-0.15858144
78	0x3e7dfd10	0.24803567
79	0xbd0760c4	-0.033051267
80	0x3e40c29b	0.18824236
81	0xbd702a7a	-0.05863426
82	0xbdad5553	-0.0846354
83	0x3cc52647	0.024066104
84	0xbe21422c	-0.15747899
85	0xbe2e18ee	-0.17001697
86	0xbd2b2c62	-0.041790374
87	0x3d2f831e	0.042849652
88	0x3e14e2ca	0.14539638
89	0xbdfbef9b	-0.123015605
90	0xbe5d4a60	-0.21610403
91	0xbe384dda	-0.17998448
92	0xbe57986f	-0.21054243
93	0xbdc7d95d	-0.09758256
94	0x3b5b0aac	0.003342311
95	0xbe902c90	-0.28158998
96	0x3d2754f2	0.040852495
97	0x38867d2d	6.412934e-05
98	0xbd085a76	-0.033289395
99	0xbe0f3a1a	-0.13987008
100	0xbdd3ab5d	-0.10335419
101	0xbda2e9b4	-0.079547316
102	0xbd852f32	-0.065031424
103	0x3dcc19f6	0.09965889
104	0xbdd904d5	-0.10596625
105	0x3bf26a27	0.0073979083
106	0xbde35a4d	-0.11101208
107	0xbe48d199	-0.19611205
108	0xbd69f2d9	-0.057116363
109	0xbe39f40f	-0.18159507
110	0xbb9525cf	-0.0045516263
111	0x3e410fc9	0.18853678
112	0xbdc1e683	-0.09467795
113	0xbe7252b9	-0.23664369
114	0xbd5f8169	-0.054566775
115	0x3e94edf0	0.29087782
116	0xbd9ec33a	-0.0775208
117	0x3ccd8d22	0.025091711
118	0x3e8347a7	0.25640604
119	0xbe7cd1d2	-0.24689415
120	0x3d3057c0	0.043052435
121	0x3d9c2007	0.07623296
122	0xbcfe975d	-0.031078035
123	0xbe3c5041	-0.1838999
124	0xbd9b3b85	-0.07579712
125	0xbc945b96	-0.018110078
126	0x3c43a35d	0.011940804
127	0xbd3b7f8b	-0.04577593
128	0xbc49cbbc	-0.0123166405
129	0xbdc2e521	-0.09516359
130	0xbc7eb9eb	-0.015547256
131	0xbe03f206	-0.12885293
132	0x3b508644	0.003181831
133	0x3e5a775f	0.21334599
134	0xbc93c0a5	-0.018036196
135	0x3d6fa423	0.058506142
136	0xbdbeb021	-0.09310938
137	0x3c8e761b	0.017390301
138	0xbc80cc9b	-0.015722563
139	0xbde7d2a2	-0.11319472
140	0xbdf43d0a	-0.11925705
141	0xbd3a1f48	-0.04543999
142	0xbda350db	-0.07974406
143	0x3e1f5098	0.15558088
144	0xbe37abc5	-0.17936619
145	0x3d354e39	0.044264052
146	0xbdf142a8	-0.11780292
147	0x3e2b07e6	0.16702232
148	0xbe565e95	-0.20934518
149	0xbdac1d55	-0.08404032
150	0xbd3f0988	-0.04663995
151	0x3bb7feeb	0.0056151054
152	0xbbd6aaa6	-0.0065511046
153	0xbe3707b9	-0.1787404
154	0xbd9e334d	-0.077246286
155	0xbf3558f6	-0.7083887
156	0xbcc0aaf0	-0.02351901
157	0x3cd652ca	0.026162524
158	0xbde5b27f	-0.11215686
159	0xba82b663	-0.0009972568
160	0x3e35d4f3	0.17757015
161	0xbd886981	-0.06660748
162	0xbdf663e0	-0.120307684
163	0xbe787018	-0.2426151
164	0xbe911431	-0.28335717
165	0xbbed8676	-0.007248695
166	0xbe40668b	-0.18789117
167	0xbd49b671	-0.049246255
168	0xbccba1b4	-0.02485738
169	0xbdccb56e	-0.099955425
170	0xbd76d328	-0.060259968
171	0x3e297b2e	0.16550896
172	0x3d4abad3	0.049494576
173	0xbde03ed8	-0.109494865
174	0xbd5a05dc	-0.053228244
175	0x3ab1d0c2	0.0013566243
176	0x3aca6a23	0.0015443008
177	0xbd1d4157	-0.03839239
178	0x3cdb92cb	0.026803395
179	0xbdc6e7da	-0.09712191
180	0x3e4796b9	0.1949109
181	0xbda42595	-0.08014981
182	0xbd05995c	-0.032616958
183	0xbc57466b	-0.013139348
184	0xbd42a7a1	-0.047523145
185	0xbe55a65a	-0.2086424
186	0xbd50f60a	-0.05101589
187	0xbea38e3c	-0.31944454
188	0x3e73796e	0.2377679
189	0xbee3279c	-0.44366157
190	0xbed4ad1b	-0.4153832
191	0x3d34ee72	0.04417271
192	0x3d469392	0.048480578
193	0xbebafba6	-0.36520118
194	0xbce00ef7	-0.027350886
195	0x3ddca4bc	0.10773608
196	0xbd682e67	-0.056684878
197	0xbed6a669	-0.41923836
198	0xbe00d735	-0.12582095
199	0xbb5f7006	-0.003409387
200	0x3d8d632d	0.06903682
201	0xbe157dc4	-0.14598757
202	0xbba03a99	-0.004889798
203	0xbe3e5e26	-0.18590602
204	0x3cf1a663	0.029498285
205	0xbc777023	-0.015102419
206	0xbdc3560b	-0.09537896
207	0x3d5225e0	0.05130565
208	0xbcccc1f5	-0.02499483
209	0xbe5e495d	-0.21707673
210	0xbd8acbf4	-0.06777182
211	0xbc698c5f	-0.0142546585
212	0xbabb1342	-0.0014272707
213	0xbe128701	-0.14309312
214	0xbe7bc488	-0.2458669
215	0xbdc935de	-0.098247275
216	0xbe0b5d25	-0.1360975
217	0xbcda3a08	-0.026639
218	0x3e1b2bd4	0.15153438
219	0xbec08da8	-0.37608075
220	0xbd90ec40	-0.07076311
221	0xbd8d7c91	-0.06908525
222	0xbed14a42	-0.40876967
223	0xbd9a6cc8	-0.075402796
224	0xbda56d97	-0.08077543
225	0xbe05ac2e	-0.13053963
226	0xbd87c3db	-0.06629153
227	0xbdccb2da	-0.09995051
228	0xba5015a1	-0.0007937793
229	0xbdfe68ab	-0.124223076
230	0xbe8c50a8	-0.27405286
231	0xbc9042d4	-0.017609991
232	0xbe9c7092	-0.30554634
233	0xbd50696a	-0.05088178
234	0xbe527c1b	-0.20555155
235	0xbd6b763b	-0.0574858
236	0xbd9b5d04	-0.07586101
237	0xbe4917a2	-0.19637921
238	0xbedd929b	-0.43275914
239	0xbd8773b2	-0.06613864
240	0xbde512a0	-0.11185193
241	0x3e91cd8d	0.28477135
242	0xbd0124d5	-0.031529266
243	0xbd5a86b4	-0.05335112
244	0x3e6f4c81	0.23369028
245	0xbdbb671e	-0.091505274
246	0xbd458622	-0.048223622
247	0xbd9e8ecd	-0.07742081
248	0xbd63f335	-0.055651862
249	0x3b9eb6b3	0.004843557
250	0xbe8248b3	-0.2544609
251	0x3e5ad368	0.21369708
252	0x3d81a976	0.0633115
253	0x3e59a7e2	0.21255448
254	0xbd13fd4f	-0.036130246
255	0xbd5015b7	-0.05080196

mean.weight f4 [1, 256]
0	0x3eb82b2b	0.35970435
1	0x40375458	2.864523
2	0xbf528c28	-0.8224511
3	0x3c8ccdc3	0.017187959
4	0xbfebf669	-1.8434573
5	0xbf814005	-1.0097662
6	0xbe1a9b7f	-0.1509838
7	0x3e9ab02f	0.30212542
8	0x3e258989	0.16165747
9	0xc07f59aa	-3.9898477
10	0xbcd800b2	-0.026367519
11	0xba93aa77	-0.0011266012
12	0xbe43fd27	-0.19139539
13	0x3e4aed1e	0.19817016
14	0x3f0518c4	0.51990914
15	0xbe5f3156	-0.21796164
16	0x3af89203	0.0018964413
17	0x3c888708	0.01666595
18	0xbf0cc07a	-0.54981196
19	0xbf8f382d	-1.1189018
20	0xbc417317	-0.011807225
21	0x3d3d9ab2	0.046290107
22	0xbf8c1737	-1.0944585
23	0x3e0dd7b8	0.13851821
24	0x3f65da04	0.8978579
25	0xbbe0b6f4	-0.006857747
26	0x405ca689	3.4476645
27	0xbe0ea7e9	-0.1393124
28	0x3fc29cf6	1.5204151
29	0xbdabd496	-0.08390157
30	0x3d32d8a7	0.043663647
31	0xbea59b82	-0.32345206
32	0xbca80477	-0.020509942
33	0x3eb9d6a7	0.3629658
34	0xbf0db916	-0.55360544
35	0xbe083bf0	-0.13304114
36	0xbeede42f	-0.46463153
37	0xbec610d2	-0.38684708
38	0x3f067070	0.52515316
39	0x3d1654dc	0.036702022
40	0xba91d2e7	-0.0011125476
41	0xbeace83b	-0.33770928
42	0x3cc77dc1	0.024351956
43	0xbde9a3b9	-0.11408181
44	0xbc0a1d18	-0.008429788
45	0x3fe5e577	1.7960652
46	0xbb5d40aa	-0.0033760467
47	0xbe3d6032	-0.18493727
48	0x3f3a71eb	0.72830075
49	0x3dd7bb76	0.10533802
50	0x3ee056f0	0.43816328
51	0x3e1c9196	0.15289912
52	0xba677672	-0.00088296004
53	0xbde6e1e0	-0.11273551
54	0xbce1186d	-0.027477467
55	0xbcb5de61	-0.022200765
56	0x3ec685b6	0.38773888
57	0x3d8fc6b9	0.07020325
58	0xbbfa5f97	-0.0076407897
59	0xbf12e5ac	-0.573817
60	0x3e01a72b	0.12661426
61	0xbfd2993f	-1.6453017
62	0x3e414e45	0.18877514
63	0x403477ce	2.8198123
64	0x3f39c8c9	0.72572
65	0x3f7669ca	0.9625517
66	0xbf00f511	-0.5037394
67	0x3e005893	0.12533788
68	0xbc5819e9	-0.013189771
69	0xbf1ed984	-0.6205065
70	0xbfbb6053	-1.4638771
71	0xbd064e31	-0.032789413
72	0xbd8aaeb1	-0.06771601
73	0x3f2b8df5	0.67013484
74	0x3e0d391c	0.13791317
75	0x3d21e379	0.039523575
76	0xbd6ccb1b	-0.057810884
77	0xbf0332e0	-0.51249504
78	0x3e82b7a1	0.25530723
79	0xbbd6b860	-0.006552741
80	0x3dd02572	0.10163392
81	0x3c8a90aa	0.016914684
82	0x3eb61ed0	0.35570383
83	0xbeb59f86	-0.3547327
84	0x3db4992d	0.088182785
85	0x3f0b4d71	0.5441504
86	0x3b5e21cf	0.0033894663
87	0x3e2ba65a	0.16762677
88	0x3efeaa0c	0.4973911
89	0xbf4bb9c3	-0.79580325
90	0x3e58d725	0.21175821
91	0x3e8ba877	0.27276966
92	0xbfa50de2	-1.2894862
93	0x4054ae67	3.3231447
94	0x3c73b1a6	0.014873898
95	0xc09e9c4a	-4.9565783
96	0xbee8f108	-0.45496392
97	0x3cdea220	0.027176917
98	0x3c874913	0.016514337
99	0xbeb0430b	-0.3442615
100	0x3cb774ff	0.022394655
101	0x3b603457	0.0034210884
102	0xbd04e86a	-0.03244821
103	0x3fbd9e08	1.4813852
104	0xbe8807b0	-0.26568365
105	0x3c0fde50	0.008781031
106	0xbf439659	-0.7640129
107	0x3c9ab6f3	0.018886065
108	0x3e9cce9a	0.30626374
109	0xbe8de8f5	-0.27716795
110	0xbe8d5124	-0.27600968
111	0xbea05e25	-0.31321827
112	0xbe9e0607	-0.30863973
113	0xbe167997	-0.1469482
114	0x3ec00bcd	0.37509003
115	0xbf6d49f8	-0.9269099
116	0x3c261636	0.010137131
117	0x3c4aea11	0.012384907
118	0xbe5a5770	-0.21322417
119	0xbdc17f96	-0.09448163
120	0x3ca8a06f	0.020584313
121	0xbf4711a8	-0.77761316
122	0x3c8206f0	0.015872449
123	0x3feec91e	1.8655126
124	0xb8e2cb3d	-0.00010814376
125	0xbc33bd99	-0.010970497
126	0x3c1a549c	0.0094195865
127	0x3d3cb507	0.04607108
128	0xbc74a292	-0.014931338
129	0xbf1bbdf0	-0.60836697
130	0x3ce6f7f0	0.028194398
131	0xbda21ae8	-0.07915288
132	0xbcc11afa	-0.023572434
133	0x3e976c5f	0.29574868
134	0xbc956ae8	-0.018239453
135	0xbf0b5b80	-0.5443649
136	0xbb215313	-0.0024616166
137	0xbce8f07d	-0.028434986
138	0xbe8079b6	-0.25092858
139	0x3fb6edc3	1.4291309
140	0x3e5ab280	0.21357155
141	0xbfcccc3e	-1.599983
142	0xbd0efdc3	-0.034909975
143	0x3ea0e751	0.3142648
144	0xbf426c1e	-0.75946224
145	0xbf7be1d2	-0.9839145
146	0xbfbb6793	-1.4640983
147	0xbef02d5f	-0.46909615
148	0x3e64afdf	0.22332714
149	0x3d16c945	0.03681304
150	0x3c6cf6cc	0.014463138
151	0x3e2bda12	0.16782406
152	0x3e5aefdf	0.21380566
153	0x3fca7958	1.5818281
154	0x3ce65294	0.028115548
155	0x3ef0f603	0.47062692
156	0xbc67aae6	-0.014139866
157	0xbb77b48c	-0.0037796823
158	0xbf312479	-0.6919628
159	0xbda96463	-0.082711
160	0xbeb7d4ed	-0.35904637
161	0x3f085618	0.5325637
162	0x3dfd2aeb	0.123617016
163	0xbfcd9ee8	-1.6064119
164	0x3f1d2d7b	0.6139752
165	0xbc2073e0	-0.009793252
166	0xbe0c8616	-0.13723025
167	0x3d4f2b9b	0.050578695
168	0xbc4c5205	-0.012470727
169	0x3e54c766	0.2077919
170	0x3e47ba91	0.19504763
171	0x3e23a38e	0.1598036
172	0xbece9958	-0.40351367
173	0x3df42da3	0.11922767
174	0x3c344486	0.011002665
175	0x403219fa	2.7828355
176	0x3da6164e	0.08109723
177	0xbea14a09	-0.31501797
178	0x3eda9d66	0.4269821
179	0x3f40ca6a	0.7530886
180	0x3e3f31e7	0.1867138
181	0x3e78d858	0.24301279
182	0xbe8aa689	-0.2708018
183	0xbd0475fa	-0.032339074
184	0x3d369b53	0.044581722
185	0xbd9e9035	-0.07742349
186	0xbb47c68e	-0.0030483338
187	0xbe9c907e	-0.3057899
188	0xbe3c4ed0	-0.1838944
189	0x3f3208c1	0.6954461
190	0x3fa2e8e5	1.2727324
191	0x3f1c8b40	0.6114998
192	0xbdee7abe	-0.11644505
193	0x404e9def	3.2283895
194	0x3de0530e	0.109533414
195	0xbe5c22d4	-0.21497661
196	0x402cfdf0	2.702999
197	0x3f153934	0.5829041
198	0x3f528367	0.82231754
199	0x3b49d62e	0.0030797827
200	0x3e937a29	0.28804138
201	0xbe7c8e1d	-0.24663587
202	0xbf08a7f1	-0.5338126
203	0xbecc7eed	-0.39940587
204	0xbf2460b5	-0.64210063
205	0x3e371b47	0.17881499
206	0x3c42fcf5	0.01190113
207	0x3e6f6371	0.23377778
208	0x3c95901f	0.018257199
209	0xbd848180	-0.06470013
210	0xbf0b9275	-0.5452035
211	0xbc0ced58	-0.008601509
212	0xc0944ea4	-4.6345997
213	0xbfd0e5fb	-1.6320184
214	0x3f0dfa08	0.5545964
215	0xbf8b0e4d	-1.0863739
216	0x3df0cc66	0.11757736
217	0x3f0f815c	0.5605676
218	0xbe812501	-0.25223544
219	0xc03d3bca	-2.9567742
220	0xbf25892e	-0.64662445
221	0xbc9def4d	-0.019279147
222	0xbfddde98	-1.7333555
223	0xbd0837de	-0.033256404
224	0xbf8ec276	-1.1153095
225	0xbeb8120b	-0.35951266
226	0xbd48bd75	-0.049008805
227	0x3de1d800	0.11027527
228	0xbf17d953	-0.59315985
229	0xbf1fd413	-0.62432975
230	0x3f8a2718	1.079318
231	0x3b94da9b	0.0045426614
232	0x3fdcb02b	1.7241262
233	0x3c80a152	0.015701924
234	0x3b3272d4	0.0027229087
235	0x3cd37799	0.025813865
236	0x3ec3e432	0.38260037
237	0xbe8a550b	-0.27018008
238	0x3f0fdcf2	0.5619651
239	0x3cf337d2	0.029689703
240	0x3f1b1cdb	0.60590905
241	0xbda6ecf1	-0.08150662
242	0x3d40665b	0.046972614
243	0x3d32e898	0.04367885
244	0xbd4b74a8	-0.0496718
245	0x3eb0e880	0.34552383
246	0x3fdad593	1.7096428
247	0xbbd4cd48	-0.006494198
248	0xbe352cbd	-0.17692848
249	0x3d4c2877	0.049843278
250	0x3e9e3e56	0.30906934
251	0x3e2f6549	0.17128481
252	0xbeb5edd5	-0.35533014
253	0xbe87cf2f	-0.26525256
254	0xbf5a8389	-0.85356957
255	0xbcd0c158	-0.025482818

log_std.weight f4 [1, 256]
0	0x3cb14381	0.021638634
1	0xba46ab4b	-0.0007578625
2	0x3e347415	0.17622407
3	0xbc1764f0	-0.009240374
4	0xbb61b0ad	-0.0034437582
5	0xbd8bdf47	-0.06829696
6	0x3c090054	0.008361895
7	0x3dd25411	0.10269941
8	0x3d947db5	0.07250539
9	0xbe83f606	-0.25773638
10	0xbb7da1f2	-0.0038701263
11	0x3ce429f6	0.02785204
12	0x3e82a51f	0.25516602
13	0x3d0a111c	0.033707723
14	0x3dd41c5a	0.1035697
15	0xbe060f31	-0.13091733
16	0xbbcc5e25	-0.006236809
17	0xbcf7a5ac	-0.030230366
18	0xbd823f4a	-0.06359728
19	0x3e77258e	0.2413542
20	0xbad4c4d9	-0.0016232982
21	0x3dba9ec4	0.091123134
22	0x3f583546	0.8445629
23	0x3eb126c5	0.3459989
24	0x3cc292fe	0.023751732
25	0xbb96ce89	-0.0046022576
26	0xbe5f68aa	-0.2181727
27	0x3e88bd96	0.26707143
28	0xbecb43fe	-0.3970031
29	0xbed1a552	-0.40946442
30	0x3cd63267	0.02614708
31	0x3d7d004b	0.061767858
32	0x3c92960e	0.017893817
33	0x3eb09686	0.3448984
34	0x3e082e84	0.13298994
35	0xbebb576d	-0.36590138
36	0xbe84342b	-0.2582105
37	0x3e95926a	0.29213268
38	0xbe67ec1f	-0.22648667
39	0x3c8a34e5	0.016870925
40	0x3d16304a	0.036667146
41	0x3d22fef3	0.03979392
42	0xbc4d2053	-0.012519914
43	0xbe21a8ee	-0.15787098
44	0xbcb4d1dc	-0.022072725
45	0xbddbf02f	-0.10739171
46	0x3c0984b6	0.008393457
47	0xbc83f0ac	-0.016105972
48	0xbeae02df	-0.33986565
49	0x3d135f76	0.03597971
50	0x3bf54d70	0.007486038
51	0x3be6565b	0.0070293373
52	0x3941dc0c	0.00018487888
53	0xbe5f904d	-0.2183239
54	0xbea14e6a	-0.31505138
55	0x3d0b5d1b	0.03402434
56	0x3d81ed61	0.063441046
57	0xbdf12bdc	-0.11775944
58	0xbb46586a	-0.0030265101
59	0xbe2cb7e7	-0.16867028
60	0xbdaa766e	-0.0832337
61	0x3e22967d	0.15877719
62	0xbc8b0559	-0.016970323
63	0xbee64868	-0.44977117
64	0x3dbbb9af	0.09166276
65	0x3d22a793	0.039710592
66	0x3e11f903	0.14255147
67	0xbf000e2e	-0.50021636
68	0xbcfc3a55	-0.030789534
69	0x3e862591	0.26200536
70	0x3ebd8067	0.37012026
71	0xbf10485c	-0.5636041
72	0x3cb6dfe0	0.022323549
73	0xbe2b85a4	-0.16750199
74	0xbe5f732c	-0.21821278
75	0xbd047a37	-0.032343116
76	0x3f267643	0.65024203
77	0xbca1a1c2	-0.019730452
78	0xbe35d817	-0.17758213
79	0xbca9f4f2	-0.020746682
80	0x3e5dcb44	0.21659571
81	0x3c24d12a	0.010059634
82	0xbe2e3728	-0.17013228
83	0x3e65a97b	0.22427933
84	0x3e70eeb4	0.23528558
85	0xbd2b0d46	-0.041760705
86	0x3c23f16b	0.010006289
87	0xbefa1fed	-0.48852482
88	0x3e15df04	0.14635855
89	0xbd0af671	-0.03392643
90	0xbe6c817f	-0.23096274
91	0x3e0d0e3c	0.13774961
92	0x3e2efc95	0.1708854
93	0xbebfbf2a	-0.37450534
94	0x3cc10e0f	0.023566274
95	0x3dbd2303	0.092351936
96	0x3eb3c300	0.3510971
97	0xbcad2598	-0.02113609
98	0xbc62b993	-0.01383819
99	0xbd9cf6d2	-0.07664265
100	0x3e5838df	0.21115445
101	0x3b81e1da	0.003963691
102	0xbcddba31	-0.027066322
103	0x3d367e02	0.044553764
104	0xbd59fdf9	-0.053220723
105	0xbcc2a22e	-0.023758974
106	0x3e9c3c2f	0.30514666
107	0x3c8d9c51	0.017286452
108	0xbe3f7396	-0.18696436
109	0x3d5e75b9	0.054311488
110	0xbe2f5b4e	-0.17124674
111	0x3f3c5ee8	0.73582315
112	0xbe0b8758	-0.13625848
113	0xbc466ed7	-0.012111387
114	0xbdb4ca0c	-0.088276
115	0x3e48942b	0.19587772
116	0x3c029046	0.007968968
117	0x3c703d1e	0.014663009
118	0xbe44bc94	-0.19212562
119	0xbe08c5fb	-0.13356774
120	0xbe500077	-0.20312677
121	0x3ef29891	0.47382024
122	0x3cd2984c	0.025707386
123	0xbe050095	-0.12988503
124	0x3d9c430c	0.07629976
125	0xbc49ea7d	-0.012323973
126	0x3c37b726	0.0112131
127	0x3c0465b6	0.00808089
128	0xbd20a507	-0.039219882
129	0x3d19599f	0.037438985
130	0xbcef6556	-0.029223125
131	0xbea9b1b9	-0.33143404
132	0xbd0d0a8e	-0.034433894
133	0xbd69f5f6	-0.057119332
134	0xbccb0188	-0.024781004
135	0xbb91e705	-0.0044525885
136	0x3b6b14fd	0.0035870664
137	0xbda8afe0	-0.082366705
138	0xbec499b5	-0.3839852
139	0xbe1df058	-0.15423715
140	0x3dd2404f	0.10266172
141	0x3d93666f	0.07197272
142	0xbd1ea967	-0.038735773
143	0x3e0e0ae2	0.13871339
144	0xbee13782	-0.43987662
145	0xbe6c4cbb	-0.23076145
146	0x3e44a3b6	0.19203076
147	0x3f094020	0.5361347
148	0x3ca86796	0.020557206
149	0xbcd1d1a7	-0.025612665
150	0xbb86947a	-0.0041070553
151	0x3b4bbdb2	0.003108841
152	0xbeec3abf	-0.4613857
153	0xbe320afc	-0.17387003
154	0x3ce2edb2	0.027701233
155	0x3e8c329a	0.27382356
156	0xbbafb697	-0.0053623426
157	0x3ae9432c	0.0017796508
158	0x3e951495	0.29117265
159	0xbe65d39b	-0.22444002
160	0x3f39945c	0.72492003
161	0xbe960315	-0.29299226
162	0x3da932b8	0.08261627
163	0x3eb89504	0.3605119
164	0x3e1f1129	0.1553389
165	0x3a6a6acb	0.0008942305
166	0xbe27f382	-0.16401485
167	0xba272cd1	-0.00063772226
168	0xbb0be67b	-0.0021347094
169	0xbd6c79c7	-0.057733323
170	0xbef5e99e	-0.48029798
171	0x3f59dc43	0.8510172
172	0x3e6447ff	0.2229309
173	0xbdbb5d90	-0.09148705
174	0xbccd38dd	-0.025051529
175	0x3d666d21	0.056256417
176	0xbe64a343	-0.22327904
177	0xbe0b0727	-0.13576947
178	0x3d4650d2	0.04841692
179	0xbde3a351	-0.111151345
180	0x3e7a6368	0.24451983
181	0xbdaf9f6b	-0.085753284
182	0xbe5e86c5	-0.21731098
183	0x3bdb891e	0.0066996953
184	0x3b106002	0.0022029881
185	0x3d604bdc	0.054759845
186	0x39b8af7a	0.00035225955
187	0xbd8d4bf1	-0.0689925
188	0xbe30b62e	-0.17256996
189	0x3c2e8dac	0.010653894
190	0x3dd965e3	0.106151365
191	0x3e2235f1	0.1584089
192	0x3dca47c0	0.098769665
193	0x3d25d846	0.040489458
194	0xbd43fd4f	-0.047848996
195	0x3e75ffa6	0.24023303
196	0xbdb7d38e	-0.08975898
197	0xbc5c5d24	-0.013449941
198	0x3dbba7b4	0.09162846
199	0xbbb2def5	-0.0054587075
200	0x3e4f2c07	0.20231639
201	0xbe1a0541	-0.15041067
202	0x3e61bc3a	0.22044459
203	0x3e3597ff	0.17733763
204	0xbcee4be7	-0.029088927
205	0x3e93cf5c	0.2886914
206	0xbc550d01	-0.013003589
207	0x3e39a61f	0.18129776
208	0xbd0542d2	-0.032534428
209	0x3e78e6fa	0.2430686
210	0xbc3e302b	-0.011608164
211	0xbc410c4d	-0.011782718
212	0xbc633f0e	-0.013870014
213	0xbdd737bd	-0.10508678
214	0xbe16dddc	-0.1473307
215	0x3dc88a3e	0.097919926
216	0xbdf52c3b	-0.11971327
217	0x3ca25d7a	0.019819964
218	0xbf471044	-0.77759194
219	0x3debba3f	0.11510133
220	0xbec73058	-0.3890407
221	0xbcda8989	-0.02667691
222	0x3db7fd75	0.0898389
223	0xbc6893cb	-0.014195393
224	0x3dfa5ff2	0.12225331
225	0x3e67bcce	0.22630617
226	0xbd2357a8	-0.039878517
227	0x3de0efd9	0.10983247
228	0x3ea2197f	0.31660077
229	0xbe0ca295	-0.13733895
230	0xbe1a09ab	-0.1504275
231	0x3b50ad46	0.003184156
232	0x3e39c999	0.1814331
233	0x3cc8b497	0.024500174
234	0xbea001ed	-0.3125147
235	0xb8e0b386	-0.00010714591
236	0x3d2934cb	0.041310113
237	0x3dd7941c	0.105262965
238	0x3cc2a351	0.023759516
239	0x3eb7964d	0.35856858
240	0x3ed67f75	0.41894117
241	0xbebeeda3	-0.37290677
242	0x3d82018c	0.06347951
243	0xbc7715e9	-0.015080907
244	0x3e9b0009	0.30273464
245	0x3ef6a663	0.48173818
246	0x3f1bcb94	0.6085751
247	0x39a56b72	0.00031551305
248	0xbe47c588	-0.19508946
249	0x3ef94a8b	0.48689684
250	0xbd9d08bb	-0.07667681
251	0x3e2f525d	0.17121263
252	0xbe3c6daf	-0.18401216
253	0xbdfdd774	-0.1239461
254	0x3eafd702	0.34343725
255	0xbb850d71	-0.00406044
