models/actor_1743356809.pth (torch, 275820 bytes, 6 tensors)

network.0.weight f4 [256, 6]
0.5132744 0.052738275 0.14532052 -0.14962937 0.9401879 -1.3519975 -0.78111213 -0.55652314
0.09668781 -0.024183996 -0.402916 0.020300588 -0.03395513 0.028087052 -1.1589662 0.0766397
0.3388921 -0.23593229 0.014309117 0.1975666 0.29244193 -0.5159914 -0.39613563 0.25446606
0.07363805 -0.3051746 0.7931641 0.18001924 0.5163361 -0.086380035 0.30610278 0.44937858
-0.0039394205 -1.4068984 0.19401103 -0.33683687 0.12317431 -0.4996298 0.5255296 0.3082581
-0.00075656327 -0.6100031 0.025299672 -0.12572916 0.5017069 0.072775416 0.04542458 0.17546168
-0.29847437 -0.54686415 0.3169697 -0.3935103 -0.03771097 0.423475 0.7617178 -0.32757294
0.77949715 0.22993734 0.07808865 -0.18896358 -0.47753435 -0.5204114 0.23843041 0.09921516
-0.14104739 0.19477303 0.66098475 -0.7913435 0.4267812 0.10028169 0.2681327 0.2166478
0.38353205 0.2379874 0.39369854 0.32139415 -0.18047248 0.9316551 -0.1854181 -0.033831514
-0.068385065 -0.01802276 -0.031673685 0.022448692 -0.10564194 -0.33109358 0.490304 -0.5779723
0.45807362 -0.44670564 0.5919843 -0.15447715 0.41193998 -0.19590868 0.5837878 -0.48681983
0.2291736 0.45999062 0.33109075 -0.20783481 -0.3248945 -0.10619127 -0.37789237 -0.6285612
-0.54755324 0.23866823 -0.517042 -0.79053783 0.16088243 0.26781708 -0.35289785 0.364391
-0.2806202 -0.4228397 0.029576777 -0.5781376 -0.13046858 0.05864533 -0.077102646 -0.016397579
-0.03058269 -0.54517996 0.19189078 -0.33654964 -0.72293156 0.100842 0.7398876 0.006632496
-0.03024244 -0.22636396 0.011471559 -0.3998772 0.48829734 -0.24650069 -0.7872193 0.121373214
-0.20161827 -0.22288752 0.13958618 -0.5227998 -0.036526866 0.11884851 -0.696771 0.4012706
0.009230544 -0.62672174 -1.1457429 0.32962278 -0.37106818 -1.0119494 0.1202241 0.071168184
0.5989493 -0.07515658 -0.57936096 -0.57598454 -0.306296 -0.6414241 0.63562876 0.19767745
-0.35629737 0.54645056 0.37133017 -0.16968326 0.5249518 0.25212583 -0.47643104 -0.7415649
0.7262224 -0.1506308 0.7108736 0.024794076 -0.18488742 -0.07618217 -0.18982589 -0.77876794
0.09952719 0.2511801 0.16481122 0.011548944 -0.30454695 -0.15128008 0.05902134 0.23211792
-0.20524114 0.6194387 0.3556903 -0.8725771 0.12405798 -0.02687996 0.35895658 -0.31090367
-0.029602217 0.13543881 0.8958935 -0.709663 0.11731859 0.6999853 0.5390569 -0.176705
-0.8864962 -0.082043126 0.25294337 -0.40232635 0.23040226 -0.5105439 0.04123584 0.05595104
0.51885164 -0.4040609 0.02526423 -0.32667184 -0.8864003 -0.42878154 -0.18974452 -0.50762117
0.19937263 -0.43208736 0.37381482 0.40277135 0.71935844 0.19189265 1.0777884 0.20759684
1.2530538 -0.39202687 0.13987824 -0.03177026 -0.05770641 -0.44876593 -0.23849058 0.25594446
0.31720096 0.007953451 0.2376005 -0.4730669 1.6058333 0.4720945 0.28230727 1.0725217
0.42275864 -0.13700056 -0.43385515 0.19849087 -0.18920305 0.3133373 -0.066588745 -0.50521827
-0.28894272 0.0099847065 0.21627867 0.5731464 0.8759941 0.11176432 -0.06568624 0.33659348
00000000: f365 033f 1704 583d e7ce 143e 7138 19be
00000010: 27b0 703f 410e adbf f7f6 47bf 4d78 0ebf
00000020: 4204 c63d 841d c6bc 024b cebe 6b4d a63c
00000030: 8914 0bbd d116 e63c 0159 94bf 46f5 9c3d
00000040: 4483 ad3e 3c98 71be c970 6a3c e64e 4a3e
00000050: f3ba 953e 0318 04bf 4ad2 cabe 6049 823e
00000060: 8ccf 963d d83f 9cbe cd0c 4b3f f756 383e
00000070: 9a2e 043f 04e8 b0bd 81b9 9c3e f314 e63e
00000080: 4116 81bb 3f15 b4bf d4aa 463e e275 acbe
00000090: d042 fc3d 7acf ffbe 1c89 063f 01d4 9d3e
000000a0: 1a54 46ba 2a29 1cbf 4241 cf3c 25bf 00be
000000b0: dd6f 003f 470b 953d 200f 3a3d 3aac 333e
000000c0: a2d1 98be 4aff 0bbf da49 a23e 2f7a c9be
000000d0: d176 1abd b7d1 d83e f0ff 423f a4b7 a7be
000000e0: 208d 473f b274 6b3e f1ec 9f3d ab7f 41be
000000f0: 627f f4be ae39 05bf 1a27 743e 5131 cb3d
00000100: ba6e 10be 9572 473e 4c36 293f 7d95 4abf
00000110: 1183 da3e 7d60 cd3d b048 893e ecd8 5d3e
00000120: 505e c43e f8b2 733e db92 c93e c68d a43e
00000130: c7cd 38be f380 6e3f 3ede 3dbe ea92 0abd
00000140: 780d 8cbd 78a4 93bc 44bc 01bd 52e6 b73c
00000150: cd5a d8bd 1985 a9be 2009 fb3e fef5 13bf
00000160: a088 ea3e 9ab6 e4be 488c 173f 422f 1ebe
00000170: cce9 d23e 499c 48be 1e73 153f 7340 f9be
00000180: 7cac 6a3e e483 eb3e ba84 a93e a6d2 54be
00000190: 9258 a6be cf7a d9bd 1c7b c1be 63e9 20bf
000001a0: 732c 0cbf 7265 743e dd5c 04bf b060 4abf
000001b0: 5dbe 243e 521f 893e 07af b4be 7591 ba3e
000001c0: 73ad 8fbe 727e d8be ff4a f23c d300 14bf
000001d0: 8e99 05be 1636 703d fee7 9dbd 3754 86bc
000001e0: 8d88 fabc ea90 0bbf 047f 443e 3c50 acbe
000001f0: 0b12 39bf 4086 ce3d 4669 3d3f 6955 d93b
00000200: febe f7bc f4cb 67be 35f3 3b3c b4bc ccbe
00000210: 1c02 fa3e ad6a 7cbe 3487 49bf 8592 f83d
00000220: 0575 4ebe a03c 64be aeef 0e3e 35d6 05bf
00000230: 329d 15bd d966 f33d 965f 32bf 5773 cd3e
00000240: b53b 173c d670 20bf b4a7 92bf 51c4 a83e
00000250: a6fc bdbe 8f87 81bf 0e38 f63d a0c0 913d
00000260: be54 193f b1eb 99bd 0051 14bf b973 13bf
00000270: d4d2 9cbe 5f34 24bf 91b8 223f f56b 4a3e
00000280: 9c6c b6be 2fe4 0b3f fd1e be3e 73c1 2dbe
00000290: 3e63 063f a316 813e c5ee f3be 33d7 3dbf
000002a0: b6e9 393f f63e 1abe d0fb 353f f21c cb3c
000002b0: 2153 3dbe 6605 9cbd b861 42be 565d 47bf
000002c0: e9d4 cb3d ae9a 803e 46c4 283e c837 3d3c
000002d0: 94ed 9bbe 2ae9 1abe 5cc0 713d 52b0 6d3e
000002e0: bc2a 52be 8993 1e3f 0a1d b63e 3661 5fbf
000002f0: 1c12 fe3d 5d33 dcbc 28c9 b73e c42e 9fbe
00000300: 5980 f2bc 79b0 0a3e 4759 653f 79ac 35bf
00000310: bb44 f03d 3d32 333f a2ff 093f 28f2 34be
00000320: 6af1 62bf 3a06 a8bd cb81 813e b8fd cdbe
00000330: 92ee 6b3e 01b3 02bf eae6 283d eb2c 653d
00000340: 76d3 043f 12e1 cebe eef6 ce3c 8841 a7be
00000350: 21eb 62bf 4189 dbbe 634c 42be 76f3 01bf
00000360: 5728 4c3e 8e3a ddbe a864 bf3e 0c38 ce3e
00000370: e027 383f 827f 443e f8f4 893f 4494 543e
00000380: 1164 a03f bfb7 c8be 3e3c 0f3e 8821 02bd
00000390: 8e5d 6cbd a6c4 e5be e036 74be 270b 833e
000003a0: 2a68 a23e 314f 023c 8c4d 733e d335 f2be
000003b0: f28b cd3f 5fb6 f13e 948a 903e 6448 893f
000003c0: d273 d83e e049 0cbe 4322 debe 3141 4b3e
000003d0: 72be 41be bf6d a03e ae5f 88bd fc55 01bf
000003e0: 4df0 93be e596 233c 2878 5d3e b9b9 123f
000003f0: 2641 603f b1e4 e43d 8286 86bd fb55 ac3e

network.0.bias f4 [256]
-0.21965979 -0.07099323 -0.16720174 -0.03968482 0.0050608097 0.12005653 -0.06137853 -0.15489727
0.3789491 0.07150491 0.073934324 0.08826466 -0.38922885 -0.28938073 0.057521142 -0.29123348
-0.16731873 0.0010641278 -0.38198462 -0.52263033 -0.07843665 -0.08349594 -0.16855659 0.1877236
0.065673836 -0.077788085 -0.2764014 -0.13752997 -0.39891917 0.0035470908 -0.2186288 -0.3550453
0.33486253 0.035594493 -0.25578642 0.5126902 -0.3655475 0.13596761 -0.019870019 -0.010365882
-0.45768702 -0.25887653 -0.5265117 -0.0920052 -0.114859216 -0.15358733 0.07603357 -0.045776125
-0.12141888 0.13871278 0.1916944 0.107880004 -0.24276482 -0.27775723 -0.029973943 0.059909206
-0.61263853 -0.16678569 -0.11504665 0.08313118 -0.17098296 -0.23647611 -0.6707646 -0.05884462
-0.49407172 -0.31842604 -0.15879488 0.054550108 -0.15622371 -0.3175555 0.07788874 -0.1177076
-0.14077337 -0.26759687 -0.13836473 -0.01125238 -0.09245969 -0.087133706 -0.39669913 -0.52424616
-0.20370649 -0.10306399 -0.12751088 -0.45693472 0.11176807 -0.10508604 0.22778964 -0.3861938
0.014459549 0.10381413 -0.18000163 -0.2663161 -0.12627313 0.09983933 0.15408358 0.044698052
0.03150682 -0.4990625 0.35789996 -0.11030244 -0.06831012 0.086877935 -0.12386715 -0.16913454
0.10793268 -0.24352443 0.13132127 -0.091072306 0.10267406 -0.19596791 0.21386395 0.19598946
-0.08733785 0.19692802 -0.30665123 -0.048179753 -0.30792978 -0.25917006 -0.048164263 -0.042914245
0.10934572 -0.16526291 -0.5154724 0.062160693 0.11647754 -0.027368508 -0.531673 -0.38519046
0.13985616 -0.25255552 0.3618958 -0.3802939 0.32027596 0.05931307 -0.4314302 -0.2231267
0.12647295 -0.11954657 -0.14228553 -0.1592526 -0.40900296 -0.07966818 0.120061435 0.05587364
-0.34380206 -0.3204021 -0.095090486 -0.26079 0.30665252 0.10522852 -0.015586597 -0.1885097
-0.033508774 -0.5582016 -0.021288922 0.015819332 -0.40309817 -0.25749683 -0.2704807 0.25426275
0.16114062 0.20733319 -0.028883642 -0.18519013 -0.13706227 -0.05548493 -0.46516597 -0.20845002
0.1365323 -0.12699181 0.05366978 -0.56777203 0.23608933 0.2878393 -0.12480049 -0.13137239
-0.13172647 -0.1101754 0.026254002 0.05438161 -0.0016104432 -0.254345 -0.1351443 0.06990392
-0.43027508 -0.10653028 -0.123912476 -0.42836857 -0.32799146 -0.19978118 -0.4365594 -0.20190033
0.18871775 -0.095695786 -0.5017335 0.31588554 0.0054404656 -0.04866883 -0.07967381 0.057157587
-0.11050826 -0.25158578 -0.37728024 0.39072758 0.011123738 -0.17280461 -0.21100035 -0.5701423
-0.42086852 -0.16696404 -0.09903636 0.15325274 0.25086942 0.026901618 0.13618883 -0.28702575
-0.40481603 -0.036163855 -0.16931576 0.25452211 -0.08757948 0.034229193 -0.016405959 -0.16871849
-0.04013464 -0.35577646 -0.305297 0.2201868 -0.248685 -0.23324615 0.28622833 -0.38769636
-0.09832544 -0.55222833 0.23999532 -0.20922473 -0.30483058 -0.18958984 -0.25369656 -0.037957378
0.041594166 -0.14273286 0.13526352 0.05774454 0.35851675 -0.24055603 0.19065148 -0.33504418
-0.45255363 0.1851263 -0.54760635 -0.26807034 0.095366865 0.22947598 -0.49795592 0.18082967
00000000: 7fee 60be e664 91bd ef36 2bbe 8d8c 22bd
00000010: 26d5 a53b 33e0 f53d 0e68 7bbd 649d 1ebe
00000020: 9e05 c23e 2b71 923d e16a 973d 1ac4 b43d
00000030: 0149 c7be b629 94be 4a9b 6b3d 8e1c 95be
00000040: 9a55 2bbe 347a 8b3a 7d93 c3be 1acb 05bf
00000050: 65a3 a0bd ebff aabd 199a 2cbe 9e3a 403e
00000060: 0180 863d 5c4f 9fbd 7c84 8dbe a8d4 0cbe
00000070: 223f ccbe 4f76 683b 3ae0 5fbe 7fc8 b5be
00000080: 1a73 ab3e 88cb 113d 70f6 82be aa3f 033f
00000090: 0b29 bbbe 183b 0b3e 73c6 a2bc a9d5 29bc
000000a0: f455 eabe 778b 84be 79c9 06bf 396d bcbd
000000b0: 4f3b ebbd ff45 1dbe 7db7 9b3d bf7f 3bbd
000000c0: 76aa f8bd b90a 0e3e 894b 443e 31f0 dc3d
000000d0: 5797 78be 3236 8ebe ea8b f5bc 5b63 753d
000000e0: e1d5 1cbf dec9 2abe 949d ebbd ae40 aa3d
000000f0: 2816 2fbe cb26 72be 3bb7 2bbf 0e07 71bd
00000100: f8f6 fcbe bd08 a3be 209b 22be ef6f 5f3d
00000110: 1cf9 1fbe a296 a2be 2284 9f3d af10 f1bd
00000120: e526 10be 7502 89be 7caf 0dbe e75b 38bc
00000130: 825b bdbd 2873 b2bd 261c cbbe ff34 06bf
00000140: 6f98 50be 3713 d3bd 3692 02be 59f3 e9be
00000150: a8e6 e43d 5a37 d7bd b041 693e 32bb c5be
00000160: bfe7 6c3c 819c d43d 5952 38be 955a 88be
00000170: be4d 01be 9078 cc3d 16c8 1d3e 4e15 373d
00000180: 4c0d 013d 1f85 ffbe aa3e b73e 3fe6 e1bd
00000190: 2de6 8bbd 0fed b13d 0fae fdbd 9b31 2dbe
000001a0: cf0b dd3d 785e 79be 1579 063e 1e84 babd
000001b0: c746 d23d d0ab 48be 27ff 5a3e 76b1 483e
000001c0: 30de b2bd 80a7 493e 6401 9dbe 2258 45bd
000001d0: f9a8 9dbe f0b1 84be e447 45bd d9c6 2fbd
000001e0: a6f0 df3d ae3a 29be 00f6 03bf 369c 7e3d
000001f0: c78b ee3d ec33 e0bc b91b 08bf af37 c5be
00000200: 7436 0f3e f54e 81be 684a b93e e2b5 c2be
00000210: 36fb a33e 43f2 723d 6be4 dcbe 537b 64be
00000220: 2082 013e d5d4 f4bd 4cb3 11be 1d13 23be
00000230: d668 d1be 1229 a3bd c5e2 f53d c2db 643d
00000240: d306 b0be be0b a4be cdbe c2bd 4486 85be
00000250: 8f01 9d3e 0d82 d73d ed5e 7fbc b008 41be
00000260: 7f40 09bd 4de6 0ebf 1b66 aebc 8b97 813c
00000270: e262 cebe a0d6 83be 727c 8abe ba2e 823e
00000280: 0c02 253e 274f 543e 639d ecbc 7ba2 3dbe
00000290: 0d5a 0cbe 2a44 63bd 3c2a eebe ec73 55be
000002a0: 20cf 0b3e 240a 02be d8d4 5b3d 8259 11bf
000002b0: 67c1 713e ac5f 933e 6697 ffbd 7c86 06be
000002c0: 4ee3 06be a4a3 e1bd a212 d73c 40bf 5e3d
000002d0: 8215 d3ba 8239 82be 4463 0abe c929 8f3d
000002e0: 044d dcbe 8c2c dabd d3c5 fdbd 2053 dbbe
000002f0: 7fee a7be 7093 4cbe b784 dfbe f6be 4ebe
00000300: 3a3f 413e 27fc c3bd 9b71 00bf c0bb a13e
00000310: ef45 b23b f858 47bd 062c a3bd 131e 6a3d
00000320: 2852 e2bd dacf 80be e02a c1be 720d c83e
00000330: 5740 363c b1f3 30be 7a10 58be d9f4 11bf
00000340: 147c d7be 9ff8 2abe 93d3 cabd 49ee 1c3e
00000350: f571 803e c860 dc3c 1675 0b3e 0af5 92be
00000360: 0c44 cfbe 8d20 14bd 1c61 2dbe b950 823e
00000370: df5c b3bd e933 0c3d ca65 86bc 8ac4 2cbe
00000380: 3864 24bd 5528 b6be e34f 9cbe a678 613e
00000390: 48a7 7ebe 14d8 6ebe 858c 923e 2380 c6be
000003a0: d95e c9bd d65e 0dbf 55c1 753e 023f 56be
000003b0: c112 9cbe d723 42be 84e4 81be 3279 1bbd
000003c0: a55e 2a3d 9028 12be 8582 0a3e 8a85 6c3d
000003d0: 828f b73e 5254 76be 243a 433e e98a abbe
000003e0: 1cb5 e7be c091 3d3e ee2f 0cbf 8440 89be
000003f0: b44f c33d c0fb 6a3e 14f4 febe 6a2b 393e

network.2.weight f4 [256, 256]
-0.0069945673 0.009657342 -0.029565597 0.031758316 0.032652613 -0.043196708 0.052788697 0.015186317
-0.02306386 0.025275765 0.039989527 -0.017671451 -0.049593896 0.03743717 -0.025167452 -0.059408374
-0.015947074 -0.0051628575 -0.007060826 -0.05993773 -0.046538018 0.05236024 -0.05248875 0.05353332
-0.008529631 -0.0015139647 -0.031934097 -0.01622146 -0.006653495 0.009777908 0.021076508 0.024327539
-0.06360319 0.008072117 0.020372435 -0.042122073 0.0066815703 0.032774203 0.048261467 -0.042194784
-0.03511761 -0.007387717 0.019980384 0.0069684833 0.03043979 -0.02871439 0.00039754534 -0.01646908
-0.044347156 -0.01738646 0.008201118 -0.0039931503 0.038046487 -0.018254602 0.052001733 -0.03180546
0.041492827 -0.032101136 0.024153147 0.03911065 -0.0041634687 -0.011620553 0.03254732 -0.022997344
-0.0028350428 0.003688328 0.0444774 -0.009274341 -0.010632291 -0.058573913 -0.030791078 0.0074948296
-0.035781205 -0.013719809 0.046867356 -0.030190999 -0.057580806 -0.051074725 -0.021597419 -0.0023953114
0.0035272017 -0.004641031 -0.02637975 -0.062017668 -0.0035929522 -0.05728439 0.026466288 0.008318506
-0.04474038 -0.061123542 -0.06164507 -0.0018070117 0.035342894 0.03641089 0.0021018747 0.04428049
-0.060127437 0.025020696 0.041442722 -0.0055535864 -0.053509165 0.017848177 -0.018403687 -0.04955722
0.02686446 0.012453571 0.026517518 0.0095155025 -0.037423573 0.014326245 -0.060100075 -0.049939543
0.0058301077 -0.03734837 0.024830505 0.014086291 0.009898163 -0.06905123 0.03497813 -0.0093823355
-0.0016524224 0.039949037 0.037313525 -0.007977694 0.044617303 -0.04382316 -0.058547 0.054555334
0.04956044 -0.042516604 0.037640028 -0.030268304 -0.04674867 -0.04674956 0.04765718 -0.014265165
-0.0071563 -0.032488793 0.056876697 -0.025836604 -0.025201783 0.030212669 -0.011665485 0.025271542
-0.071258165 -0.01937775 -0.056882028 -0.038238067 -0.046530396 0.006819494 -0.0335784 -0.028793849
-0.030568227 0.0036627895 -0.04024494 -0.022646224 -0.04055804 0.054636844 -0.0413042 -0.039493237
-0.016183645 -0.05340853 -0.04607828 -0.048674975 -0.040866036 -0.066001885 -0.0511959 -0.050615236
-0.06887429 -0.020880133 -0.05413551 -0.020370666 0.002022257 0.03280751 0.026384266 -0.05445722
0.05171723 -0.00765883 -0.045323692 -0.024713846 0.022392549 0.028790634 -0.02272635 0.037102684
0.022475205 0.0028805714 -0.05155975 -0.032566264 -0.030691467 0.04818157 -0.015061967 0.007736435
0.006411718 -0.06102126 0.0047422424 -0.063309155 0.01740263 0.017457966 -0.039460253 -0.05771247
-0.0027370837 -0.026769515 -0.023116596 -0.0008580105 -0.016675858 0.032364335 -0.039319143 -0.01260546
-0.01928332 0.04095761 -0.03840003 0.025740014 -0.010896448 -0.021594869 0.042380095 -0.06391537
0.004466167 -0.066043854 0.04109218 0.0147406 0.013187647 0.02821085 -0.013805118 0.03278435
-0.044069715 -0.01610361 0.050393187 -0.034591615 0.023703665 0.010516022 -0.0011899408 -0.020103412
-0.061718464 -0.038304474 0.0010826132 0.016589276 -0.01966622 0.0076194853 -0.049282502 -0.06327792
-0.06046154 -0.0018610507 -0.048093684 0.016365387 -0.06486588 0.05759784 -0.026369005 0.035801925
0.0010916117 0.050364703 0.018520072 0.010420848 0.050823122 0.00063110143 -0.010524601 -0.040376138
00000000: af32 e5bb d439 1e3c 8d33 f2bc 0215 023d
00000010: bfbe 053d 08ef 30bd f638 583d 08d0 783c
00000020: 6cf0 bcbc 1f0f cf3c 0fcc 233d b8c3 90bc
00000030: f822 4bbd b857 193d f92b cebc 3256 73bd
00000040: 70a3 82bc 302d a9bb 805e e7bb 4481 75bd
00000050: a69e 3ebd b177 563d 72fe 56bd c145 5b3d
00000060: debf 0bbc 3a70 c6ba 54cd 02bd dee2 84bc
00000070: 9005 dabb 8533 203c a4a8 ac3c 8c4a c73c
00000080: 6442 82bd ea40 043c 18e4 a63c 3288 2cbd
00000090: 13f1 da3b 3e3e 063d d1ad 453d 70d4 2cbd
000000a0: 7cd7 0fbd a914 f2bb e7ad a33c e057 e43b
000000b0: de5c f93c 713a ebbc a26d d039 2aea 86bc
000000c0: 5da5 35bd 0d6e 8ebc fb5d 063c f9d8 82bb
000000d0: a2d6 1b3d ad8a 95bc c5ff 543d 7146 02bd
000000e0: 62f4 293d 7b7c 03bd d2dc c53c 7d32 203d
000000f0: b56d 88bb 2264 3ebc 5750 053d ed64 bcbc
00000100: 20cc 39bb e0b7 713b ef2d 363d 68f3 17bc
00000110: 1033 2ebc 33eb 6fbd 923d fcbc 3097 f53b
00000120: 508f 12bd 0dc9 60bc fcf7 3f3d 1d53 f7bc
00000130: dad9 6bbd bb33 51bd 12ed b0bc a8fa 1cbb
00000140: a028 673b ca13 98bb 581a d8bc 3d06 7ebd
00000150: bc77 6bbb 09a3 6abd d4cf d83c 584a 083c
00000160: b041 37bd ae5c 7abd 8a7f 7cbd 40d9 ecba
00000170: b6c3 103d 9623 153d 9bbf 093b 765f 353d
00000180: 3048 76bd 34f8 cc3c d8bf 293d dcfa b5bb
00000190: 6d2c 5bbd 5736 923c 54c3 96bc 83fc 4abd
000001a0: db12 dc3c 100a 4c3c 443b d93c e9e6 1b3c
000001b0: 7649 19bd a0b8 6a3c 7f2b 76bd 688d 4cbd
000001c0: 7d0a bf3b 9bfa 18bd 5869 cb3c 30ca 663c
000001d0: e82b 223c bb6a 8dbd 3a45 0f3d 5eb8 19bc
000001e0: 1896 d8ba 9aa1 233d 11d6 183d e0b4 02bc
000001f0: a2c0 363d ea7f 33bd fbce 6fbd 6a75 5f3d
00000200: e3ff 4a3d e425 2ebd 6e2c 1a3d 3cf5 f7bc
00000210: 897b 3fbd 777c 3fbd 2d34 433d 70b8 69bc
00000220: 657f eabb f812 05bd 8af7 683d 49a7 d3bc
00000230: f873 cebc 8f80 f73c 9720 3fbc 4406 cf3c
00000240: cdef 91bd 16be 9ebc 21fd 68bd 859f 1cbd
00000250: a896 3ebd 1076 df3b 8189 09bd 14e1 ebbc
00000260: 386a fabc 690b 703b e1d7 24bd 9384 b9bc
00000270: 3020 26bd e2ca 5f3d 982e 29bd a9c3 21bd
00000280: 9093 84bc e7c2 5abd 94bc 3cbd 695f 47bd
00000290: 2563 27bd ff2b 87bd cbb2 51bd ec51 4fbd
000002a0: f70d 8dbd d00c abbc 32bd 5dbd 62e0 a6bc
000002b0: d887 043b 2b61 063d d123 d83c 890e 5fbd
000002c0: 72d5 533d ecf6 fabb 56a5 39bd b174 cabc
000002d0: 9470 b73c 56da eb3c 9c2c babc fcf8 173d
000002e0: ec1d b83c f8c7 3c3b 5130 53bd 3464 05bd
000002f0: ac6c fbbc 0a5a 453d 78c6 76bc ec81 fd3b
00000300: 6419 d23b 6ef1 79bd d064 9b3b 3ba8 81bd
00000310: f68f 8e3c 0204 8f3c 13a1 21bd e963 6cbd
00000320: a560 33bb be4b dbbc 045f bdbc 1cec 60ba
00000330: cf9b 88bc 7790 043d 1c0d 21bd 2287 4ebc
00000340: 0ef8 9dbc 2bc3 273d 5a49 1dbd b9dc d23c
00000350: 0487 32bc b9e7 b0bc c096 2d3d 10e6 82bd
00000360: ed58 923b 0042 87bd 4650 283d 8f82 713c
00000370: 0011 583c 711a e73c dd2e 62bc e248 063d
00000380: 7282 34bd b8eb 83bc 1669 4e3d f0af 0dbd
00000390: 302e c23c 654b 2c3c caf7 9bba e9af a4bc
000003a0: 80cc 7cbd 27e5 1cbd 79e6 8d3a 3ce6 873c
000003b0: 0d1b a1bc e0ac f93b 73dc 49bd db97 81bd
000003c0: 85a6 77bd 80ee f3ba e2fd 44bd b410 863c
000003d0: 67d8 84bd b6eb 6b3d d003 d8bc 0aa5 123d
000003e0: 6914 8f3a 384b 4e3d 68b7 973c 34bc 2a3c
000003f0: e82b 503d 8070 253a 606f 2cbc 7361 25bd

network.2.bias f4 [256]
-0.032060556 0.18985605 -0.076180525 -0.11416627 0.019472202 -0.2211877 -0.16045977 -0.03673265
-0.15685599 -0.34841812 -0.079035625 -0.05009183 -0.03883133 -0.05417241 0.15776487 -0.03725739
-0.08593329 -0.042902973 -0.029112076 -0.18721089 -0.055018194 -0.015392193 -0.028122608 -0.21659595
-0.08421847 -0.019458212 -0.007279363 -0.015203376 -0.0013193671 -0.12645267 0.24571174 -0.07801366
-0.013220423 -0.26897907 -0.043805428 0.066214874 -0.09086153 -0.0285865 -0.070229605 -0.17874779
-0.086941704 -0.119386196 -0.29970714 -0.014370243 -0.06716088 -0.026636407 0.005194797 -0.22941165
-0.47837994 0.17346513 -0.21962418 -0.13022792 -0.16045961 -0.34730867 0.004150608 -0.02488021
-0.16014154 0.08483918 -0.013352407 -0.23464918 0.019475192 0.25787225 -0.097543135 0.02855875
-0.21315931 -0.05306348 -0.25555947 -0.041426502 -0.09001151 -0.06473061 -0.033661757 0.10838169
-0.17026414 -0.057240054 -0.25297865 0.16887191 -0.1729893 -0.09507868 -0.026418742 -0.05653692
-0.3758612 -0.013876159 -0.074036986 0.16263752 -0.17996015 -0.20351952 0.23660979 -0.040127985
-0.3971406 -0.19531822 -0.0578314 -0.18395206 -0.15699153 -0.07972069 -0.10684375 0.2640945
-0.2460019 -0.20807628 0.13443242 -0.0036979937 -0.05386326 0.025855077 -0.023124946 -0.08786649
0.16816553 -0.02724566 0.06773354 -0.2586917 -0.080599554 -0.09933727 0.013300447 -0.03423212
-0.11796045 -0.16681361 -0.12058674 -0.09468567 -0.12243401 -0.03662268 -0.005592477 -0.3309769
0.12741862 -0.07099623 -0.22405282 -0.047883466 -0.063194655 0.16082394 0.11491081 -0.06391514
-0.21093406 -0.05794282 -0.050511476 0.050785612 -0.05923938 0.06942356 -0.053511284 -0.17443527
-0.12432646 -0.2398882 -0.06429612 0.035597965 -0.17298985 -0.15202741 -0.027190128 -0.07612509
-0.15401416 -0.045504704 0.13018717 -0.008411105 -0.09525538 0.011342837 -0.025088081 -0.30754852
0.09765753 -0.03622511 0.17539315 -0.09760555 -0.07004199 0.08853845 -0.05544686 -0.22982933
0.01918637 -0.0009233316 -0.025852922 -0.08266683 -0.0024986316 -0.020520587 -0.011124393 0.11086842
-0.08309475 -0.019249 -0.091811314 -0.07318723 0.056794874 -0.09690177 -0.009732532 -0.060485307
0.029728996 -0.0036525575 -0.19486344 -0.09268082 -0.0146387275 -0.068960465 -0.2059552 -0.22841015
-0.24839239 -0.23889011 -0.06123382 -0.23562369 -0.22396848 -0.045537475 -0.06391727 -0.07900715
-0.44396397 -0.032368418 -0.013375624 -0.050038733 -0.13900495 -0.23836367 0.11774332 -0.20355938
0.11300835 -0.4429225 -0.08212772 -0.06525524 0.308352 -0.04256333 0.086731605 0.3259322
0.10989887 -0.17360531 -0.031454414 -0.12430829 0.003713262 0.013101604 0.024320422 -0.21198305
-0.15831983 0.11841321 -0.0435141 0.13011236 -0.039637573 -0.17928591 -0.04516277 -0.11257244
-0.15972976 0.2534999 -0.20043455 -0.002766411 -0.1550068 -0.17298447 0.30863664 -0.2726597
-0.07434239 -0.35358053 0.06439291 -0.084836304 0.15639497 0.15188693 -0.06607939 -0.46210742
0.0059698634 -0.2610742 -0.01466227 0.15671058 0.14712656 0.40958714 0.2933975 0.1303197
-0.03967163 -0.05004161 0.3449744 -0.058879156 -0.2194567 -0.0076855584 -0.0050388128 -0.3214411
00000000: ee51 03bd a069 423e 8904 9cbd 01d0 e9bd
00000010: 2b84 9f3c 077f 62be 914f 24be fa74 16bd
00000020: db9e 20be dc63 b2be 6edd a1bd 172d 4dbd
00000030: 9a0d 1fbd e4e3 5dbd 1d8d 213e 349b 18bd
00000040: cbfd afbd 07bb 2fbd 737c eebc 36b4 3fbe
00000050: c25a 61bd 892f 7cbc 6261 e6bc 54cb 5dbe
00000060: bc7a acbd d466 9fbc b987 eebb 9517 79bc
00000070: 9dee acba cf7c 01be dc9b 7b3e a0c5 9fbd
00000080: 799a 58bc a0b7 89be 526d 33bd aa9b 873d
00000090: 9c15 babd 3c2e eabc 8ad4 8fbd a909 37be
000000a0: 7e0e b2bd c080 f4bd 3773 99be 2b71 6bbc
000000b0: a58b 89bd 9834 dabc 1e39 aa3b e3ea 6abe
000000c0: 37ee f4be d8a0 313e 29e5 60be 785a 05be
000000d0: 864f 24be 71d2 b1be d301 883b 95d1 cbbc
000000e0: 25fc 23be 2ac0 ad3d 0ec4 5abc e047 70be
000000f0: 708a 9f3c d507 843e b2c4 c7bd 0af4 e93c
00000100: 6f46 5abe 1759 59bd b1d8 82be d6ae 29bd
00000110: f457 b8bd 7b91 84bd e9e0 09bd 38f7 dd3d
00000120: b959 2ebe 8c74 6abd 6b86 81be c2ec 2c3e
00000130: 1b24 31be 9cb8 c2bd 1e6c d8bc 4293 67bd
00000140: e170 c0be d458 63bc b4a0 97bd 738a 263e
00000150: 7947 38be 6c67 50be d649 723e 3e5d 24bd
00000160: 0356 cbbe 8001 48be 9ee0 6cbd ee5d 3cbe
00000170: 63c2 20be 9a44 a3bd e5d0 dabd 6537 873e
00000180: ece7 7bbe f311 55be a7a8 093e 0a5a 72bb
00000190: b99f 5cbd 07ce d33c 8770 bdbc 59f3 b3bd
000001a0: 9633 2c3e 4a32 dfbc e2b7 8a3d 3d73 84be
000001b0: 6111 a5bd 5771 cbbd 1eea 593c fb36 0cbd
000001c0: 4095 f1bd 30d1 2abe 2ef6 f6bd 90ea c1bd
000001d0: afbe fabd aa01 16bd 1941 b7bb ce75 a9be
000001e0: 077a 023e 7966 91bd 1a6e 65be 7421 44bd
000001f0: 336c 81bd 08af 243e 5c56 eb3d f1e5 82bd
00000200: 19ff 57be 7355 6dbd 1fe5 4ebd 9304 503d
00000210: fea4 72bd f02d 8e3d a62e 5bbd 299f 32be
00000220: df9e febd 41a5 75be afad 83bd 2ccf 113d
00000230: 4024 31be 13ad 1bbe d5bd debc 79e7 9bbd
00000240: e3b5 1dbe 2463 3abd c94f 053e bbce 09bc
00000250: 4115 c3bd 4ed7 393c 8585 cdbc 0077 9dbe
00000260: ac00 c83d c860 14bd 439a 333e 6be5 c7bd
00000270: 2d72 8fbd a653 b53d 3f1c 63bd 6158 6bbe
00000280: bc2c 9d3c bc0b 72ba 82c9 d3bc 3a4d a9bd
00000290: 15c0 23bb ca1a a8bc 1643 36bc fb0e e33d
000002a0: 952d aabd 14b0 9dbc 9207 bcbd 30e3 95bd
000002b0: bea1 683d 6f74 c6bd 3375 1fbc 71bf 77bd
000002c0: 398a f33c bf5f 6fbb 488a 47be 71cf bdbd
000002d0: 46d7 6fbc 253b 8dbd ece5 52be 5ae4 69be
000002e0: 935a 7ebe 9c9f 74be 50d0 7abd 5647 71be
000002f0: fe57 65be 8185 3abd 0fe7 82bd 80ce a1bd
00000300: 3f4f e3be bf94 04bd 6f25 5bbc 6af5 4cbd
00000310: 5057 0ebe 9b15 74be 6923 f13d df71 50be
00000320: ec70 e73d bdc6 e2be 9432 a8bd 8aa4 85bd
00000330: 50e0 9d3e e356 2ebd 57a0 b13d 96e0 a63e
00000340: a912 e13d 97c5 31be 58d6 00bd 5895 febd
00000350: 335a 733b 1ca8 563c 9f3b c73c 1612 59be
00000360: 981e 22be a082 f23d d73b 32bd 2d3c 053e
00000370: 025b 22bd ba96 37be 99fc 38bd 618c e6bd
00000380: 3390 23be bdca 813e b73e 4dbe ad4c 35bb
00000390: 1aba 1ebe d722 31be 9f05 9e3e 0d9a 8bbe
000003a0: d340 98bd 8208 b5be 6ee0 833d a8be adbd
000003b0: 0126 203e 3f88 1b3e a254 87bd 5899 ecbe
000003c0: d89e c33b 84ab 85be 053a 70bc bd78 203e
000003d0: 58a8 163e 68b5 d13e 3238 963e 8772 053e
000003e0: b87e 22bd 6ef8 4cbd 7ca0 b03e 452b 71bd
000003f0: 42b9 60be 23d7 fbbb a01c a5bb ee93 a4be

mean.weight f4 [1, 256]
-0.04373111 -0.13727637 -1.1185777 -0.20643157 -0.001068475 0.9133327 0.2557525 -0.056209072
-1.048355 0.17483315 -0.3888471 0.019248242 -0.021978706 -0.21084222 0.18781886 0.35029978
-0.01569578 -0.76401263 -0.92775285 -0.9296844 0.02421024 0.16307838 0.25482085 0.14943358
0.0643742 0.0044824085 -0.0066428124 0.10105322 -0.016508648 -0.27701735 0.36944765 0.033854596
1.4850056 -3.1406417 4.8821826 -0.40124863 1.6896282 -0.84930545 -0.016824665 -1.2993776
-1.8279048 0.8091683 0.27019855 -0.005183754 0.043559138 0.2556192 0.6805258 0.23642033
0.14618258 0.3437492 0.0064016697 -0.13294172 0.010741026 0.10379422 0.74545574 0.0073387576
-0.5097768 0.27587676 0.0009994815 0.7903794 0.9046826 1.5993457 -0.06446759 -0.039289806
-3.0230706 0.08281487 -1.6654396 -0.0053550936 0.012755513 -0.9338841 0.02942972 0.46509457
-0.17889817 0.0029812963 -0.31977978 0.5649429 -0.20294796 -0.2519947 0.005880854 -0.0077475803
2.5834467 0.0031941219 -0.06350703 0.2644417 0.30875173 0.22558612 0.8660379 -0.034007084
-0.28340155 0.34529355 0.035034496 0.924293 0.774567 -0.016377876 -0.81273574 0.20706059
-0.5389082 -0.8589184 -0.2685664 -0.0016424004 -1.2595994 -0.0054243742 0.03581602 0.88694584
-0.11267239 -0.045128103 0.8189492 -0.7600969 -0.018839149 -0.08065456 -0.008668788 -0.22683674
-0.07896383 0.29286015 0.84592813 -0.06926356 -0.19313729 -1.2115749 0.0004015702 -0.267033
1.9722576 -0.21593681 0.035215326 0.00314273 0.045488875 -0.888307 0.29691797 1.859964
-1.6628834 0.13948272 -0.012426095 -0.36055177 0.34786636 0.14703579 -0.03792096 -0.14426409
0.057767324 1.0750214 -0.0106244655 0.04856038 -0.7356017 0.53726023 -0.09444963 -0.7242631
0.5616675 0.00044200075 0.3605943 0.057662163 -4.2018768e-05 -0.009680731 -0.36111686 -0.80268073
-0.7207049 0.0011937427 -3.0768268 -0.33121228 0.0011149098 -0.85438806 0.05690647 0.025373923
-0.00014027432 -0.03040555 1.0916599 -0.0014499859 0.02420272 -0.907647 0.022269266 -0.28650054
-0.5838613 -0.03440138 -0.20105866 0.026346222 -0.17675968 -0.00016797011 -0.18050143 -0.022829013
0.0037468656 0.01823132 -2.4866168 0.0011537189 0.043933827 -0.044477236 1.6893711 0.62275445
1.2161121 1.9599786 0.041941337 0.3967207 -0.25313336 0.09475438 -0.7262264 -0.030862967
1.1186969 0.33396554 0.044919293 -0.027052112 -0.37811467 0.3527625 -1.5459893 -1.2528936
-0.83716077 -0.2507945 0.010733544 0.032086387 0.46826726 0.025875699 -0.034467928 -0.03256375
-0.009292245 0.37290725 0.027295548 -0.23781039 -0.023971893 0.0029218625 0.394488 2.7717493
0.16678382 -0.5860501 -0.01989808 0.82925546 0.27343336 -0.37753043 0.5827522 1.3472854
0.047208413 -0.18613948 0.73773247 0.0159164 -0.8027975 -1.3417281 -0.9530286 -0.7729614
1.0632199 0.14185259 0.38356885 0.6335627 0.06798574 -0.18278709 0.026961338 0.8804388
-0.07511057 0.16610779 0.04085484 0.22772871 -0.2024989 0.49683404 0.69760877 0.34032515
-0.03188215 -0.36363 0.60652435 -0.4816217 0.40816116 0.01888305 0.2405186 0.5057923
00000000: 641f 33bd 2d92 0cbe 8e2d 8fbf cc62 53be
00000010: 120c 8cba 2cd0 693f fef1 823e 7c3b 66bd
00000020: 7f30 86bf 7607 333e f816 c7be 7dae 9d3c
00000030: b00c b4bc 06e7 57be 9653 403e 7e5a b33e
00000040: 7094 80bc 5596 43bf 3681 6dbf ccff 6dbf
00000050: 8e54 c63c 05fe 263e e177 823e 1e05 193e
00000060: 9fd6 833d 2be1 923b f3ab d9bb fef4 ce3d
00000070: 253d 87bc 38d5 8dbe 3e28 bd3e 1eab 0a3d
00000080: aa14 be3f 4600 49c0 d73a 9c40 7670 cdbe
00000090: bd45 d83f 156c 59bf e1d3 89bc 0152 a6bf
000000a0: c9f8 e9bf a725 4f3f 7757 8a3e 7bdc a9bb
000000b0: 116b 323d 85e0 823e f036 2e3f 2c18 723e
000000c0: e3b0 153e e5ff af3e 19c5 d13b e021 08be
000000d0: 21fb 2f3c 1092 d43d 30d6 3e3f f679 f03b
000000e0: bb80 02bf b83f 8d3e 0901 833a 4e56 4a3f
000000f0: 4799 673f 5cb7 cc3f 9507 84bd 59ee 20bd
00000100: fd79 41c0 d89a a93d 202d d5bf c879 afbb
00000110: 80fc 503c 0713 6fbf 9916 f13c e020 ee3e
00000120: 1531 37be da61 433b 2dba a3be 19a0 103f
00000130: 97d1 4fbe 7305 81be 2eb4 c03b 6adf fdbb
00000140: 3157 2540 7954 513b f90f 82bd e764 873e
00000150: b514 9e3e 0c00 673e a9b4 5d3f 034b 0bbd
00000160: 021a 91be 51ca b03e 5580 0f3d 779e 6c3f
00000170: 064a 463f e52a 86bc 730f 50bf b107 543e
00000180: e3f5 09bf 14e2 5bbf 8981 89be d045 d7ba
00000190: 8e3a a1bf f3be b1bb d2b3 123d e20e 633f
000001a0: c8c0 e6bd 3fd8 38bd a8a6 513f b695 42bf
000001b0: 8f54 9abc 382e a5bd 8807 0ebc e447 68be
000001c0: cab7 a1bd c4f1 953e bf8e 583f 0eda 8dbd
000001d0: c8c5 45be e314 9bbf d789 d239 8db8 88be
000001e0: f072 fc3f 8a1e 5dbe f23d 103d 43f6 4d3b
000001f0: 8b52 3a3d 1668 63bf a205 983e 4d13 ee3f
00000200: 5dd9 d4bf 8fd4 0e3e d296 4bbc 3e9a b8be
00000210: 8a1b b23e 8d90 163e 0253 1bbd f7b9 13be
00000220: 6e9d 6c3d 4d9a 893f 3d12 2ebc 40e7 463d
00000230: 6550 3cbf e389 093f cf6e c1bd 4e69 39bf
00000240: 71c9 0f3f 56bc e739 d19f b83e 292f 6c3d
00000250: 4f3d 30b8 ee9b 1ebc 4fe4 b8be 7c7c 4dbf
00000260: 1e80 38bf 5c77 9c3a bbea 44c0 a894 a9be
00000270: 2a22 923a 2db9 5abf c216 693d f9dc cf3c
00000280: 9a16 13b9 0f15 f9bc 83bb 8b3f 740d beba
00000290: c844 c63c 8e5b 68bf 096e b63c 33b0 92be
000002a0: ef77 15bf 76e8 0cbd 52e2 4dbe 08d4 d73c
000002b0: 7d00 35be 2221 30b9 5ed5 38be e903 bbbc
000002c0: f98d 753b d959 953c bb24 1fc0 6238 973a
000002d0: f5f3 333d c32d 36bd 503d d83f d66c 1f3f
000002e0: 90a9 9b3f 94e0 fa3f aeca 2b3d fa1e cb3e
000002f0: b29a 81be 960e c23d f9e9 39bf 55d4 fcbc
00000300: 7631 8f3f 88fd aa3e 4bfd 373d 649c ddbc
00000310: 3f98 c1be 499d b43e fae2 c5bf d15e a0bf
00000320: 2b50 56bf 2368 80be bfdb 2f3c 046d 033d
00000330: bac0 ef3e 46f9 d33c 3e2e 0dbd 9161 05bd
00000340: 803e 18bc b3ed be3e ea9a df3c 9184 73be
00000350: b460 c4bc b87c 3f3b 55fa c93e 5764 3140
00000360: 61c9 2a3e 6107 16bf 4c01 a3bc 164a 543f
00000370: 75ff 8b3e ab4b c1be 402f 153f d973 ac3f
00000380: 9c5d 413d 599b 3ebe 09dc 3c3f 1c63 823c
00000390: 2384 4dbf bfbd abbf aff9 73bf cce0 45bf
000003a0: 9717 883f ce41 113e 2363 c43e 2a31 223f
000003b0: 1c3c 8b3d 8a2c 3bbe 06de dc3c 7064 613f
000003c0: 92d3 99bd 2918 2a3e 6857 273d b731 693e
000003d0: df5b 4fbe 0861 fe3e 7d96 323f 193f ae3e
000003e0: db96 02bd b62d babe 2e45 1b3f 1f97 f6be
000003f0: 80fa d03e a0b0 9a3c 824a 763e 9b7b 013f

log_std.weight f4 [1, 256]
0.0037467526 -0.23353042 -0.18375683 0.007229414 0.016369537 -0.05872295 -0.17046691 -0.033505328
0.42768294 -0.00022351719 0.028217789 -0.025942188 0.034618583 0.0044392915 -0.7118691 0.04110647
0.00038250015 -0.11966677 -0.051997248 -0.107227735 -0.025661835 0.2819754 0.02061537 0.04654727
-0.04270995 -0.021129536 -0.00012175186 0.035990138 0.01618108 0.013711641 0.52363646 0.019430246
0.012453269 -0.12282539 -0.37820408 0.49404517 0.5195513 -0.36345264 0.097886175 0.11524373
-0.085726775 0.15507038 0.2117564 0.0069035394 0.210477 0.19516304 0.7537893 0.03675217
0.01917566 -0.041937374 0.0024670695 0.5607038 0.1912001 -0.12535644 0.5289335 -0.017018432
-0.014353062 0.08150469 0.028338924 0.10779499 0.63199574 0.9399887 -0.004026217 -0.25850463
-0.017913615 -0.36520794 -0.0034283951 0.032863837 0.0027056653 -0.10207007 -0.22282971 -0.65377116
0.14741802 -0.033762034 -0.13070363 0.70352983 0.0063696997 -0.030620042 -0.022272315 0.0022187745
-0.025769128 0.026213942 0.020496272 0.66325796 0.19320059 0.10502842 0.07064983 0.027291298
0.009375855 0.00073490525 -0.08496988 0.20838329 -0.08329351 0.010091185 -0.057882044 0.9959171
0.036361773 0.7139208 -0.015957044 0.0055192024 -0.014680184 0.032952197 -0.03340397 -0.14199962
0.36676568 0.50983876 -0.07513196 0.43404195 0.004445465 -0.07038159 -0.00718037 -0.06282402
0.24246913 -0.07474924 0.18719816 0.47165224 -0.24898143 0.18699339 -0.04122404 -0.009514146
-0.61506885 -0.08670131 0.7647404 -0.045788445 0.047585066 -0.33076495 0.59845877 0.056729246
0.4074352 -0.054941468 0.020303166 -0.045230728 -0.0533758 -0.06821842 0.008583301 -0.16049795
-0.16882151 0.29391438 -0.02680124 -0.060592614 0.26478192 -0.25525194 -0.5110532 -0.27840102
0.111842014 0.00025514228 -0.22044808 0.033114776 0.021339042 0.028336313 -0.0038695866 0.33019006
-0.5579691 0.0022620743 -0.21611367 -0.028687755 -0.0024958532 0.55406904 0.058287915 0.023888854
-0.021935893 -0.05448153 -0.05360841 0.01236398 -0.017164724 0.3466867 -0.024227055 -0.6967538
-0.120585375 0.040413227 -0.028111545 0.018648654 -0.30229738 0.1116292 -0.122973576 0.006687553
0.0026544195 0.09339725 -0.10350237 0.03945251 -0.02352052 0.011452693 -0.0981612 0.041375082
0.11341544 0.0906795 0.04589917 -0.083842665 -0.0994227 0.13773596 0.5002401 0.0132033415
0.19084321 0.10451042 -0.03455048 0.01173962 0.009373397 0.05779499 0.013225453 -0.2012323
0.36949262 0.28110406 0.013477619 -0.05251378 0.15302417 -0.03723104 -0.1163387 -0.42889658
-0.1768746 0.33229613 -0.09365992 0.12902799 0.021725103 0.0019927255 0.04533267 -0.37552577
-0.20749334 -0.024223996 0.014723399 -0.21537362 0.13985454 0.14798649 -0.27173987 -0.057032604
0.041907106 -1.4040868 -0.050531134 -0.0031239067 0.04514402 0.13823356 1.0392815 0.16597337
-0.5578797 -0.023765787 0.2533764 0.3116734 -0.3991948 -0.06677263 0.013229672 0.23873939
0.003579776 0.06632987 0.004002813 -0.0035533996 0.06843764 -0.6159172 -0.18225645 -0.17569663
0.018617952 -0.024244407 0.6261064 -0.044800628 0.48357305 0.0127515355 -0.013296497 -0.045528464
00000000: 148c 753b 9922 6fbe c02a 3cbe b8e4 ec3b
00000010: 6819 863c 7a87 70bd e18e 2ebe e23c 09bd
00000020: 42f9 da3e f05f 6ab9 fe28 e73c b684 d4bc
00000030: 37cc 0d3d 7a77 913b 0e3d 36bf 425f 283d
00000040: 4d8a c839 da13 f5bd 11fb 54bd 379a dbbd
00000050: c538 d2bc 145f 903e 90e1 a83c 5aa8 3e3d
00000060: a1f0 2ebd d917 adbc 0855 ffb8 656a 133d
00000070: 2f8e 843c caa6 603c 0a0d 063f 2e2c 9f3c
00000080: cc08 4c3c e18b fbbd f7a3 c1be 7df3 fc3e
00000090: 5001 053f 7716 babe 8c78 c83d e804 ec3d
000000a0: 8591 afbd c5ca 1e3e abd6 583e 1637 e23b
000000b0: 4887 573e d2d8 473e 56f8 403f 7289 163d
000000c0: 4616 9d3c 86c6 2bbd 8fae 213b 498a 0f3f
000000d0: f6c9 433e 705d 00be 3068 073f 3d6a 8bbc
000000e0: 1b29 6bbc eeeb a63d 0827 e83c 9fc3 dc3d
000000f0: 79ca 213f 19a3 703f 5bee 83bb b85a 84be
00000100: 93bf 92bc 89fc babe edae 60bb 3b9c 063d
00000110: 8851 313b 1d0a d1bd 792d 64be 8c5d 27bf
00000120: c0f4 163e 0f4a 0abd 2cd7 05be 881a 343f
00000130: eab8 d03b e2d6 fabc 6e74 b6bc dc68 113b
00000140: c719 d3bc 9fbe d63c cce7 a73c 46cb 293f
00000150: 60d6 453e 2419 d73d dcb0 903d 0092 df3c
00000160: 309d 193c a8a6 403a b004 aebd 6e62 553e
00000170: ca95 aabd 7f55 253c b915 6dbd 6cf4 7e3f
00000180: 15f0 143d 83c3 363f 59b8 82bc 6dda b43b
00000190: 2885 70bc e2f8 063d 9ad2 08bd 5968 11be
000001a0: b6c8 bb3e cb84 023f c9de 99bd bf3a de3e
000001b0: 43ab 913b 3924 90bd 4f49 ebbb e1a9 80bd
000001c0: d449 783e 2116 99bd e0b0 3f3e 677c f13e
000001d0: fdf4 7ebe 327b 3f3e 8ada 28bd 38e1 1bbc
000001e0: 2775 1dbf 7590 b1bd 07c6 433f aa8c 3bbd
000001f0: 8fe8 423d 065a a9be 9834 193f ed5c 683d
00000200: 599b d03e 4e0a 61bd d352 a63c db43 39bd
00000210: 95a0 5abd 19b6 8bbd f9a0 0c3c 9359 24be
00000220: 8cdf 2cbe f27b 963e 468e dbbc f62f 78bd
00000230: 7f91 873e 62b0 82be 62d4 02bf 948a 8ebe
00000240: 6d0d e53d 9ec4 8539 24bd 61be 5ca3 073d
00000250: 37cf ae3c 8e21 e83c e498 7dbb ac0e a93e
00000260: 10d7 0ebf 4f3f 143b e74c 5dbe 9502 ebbc
00000270: 7891 23bb 78d7 0d3f 4fbf 6e3d 8fb2 c33c
00000280: e7b2 b3bc 0628 5fbd 7e94 5bbd 4a92 4a3c
00000290: 099d 8cbc eb80 b13e d177 c6bc 755e 32bf
000002a0: 77f5 f6bd 5788 253d 2f4a e6bc 10c5 983c
000002b0: b9c6 9abe da9d e43d 92d9 fbbd 4323 db3b
000002c0: c5f5 2d3b 0f47 bf3d 0df9 d3bd f598 213d
000002d0: 1bae c0bc 13a4 3b3c bd08 c9bd eb78 293d
000002e0: 5b46 e83d 2cb6 b93d c500 3c3d b4b5 abbd
000002f0: 219e cbbd a80a 0d3e bc0f 003f d452 583c
00000300: 676c 433e 8f09 d63d ce84 0dbd 8957 403c
00000310: e092 193c 70ba 6c3d 92af 583c d70f 4ebe
00000320: 232e bd3e dfec 8f3e 3bd1 5c3c b018 57bd
00000330: 5eb2 1c3e 937f 18bd fc42 eebd 5598 dbbe
00000340: 9d1e 35be b822 aa3e c6d0 bfbd ea1f 043e
00000350: d8f8 b13c 6398 023b c0ae 393d ea44 c0be
00000360: 2279 54be 6771 c6bc 693a 713c e78a 5cbe
00000370: 0736 0f3e c589 173e 7d21 8bbe 059b 69bd
00000380: c9a6 2b3d 1eb9 b3bf bcf9 4ebd 75ba 4cbb
00000390: f0e8 383d 198d 0d3e 2d07 853f ecf4 293e
000003a0: 34d1 0ebf 78b0 c2bc 8dba 813e a893 9f3e
000003b0: 4363 ccbe 17c0 88bd 44c1 583c 1978 743e
000003c0: ad9a 6a3b f4d7 873d 072a 833b 27e0 68bb
000003d0: 0929 8c3d c0ac 1dbf 6fa1 3abe d1e9 33be
000003e0: ad84 983c 359c c6bc 8248 203f dd80 37bd
000003f0: e396 f73e d1eb 503c 8dd9 59bc 0e7c 3abd
