models/actor_1743219231.pth (torch, 275820 bytes, 6 tensors)

network.0.weight f4 [256, 6]
0.05494491 -0.397595 -0.5544955 0.3629773 0.82519174 -0.87440175 -0.02958255 0.06777689
1.3689909 0.5167048 0.9600827 1.8163215 0.2783204 -0.24913836 0.46708918 -0.019959595
0.9323371 -0.26671767 -1.0060267 -0.3461803 0.987259 0.4167889 0.37517542 0.32805195
-0.1555975 0.41166872 0.33060724 -0.6274432 -0.41694933 0.106797494 -0.27930644 -0.40336627
0.38218 -0.07618898 0.2096508 0.0076995417 0.52395433 0.7626467 -0.029257337 -0.48914385
-0.7892108 -0.061651595 -0.94971776 -0.346401 -0.26272303 0.14076075 -1.0410229 -1.0622483
-0.41561088 -1.1471525 -0.4650949 -0.64044446 -0.37230465 -0.22718607 -0.91839695 -0.21220487
-0.2397126 -0.28653514 0.8043973 -0.51498944 -1.1648625 0.09933507 1.3530768 -0.081935875
0.4089136 -0.25818184 0.5209039 -0.33656913 0.4264285 0.02797087 -0.8040979 -0.9972007
-0.24002743 0.45684314 -0.4735428 -0.5422285 0.25968933 -0.41690058 -0.978419 0.4990036
0.8349441 -0.7455319 0.74413925 -0.03617297 0.69527763 -0.8402542 -0.8767968 0.046408616
0.19603068 -0.7205811 -0.069384865 -0.28996992 -0.9178471 -0.20743552 0.16144095 0.71270776
0.16565797 -0.6183235 0.47011745 -0.11002544 1.0522165 -0.52552503 -0.37533277 0.03159692
-2.1893444 0.026132759 -0.30727088 -1.3881336 0.28864497 -0.50399673 -0.60786915 0.06914162
0.5404414 -0.30351785 1.2226031 0.42946666 -0.4482944 -0.574064 -0.21904008 -0.732559
0.35205325 -0.91270965 -0.34662738 0.4084893 0.13363265 -0.27909875 -0.5343545 -0.21898423
-0.52445763 -0.19018087 0.55100894 -0.6362861 -0.31908014 0.114047185 0.7627724 -0.2864581
0.12927602 -0.5893673 0.38020593 -0.47315308 2.0215833 0.3672801 0.00870416 -0.24849638
-0.20838182 0.032346 1.6517982 0.10856778 0.45025975 -0.07740417 0.1216303 0.01145585
-0.49342406 -0.8181173 -0.23359099 -0.07889295 0.6457148 0.07311 0.109313585 0.1538662
0.11516189 -1.8642353 0.5759367 -0.46991304 0.5264656 -0.5071316 -0.8989634 0.08998499
-0.0822069 -0.18752049 -0.63064724 -0.95313203 -0.49705043 0.6117853 -0.7622615 0.5086548
-1.7825332 -0.3506911 -1.3026986 -0.8295786 0.116936825 -1.1391824 -0.8479632 -0.3923004
-0.24894652 -0.31634563 0.8232787 -0.45791385 0.4678295 0.19110124 0.77964926 0.99507165
-0.93166155 0.36693934 -0.38149136 -0.57296133 0.24384084 -0.12325592 0.022171011 0.3778656
0.6944524 -0.47053477 -0.7302797 -1.0406936 -0.5119659 -0.081058666 -1.9594394 -0.016433831
0.05774636 -0.6165084 0.18416137 -0.49896434 -0.40105778 0.4229927 -0.15239303 0.07102324
0.45201162 0.069568105 0.225468 -0.03839016 0.8858662 -0.088762514 0.46516594 -0.023746828
-0.7004248 -0.42029962 -0.5339901 0.30574828 0.2481903 -0.11646736 0.13163455 -0.48817468
0.54502153 -0.8993375 -0.6342914 -0.0066746073 -0.4211556 -0.47521597 0.07398867 -1.0526875
0.5474975 -0.7769421 0.9424248 0.31768686 -0.09013149 0.61153144 0.25459653 -1.1707871
-0.6125658 -0.30582002 -0.36473647 0.150217 -0.41268864 0.4974084 -0.2305628 -1.0675234
00000000: ea0d 613d 9291 cbbe 6bf3 0dbf 29d8 b93e
00000010: c43f 533f cbd8 5fbf 1b57 f2bc 9cce 8a3d
00000020: 183b af3f c446 043f fbc7 753f 397d e83f
00000030: 0380 8e3e 201e 7fbe 5026 ef3e 4e82 a3bc
00000040: a5ad 6e3f 388f 88be 7cc5 80bf 8b3e b1be
00000050: 01bd 7c3f 5b65 d53e fe16 c03e 6df6 a73e
00000060: f354 1fbe 3ec6 d23e 5a45 a93e 1ea0 20bf
00000070: 627a d5be a5b8 da3d 4101 8fbe 0686 cebe
00000080: 19ad c33e f808 9cbd b3ae 563e 704c fc3b
00000090: df21 063f d03c 433f 15ad efbc 1071 fabe
000000a0: b809 4abf 6286 7cbd b420 73bf 795b b1be
000000b0: a283 86be 9623 103e 3d40 85bf c1f7 87bf
000000c0: f3ca d4be e5d5 92bf eb20 eebe 2bf4 23bf
000000d0: b79e bebe 77a3 68be 101c 6bbf 3c4c 59be
000000e0: 3877 75be bcb4 92be fbec 4d3f 59d6 03bf
000000f0: 371a 95bf 2f70 cb3d 9f31 ad3f ffcd a7bd
00000100: 205d d13e 6930 84be f559 053f ca52 acbe
00000110: d654 da3e 2a23 e53c 5cd9 4dbf 8c48 7fbf
00000120: c0c9 75be 58e7 e93e 3474 f2be 7dcf 0abf
00000130: 00f6 843e fe73 d5be ab79 7abf 667d ff3e
00000140: e6be 553f 2edb 3ebf e97f 3e3f 1c2a 14bd
00000150: b7fd 313f e61a 57bf c175 60bf f616 3e3d
00000160: 44bc 483e 0178 38bf a719 8ebd f076 94be
00000170: 07f8 6abf fa69 54be c750 253e 0474 363f
00000180: 3ea2 293e 734a 1ebf 3cb3 f03e 0555 e1bd
00000190: 08af 863f cf88 06bf 9e2b c0be c66b 013d
000001a0: 381e 0cc0 5e14 d63c 9c52 9dbe 5dae b1bf
000001b0: 46c9 933e ee05 01bf 509d 1bbf 1f9a 8d3d
000001c0: 5e5a 0a3f b166 9bbe 427e 9c3f 0ee3 db3e
000001d0: d886 e5be dcf5 12bf 0b4c 60be fd88 3bbf
000001e0: 5340 b43e 57a7 69bf 2579 b1be 8225 d13e
000001f0: ffd6 083e 08e6 8ebe 75cb 08bf 673d 60be
00000200: db42 06bf c6be 42be ec0e 0d3f a5e3 22bf
00000210: 795e a3be 9291 e93d 0d45 433f a3aa 92be
00000220: ef60 043e c6e0 16bf 5aaa c23e 1f41 f2be
00000230: 9f61 0140 230c bc3e e59b 0e3c d675 7ebe
00000240: 0b62 55be 3d7d 043d 206e d33f c958 de3d
00000250: 7288 e63e 1486 9ebd 4f19 f93d 51b1 3b3c
00000260: 14a2 fcbe 2370 51bf 7a32 6fbe a192 a1bd
00000270: 914d 253f b2ba 953d cddf df3d 1a8f 1d3e
00000280: ffd9 eb3d 439f eebf 9670 133f 7198 f0be
00000290: 73c6 063f 60d3 01bf 7722 66bf 0d4a b83d
000002a0: 175c a8bd 5f05 40be 1972 21bf 7600 74bf
000002b0: 657d febe f69d 1c3f 9223 43bf 3337 023f
000002c0: 0c2a e4bf c98d b3be d4be a6bf 435f 54bf
000002d0: 937c ef3d bbd0 91bf 1e14 59bf 99db c8be
000002e0: d6eb 7ebe 0ef8 a1be 65c2 523f af73 eabe
000002f0: 5987 ef3e 0bb0 433e 1897 473f 04bd 7e3f
00000300: 5f81 6ebf 79df bb3e d652 c3be 98ad 12bf
00000310: 6ab1 793e 9a6d fcbd fb9f b53c 9a77 c13e
00000320: a2c7 313f efe9 f0be 9cf3 3abf 7335 85bf
00000330: 3210 03bf 1602 a6bd e9ce fabf 3ea0 86bc
00000340: 7287 6c3d 7fd3 1dbf cc94 3c3e 4178 ffbe
00000350: 7257 cdbe 8092 d83e eb0c 1cbe a274 913d
00000360: 116e e73e b979 8e3d 15e1 663e 003f 1dbd
00000370: 21c8 623f 1fc9 b5bd 3b2a ee3e b588 c2bc
00000380: 0a4f 33bf 8331 d7be 93b3 08bf 0a8b 9c3e
00000390: 9925 7e3e 7086 eebd 35cb 063e 08f2 f9be
000003a0: 8886 0b3f fb3a 66bf ec60 22bf aab6 dabb
000003b0: b5a1 d7be 824f f3be 5f87 973d 77be 86bf
000003c0: cc28 0c3f ade5 46bf c042 713f daa7 a23e
000003d0: dc96 b8bd 538d 1c3f 7a5a 823e 5adc 95bf
000003e0: 1dd1 1cbf 7194 9cbe bdbe babe 7cd2 193e
000003f0: ed4b d3be 50ac fe3e a818 6cbe 9ba4 88bf

network.0.bias f4 [256]
-0.3312605 -0.40680474 0.0006317632 0.11146 -0.017961344 -0.3323725 -0.18190485 -0.13357171
0.19121629 -0.091014095 -0.23272258 -0.4462969 0.072824016 -0.1644119 0.22710371 -0.062230095
-0.06680724 -0.11480374 -0.50190204 0.044778213 0.09626728 0.5706006 -0.011177479 -0.25870195
-0.34961736 0.35481334 -0.38939327 -0.5661093 0.15850228 -0.18199804 0.7400755 0.06216972
0.1400538 0.12872672 0.022853006 0.14316937 -0.30584437 -0.15552442 0.046420798 0.1751926
-0.34701395 -0.035293538 -0.29420048 0.1651209 -0.49800473 -0.22758162 -0.35415328 -0.34949574
0.066689566 0.11619983 0.12231726 -0.123611405 -0.20985861 -0.43854707 -0.06788216 -0.30513337
-0.2771148 -0.05317903 -0.07779969 -0.24035175 -0.13654424 -0.4487699 -0.38120633 -0.34149757
-0.6190311 -0.29148784 -0.07294618 -0.13698453 -0.13663563 0.30954066 0.043184094 -0.2598778
-0.62283057 -0.3334421 0.015845142 0.04833948 -0.5163703 0.4084134 -0.2946293 -0.70063674
0.24248646 -0.23843105 -0.054364193 -0.193491 0.144889 0.13267015 -0.25281554 0.14165814
-0.49420673 -0.4046817 0.02361468 -0.16408147 -0.3367254 -0.189479 -0.36143687 -0.55884
-0.3258992 0.30010343 -0.07914859 -0.22188784 -0.0034241127 -0.10089604 -0.39233565 -0.11700935
-0.14358397 -0.43763047 -0.46765321 -0.20091844 0.4844951 -0.50763094 0.43582326 -0.10196805
-0.67583287 -0.60041034 -0.65617156 0.14132945 -0.04021294 0.044039883 -0.16447331 -0.42467928
-0.00917392 0.15719365 0.39469558 -0.27659956 0.07304677 0.24180412 -0.1949295 -0.6639305
-0.31149757 -0.20381944 -0.19263898 -0.36369416 -0.024666749 0.04948717 -0.18310465 -0.15215355
-0.57536274 -0.042594768 -0.2354093 -0.43759754 -0.11311751 0.057821818 -0.21071765 0.4543049
0.03155917 -0.28976068 -0.08522532 -0.7051097 0.09155773 -0.10725402 0.43323874 0.25119954
-0.22432461 -0.6840691 -0.22181511 -0.08594395 0.17975299 -0.06652176 -0.053210985 -0.30931175
-0.51747125 -0.075953566 -0.32114792 -0.7270622 -0.24129108 -0.0052908403 0.28076312 -0.09937942
-0.0076628104 -0.0743502 -0.06185895 -0.6112084 0.060661893 0.08135557 0.17631437 -0.033294316
-0.5721118 -0.02587505 0.080678836 -0.2650367 -0.19560738 -0.14484787 -0.37550154 -0.25699666
-0.21902403 -0.24993552 -0.6193172 0.043640655 0.054219745 0.11171475 -0.14055164 -0.45618802
-0.64538836 -0.06841725 -0.1986759 -0.4198634 -0.11919324 -0.3469566 -0.2387907 -0.4557905
-0.6102336 -0.42663693 -0.20982097 0.14492574 0.18832652 0.008936308 -0.09249875 0.35603693
-0.4728805 0.30786982 -0.0006458688 -0.48775893 -0.047594063 -0.6124562 0.07437472 -0.41537055
-0.52123874 -0.27003494 -0.56964296 -0.091318585 0.025379656 -0.3483685 -0.36183783 -0.22843872
-0.10798156 -0.048532132 -0.2062945 -0.20585914 -0.68837976 -0.18638964 -0.4848013 -0.25897476
0.24805513 -0.485083 -0.54182565 -0.0055185743 -0.90566725 -0.41897765 -0.19280761 -0.08647534
-0.13427077 -0.33507082 -0.40690163 -0.5208078 -0.17151316 -0.19522645 0.10856309 -0.509441
-0.59014535 -0.14136639 -0.36173528 -0.29372087 -0.15555057 -0.6058993 -0.25632024 0.1142766
00000000: fa9a a9be b648 d0be e99c 253a 2445 e43d
00000010: ab23 93bc ba2c aabe 4445 3abe 06c7 08be
00000020: 34ce 433e 9965 babd d44e 6ebe 0781 e4be
00000030: c224 953d 985b 28be e08d 683e fce4 7ebd
00000040: 3cd2 88bd 391e ebbd a77c 00bf 5c69 373d
00000050: c827 c53d e212 123f bf21 37bc 9574 84be
00000060: 0c01 b3be 18aa b53e 8e5e c7be 8aec 10bf
00000070: 6c4e 223e b25d 3abe 9775 3d3f ada5 7e3d
00000080: 436a 0f3e f0d0 033e 3a36 bb3c fe9a 123e
00000090: a297 9cbe cb41 1fbe bc23 3e3d b065 333e
000000a0: d0ab b1be f58f 10bd 72a1 96be 7415 293e
000000b0: 7afa febe 280b 69be 9453 b5be 1bf1 b2be
000000c0: 8a94 883d 2dfa ed3d 7981 fa3d fa27 fdbd
000000d0: 2de5 56be 3e89 e0be cd05 8bbd 713a 9cbe
000000e0: fee1 8dbe 41d2 59bd 7255 9fbd c51e 76be
000000f0: 41d2 0bbe 2bc5 e5be 7a2d c3be c5d8 aebe
00000100: d278 1ebf e53d 95be cf64 95bd ac45 0cbe
00000110: 36ea 0bbe 1d7c 9e3e cee1 303d b40e 85be
00000120: d371 1fbf ecb8 aabe accd 813c 9eff 453d
00000130: d830 04bf 901b d13e a7d9 96be ee5c 33bf
00000140: 5f4e 783e 4527 74be fdac 5ebd 8122 46be
00000150: c85d 143e afda 073e 0a71 81be d50e 113e
00000160: aa08 fdbe 7132 cfbe 9373 c13c f904 28be
00000170: 4667 acbe c806 42be 410e b9be 2310 0fbf
00000180: 43dc a6be 28a7 993e a818 a2bd 9136 63be
00000190: 1467 60bb 95a2 cebd 38e0 c8be 99a2 efbd
000001a0: ad07 13be 1a11 e0be 3e70 efbe 90bd 4dbe
000001b0: be0f f83e 1af4 01bf 3a24 df3e a0d4 d0bd
000001c0: 6203 2dbf 7eb4 19bf dcfa 27bf abb8 103e
000001d0: 53b6 24bd 2a63 343d b16b 28be 906f d9be
000001e0: 364e 16bc 5ff7 203e 8a15 ca3e 759e 8dbe
000001f0: 8c99 953d 809b 773e 999b 47be 59f7 29bf
00000200: 9c7c 9fbe 0bb6 50be 2743 45be 1f36 babe
00000210: ec11 cabc 0fb3 4a3d c97f 3bbe 24ce 1bbe
00000220: f94a 13bf da77 2ebd 230f 71be c90c e0be
00000230: 27aa e7bd 92d6 6c3d 5ec6 57be a79a e83e
00000240: 3044 013d 835b 94be 9d8a aebd 1282 34bf
00000250: 9f82 bb3d ffa7 dbbd 78d1 dd3e 3a9d 803e
00000260: 5ab5 65be 271f 2fbf 8023 63be 6203 b0bd
00000270: 2b11 383e 8f3c 88bd c3f3 59bd 1c5e 9ebe
00000280: ff78 04bf 8b8d 9bbd 806d a4be c020 3abf
00000290: 0215 77be c95e adbb 2fc0 8f3e 7087 cbbd
000002a0: 5018 fbbb eb44 98bd cf5f 7dbd 2778 1cbf
000002b0: 9b78 783d c09d a63d c18b 343e 9f5f 08bd
000002c0: eb75 12bf eaf7 d3bc f23a a53d e4b2 87be
000002d0: 4d4d 48be 0053 14be bd41 c0be 1195 83be
000002e0: d647 60be 19ef 7fbe 928b 1ebf 8bc0 323d
000002f0: 8615 5e3d b4ca e43d c5ec 0fbe 7a91 e9be
00000300: 2c38 25bf 581e 8cbd b271 4bbe 56f8 d6be
00000310: 961b f4bd 4ca4 b1be 8d85 74be 5f5d e9be
00000320: 4538 1cbf 2870 dabe 4fdb 56be 6a67 143e
00000330: abd8 403e 9869 123c fc6f bdbd 794a b63e
00000340: 651d f2be 1da1 9d3e 854f 29ba 8abb f9be
00000350: fef1 42bd eec9 1cbf c651 983d 73ab d4be
00000360: e76f 05bf 0542 8abe 1fd4 11bf 3d05 bbbd
00000370: ffe8 cf3c 5b5d b2be cf42 b9be d7eb 69be
00000380: 7025 ddbd a1c9 46bd de3e 53be bdcc 52be
00000390: a839 30bf eddc 3ebe e037 f8be 5798 84be
000003a0: 2a02 7e3e cd5c f8be 16b5 0abf 28d5 b4bb
000003b0: cfd9 67bf 3d84 d6be 5c6f 45be fc19 b1bd
000003c0: 477e 09be 678e abbe 6955 d0be a953 05bf
000003d0: 25a1 2fbe 71e9 47be 5356 de3d ba6a 02bf
000003e0: c413 17bf 5ac2 10be 5e35 b9be 9562 96be
000003f0: a648 1fbe 371c 1bbf 683c 83be da09 ea3d

network.2.weight f4 [256, 256]
0.98053217 -0.27303812 0.85506064 0.022468835 0.20265555 0.47410828 -0.937304 -0.84404504
-0.4587404 -0.28326 -0.8505937 0.15977694 -0.12337745 -0.7682303 -0.09347514 0.0041579525
-0.06823702 -0.042820767 0.3573902 -0.7235426 0.50830054 0.24204572 -0.11901226 0.059321392
-0.3405785 0.3147786 -0.30875048 -0.44676766 0.36115837 0.30522558 -0.015558703 -0.09245839
0.9128822 -0.487641 -0.65658534 -0.38979417 0.6094003 -0.7875682 -0.17004584 -0.58001405
0.06263166 0.41738626 -0.25410515 0.46548328 -0.27298266 -0.061619174 0.18831351 0.13413762
0.33772755 0.35956588 0.08117157 -0.36648753 -0.15548281 -0.5332491 0.75376123 0.56876814
-0.23113377 -0.13563034 -0.56698525 -0.61706847 -0.97728723 0.05651269 -0.16959675 -0.56938046
-0.3894518 -0.6791386 -0.38789967 -0.35546568 0.12768872 0.17916946 -0.24095924 0.17789143
0.26679188 -0.080917455 0.13395268 -0.7402749 0.76733816 -0.85073066 -0.049358428 0.5943525
0.22073354 -0.45525095 0.24858063 0.25630754 -0.20827869 0.35839972 -0.012406672 -0.8526257
0.057537574 0.39258552 0.17171328 0.44334432 0.708731 -0.50680774 0.35991427 -0.3139129
0.17459813 -0.47482932 -0.0712066 0.08246626 0.061875526 -0.034452524 -0.06307435 0.15843557
-0.10885965 0.18767461 -0.6204113 -0.69135845 -1.1065774 0.41202492 0.32366848 0.030822096
-0.6484949 0.7874161 -0.37323424 -0.17895204 -0.4248424 0.06951456 0.08943375 0.59258693
-0.1837171 -0.6748744 -0.49494603 -0.79169166 -0.6817869 0.30116698 -0.36682278 0.1447916
-0.06322998 -1.0749784 -0.51360023 -0.06703418 0.3194641 0.4054551 -0.9556621 0.4786313
-0.033695973 -0.2900959 -0.34443218 0.15694751 -0.47092035 0.19551162 0.88372195 -0.76289564
0.3466184 -0.21357122 0.5447137 -0.6912324 -0.1437822 0.092875615 -0.47355622 0.08801421
-1.0869701 0.19569205 -0.30644128 -0.2872042 0.21524365 -0.12065304 -0.13775869 0.18648349
0.30072767 0.42056912 0.32896549 -0.1667665 0.8193438 -0.0946429 0.34711775 0.47257113
-0.22844018 0.64623696 -0.43133077 0.09945782 -0.24763137 -1.5968117 0.6889111 0.8120268
0.1825882 -0.3066678 -0.029222503 0.2871105 1.1176811 -0.35758814 -0.4376147 -1.3573976
-0.58990395 -0.24013942 -0.03378422 -0.08413747 -0.36441067 0.3909241 0.25054732 0.6179355
-0.5265154 -0.19425076 -0.6714398 0.21637015 -0.33473146 -0.1338659 0.68157405 -0.7085595
0.14400375 0.010669779 1.0327821 0.47200066 0.7041281 -0.032875862 0.2430354 0.7757088
0.2704813 0.15847875 -0.23859009 -0.22202659 0.30309194 0.9468522 -0.5192538 0.41224188
-0.7523302 0.23331712 0.26373214 -0.21569942 -0.0028134964 0.52804595 -0.067959115 -0.26219577
-0.43374586 0.16419971 0.08638083 -0.164506 0.5744916 0.03284158 0.12776619 0.7447995
-0.16707468 0.24324945 -0.08522969 -0.05912604 0.6233046 0.03425954 0.33614486 -0.14380488
-0.5084553 -0.7347096 0.17754759 0.28849736 -0.004252855 0.09413098 0.3451481 0.19202498
0.42423752 0.99659127 -0.33782262 -0.085428774 -0.68988615 -0.98824227 0.27684253 0.32262602
00000000: 2804 7b3f a7cb 8bbe 41e5 5a3f 9010 b83c
00000010: f084 4f3e 52be f23e 28f3 6fbf 5613 58bf
00000020: 06e0 eabe 7407 91be 82c0 59bf 919c 233e
00000030: 51ad fcbd beaa 44bf e56f bfbd 6f3f 883b
00000040: dabf 8bbd d464 2fbd d9fb b63e 163a 39bf
00000050: fc1f 023f d5da 773e b3bc f3bd fdfa 723d
00000060: 4e60 aebe a92a a13e 8b14 9ebe bbbe e4be
00000070: c0e9 b83e 8746 9c3e eee9 7ebc d35a bdbd
00000080: a6b2 693f 15ac f9be fa15 28bf 1a93 c7be
00000090: a801 1c3f 129e 49bf 7f20 2ebe cd7b 14bf
000000a0: 0745 803d a7b3 d53e 121a 82be d353 ee3e
000000b0: 62c4 8bbe 6364 7cbd 42d5 403e 5f5b 093e
000000c0: a0ea ac3e 0519 b83e 483d a63d 41a4 bbbe
000000d0: e336 1fbe 0383 08bf 7ff6 403f ca9a 113f
000000e0: 55ae 6cbe aee2 0abe f225 11bf 33f8 1dbf
000000f0: 7f2f 7abf da79 673d c5aa 2dbe ebc2 11bf
00000100: 3a66 c7be 07dc 2dbf c99a c6be 99ff b5be
00000110: d5c0 023e 3378 373e 05be 76be 2c29 363e
00000120: f298 883e 0db8 a5bd e42a 093e a882 3dbf
00000130: 4670 443f 7cc9 59bf 102c 4abd 7c27 183f
00000140: f907 623e a716 e9be ec8b 7e3e be3a 833e
00000150: 0247 55be 2b80 b73e 5b45 4bbc ae45 5abf
00000160: 85ac 6b3d f800 c93e 9bd5 2f3e 07fe e23e
00000170: 656f 353f 27be 01bf af46 b83e 31b9 a0be
00000180: dac9 323e d41c f3be c4d4 91bd 12e4 a83d
00000190: 3171 7d3d 171e 0dbd 202d 81bd ef3c 223e
000001a0: cff1 debd c62d 403e 46d3 1ebf defc 30bf
000001b0: 54a4 8dbf eef4 d23e e0b7 a53e 9f7e fc3c
000001c0: c303 26bf 1a94 493f 8f18 bfbe 343f 37be
000001d0: f184 d9be a65d 8e3d 0b29 b73d c7b3 173f
000001e0: 5620 3cbe 92c4 2cbf 9169 fdbe 4eac 4abf
000001f0: 9689 2ebf 8f32 9a3e 32d0 bbbe 4044 143e
00000200: b87e 81bd e498 89bf 4e7b 03bf 3749 89bd
00000210: cc90 a33e d097 cf3e 45a6 74bf 290f f53e
00000220: ca04 0abd 7387 94be 6a59 b0be d9b6 203e
00000230: 791c f1be 3334 483e 9a3b 623f 214d 43bf
00000240: f877 b13e 6ab2 5abe 5b72 0b3f 9bf4 30bf
00000250: a43b 13be 9235 be3d f675 f2be cb40 b43d
00000260: d621 8bbf 7f63 483e dfe5 9cbe 6e0c 93be
00000270: d568 5c3e f118 f7bd 9d10 0dbe 87f5 3e3e
00000280: faf8 993e d654 d73e 2a6e a83e d6c4 2abe
00000290: 84c0 513f 23d4 c1bd 6bb9 b13e d8f4 f13e
000002a0: 39ec 69be c96f 253f 63d7 dcbe 8bb0 cb3d
000002b0: 1493 7dbe 5364 ccbf 7a5c 303f fde0 4f3f
000002c0: 67f8 3a3e 9003 9dbe 0864 efbc 2600 933e
000002d0: 2d10 8f3f cb15 b7be 090f e0be 34bf adbf
000002e0: f203 17bf 1ce7 75be 5361 0abd 4450 acbd
000002f0: 0994 babe 3427 c83e bd47 803e 0531 1e3f
00000300: b7c9 06bf ace9 46be 7be3 2bbf 2390 5d3e
00000310: ec61 abbe 2414 09be a37b 2e3f 2864 35bf
00000320: b875 133e 4cd0 2e3c 3432 843f 12aa f13e
00000330: bd41 343f d7a8 06bd 46de 783e da94 463f
00000340: 867c 8a3e 4148 223e f650 74be f05a 63be
00000350: de2e 9b3e e864 723f d1ed 04bf 5e11 d33e
00000360: b698 40bf afea 6e3e e607 873e 4fe0 5cbe
00000370: a362 38bb 052e 073f 262e 8bbd 863e 86be
00000380: f013 debe f823 283e 6fe8 b03d 4374 28be
00000390: e211 133f e584 063d 24d5 023e 2eab 3e3f
000003a0: a015 2bbe 6216 793e e78c aebd 262e 72bd
000003b0: e490 1f3f bb53 0c3d 2e1b ac3e 9641 13be
000003c0: 202a 02bf ee15 3cbf 09cf 353e edb5 933e
000003d0: 895b 8bbb bec7 c03d 40b7 b03e 32a2 443e
000003e0: a935 d93e 9b20 7f3f 16f7 acbe 48f5 aebd
000003f0: 619c 30bf 72fd 7cbf 4ebe 8d3e 3d2f a53e

network.2.bias f4 [256]
-0.083352275 -0.061166022 -0.06264428 -0.031996608 0.22647665 -0.054589733 -0.018728664 -0.043328524
-0.0521279 -0.22626592 -0.024137 -0.06267291 -0.22794002 -0.0222501 -0.031272434 -0.027673718
-0.38612783 -0.2784711 -0.052135095 0.053554744 -0.6720529 -0.057943497 0.08611155 0.020529097
-0.07639431 -0.12242609 -0.057490204 -0.15085734 -0.1426916 0.31291136 -0.024784157 -0.06878945
-0.67785656 -0.05622788 0.007304188 0.18033932 -0.024502883 0.029023012 -0.00073438796 0.19840378
0.01736825 -0.004092122 -0.018411621 -0.06779212 -0.19087103 0.10304817 -0.07171645 -0.20671754
-0.043579943 -0.07948179 -0.023110228 -0.02429519 -0.25479585 0.0032924123 -0.2727729 -0.06737466
-0.053838547 -0.03136333 -0.030642081 -0.0032452457 0.13366541 0.09565954 -0.045620013 -0.07729736
0.20094176 0.21289104 0.00026292607 -0.10135096 -0.02604334 -0.039789155 -0.027509172 -0.11936001
-0.060939137 -0.043581534 -0.22049971 -0.03982137 -0.065075435 -0.007779521 0.010936715 -0.26921493
-0.058987495 -0.090289675 -0.110729106 -0.24706212 0.015201823 -0.078419626 0.0095837405 -0.22144279
0.3432572 0.077924795 0.048212554 -0.039840266 -0.058077816 -0.05287578 0.09468442 -0.043164752
-0.16717352 -0.31799445 -0.12310547 -0.22159643 -0.14951143 -0.08426377 -0.18655907 -0.09118856
-0.14593661 -0.21378517 0.023819655 0.11096977 0.009407497 -0.43225828 -0.20909889 -0.16629247
-0.026296481 -0.003680266 -0.06824704 0.13522418 -0.036163382 -0.023567025 -0.074139476 -0.056555726
-0.102103576 -0.043520905 -0.06544852 -0.094750464 0.10559831 -0.030740988 -0.35065317 0.20483567
-0.010448623 -0.026789144 -0.13635133 -0.3311781 0.21666554 -0.07240722 -0.6585522 -0.02377825
-0.05666902 -0.024682514 -0.052232783 -0.15095843 -0.060152143 -0.5039471 -0.46820736 -0.12912768
-0.22043897 -0.0113757085 -0.39020205 -0.26605168 -0.21262029 -0.19744124 -0.09176476 -0.024311505
-0.24835405 -0.011910704 -0.0514179 -0.051907595 -0.23186551 -0.10970748 0.061449084 -0.06006142
-0.23547503 0.29356968 0.19309145 -0.4977065 -0.021344922 0.14349727 0.0047932505 -0.1985382
0.37797326 -0.006250943 0.117239915 0.0022314007 -0.11036523 -0.067126036 -0.023192976 -0.13453916
-0.27577367 -0.03194744 -0.6281746 -0.075445496 -0.06041196 -0.5551915 0.22697909 -0.04954093
-0.14220914 -0.053506408 -0.1443887 -0.022023428 -0.16719785 -0.08654013 0.15123273 -0.029832164
-0.068494104 -0.15320669 -0.42090696 -0.49782848 -0.035915714 -0.062519126 -0.060526308 -0.09042682
-0.047141287 -0.034032375 -0.06750411 -0.12361549 -0.01910185 0.4896713 -0.057070922 -0.013792224
-0.02200898 -0.029748818 -0.1331271 -0.060886707 0.103035696 -0.088082395 -0.14777173 -0.03720349
0.560515 -0.23261333 -0.15973784 -0.03566014 -0.36007142 -0.048026618 -0.054992594 -0.04872834
-0.0865569 0.04657322 -0.12451861 -0.042191878 -0.14805417 -0.20862511 -0.24260874 -0.034086842
-0.17683005 -0.040190134 -0.057962645 0.10937945 -0.1284432 0.3855878 -0.03961561 -0.41029546
-0.06392659 0.42080843 0.07825961 -0.7903048 0.37769136 -0.24120063 -0.032957196 -0.05737115
0.013955912 -0.02984459 -0.07104938 -0.24192831 0.009623599 -0.0015104767 -0.15869303 -0.04685549
00000000: 99b4 aabd 3989 7abd a54b 80bd e00e 03bd
00000010: 7fe9 673e 7c99 5fbd db6c 99bc 4079 31bd
00000020: 1184 55bd 41b2 67be f5ba c5bc a85a 80bd
00000030: 1c69 69be d745 b6bc 8617 00bd feb3 e2bc
00000040: 8cb2 c5be c493 8ebe 9c8b 55bd 385c 5b3d
00000050: a90b 2cbf 2956 6dbd 415b b03d a32c a83c
00000060: 9f74 9cbd 88ba fabd d97a 6bbd 597a 1abe
00000070: bf1d 12be eb35 a03e 2508 cbbc 7ce1 8cbd
00000080: 0288 2dbf 354f 66bd f857 ef3b dfaa 383e
00000090: 45ba c8bc abc1 ed3c f183 40ba 5c2a 4b3e
000000a0: dc47 8e3c 3517 86bb f8d3 96bc 98d6 8abd
000000b0: b273 43be eb0a d33d 13e0 92bd c3ad 53be
000000c0: e280 32bd 59c7 a2bd a951 bdbc b506 c7bc
000000d0: 9a74 82be 83c5 573b e4a8 8bbe bafb 89bd
000000e0: cf85 5cbd d676 00bd 1a05 fbbc 30ae 54bb
000000f0: 96df 083e 26e9 c33d 0ddc 3abd 144e 9ebd
00000100: adc3 4d3e 1c00 5a3e 57d9 8939 1891 cfbd
00000110: d858 d5bc f4f9 22bd ea5a e1bc 0573 f4bd
00000120: 519b 79bd 8d82 32bd adca 61be bc1b 23bd
00000130: 4546 85bd 5aeb febb e82f 333c 8ad6 89be
00000140: df9c 71bd cbe9 b8bd f1c5 e2bd dafd 7cbe
00000150: 1111 793c 789a a0bd 1f05 1d3c e6c1 62be
00000160: 68bf af3e 0997 9f3d 877a 453d 8c2f 23bd
00000170: 01e3 6dbd 4694 58bd e8e9 c13d 86cd 30bd
00000180: 892f 2bbe 2bd0 a2be b81e fcbd 2dea 62be
00000190: 8619 19be 7c92 acbd 5709 3fbe 11c1 babd
000001a0: 6870 15be 80ea 5abe 7021 c33c 1e44 e33d
000001b0: e721 1a3c f550 ddbe 051e 56be 9348 2abe
000001c0: b86b d7bc 9e30 71bb 1bc5 8bbd 3578 0a3e
000001d0: 0e20 14bd a20f c1bc 70d6 97bd faa6 67bd
000001e0: ae1b d1bd fa42 32bd e009 86bd 880c c2bd
000001f0: ed43 d83d 86d4 fbbc d088 b3be 71c0 513e
00000200: b430 2bbc e874 dbbc af9f 0bbe 2d90 a9be
00000210: 92dd 5d3e 3d4a 94bd e196 28bf 9bca c2bc
00000220: c61d 68bd fc32 cabc 0bf2 55bd d994 1abe
00000230: 1862 76bd ad02 01bf e0b8 efbe 0c3a 04be
00000240: c1ba 61be 2e61 3abc 90c8 c7be ed37 88be
00000250: 22b9 59be 092e 4abe 2aef bbbd ec28 c7bc
00000260: 8650 7ebe 1d25 43bc 939b 52bd 0f9d 54bd
00000270: 276e 6dbe 51ae e0bd 09b2 7b3d f702 76bd
00000280: 5e20 71be c44e 963e c4b9 453e 63d3 febe
00000290: 8cdb aebc f3f0 123e b310 9d3b 994d 4bbe
000002a0: b685 c13e b6d4 ccbb 7b1b f03d b13c 123b
000002b0: 2a07 e2bd 6079 89bd 32ff bdbc a2c4 09be
000002c0: 3532 8dbe 52db 02bd 0dd0 20bf 2b83 9abd
000002d0: 8872 77bd 0821 0ebf 356d 683e 6eeb 4abd
000002e0: 469f 11be 8929 5bbd a2da 13be 7a6a b4bc
000002f0: ea35 2bbe f43b b1bd c1dc 1a3e 9562 f4bc
00000300: a346 8cbd 37e2 1cbe 1e81 d7be 60e3 febe
00000310: 5b1c 13bd 070a 80bd 6fea 77bd b231 b9bd
00000320: 3917 41bd 8865 0bbd 983f 8abd 1e2a fdbd
00000330: 7c7b 9cbc 32b6 fa3e 33c3 69bd c8f8 61bc
00000340: 2d4c b4bc cbb3 f3bc 7852 08be 5764 79bd
00000350: 6104 d33d 8b64 b4bd 7951 17be b062 18bd
00000360: e97d 0f3f 3032 6ebe 5192 23be 5e10 12bd
00000370: 485b b8be 8fb7 44bd ea3f 61bd 5e97 47bd
00000380: be44 b1bd 90c3 3e3d 9d03 ffbd 64d1 2cbd
00000390: 839b 17be d2a1 55be 6d6e 78be a59e 0bbd
000003a0: f012 35be 699e 24bd 3d6a 6dbd 5502 e03d
000003b0: 9d86 03be c46b c53e fa43 22bd 3f12 d2be
000003c0: f2eb 82bd 3474 d73e 9346 a03d 6a51 4abf
000003d0: c360 c13e 4cfd 76be 20fe 06bd 03fe 6abd
000003e0: 56a7 643c a47c f4bc 5682 91bd 0ebc 77be
000003f0: 4dac 1d3c 30fb c5ba 6d80 22be 8beb 3fbd

mean.weight f4 [1, 256]
-0.5509692 0.034594093 -0.029784296 0.0072184578 0.56156695 0.29583293 -0.012667531 0.033384584
-0.009187407 0.045099776 -0.113340676 0.008835361 0.13063541 1.5004362 -0.030788282 0.022257594
-0.09614189 -1.2741551 0.018717507 0.48813602 0.40743476 0.018777033 0.32116926 1.046729
-0.033390522 -0.19414328 0.038500484 1.4538232 -0.32965136 -0.22209032 -0.030247308 -0.04337291
-0.7623501 -0.018234447 0.005330512 -0.5432951 0.021960802 0.24737357 -0.0339287 0.4329311
-0.00283979 0.0053755925 1.7205763 0.0011401256 -0.42638588 -0.3552722 0.063088365 -0.51437956
0.0013681129 0.002540341 0.0020406402 -0.0044110934 0.63239616 0.21601312 0.23239946 -0.0061980127
0.015246638 -0.33461785 0.056914706 -0.0067666965 0.27492648 0.77046835 -0.017995283 -0.3655155
5.007808 0.09635353 -0.4739392 -0.4246202 -0.006385168 -0.018442517 0.04421556 0.24513468
0.014128201 0.04462165 -1.664369 -0.021493452 0.054586664 0.016683787 -0.02851529 0.63118696
1.6124264 0.0040914374 -0.7306746 -0.9071819 0.67191166 -0.022203363 0.42039666 -0.26005414
0.17571677 1.1956372 -0.08147385 0.032435596 0.015142859 -0.7238241 0.19893609 0.036324944
-0.51865995 -0.8979579 -0.6349712 -0.5969097 -0.24305645 0.0009982835 0.20914353 0.04962549
0.38107976 0.83630717 -0.21107437 -0.07501712 0.73221874 -0.43894967 -0.8615266 0.7147607
0.016354673 -0.0001779552 0.038073793 0.21976516 0.00022033387 -0.019262532 0.044680372 0.01295821
-0.009798427 0.96477664 0.19705707 -0.19720961 0.25576544 0.26642996 -0.55690265 -0.26376447
0.0048877327 -0.03219328 -0.07302965 2.8817892 0.68766916 0.36625835 -0.12300904 0.006356411
0.029939739 0.0035347035 -0.010455556 -0.14478488 -0.105961 -1.0074939 1.1363634 -0.9919038
-4.2254906 -0.0145227555 1.3270519 -1.4260069 0.38079563 -0.41160145 1.5302196 -0.054967497
0.55574936 -0.015854094 0.63444805 0.021564735 0.76912117 -0.41831106 -0.28545618 -0.19004837
0.86772007 1.6351509 -0.2450766 -1.0775001 0.021066746 -0.20009772 -0.26226574 -0.29506513
0.5882463 -0.057711467 -0.10742775 -0.077498466 0.0029939252 -0.48251683 0.111782335 -0.23314272
1.0729138 -0.023537897 0.97835106 0.03261049 -0.0035906557 -0.7628495 0.124536246 -0.002137111
0.07474176 0.028091874 -1.1247722 0.018682068 0.5059764 -0.0015189329 0.32318628 -0.022821724
0.011402445 -0.5330346 -0.7202066 -2.7175102 -0.00080551323 -0.018332664 0.009540084 0.16213286
0.004617889 0.17203304 0.03109745 0.014219431 -0.0037723226 -0.44049054 0.02095935 -0.002187211
-0.014792708 -0.0260388 0.34398165 -0.0053447117 -0.20995878 0.027282568 -0.34796804 -0.0037273734
0.28603768 0.7241944 0.96115476 -0.03703978 -0.69503313 -0.49312696 0.10193448 -0.6459023
0.048308853 -0.032943275 0.5343494 0.043310486 1.903071 -0.08682174 -0.21130157 -0.02404441
0.23210809 -0.026145604 -0.14190896 -0.3282263 0.55977774 0.41690987 0.34511843 0.053730853
-0.015004911 0.3848329 0.12429126 1.3137058 0.21787873 -2.7240102 -0.10277899 0.9348145
-0.024015266 -0.015594208 0.43863648 0.48443064 0.031558804 0.5255259 -0.58095485 0.04188447
00000000: 510c 0dbf 89b2 0d3d 32fe f3bc d088 ec3b
00000010: dac2 0f3f 6a77 973e 7a8b 4fbc 46be 083d
00000020: c786 16bc 8bba 383d 281f e8bd 31c2 103c
00000030: 4ac5 053e 4b0e c03f b537 fcbc 8f55 b63c
00000040: 0ae6 c4bd 8417 a3bf 7555 993c f7ec f93e
00000050: 4a9b d03e 4bd2 993c 4c70 a43e 37fb 853f
00000060: 80c4 08bd 7fcd 46be afb2 1d3d e116 ba3f
00000070: 10c8 a8be a56b 63be 34c9 f7bc cba7 31bd
00000080: 6029 43bf 6860 95bc 93ab ae3b 6315 0bbf
00000090: 24e7 b33c 7f4f 7d3e d2f8 0abd 25a9 dd3e
000000a0: c51b 3abb bd25 b03b d83b dc3f 4470 953a
000000b0: 404f dabe 3de6 b5be 7934 813d 61ae 03bf
000000c0: 4052 b33a da7b 263b 43bc 053b ef8a 90bb
000000d0: b7e4 213f 8b32 5d3e 20fa 6d3e b318 cbbb
000000e0: 09cd 793c 0853 abbe 651f 693d 2abb ddbb
000000f0: 2ac3 8c3e 6a3d 453f d86a 93bc d924 bbbe
00000100: f73f a040 0055 c53d 29a8 f2be d267 d9be
00000110: ac3a d1bb c314 97bc 601b 353d 9604 7b3e
00000120: f879 673c 31c5 363d 0b0a d5bf 0913 b0bc
00000130: 4496 5f3d 70ac 883c e698 e9bc 7895 213f
00000140: fd63 ce3f 7711 863b 7e0d 3bbf 133d 68bf
00000150: 6702 2c3f d4e3 b5bc 3b3e d73e d125 85be
00000160: 19ef 333e a40a 993f c3db a6bd 30db 043d
00000170: c119 783c 894c 39bf e7b5 4b3e 77c9 143d
00000180: e6c6 04bf 92e0 65bf 798d 22bf 13cf 18bf
00000190: cae3 78be d6d8 823a b929 563e 1944 4b3d
000001a0: e31c c33e 3a18 563f e123 58be 93a2 99bd
000001b0: b072 3b3f 03be e0be 028d 5cbf 8ffa 363f
000001c0: 3cfa 853c 7c99 3ab9 44f3 1b3d 1e0a 613e
000001d0: 6c09 6739 75cc 9dbc c402 373d ac4e 543c
000001e0: 9589 20bc 9afb 763f 54c9 493e 51f1 49be
000001f0: b0f3 823e 8269 883e 2c91 0ebf 230c 87be
00000200: 4629 a03b 1add 03bd 9290 95bd 3c6f 3840
00000210: 160b 303f 3786 bb3e 2aec fbbd 7149 d03b
00000220: 2f44 f53c 7ca6 673b c84d 2bbc 7d42 14be
00000230: 1502 d9bd 8ff5 80bf 5b74 913f 68ed 7dbf
00000240: 3837 87c0 daf0 6dbc d6dc a93f 6587 b6bf
00000250: a5f7 c23e 6dbd d2be 3cde c33f 9925 61bd
00000260: 9745 0e3f 72e0 81bc 306b 223f 87a8 b03c
00000270: 20e5 443f de2c d6be 5027 92be 0a9c 42be
00000280: e722 5e3f a04c d13f 5cf5 7abe 86eb 89bf
00000290: 2b94 ac3c 6be6 4cbe b247 86be c712 97be
000002a0: 4f97 163f dc62 6cbd 1503 dcbd 84b7 9ebd
000002b0: bb35 443b 720c f7be 23ee e43d f7bc 6ebe
000002c0: 3d55 893f 8cd2 c0bc 3775 7a3f 9492 053d
000002d0: 3551 6bbb 1b4a 43bf dc0c ff3d c60e 0cbb
000002e0: 3512 993d ee20 e63c 89f8 8fbf 230b 993c
000002f0: ab87 013f ee16 c7ba ac78 a53e a0f4 babc
00000300: 52d1 3a3c f574 08bf 765f 38bf b0eb 2dc0
00000310: 1429 53ba 622e 96bc 034e 1c3c 2806 263e
00000320: a951 973b 6e29 303e 14c0 fe3c 9ef8 683c
00000330: 1239 77bb fa87 e1be f1b2 ab3c 5057 0fbb
00000340: 1d5d 72bc 524f d5bc 5d1e b03e b122 afbb
00000350: 6fff 56be b17f df3c de28 b2be f346 74bb
00000360: 8873 923e ce64 393f 3d0e 763f 06b7 17bd
00000370: b1ed 31bf 237b fcbe 06c3 d03d da59 25bf
00000380: 81df 453d 87ef 06bd 1fcb 083f 5666 313d
00000390: d597 f33f 99cf b1bd 705f 58be c8f8 c4bc
000003a0: bead 6d3e 4e2f d6bc 9550 11be 470d a8be
000003b0: 984d 0f3f 3675 d53e 5db3 b03e e214 5c3d
000003c0: 29d7 75bc d108 c53e 6b8c fe3d 8327 a83f
000003d0: 9a1b 5f3e 2f56 2ec0 cb7d d2bd 0150 6f3f
000003e0: aabb c4bc d97e 7fbc f694 e03e 4b07 f83e
000003f0: ce43 013d de88 063f 75b9 14bf 0d8f 2b3d

log_std.weight f4 [1, 256]
0.099977136 0.0050917943 0.0738067 0.01263467 0.19569449 -0.1989989 0.010645007 0.01651623
-0.045498744 -0.061554078 -0.056301687 -0.009926733 0.008010881 0.008976157 0.025264092 0.012253506
0.1992765 -0.60069275 0.018442923 0.5551681 0.3480692 0.016489225 -0.25934866 -0.147618
0.014487279 -0.010621809 0.048343915 -0.19030744 0.02293092 -0.48561344 -0.027875908 -0.036571775
0.052607298 -0.05463695 -0.00486048 0.54067624 0.0043297643 0.20031472 -0.012940425 0.68374413
-0.014239731 0.015664695 -0.07918258 0.023129057 0.103452176 0.27441478 -0.35610068 -0.02212151
0.016904512 0.015280217 0.007943217 -0.024965195 0.2433119 -0.09369699 -0.22930501 0.0015408898
-0.021485046 0.0021088351 0.033437826 -0.00878654 -0.07316354 0.28911832 -0.028125424 0.39904022
-0.14205402 -0.06888968 0.115947045 0.0014370932 0.025878431 0.019014806 0.00928373 -0.20772235
0.015989231 -0.038537223 0.8561402 -0.0037577073 -0.027858749 0.001503026 -0.18278675 0.24587613
-0.0044853557 -0.0011443361 0.68614274 0.10678157 -0.39143407 0.02498064 0.0015537826 -0.40270957
-0.062402446 -0.29218522 -0.08388527 0.005823464 0.004547077 0.75651157 0.38302052 0.008918874
0.00068034953 -0.07368289 0.3414485 -0.099122286 -0.7902646 -0.0021980733 -0.74268514 -0.029439501
-0.0010808208 -0.04307622 -0.00021532013 0.3167269 0.15283161 -0.1840746 0.388023 -0.066949114
-0.035281636 -0.003816197 -0.18692218 -0.26554838 0.03468062 -0.005505958 -0.021928566 -0.005070834
-0.043577276 -0.11388559 -0.03748065 -0.12422021 -0.10993013 0.018165799 0.3111343 -0.14357072
-0.04316479 -0.036991943 -0.007852243 -0.46696055 -0.28554302 0.09162065 -0.14886855 -0.0053733606
-0.00040423014 -0.0058187568 -0.016350316 0.00424047 -0.08430392 -0.33416292 0.021845385 -0.09035336
-0.09354003 -0.0047230185 0.28849563 -0.067933 0.07640294 0.113647535 0.27655372 0.00952323
-0.16549401 0.045128766 0.0046656323 -0.027295785 -0.10781734 0.286964 0.23702241 0.33172578
0.609674 0.11654096 0.11824335 0.039993245 -0.07219495 -0.28260952 -0.13180973 -0.011961427
0.042627763 -0.04821584 0.20986049 -0.21173579 -0.06453096 -0.034094226 -0.18648253 -0.0922092
0.011920536 -0.02576107 0.23556358 -0.007914008 -0.0046257707 0.02280432 0.03974453 -0.0022250032
0.48849687 0.019288136 -0.5216415 0.013169347 0.7852199 0.011372918 0.07878751 0.047099754
-0.0041655633 -0.13302477 0.0799456 -0.07905657 -0.042974524 0.009579606 0.0028103518 0.01355548
-0.027265541 -0.036578014 0.0032460047 -0.27571627 -0.004187435 0.095043436 -0.017212253 0.0079889195
-0.030099398 0.003439734 0.3067743 0.006278426 -0.50111115 0.024234781 0.0029244395 0.03438212
0.05092292 0.4534955 -0.45116735 0.010549977 -0.04412561 0.054033514 0.14282899 0.0031498163
0.1775233 -0.311587 0.0064153206 0.0058244746 -0.047709253 -0.13209203 -0.10375215 0.04717762
0.11467121 -0.0402731 -0.045500375 -0.4789926 -0.04141966 0.7860284 -0.18054022 -0.042127185
-0.02552915 -0.2673006 -0.30212593 0.01286968 0.025180224 -0.016590849 -0.009485644 -0.14132935
0.060316343 -0.023570035 0.05261925 -0.004348979 0.010244557 -0.41273284 -0.068181634 0.040067002
00000000: d0c0 cc3d 11d9 a63b f827 973d a601 4f3c
00000010: 2364 483e 5ec6 4bbe 6568 2e3c 0b4d 873c
00000020: e45c 3abd 2120 7cbd 999c 66bd bca3 22bc
00000030: 1240 033c bb10 133c a4f6 ce3c eec2 483c
00000040: 240f 4c3e 00c7 19bf 9d15 973c 7f1f 0e3f
00000050: 2036 b23e 6914 873c 59c9 84be 2c29 17be
00000060: 0d5c 6d3c 1907 2ebc 4504 463d f4df 42be
00000070: a0d9 bb3c 53a2 f8be 045c e4bc 49cc 15bd
00000080: c07a 573d ffca 5fbd a944 9fbb c269 0a3f
00000090: b2e0 8d3b 4d1f 4d3e 1404 54bc db09 2f3f
000000a0: c34d 69bc 3f53 803c 7a2a a2bd 2679 bd3c
000000b0: bcde d33d 1880 8c3e d452 b6be 2b38 b5bc
000000c0: 557b 8a3c e059 7a3c 4424 023c cf83 ccbc
000000d0: c126 793e 35e4 bfbd efce 6abe aff7 c93a
000000e0: 6801 b0bc 6234 0a3b 1af6 083d 6bf5 0fbc
000000f0: c4d6 95bd 5107 943e 4a67 e6bc 004f cc3e
00000100: 9c76 11be 0816 8dbd a575 ed3d d95c bc3a
00000110: 01ff d33c f0c4 9b3c c91a 183c 2bb5 54be
00000120: d9fb 823c 35d9 1dbd 012c 5b3f de43 76bb
00000130: 0838 e4bc 2f01 c53a 732c 3bbe f4c6 7b3e
00000140: e4f9 92bb 8cfd 95ba 0da7 2f3f 4cb0 da3d
00000150: 0c6a c8be 33a4 cc3c 4ba8 cb3a f32f cebe
00000160: b599 7fbd 4d99 95be 0acc abbd c2d2 be3b
00000170: a6ff 943b beaa 413f 441b c43e 7820 123c
00000180: 7c59 323a 0ee7 96bd 56d2 ae3e a000 cbbd
00000190: c84e 4abf 8d0d 10bb 9d20 3ebf 1c2b f1bc
000001a0: 54aa 8dba b170 30bd 8fc7 61b9 072a a23e
000001b0: e47f 1c3e 0d7e 3cbe f3aa c63e 9e1c 89bd
000001c0: 7a83 10bd 2919 7abb 8768 3fbe f5f5 87be
000001d0: 440d 0e3d 536b b4bb 89a3 b3bc 3d29 a6bb
000001e0: 167e 32bd d93c e9bd 4f85 19bd 2a67 febd
000001f0: 0c23 e1bd 71d0 943c ff4c 9f3e 3404 13be
00000200: 90cd 30bd dd84 17bd b2a6 00bc 7415 efbe
00000210: b232 92be 9ba3 bb3d ff70 18be 0413 b0bb
00000220: daee d3b9 45ab bebb 19f1 85bc a4f3 8a3b
00000230: 89a7 acbd 6717 abbe 18f5 b23c 2f0b b9bd
00000240: ea91 bfbd 8dc3 9abb b3b5 933e 7520 8bbd
00000250: 2579 9c3d 0ac0 e83d 7398 8d3e 5207 1c3c
00000260: 4377 29be f1d8 383d 29e2 983b 699b dfbc
00000270: 56cf dcbd f2ec 923e 01b6 723e f6d7 a93e
00000280: 9813 1c3f 07ad ee3d 9229 f23d f5cf 233d
00000290: f2da 93bd 32b2 90be 21f9 06be dcf9 43bc
000002a0: 739a 2e3d f97d 45bd abe5 563e 44d1 58be
000002b0: cf28 84bd 63a6 0bbd 47f5 3ebe 2dd8 bcbd
000002c0: 5a4e 433c e108 d3bc 9437 713e c1a9 01bc
000002d0: c793 97bb 20d0 ba3c 29cb 223d 5cd1 11bb
000002e0: 431c fa3e 2702 9e3c 4c8a 05bf 3fc4 573c
000002f0: 2c04 493f 7a55 3a3c 595b a13d aceb 403d
00000300: 477f 88bb a537 08be 85ba a33d 69e8 a1bd
00000310: 0e06 30bd c8f3 1c3c e12d 383b ce17 5e3c
00000320: fc5b dfbc d4d2 15bd ecba 543b af2a 8dbe
00000330: c036 89bb 22a6 c23d b600 8dbc f5e3 023c
00000340: 0393 f6bc 296d 613b 8511 9d3e 41bb cd3b
00000350: d248 00bf 0588 c63c f4a7 3f3b 44d4 0c3d
00000360: 8d94 503d 9030 e83e 68ff e6be d0d9 2c3c
00000370: 0ebd 34bd 3f52 5d3d c341 123e 266d 4e3b
00000380: abc8 353e 5588 9fbe 9c37 d23b 3cdb be3b
00000390: c76a 43bd 2243 07be 027c d4bd 523d 413d
000003a0: bdd8 ea3d 68f5 24bd 9a5e 3abd 853e f5be
000003b0: a9a7 29bd 2839 493f 89df 38be 8e8d 2cbd
000003c0: 8222 d1bc a0db 88be 40b0 9abe 5adb 523c
000003d0: c246 ce3c 88e9 87bc ad69 1bbc a4b8 10be
000003e0: 450e 773d f215 c1bc 4887 573d e181 8ebb
000003f0: c9d8 273c b851 d3be d0a2 8bbd 4c1d 243d
